experiments/LeNet/CIFAR10/experiment-4/last-epoch.pt (torch, 258859 bytes, 18 tensors)

features.0.weight f4 [6, 3, 5, 5]
000000 51 3e ef bb d6 f9 bf bd db 9f 8d bd 5d fc 5b 3d
       -0.00730113 -0.09373824 -0.06915256 0.05370747
000010 5f 86 c6 bd 6a 7d 17 bd 40 de c7 3c 03 bc cb bd
       -0.09693598 -0.03698484 0.02439797 -0.0994797
000020 8f e2 de bb 9f b7 a1 3d cc 30 84 3c e9 ee d6 3b
       -0.00680191 0.07896351 0.01613655 0.006559242
000030 d4 f2 8d ba 44 14 eb bd 6a 51 6d bd e1 8c 55 3d
       -0.0010829815 -0.11478475 -0.05793897 0.052136306
000040 85 92 21 3d 5c 62 60 bd 98 15 1f bc 79 20 99 bd
       0.039446373 -0.054781303 -0.009709738 -0.07476897
000050 32 2b d6 bc 97 f3 9c bd c5 14 8e bd fb 17 dc bd
       -0.026143644 -0.076636486 -0.06937555 -0.107467614
000060 21 01 cb bd 87 26 d2 bd ca 38 98 bc 6e cb 2d 3c
       -0.09912325 -0.10261255 -0.018581767 0.010607583
000070 ca 28 54 bd d4 91 96 3d b9 25 a2 3d 36 7f b4 3a
       -0.051796712 0.07352033 0.07917351 0.0013770822
000080 f4 54 03 3d 6d 12 15 3d 7a 75 14 bd 8d 3e 35 bd
       0.03206344 0.036394525 -0.036244847 -0.044249106
000090 a3 e3 87 3d 20 66 e5 bd 10 e6 51 bd 5f ee e9 3d
       0.06635215 -0.112011194 -0.051244795 0.11422419
0000a0 18 cf 12 3b d1 9b 90 3d e0 da 32 3d 30 88 8c bd
       0.002240127 0.070609696 0.043665767 -0.06861913
0000b0 9d bb 2c bd a8 d6 bd 3d 4b 97 b7 bd 78 2a 07 bc
       -0.04217111 0.09269458 -0.08964404 -0.008249871
0000c0 02 fc 5f 3b 7c a6 e9 bd fa 27 b4 3d 78 2e bc 3d
       0.0034177308 -0.114087075 0.087966874 0.09188551
0000d0 04 fe e3 bd 9f 52 1a 3c 53 bd 53 bd a4 71 cc bd
       -0.11132434 0.0094191125 -0.051694226 -0.09982613
0000e0 5f 40 0d 3c 9b 9a 2f 3c 87 bd e4 3b fe ca 95 3d
       0.008621304 0.010718013 0.006980601 0.07314108
0000f0 32 b2 d9 bd c2 a4 be 3d 76 38 82 bb 32 36 be bd
       -0.10629691 0.09308769 -0.003974016 -0.09287681
000100 ba b4 81 3d 67 d4 93 bc 33 40 ab 3d 88 4a d5 3b
       0.06333299 -0.018045617 0.083618544 0.006509129
000110 26 df d8 3d f7 5e d2 3d 63 b3 b9 3c c0 72 b5 3c
       0.10589437 0.10272019 0.022668546 0.022149444
000120 9f ab 11 bb 6e 8e d9 bd 6d 50 9d bd 43 48 df bd
       -0.0022227538 -0.106228694 -0.076813556 -0.10902455
000130 3e ad bf bb b5 2d 8f 3d a2 39 f8 bd 4c b3 9e 3d
       -0.0058495095 0.0699114 -0.121203676 0.07749042
000140 7b 11 50 3d cd 7d 8f 3d a4 df e4 bc e6 58 b3 3d
       0.05079792 0.070064165 -0.027938671 0.087571904
000150 2b 51 1d bc cb 95 eb bb fd 02 83 3d 60 53 ff bb
       -0.0096018715 -0.0071894876 0.06397054 -0.0077919215
000160 b4 ed 3f bd 60 8d f9 3d 02 aa 2b 3d 9b fa d4 3c
       -0.04685755 0.12185168 0.04191018 0.025998404
000170 7d 54 1e 3d 86 8c 91 bc 7e ea b1 bd b3 0e 18 be
       0.038654793 -0.017767202 -0.08687304 -0.14849357
000180 11 10 cb bd 98 db 92 3c ea bb cb bd 0a f8 a5 bd
       -0.09915174 0.017926976 -0.09947951 -0.0810395
000190 32 25 8e bd c7 40 12 bc e5 7b e5 bd e9 5c b5 3c
       -0.06940688 -0.008926577 -0.11205272 0.02213903
0001a0 23 5b 81 3d 0d 47 f4 bb 4c e7 9f bd c8 d3 9b bd
       0.06316211 -0.007454759 -0.07807788 -0.076087534
0001b0 14 d4 ee bd 79 5f 35 3c e1 8c f1 bd 8c 5e 9b 3d
       -0.116615444 0.011070126 -0.11794449 0.07586393
0001c0 de 70 eb 3b 4a 10 91 3d 65 f6 fc b8 c5 83 8e 3d
       0.0071850857 0.07083185 -0.00012062191 0.06958727
0001d0 44 28 04 be 5e d2 58 bd db be 1c 3d 9b ea dd bc
       -0.12905985 -0.052934997 0.03826795 -0.027089408
0001e0 56 68 51 3d 2a ae 1c be 5f 06 27 3d eb f1 85 3c
       0.051124893 -0.15300813 0.04077756 0.016350707
0001f0 09 0a c4 3d c3 ae cb 3d 9e f6 d4 3d 51 e2 25 bd
       0.095722266 0.099454425 0.10398601 -0.040499035
000200 14 1b 07 3e d3 81 96 3d 8a 15 f3 3d bc a7 46 bd
       0.13193923 0.07348981 0.118693426 -0.048499808
000210 7e 33 d0 3d 53 1f 45 bb 16 20 15 bc bb af 88 3d
       0.10166071 -0.0030078485 -0.009101888 0.06674143
000220 fe d2 33 bd 62 f2 47 3c e3 b1 12 bd 70 af c9 3d
       -0.04390239 0.012203785 -0.035814177 0.09847915
000230 e8 e2 58 bd 9b 0d 53 3d ca c4 46 3d 3c 97 fe bc
       -0.05295077 0.051526647 0.048527516 -0.031077974
000240 19 82 30 bd 51 bc 22 3d 0e 17 17 3e df 7b 04 3e
       -0.04309282 0.039730374 0.14754888 0.12937878
000250 b1 aa 19 3d 80 7a 65 3d 2c 18 a2 3d 34 a7 98 3d
       0.0375163 0.05602503 0.07914767 0.074537665
000260 67 ca 2f 3d 5f f8 39 3e 49 61 1a 3d f8 20 5c 3d
       0.042917635 0.18161152 0.037690435 0.05374238
000270 0f 8f de 3d a5 dc 22 3e 12 a3 1a 3e 71 13 c0 3d
       0.1086713 0.15904482 0.15101269 0.09378708
000280 94 e6 d3 bd 43 b2 93 3a cc d5 f1 3d 88 2a 07 bd
       -0.10346714 0.0011268336 0.11808357 -0.032999545
000290 c0 66 50 3d 1c 57 64 3b e6 ad 89 3d 82 ad b9 bd
       0.05087924 0.003484196 0.067226216 -0.09066297
0002a0 0a 9d bb 3d 1b 36 59 bd 84 cc 31 bd af bc 70 bd
       0.09160812 -0.053030115 -0.043407932 -0.058773693
0002b0 00 8b 82 bd 05 5e a8 bd 42 52 a0 bd 23 44 88 39
       -0.063741684 -0.08221058 -0.078281894 0.00025990707
0002c0 f3 6e 9c bd cf 00 13 bd 95 2e c8 3c fb 18 a8 ba
       -0.076383494 -0.035889443 0.024436275 -0.0012824828
0002d0 bd 29 3f bd 46 b4 37 3d 08 9e cb bd 17 cd 04 bd
       -0.046670664 0.044849657 -0.099422514 -0.03242215
0002e0 92 45 3e 3d 6b 8d 44 bc 01 7e 35 bd e8 ad d4 bd
       0.046453066 -0.011996607 -0.04430962 -0.103847325
0002f0 56 ff 03 be 32 6e 26 3d a2 27 85 3d 69 93 86 3d
       -0.12890372 0.040632434 0.065017 0.06571085
000300 09 c1 8a bd 1f 80 bc 3d 0e 5c 46 bd 38 c3 a9 bd
       -0.067751 0.09204125 -0.048427634 -0.08289188
000310 8e 4a 41 3c d7 a7 eb 3a c8 c8 95 3a 5a f6 a3 bb
       0.01179756 0.0017979097 0.0011427635 -0.0050037326
000320 c8 12 54 bd 8f 6b ba bd 8e 20 66 bd 93 4f 85 bd
       -0.051775724 -0.091025464 -0.05618339 -0.06509318
000330 1c bf 81 3d 17 ad 7e bc 4f 66 07 be 7c 94 0a be
       0.06335279 -0.0155441975 -0.13222621 -0.13533205
000340 6f 73 88 bd 5f a2 b2 bd 93 8b ad bc a0 c3 e2 bd
       -0.06662642 -0.08722376 -0.021184718 -0.11072469
000350 b7 30 f0 bc 59 ec 34 3d 60 a6 b5 bc 58 d2 8f 3d
       -0.029320104 0.04417071 -0.02217406 0.07022542
000360 dc 0c 80 bd 84 a5 48 bd fb b8 97 3d 64 33 72 3d
       -0.06252453 -0.048985973 0.07408329 0.05913104
000370 f8 ac f4 3d 49 17 1e bc 45 4f 58 3d 8f 18 3a bd
       0.11947054 -0.009649106 0.052809972 -0.045433577
000380 09 17 1b 3d eb 4a 4f bd cd 6b 97 3d 99 d8 41 3e
       0.037863765 -0.050608557 0.07393608 0.18930282
000390 e0 ba a5 3c 28 91 5e bd a5 ef 98 bc c8 82 07 be
       0.02023071 -0.05433765 -0.018668959 -0.13233483
0003a0 9f 54 68 3e 33 7e e9 3d ec d8 12 3c 6e db 64 3d
       0.2268853 0.11401024 0.008962851 0.055873327
0003b0 a3 ab c6 bd 5a 5b e8 3c 70 36 8f bd b8 74 48 bc
       -0.09700706 0.028363872 -0.06992805 -0.012234859
0003c0 e3 2a 0c 3d 47 9f b6 3c db 8c 06 3e d3 f9 98 3c
       0.034220587 0.022292746 0.1313967 0.018673813
0003d0 38 7b 05 be 4b 02 3e bd f7 91 17 bd 0f dc 24 3e
       -0.13035285 -0.046388905 -0.037004437 0.1609957
0003e0 d0 06 cb 3c a6 2f a4 bd 12 e2 00 3b 65 84 79 3d
       0.024783522 -0.08016901 0.0019665998 0.060917277
0003f0 3a d4 e2 3d b4 9c c0 3d 93 34 b8 bd 70 4f 0c be
       0.11075635 0.09404889 -0.08994403 -0.13702178

features.0.bias f4 [6]
000000 72 2d e2 bd b7 88 a9 3d 0c 50 dc 3c 3a 94 da 3c
       -0.11043824 0.082780294 0.026893638 0.026682008
000010 6e c9 e5 3b 9b 64 2f 3d
       0.0070125377 0.042820554

features.2.weight f4 [6]
000000 34 d4 7f 3f 96 e4 80 3f be 6c 79 3f ac 79 84 3f
       0.9993317 1.0069759 0.9743155 1.0349631
000010 4a 07 7e 3f 59 4e 79 3f
       0.9922987 0.97385174

features.2.bias f4 [6]
000000 a6 12 f1 bc 5e 9f 97 bc 4d b3 fb bb 26 0e 87 3d
       -0.029427838 -0.01850861 -0.0076812864 0.065944955
000010 ea ee 59 3d 60 e1 f9 3c
       0.05320636 0.030502975

features.2.running_mean f4 [6]
000000 7a 55 96 34 d1 e5 73 3e e3 e7 ff 3c 35 b8 a3 3d
       2.800187e-07 0.23818137 0.031238502 0.07994119
000010 3f 53 19 3d 96 b0 ec 3c
       0.037432905 0.028892796

features.2.running_var f4 [6]
000000 7d b2 4f 32 44 fd 99 3c 3e e0 91 3b 56 ad 68 3c
       1.2089569e-08 0.018797524 0.0044517806 0.014201483
000010 93 21 f0 3b 71 71 86 3b
       0.007328221 0.0041028787

features.4.weight f4 [16, 6, 5, 5]
000000 63 a2 86 3d 3d f4 26 bd cc 73 ee 3c 54 3f cb 3c
       0.065739416 -0.040760268 0.02910795 0.02481047
000010 62 13 86 3d 9c f2 0a 3d ff ef 20 bd ed 5c 48 bd
       0.06546666 0.033922777 -0.039291378 -0.048916746
000020 d5 ea 68 3d 03 75 d1 bc db dd 8d bc 74 21 1e 3c
       0.05686458 -0.02556849 -0.017317703 0.0096515305
000030 4d 3c 8f bc 27 1a 80 3d dc 46 60 3c 44 b0 2a bd
       -0.017484808 0.06254988 0.013688769 -0.041672006
000040 7b 1a bd 3c 2f e2 03 bd 49 77 99 3d e8 a3 b0 3b
       0.023083916 -0.032198127 0.07493455 0.005390633
000050 dc 98 53 bd df 6b 04 bd 02 26 0a bd 28 92 89 bd
       -0.05165945 -0.032329436 -0.033727653 -0.0671733
000060 23 f9 43 3c 6e 19 6e 3d af bf b0 3d de 30 44 bd
       0.011961254 0.05812972 0.08630311 -0.047898166
000070 0d f5 df 3b 61 66 6d bd 77 55 a8 3d e9 81 22 3d
       0.0068346323 -0.057958964 0.08219426 0.039674673
000080 e5 2f bf 3c 31 88 60 3d cf 7a 36 bd 3f 7a d7 bc
       0.023338268 0.054817382 -0.044550713 -0.026303409
000090 e1 59 3d 3d f9 1c 15 3d 34 69 a4 bc e1 4b 3b 3d
       0.046228293 0.036404584 -0.020069696 0.04572666
0000a0 37 d5 e4 3c 87 72 8c 3d 6a b9 41 bd 95 43 82 3c
       0.0279337 0.06857782 -0.047295965 0.015901366
0000b0 10 8e 54 bd 41 f7 f6 bc 9d 38 7b bd 36 c7 62 bd
       -0.051893294 -0.030147197 -0.061333288 -0.055365764
0000c0 1f 5d 9b 3c 8f 58 12 bd 80 53 16 bd 16 f4 42 3d
       0.018965302 -0.035728987 -0.036700726 0.04759606
0000d0 ba 8c bb 3b 0d cb 28 3d d9 a8 69 3c 94 53 da 3c
       0.005723563 0.04120927 0.014261448 0.026651181
0000e0 be 85 71 3c e7 d2 b7 3a e8 7d 77 3d ff 81 11 bc
       0.014741359 0.0014024646 0.060422808 -0.008881091
0000f0 9c cb 44 3a e1 ea fa 3c a3 53 d4 bc b3 d3 03 bd
       0.0007507147 0.030629577 -0.025918787 -0.032184314
000100 9c 23 46 3d 0c 84 86 3c 76 eb a4 bd 9a 80 0f 3c
       0.048373803 0.016420387 -0.08052723 0.008758688
000110 81 6f 48 bd 46 f6 96 bc f1 04 90 bd dc 31 d0 bd
       -0.048934463 -0.01842798 -0.070321925 -0.1016576
000120 04 b6 0c 3d 26 92 a5 3b af 66 a2 bc 42 41 9c bd
       0.03435327 0.0050528226 -0.019824354 -0.076296344
000130 fa 2a 8d bd cb d6 16 bd 40 2e f5 bb 49 e3 97 bc
       -0.06892963 -0.036825936 -0.00748232 -0.018540995
000140 f1 e6 bd b9 89 1b ea 3c 4c cc 5b 3d 3b 37 8c 3d
       -0.00036220954 0.028577583 0.05366163 0.06846472
000150 59 c3 76 3d c7 27 da 3a 75 05 af 3b 50 ed 75 bc
       0.06024489 0.0016643935 0.0053412267 -0.015010193
000160 3b bd a7 3d 0e 0f 8c 3d 62 fc 40 3c 6b 05 08 3d
       0.0819039 0.06838809 0.011778923 0.033208292
000170 a1 fd bf 3d 3b bf 5e bc 5b 1d 95 3d a1 ff c3 3b
       0.09374548 -0.013595398 0.0728099 0.005981401
000180 71 02 b5 3c 64 04 07 3d 96 57 44 3d 73 72 7f 3d
       0.02209589 0.03296317 0.04793509 0.062365007
000190 0b 0d 81 3d 83 9a bf b9 44 1e 12 bd d3 a7 26 bd
       0.06301316 -0.0003654548 -0.035673395 -0.040687393
0001a0 6d b9 83 3c 0b ea 01 3d fd cf 97 3c 7a 59 9d bd
       0.016079629 0.03171734 0.018531794 -0.07683082
0001b0 be 31 55 bd 89 66 93 3d c5 80 00 bd 54 16 3c 3d
       -0.05204939 0.071972914 -0.031372804 0.04591973
0001c0 fd f8 80 bd bc 2d 09 bd 39 eb 4a b8 cb 65 b5 bc
       -0.06297491 -0.03349088 -4.837962e-05 -0.022143265
0001d0 e5 5f 74 bd 2c 3b 3d bd fb 52 21 3c b7 54 75 bd
       -0.059661765 -0.04619901 0.009846444 -0.059895243
0001e0 ea 4f 38 bd 5f 48 96 bc 5d a7 00 bd 94 c3 f5 bc
       -0.044998087 -0.018345056 -0.03140961 -0.030000485
0001f0 af d4 56 bd 53 f7 2a 3d 74 fc 87 3d ed 02 f2 bc
       -0.052448925 0.041739773 0.066399485 -0.02954241
000200 7e 4c 5c 3d a2 0b 13 3d 96 82 06 3b 36 d2 83 3c
       0.053783886 0.035899766 0.0020524613 0.016091447
000210 f5 ea 00 3d 1f ee d2 3c 50 5a 0d bd c1 db 94 3c
       0.031474072 0.02574831 -0.034509957 0.018171193
000220 06 66 1d 3d 74 56 7d 3d 6c 19 14 bd dc 42 0f 3d
       0.038427375 0.061850026 -0.036157057 0.03497587
000230 f9 59 ad bb b9 85 15 3d 2f ed 08 bd c8 9d 23 3d
       -0.0052902666 0.03650448 -0.03342932 0.039945394
000240 eb d6 bc ba 88 0f 98 3c c9 21 c6 3c 65 31 33 bd
       -0.0014407312 0.018562093 0.024186032 -0.04374828
000250 68 c0 6e bb 0b 33 64 bd 79 3a 9e bd 7d 46 10 3d
       -0.00364306 -0.05571274 -0.077259965 0.035223473
000260 20 31 6e bd e7 29 43 3d c1 c3 a2 3d 2b 3e 4a 3d
       -0.058152318 0.047647383 0.07947493 0.049375694
000270 df 87 14 bd a3 7d 83 3d 29 9d 46 3c 86 87 c3 3c
       -0.03626239 0.06420448 0.012122431 0.023868334
000280 98 c2 71 bd a2 32 a8 3d 92 fa 61 bd 2f a7 3f bd
       -0.05902347 0.082127824 -0.055170603 -0.046790298
000290 d0 f9 23 bd 19 ba 31 bd 55 80 f8 bc 65 c2 56 3c
       -0.04003316 -0.043390367 -0.030334631 0.013107871
0002a0 bc 8e 57 3d 33 66 18 3d 0b 8f 50 bc 8c 2c c6 39
       0.052626356 0.03720684 -0.012729417 0.00037798693
0002b0 d7 85 d7 bb 4c 47 8b 3d 71 9f 46 3d 72 fd b8 bc
       -0.0065772342 0.06800708 0.0484919 -0.02258179
0002c0 a1 96 0d 3c 56 72 7c bd 6e b9 94 bc 4d 9d 46 bd
       0.00864187 -0.061632477 -0.018154826 -0.048489857
0002d0 08 fb ae bd 9b 6c 06 3d 51 67 36 3d ef 65 5b bc
       -0.08543974 0.032818418 0.044532124 -0.013391002
0002e0 ca 51 29 bd 66 7a 8a 3d 99 ca 96 bd 41 15 57 3d
       -0.041337766 0.06761627 -0.07362861 0.052510504
0002f0 e9 e1 78 bd 69 4f 7c 3c 7d c0 3f 3d 95 5c 56 3c
       -0.06076232 0.015399792 0.04681443 0.013083597
000300 7f 15 e6 3c 5a d4 22 bd 03 e1 58 3d 5b 65 04 3d
       0.028086422 -0.039753295 0.052948963 0.032323223
000310 aa 1c 9c 3d b1 1c 36 3d a6 4e 9c bc 2e dc 1b bd
       0.07622655 0.044460956 -0.019080471 -0.038051777
000320 83 ab ad bd 08 4d 8b 3d 41 32 8b 3d d2 6e cc bc
       -0.08479979 0.06801802 0.067966945 -0.024955187
000330 d1 e9 5c 3d ff e7 90 3b 21 a2 36 bd 1c c9 f6 bc
       0.053933922 0.0044221873 -0.044588212 -0.030125193
000340 f6 5b 77 3d e1 36 f1 bc 3a 2f 7c bc 56 12 36 3d
       0.060390435 -0.029445114 -0.015392119 0.04445108
000350 10 23 47 3d c9 68 8c bd 79 ca 72 bd ce 29 7a 3d
       0.048617423 -0.06855924 -0.059275124 0.061075024
000360 f3 cd a0 bb 37 cc 6c 3c d0 65 1c 3d f2 ac 7a bd
       -0.0049073636 0.0144529855 0.038183033 -0.06120009
000370 71 b0 28 3d 33 db 21 3d 5b 92 86 3d f7 73 55 3d
       0.041183893 0.039515685 0.06570884 0.052112546
000380 e9 d6 20 bd 41 33 c8 bd 9e 88 7f b7 45 1d 9b bd
       -0.039267454 -0.09775401 -1.5230993e-05 -0.07573942
000390 0c dc 06 bd e9 62 c5 bd 8d 18 38 bc 62 43 f2 bd
       -0.032924697 -0.09638006 -0.011236322 -0.118292585
0003a0 3e 61 7c bd 1c 02 e4 bd 12 a9 79 ba be 71 cd bc
       -0.061616175 -0.11133215 -0.00095237896 -0.02507865
0003b0 e1 8b a1 bd b8 35 95 bd 28 8b ac 3b 79 d0 d7 bc
       -0.07888008 -0.07285637 0.005265612 -0.026344525
0003c0 77 5f 3d bd c2 ac a7 bd d4 bc b6 bc cd e1 97 bd
       -0.04623362 -0.08187248 -0.022306837 -0.07416115
0003d0 00 7f a3 bd b7 fe d5 bc b6 69 0f bb 99 06 5f 3d
       -0.07983208 -0.026122434 -0.0021883077 0.05444965
0003e0 80 80 d7 bb 4c b0 5e 3d 25 18 27 bd f5 1f 20 3c
       -0.0065765977 0.05436735 -0.04079451 0.009773244
0003f0 22 72 62 3d 75 05 07 bd ec c8 8b 3d 1b 66 f7 bc
       0.055284627 -0.03296419 0.06825432 -0.030200055

features.4.bias f4 [16]
000000 e2 0d ed 3d 3a 78 2f 3d 0e f6 81 bd 10 61 3c bd
       0.115749136 0.042839266 -0.06345759 -0.045991004
000010 65 0e 3d 3d a7 42 05 3d 47 02 20 3c 06 83 4e bc
       0.046156306 0.032534268 0.009766168 -0.012604481
000020 99 28 af 3d 20 0e 37 3d 6a 59 15 bd 7e f0 9d 3d
       0.08552665 0.044691205 -0.036462225 0.07711886
000030 11 a9 a0 bd 52 a1 cf 3a b8 6b 8c 3d ea 8f cb 3c
       -0.07844747 0.0015840924 0.06856483 0.024848897

features.6.weight f4 [16]
000000 10 51 8e 3f 54 55 8f 3f fe 21 90 3f ff 4e 8e 3f
       1.1118488 1.1197915 1.1260374 1.1117858
000010 75 c0 8c 3f 1f b1 88 3f f4 de 8b 3f 85 ac 90 3f
       1.0996233 1.0679053 1.0927415 1.1302649
000020 c2 47 89 3f f6 92 8b 3f 2d 55 8c 3f 9b 65 9a 3f
       1.0725024 1.0904224 1.0963494 1.2062258
000030 87 43 8c 3f 72 de 92 3f 07 af 8c 3f d0 bb 8f 3f
       1.0958108 1.1474135 1.0990914 1.1229191

features.6.bias f4 [16]
000000 9a c2 17 bd 70 20 5a bd 2c 52 eb 3c 6e e7 69 bd
       -0.03705082 -0.05325359 0.028725706 -0.057105474
000010 de c1 05 bb fb 46 00 bd d6 83 aa 3a db 6d 35 bd
       -0.0020409743 -0.031317692 0.0013009261 -0.04429422
000020 65 1d 17 bd 25 b7 12 bd 1d 71 ba bc b5 6a 3c 3d
       -0.036893267 -0.03581919 -0.022759015 0.0460002
000030 10 98 85 bd 04 f6 f7 bc 2a d2 5c bd b7 11 97 3d
       -0.06523144 -0.030268677 -0.053911366 0.07376426

features.6.running_mean f4 [16]
000000 9d 34 72 3e 16 a7 1b 3e 01 ed 05 3e 39 5f 31 3e
       0.23652883 0.15200457 0.13078691 0.17321481
000010 99 0c 39 3e 71 e9 8b 3e 35 39 40 3e 73 7c 19 3e
       0.18071212 0.2732654 0.18771823 0.1498888
000020 58 5f 99 3e 73 de 19 3e c7 44 0b 3e ef b1 63 3e
       0.29955554 0.15026264 0.13600455 0.22235845
000030 c4 24 0e 3e 69 2f 0d 3e df 27 88 3e ce 0b 21 3e
       0.13881212 0.13787617 0.2659292 0.1572716

features.6.running_var f4 [16]
000000 71 b1 b4 3d 06 81 47 3d 08 e7 31 3d 17 72 c0 3d
       0.08822907 0.04870703 0.04343322 0.09396761
000010 cc 5d 53 3d c4 4a e0 3d 00 6c 9b 3d a7 62 5a 3d
       0.051603124 0.109517604 0.07588959 0.05331674
000020 e0 76 14 3e b2 68 45 3d 9a 39 51 3d 40 f7 93 3d
       0.14498472 0.04819555 0.051080324 0.072248936
000030 a0 0e 4d 3d e5 f2 1b 3d f0 14 1e 3e fa 66 4d 3d
       0.050062776 0.03807344 0.15437675 0.050147034

classifier.0.weight f4 [120, 400]
000000 8d b5 62 bc de ee 4c bd a6 d5 58 bd ce a7 2f 3d
       -0.01383723 -0.05003249 -0.052938126 0.04288464
000010 95 83 14 3d 04 70 12 3d 76 86 21 bd ee d4 68 bc
       0.0362583 0.035751358 -0.039434873 -0.014210923
000020 3b bb c5 bc 3f ac 9e bc be 99 fb 3a 24 d3 25 3d
       -0.02413713 -0.019369243 0.0019195599 0.040484563
000030 2c 0b bc 3c 3e 83 7a 3c f2 fc fe 3c e4 f2 81 bc
       0.022954546 0.01529008 0.031126473 -0.01586289
000040 f1 a9 59 3b 9a ca 58 bc 7a 6f da bb a0 17 e2 bc
       0.0033212865 -0.013231898 -0.006666121 -0.027599156
000050 57 cd 8e 3c 4f 6f da 3c b6 f2 ad bb bc 08 18 3c
       0.017431898 0.026664404 -0.0053084744 0.009279426
000060 9a 66 67 38 e5 2c 06 bd 8c c8 33 3c 12 2f b8 bc
       5.5170247e-05 -0.03275766 0.010973107 -0.022483382
000070 63 b1 47 bc 10 f0 b1 3c b6 40 e3 3c 51 93 fd bc
       -0.012188288 0.021720916 0.027740818 -0.030954035
000080 90 58 81 bb 7a 81 68 bb 3b 47 53 3d 34 58 26 3d
       -0.003947325 -0.0035477565 0.051581603 0.04061146
000090 e4 8e 37 3c 7c 92 ec bc 21 c9 67 3d f7 a7 05 3d
       0.011203501 -0.028878443 0.056588296 0.032630887
0000a0 c4 9e cb bc 0e c7 3c 3c 12 c2 35 bd 55 dc 36 3c
       -0.024855979 0.011522068 -0.044374533 0.01116093
0000b0 6a 68 07 3d ea c5 3f 3d 2b b3 2d bd c4 b5 02 3d
       0.03305856 0.046819605 -0.042407196 0.031911626
0000c0 b2 da 5c bd e1 5c 1d bd c4 1d 1e bd 63 5a 23 bd
       -0.0539195 -0.038418654 -0.038602605 -0.03988112
0000d0 3f 9f d0 bc 4c 54 d4 bc ee 8c a6 bc d9 bc bf 3c
       -0.02546656 -0.025919102 -0.020330872 0.02340548
0000e0 f0 a8 12 3d 4f 55 07 bc 17 9e 0c 3d d2 3d bc 3c
       0.035805643 -0.008260085 0.034330454 0.022978697
0000f0 bd 62 81 bb 37 57 08 3d ff 2c 8f bc 46 0b 7b bc
       -0.003948538 0.0332863 -0.01747751 -0.015322512
000100 15 f5 8c 3c b0 e9 f4 bc 2a 69 b1 3c bc 5c fe bb
       0.017206708 -0.029896587 0.021656591 -0.0077625196
000110 75 03 89 3c bf 08 83 3c 0d a0 ac bc 79 dd f4 38
       0.016725281 0.015995381 -0.021072412 0.00011676079
000120 53 8c fd bc 47 1e 18 3d a7 4a 3a 3d 2b 4e dc bc
       -0.0309507 0.03713825 0.04548135 -0.026892742
000130 8a d5 9a 3b 7b 18 19 bc 14 cd b7 3c f7 36 c2 bc
       0.004725163 -0.0093442155 0.022436656 -0.02370785
000140 c3 2f 97 bc 8a 5d c4 3c 7c 29 c2 3c 4c dd 28 3c
       -0.018455392 0.023970384 0.023701422 0.010306668
000150 f8 b2 8b bc 82 4f c8 3c e4 32 e6 bc d8 e2 f7 3c
       -0.017053112 0.024451975 -0.028100438 0.030259535
000160 93 5a aa 3c 0b da 19 bd af 34 99 bc d6 e4 0b bd
       0.020795142 -0.037561458 -0.01870188 -0.03415378
000170 51 c4 c4 bc 13 78 7b bc 2d 35 1f bd de bf d1 3c
       -0.024019392 -0.015348452 -0.03886907 0.025604185
000180 cc 07 6e bd b8 9e 40 bd f3 84 62 bd 1f 65 a3 bb
       -0.058112904 -0.047026366 -0.05530257 -0.00498642
000190 f1 4a 12 3d ce c0 88 3c e1 f4 68 bc 9c ea ef 3b
       0.035716 0.016693499 -0.01421854 0.007321669
0001a0 14 40 1d 3c 33 49 de 3c d1 e1 0e 3d 9c 76 33 bd
       0.009597797 0.027134513 0.034883324 -0.043814287
0001b0 e9 3d 0c bd e5 79 ea 3a fa 09 3d 3d a2 bb 28 3d
       -0.03423873 0.0017889111 0.046152093 0.041194566
0001c0 80 55 53 3d 8b 2c 0b 3d 4c 5e ec 3c 5b d7 b6 bc
       0.05159521 0.033978026 0.028853558 -0.022319486
0001d0 31 b3 3a 3d d5 96 fa 3c 4a 2f e7 bc eb 56 e3 3c
       0.045581046 0.0305895 -0.028220791 0.027751407
0001e0 5c 70 20 3b 00 15 19 3d 5b 33 49 bc 80 6b bf 3b
       0.0024481034 0.037373543 -0.0122803105 0.0058416724
0001f0 b8 e9 bf bb ad 7a 8c 3c d7 01 99 3b 0a 7b 5a bc
       -0.005856719 0.01714834 0.004669409 -0.013334999
000200 7f 3e 10 bd 92 e6 e1 bc a1 90 31 3d 1d 17 2c 3c
       -0.03521585 -0.027575765 0.04335082 0.0105035575
000210 3b cf ee 3c 17 62 ea 3c 5e 67 0e 3c e9 13 d7 bc
       0.02915155 0.028611226 0.008691637 -0.026254611
000220 2b 8e 35 bc b1 78 19 bc ed 5c 13 3d 4c 33 f7 3c
       -0.011081259 -0.009367154 0.035977293 0.030175827
000230 c2 64 29 3c 91 3c cb bc ca 76 32 3d 09 d3 13 3d
       0.010338964 -0.024809154 0.043570317 0.03608993
000240 7e 1d 23 3d ca 13 3b bc 24 43 52 3b e4 18 0b 3c
       0.039823048 -0.011418292 0.0032083476 0.008489821
000250 07 69 f9 3b f9 8a 7d bc 90 9e 01 bd 98 ea 19 bd
       0.007611397 -0.015475028 -0.031645358 -0.03757724
000260 18 ad db 3c 34 1c 0e 3d 0d 13 87 bc c2 34 85 3c
       0.026815936 0.034694865 -0.016488576 0.016260508
000270 21 2c 1c 3d 3d c6 19 3d aa 52 00 bd 7f 6c 71 3c
       0.038128022 0.03754257 -0.031328835 0.01473534
000280 65 86 a0 bc 14 3f 49 bd 5d 7d 46 bb 75 21 b6 bc
       -0.019595334 -0.04913242 -0.0030287125 -0.02223275
000290 65 35 1f bd 2a de af bc 94 c3 b7 3c 14 c2 0c 3d
       -0.03886928 -0.02146824 0.022432126 0.034364775
0002a0 a3 dc 17 3d 7b 02 7b bc 86 57 4b 3c d4 9d 26 bc
       0.03707565 -0.015320416 0.012411004 -0.010169465
0002b0 4a 01 17 3b 20 38 a9 3c 8b b5 16 3d 18 f9 36 3d
       0.002304154 0.020656645 0.036794227 0.044671148
0002c0 f5 95 15 bc 11 6a 2a 3c 76 d3 21 3d f9 a5 7c 3c
       -0.009129991 0.010401265 0.039508305 0.01542043
0002d0 ee 33 c0 3c a7 f0 34 3d d1 e7 7f 3d 2e d5 10 bb
       0.023462262 0.044174816 0.062476937 -0.0022099721
0002e0 df 05 c1 bb 27 e2 a2 bc 38 0f 07 3d 7f 8f f0 3c
       -0.0058905925 -0.019883228 0.032973498 0.0293653
0002f0 2a 82 4e 3d f4 62 25 3d 37 2b cf bc b7 75 de bc
       0.050417103 0.040377572 -0.025289161 -0.02715574
000300 34 a7 2d bd 7c 89 ae 37 4b 5f f1 3c 88 f2 92 bc
       -0.042395785 2.0806438e-05 0.029464385 -0.017937914
000310 a6 9e e5 bc b9 27 9a 3c ed 13 88 bc 2b 72 08 3d
       -0.028029751 0.01881777 -0.016611064 0.033312004
000320 e6 7d aa 3c f3 e5 f2 bc 80 57 b5 bc 16 37 89 ba
       0.020811986 -0.029650664 -0.02213645 -0.0010468687
000330 b3 96 8d 3c 49 2a 3b 3c 58 da 58 3b 9e b8 d7 bb
       0.017283773 0.011423656 0.0033089127 -0.0065832874
000340 95 e9 21 bd 36 12 c5 bb cf 6b 8f 3c 3f 17 cf 3c
       -0.0395294 -0.006014134 0.017507462 0.02527964
000350 3d fb 0b bd 4a a2 d0 ba cd 1c 9f bc 6c 27 20 3d
       -0.034175146 -0.0015917507 -0.019422913 0.039100096
000360 ab 76 1b bc f2 e8 95 3c 9a 16 4d bd 64 ea e9 bb
       -0.009488742 0.018299554 -0.050070383 -0.0071385372
000370 cd 6a 21 3d 6e 43 61 bc 97 3a a0 3c 4e bd 2f 3b
       0.039408494 -0.013748987 0.019559188 0.0026815715
000380 6d e7 f7 38 f0 f3 e2 bc 6d 94 f2 bc 36 38 fc bc
       0.00011820984 -0.02770421 -0.02961179 -0.030788522
000390 11 a5 b3 3c e8 ec 48 bd b9 14 3b bb f2 41 35 3c
       0.021929296 -0.049054056 -0.0028546287 0.011063086
0003a0 95 10 3b bc 6e a3 25 3d 2f bc de bc 61 a4 15 bd
       -0.011417528 0.04043906 -0.027189342 -0.036533717
0003b0 47 8f 37 bc 35 f0 20 3d 01 3c 8d 3b a3 2e 33 3d
       -0.011203594 0.03929158 0.0043101315 0.043745648
0003c0 a7 95 33 bc b1 db 5e 3d 28 96 0a 3d b4 8f e9 3c
       -0.010960973 0.054408733 0.033834606 0.028510906
0003d0 a4 55 97 bc 99 57 04 bc 75 d9 b4 bc fa c2 47 3d
       -0.018473454 -0.0080775255 -0.022076348 0.04876993
0003e0 42 38 0b bd 73 15 b7 3b 42 6c db 3c 7b 18 3a 3d
       -0.0339892 0.0055872737 0.02678502 0.045433503
0003f0 a8 cd 3c bc d7 c0 9c bc 0c 18 48 bd 9f e6 a7 bb
       -0.011523642 -0.019134922 -0.048851058 -0.0051239277

classifier.0.bias f4 [120]
000000 45 e0 e3 ba 71 7a f4 3c bf e5 5c 3b 2a 5b f5 bc
       -0.0017385563 0.02984354 0.0033706275 -0.029950697
000010 07 9b c0 3c 27 05 0e bd 94 d2 01 3d 8f 57 9f 3d
       0.023511423 -0.034672882 0.031694964 0.07780372
000020 01 0a 34 3d 14 23 09 3d 9b c9 43 bc 98 5c 6e 3d
       0.043954853 0.03348072 -0.011949922 0.058193773
000030 1c da 46 3d 76 33 97 bc 87 96 a6 3b 05 25 39 3d
       0.04854785 -0.018457156 0.005083862 0.04520132
000040 10 36 ee bc b3 3d 41 bc 23 08 e2 bc 55 9a 1c 3d
       -0.029078513 -0.011794495 -0.02759177 0.03823312
000050 0e ce 5f 3d 6e 59 95 3c bf 96 32 bc 4d cc 82 bb
       0.05463987 0.01823112 -0.0109001985 -0.0039916397
000060 f4 39 cd ba 56 72 fb bc a5 58 33 3d d1 86 10 bc
       -0.001565753 -0.030694168 0.04378571 -0.008821205
000070 cb a6 d8 bc a2 64 33 bd 4f 03 b0 bc b0 9c 15 3b
       -0.02644672 -0.043797143 -0.021485953 0.0022828989
000080 0c cc 34 3d 20 bb 34 bd 58 9b d4 bc a8 98 14 3d
       0.044139907 -0.04412377 -0.02595298 0.036278397
000090 1c 6f 9c bc e1 92 54 3b e4 cc 0c bc f8 2f 56 3d
       -0.01909595 0.003243618 -0.008593772 0.05229184
0000a0 1c f2 1f bd 26 ba 17 bc 57 1c 68 3d 14 14 71 3d
       -0.039049253 -0.00926069 0.056667652 0.05885704
0000b0 a8 f2 a4 bc 92 04 3d 3d 32 99 a4 bb 8c ee 22 bd
       -0.020135239 0.046146937 -0.005023145 -0.039778277
0000c0 22 a9 0a 3d 13 ee 82 bc 4a a1 54 3d 89 c3 05 3c
       0.033852704 -0.015982663 0.05191163 0.008164295
0000d0 48 e8 43 3d 00 ca d6 bc 47 74 09 3d 99 0c e2 bc
       0.047828943 -0.026219368 0.033558156 -0.027593898
0000e0 6b 11 3f bd d7 3f 10 bd 26 8a 22 3d a4 c9 c6 3c
       -0.04664747 -0.035217132 0.03968253 0.024266072
0000f0 7a 11 18 3d ba a2 4e bd f2 c3 bc bc 1a f8 ee bc
       0.037126042 -0.050448157 -0.023042653 -0.029171038
000100 be 1a 30 3c fc 29 a9 bc 62 18 65 bc 5f 48 f5 3c
       0.010748563 -0.020649903 -0.013982864 0.029941736
000110 e0 9b 30 3d 8e 5d 03 3c 6d 0f 81 3d bb 31 49 bd
       0.043117404 0.008017911 0.0630177 -0.049119692
000120 19 f4 17 3d 66 98 73 3d 89 ae f1 3a 18 2c 9f 3b
       0.037098024 0.05947151 0.0018438856 0.0048575513
000130 06 1e a7 bb be 54 1f bd ee d0 13 3d ed 7d 8c 3c
       -0.0051000146 -0.038899176 0.036087923 0.01714989
000140 62 2c 55 3d 5d 6c d9 3c ce 85 39 3c c0 b7 08 bd
       0.05204428 0.02654093 0.011323405 -0.033378363
000150 62 31 5f bc af 70 0a bc eb e8 35 3d 7d de ff 3c
       -0.013622614 -0.008449717 0.04441158 0.03123402
000160 b5 db 6f bc fa f5 9f 3b 42 4e 61 3d 2d dd dd bc
       -0.014639785 0.0048816176 0.055006273 -0.027083004
000170 cb 4d 18 3a 2a d3 8b 3d af ef 24 3d b5 38 49 3b
       0.0005809932 0.06827386 0.040267643 0.0030703966
000180 c6 ba db 3c 50 8a 61 3d 80 c2 0b 3d d4 12 b5 3b
       0.026822459 0.055063546 0.034121037 0.005525926
000190 03 5f 98 bc 97 2b 63 3d 12 2f 97 bc 14 88 9e 3c
       -0.018599993 0.055461492 -0.018455062 0.019351996
0001a0 0b f4 b6 bc 8b 61 be 3c fb 55 9f bc cd 43 d2 3c
       -0.022333166 0.023239871 -0.019450178 0.025667096
0001b0 59 30 3d 3d e5 31 e2 3c da 66 71 3c a2 ae 27 3d
       0.046188686 0.027611682 0.014733994 0.040938027
0001c0 a7 a8 98 bc f2 17 2e 3d e9 5d 8a 3c d9 9b f6 3a
       -0.018635107 0.042503305 0.016890483 0.0018814757
0001d0 93 90 e8 bc 80 36 5b 3d a9 db c0 bc f5 2e c3 bc
       -0.02838925 0.053518772 -0.023542242 -0.023826102

classifier.2.weight f4 [84, 120]
000000 01 b7 b1 bd 26 03 17 bc 9e d1 47 3d 58 35 ac bd
       -0.08677483 -0.009217059 0.04878389 -0.08408612
000010 37 01 44 bd cb 37 96 3d e7 3c ae bc 4f f3 85 bd
       -0.04785272 0.073348604 -0.021269275 -0.06540548
000020 c0 c8 90 3c 35 23 39 bd ed c9 f4 3c 6e 76 85 bc
       0.01767385 -0.04519959 0.029881442 -0.016291823
000030 19 05 45 3d fd 02 44 3d d9 cc 22 bd e4 f4 91 bc
       0.048100565 0.047854412 -0.03974614 -0.017816968
000040 de d0 3a 3d 50 da 13 3d 88 c1 d6 3c 51 72 93 3d
       0.045609348 0.03609687 0.02621533 0.071995385
000050 cb 1c 81 bd e3 7b 13 3d 4e 88 80 3d 77 58 3c 3d
       -0.0630432 0.03600682 0.06275998 0.045982804
000060 15 33 b5 3d 29 dd a0 bd af be 1a 3d 09 c9 29 bc
       0.08847634 -0.07854683 0.037779506 -0.010362872
000070 aa 18 43 bd af 3a b0 3d 98 62 89 3d 7c 8e d4 3b
       -0.047630943 0.08604943 0.067082584 0.006486712
000080 88 39 ae 3c 10 b4 95 3d 59 6d 5b bc f8 81 39 3d
       0.021267667 0.07309735 -0.01339277 0.045289963
000090 7f 01 ae bd 1e 0b 91 bb 97 0c 95 bd 4f d7 ab bd
       -0.08496379 -0.004426374 -0.07277792 -0.08390676
0000a0 1b 16 fc bc f2 62 4b bd 5f 1a f3 3c 36 77 c5 bc
       -0.03077226 -0.04965491 0.02967566 -0.024104696
0000b0 55 4b 8a 3d 1b 0c a0 3d ab df 90 bd 55 47 80 bd
       0.0675265 0.07814809 -0.07073911 -0.062636055
0000c0 8f 83 26 bd 97 19 e9 3c ef 9f 7f bc 3c f6 26 bd
       -0.040652808 0.028454585 -0.015602096 -0.04076217
0000d0 f1 8b 5f bd b0 40 a3 3d fe 3c f3 bc 7d d0 87 bd
       -0.054576818 0.079713225 -0.02969217 -0.06631563
0000e0 54 02 12 3b 9f aa c8 bc e6 09 26 3d 36 fe 0d 3d
       0.002227922 -0.024495421 0.040536784 0.034666263
0000f0 15 2a a1 bd 64 09 6b 3d 44 23 59 bb 5d ca 23 bd
       -0.07869355 0.057382002 -0.0033132592 -0.03998791
000100 bd 39 45 bd 02 8a 6d bd c4 af 95 3d a8 22 8b 3d
       -0.048150767 -0.057992943 0.07308915 0.067937195
000110 de d2 a8 3d d4 c5 5a bd 1c f8 9e bd c4 3b 47 3d
       0.08243345 -0.05341132 -0.07762167 0.04864098
000120 75 5b 8e 3d 4d 1a ae 3d 64 59 29 3d 75 46 e9 bc
       0.06951038 0.0850111 0.041345015 -0.02847598
000130 1e 04 a8 3d c2 a1 fc 3c 03 9f 54 bd 20 3c 9c bd
       0.0820391 0.03083885 -0.051909458 -0.076286554
000140 61 b0 b4 bd f2 18 e4 3b 91 a7 33 bd 6d e4 38 bd
       -0.08822704 0.0069609815 -0.043860976 -0.04513972
000150 f3 d3 8a 3d 5a 70 98 3d a3 cc 0c 3d a4 0b b4 3c
       0.06778707 0.07443304 0.034374844 0.021978207
000160 b6 f3 37 bd 95 b3 8e bd 79 3c 63 3d 15 43 6b 3d
       -0.044910155 -0.06967846 0.055477593 0.05743702
000170 0d 37 21 3d e9 16 2e 3d 4a aa e5 bc f8 ee 96 bd
       0.03935914 0.042502318 -0.028035302 -0.073697984
000180 7e dd 38 bd e5 a5 8b 3d 62 1f eb bc ab 03 62 3d
       -0.045133106 0.06818751 -0.028701488 0.05517928
000190 9d 8a 4f bd 24 99 55 3d 90 92 33 3d 3c 5e eb 3c
       -0.0506693 0.052148 0.043840945 0.028731458
0001a0 5c 6e 07 3c f8 2a 1e 3d 36 1a 98 bd c0 7b ad bd
       0.008266058 0.038615197 -0.07426874 -0.08470869
0001b0 f3 cf 39 bd fe f9 b6 3d a0 ac 6f 3d 17 09 fe bc
       -0.04536433 0.08934401 0.058514237 -0.031010194
0001c0 07 ee f7 3c d9 76 46 bd bb f9 33 bd 3a 62 a5 bd
       0.030264867 -0.048453186 -0.043939333 -0.08075376
0001d0 ea ba b0 3a fa a6 99 bd 46 42 a6 3d b7 2f ee bc
       0.0013483439 -0.075025514 0.081181094 -0.029075487
0001e0 64 90 c2 bd a8 49 db 3c 5e 40 1a bd d7 d7 fd bc
       -0.095001966 0.02676852 -0.03765904 -0.03098671
0001f0 e8 ca bc bd 54 1d 48 3d db 1e 4d bb 35 8d 05 bc
       -0.09218389 0.048856094 -0.003129891 -0.008151342
000200 49 2c 84 bd ed f6 1e 3d 10 c8 a1 3d 7b 20 8c 3d
       -0.06453759 0.038809706 0.07899487 0.06842133
000210 ee d0 30 bd a2 1e e0 bb 7a 0b 17 bd 1b ef e5 3c
       -0.043168 -0.006839589 -0.03687618 0.028068116
000220 ed cd ca bd 4a 87 4c 3c ee d7 ba 3d b8 5a 14 3d
       -0.099025585 0.012483427 0.091232166 0.03621933
000230 31 7f 56 bd a4 2b 91 3d 51 5e 25 3d b8 8f c3 3d
       -0.052367393 0.07088402 0.04037315 0.095488966
000240 ad 83 c4 3c 4f 95 cf bd 1d d7 d6 bc d8 1f 3e 3c
       0.02398857 -0.101359 -0.02622562 0.011604272
000250 ec f7 83 3d ca f2 5a 3d fb 9c a3 3c 18 b4 90 bd
       0.06443772 0.053454198 0.019972315 -0.070656
000260 a2 3e f6 3d ff 1f 79 bd bd 10 86 bb 5b 82 13 3c
       0.12023665 -0.06082153 -0.004091351 0.009003247
000270 35 5b 07 bd 8c a6 fe 3d cb 42 cc 3c 49 da 8d 3c
       -0.033045966 0.1243411 0.024934193 0.017316
000280 3b 8c d4 3d 6c c6 73 3d 82 50 39 bd 37 8a 65 3d
       0.10378309 0.0595154 -0.045242794 0.056040015
000290 7c ea 92 3d 2c bb 00 3e 36 6a f2 3c 43 ad a1 3d
       0.071736306 0.125714 0.029591661 0.07894375
0002a0 73 3a e2 bc 27 4d c3 3c 61 cc c7 bd 7d 99 a1 bd
       -0.027615761 0.0238405 -0.09755779 -0.07890604
0002b0 84 6f 12 bd 06 79 06 3d 52 c2 ed 3d ed 68 b9 bd
       -0.03575088 0.03283026 0.11609329 -0.09053216
0002c0 8b 87 01 3d 0f 16 64 bd ca 85 24 3d 7b b1 50 3d
       0.031623404 -0.0556851 0.040166654 0.05095051
0002d0 81 2e 29 3c 40 38 09 bd 94 40 76 bd 72 0e b8 3d
       0.010326029 -0.03350091 -0.06012018 0.0898713
0002e0 67 0b 2d bd 63 11 8d bd 77 43 5f bd cf ec a7 3d
       -0.042247202 -0.06888082 -0.0545077 0.081994645
0002f0 3a 7a 4f bd a8 d7 9f bd a0 0e 5d 3c 59 a8 c3 bd
       -0.050653674 -0.07804805 0.013492256 -0.09553594
000300 bc 6f 67 3c 5c a3 54 3d 0b 7a 69 3d a0 e7 8c 3c
       0.014125761 0.051913604 0.057001155 0.017200291
000310 77 04 ed bc 5c 5c af 3d fd 94 8f bd a4 7a 59 3c
       -0.028932793 0.08562538 -0.07010839 0.013273869
000320 0a 8d e7 3d f8 39 32 3d 6a 7a bf bd 41 52 ce 3c
       0.11306198 0.043512315 -0.093495205 0.025185706
000330 50 66 4e 3d 99 58 ea bb 17 ba 89 3d 24 bc 23 bc
       0.05039054 -0.007151675 0.06724947 -0.009993587
000340 9c 05 77 bd 97 89 cd 3d 14 43 40 bc 1b 2a fa bb
       -0.060308084 0.10036009 -0.011734743 -0.007634414
000350 4e f4 68 bd a7 b7 91 3d 65 64 60 3d a7 c5 b0 3d
       -0.056873612 0.07115107 0.054783244 0.08631449
000360 a5 53 2e 3d 54 1d 4b 3d 93 12 bc 3d dd 31 29 bd
       0.04256024 0.049588516 0.0918323 -0.04130732
000370 e3 d3 ff 3a 07 8f 82 3d 96 c7 88 bd 15 c3 65 bd
       0.0019518103 0.063749366 -0.06678693 -0.056094248
000380 41 bd 1d bd 6d c3 41 3d e2 e7 0b 3d a7 68 c3 3d
       -0.038510565 0.047305513 0.034156688 0.09541445
000390 12 f7 51 bb e1 47 e9 3b 95 36 76 3d a0 0a f3 3d
       -0.0032038135 0.0071191643 0.060110647 0.11867261
0003a0 d2 57 66 bd 2c 4c 1e bc 43 6a cf 3d eb 3b ad 3d
       -0.056236096 -0.0096617155 0.1012769 0.08458694
0003b0 a4 ee 2f bd 45 e8 e7 bd 21 9f be bd 76 df be 3d
       -0.042952195 -0.11323599 -0.09307695 0.093199655
0003c0 80 9d 8c bc 21 84 85 bd 4c 3d 65 3d 94 0e 8c 3d
       -0.017164946 -0.06519342 0.05596666 0.06838718
0003d0 df 4a 47 bd 12 f6 e0 3c 41 a1 32 bd 1a a4 dc bc
       -0.048655387 0.027461085 -0.043610815 -0.026933718
0003e0 ff 0a a9 3d 91 44 e2 bc 9c 56 89 3d 7b 53 7d bd
       0.082540505 -0.027620586 0.067059726 -0.06184719
0003f0 67 ad 6d bc b0 cf 8e 3c 4b 8a 5d 3d 83 71 b2 3b
       -0.014506674 0.017433017 0.054086965 0.0054456606

classifier.2.bias f4 [84]
000000 5f 46 9b bd 93 3c b5 3c 2a 16 4f bd 1e e0 c3 3b
       -0.075817816 0.02212361 -0.050558247 0.0059776446
000010 a6 ad 47 bd a8 c3 16 3c de 21 d8 3d 15 5f a0 bb
       -0.04874959 0.0092019215 0.10553335 -0.004894147
000020 c9 33 b6 3c 41 2f 7d bd e7 d8 99 bc 68 96 7f bd
       0.02224149 -0.061812643 -0.018780185 -0.062399298
000030 b6 c7 03 bd bc 02 a1 3d 19 cb 8b bd d4 b7 87 3d
       -0.03217288 0.0786185 -0.06825847 0.06626859
000040 8f d5 4e bc bb 67 81 3d bb 6f 87 bc 08 e7 8d 3c
       -0.0126241585 0.06318613 -0.01653277 0.017322078
000050 d1 72 e4 3c 76 72 ea 3d 1f 0f 53 3d 73 ec e7 3d
       0.02788678 0.11447613 0.051528092 0.11324396
000060 8d db 05 bd 74 ae 76 3d b3 f9 b1 3d c2 5d 9c bd
       -0.032680083 0.060224965 0.086902045 -0.076350704
000070 c9 fc 9d 3c 02 f5 5f 3d 5a 69 dc bc f3 02 83 3d
       0.019285576 0.054677017 -0.026905704 0.06397047
000080 d5 98 fb bc 24 99 7e 3c a5 3b 83 bd 39 0c 3f 3d
       -0.030712524 0.015539441 -0.06407861 0.046642516
000090 fe 8a 45 ba 11 04 60 3c a1 01 8e 3d ac 66 ad bd
       -0.0007535665 0.0136728445 0.069339044 -0.08466849
0000a0 20 fa 83 3b 82 00 ac 3d b7 9c 67 3c 76 cc 9d 3c
       0.00402762 0.08398534 0.014136485 0.019262534
0000b0 3f c5 e7 bb fb 74 75 3d e7 e8 bc bc 85 18 9a 3d
       -0.007073074 0.059926014 -0.023060275 0.07524208
0000c0 47 73 6a bd 2d 68 a6 3c f1 27 b2 3d f1 93 5b 3d
       -0.057238843 0.020313347 0.086990245 0.053607885
0000d0 fe 0c 7f bd 38 d2 cb 3d 8e f8 99 3d 56 d6 a7 3c
       -0.06226825 0.099522054 0.07518111 0.020487946
0000e0 11 f5 66 bd bc e5 96 bd 75 25 a4 3d e2 2d b7 3c
       -0.056386057 -0.07368037 0.08014957 0.022360746
0000f0 f1 60 09 3d aa f1 e8 3b f5 44 c2 3c f9 a9 5e 3d
       0.033539716 0.0071088867 0.023714522 0.054361317
000100 e5 96 f4 3d f2 20 d2 3d da c3 c0 3d 99 c5 be bb
       0.11942843 0.1026019 0.09412356 -0.0058218953
000110 91 4b 0f 3d ba d3 9b 3d 0f fb 6a 3d 7a 09 83 bd
       0.034984175 0.07608743 0.057368334 -0.06398292
000120 a8 09 13 3d 96 bd 9f bd ed 5e eb bb b0 e7 97 bd
       0.03589788 -0.077998325 -0.007182947 -0.07417238
000130 c3 84 66 3d 56 c7 a4 bd 21 d3 fd 3d f6 40 2c bc
       0.056278955 -0.08045833 0.12393785 -0.010513535
000140 24 1a 9d 3d b0 ea 9f 3c 68 17 6c 3d 3c 0c cf 3d
       0.076710016 0.019521087 0.05763951 0.101097554

classifier.4.weight f4 [10, 84]
000000 74 39 94 bd ed 53 4a 3d ad 82 f7 3d bd a4 0b 3d
       -0.07237521 0.049396444 0.12085471 0.034092654
000010 d5 e3 10 bd b1 a7 96 bc 4c b2 67 3d 69 9c f5 3d
       -0.035373528 -0.018390508 0.05656652 0.119927235
000020 19 f5 c9 bd 07 90 ae bd 24 dc 45 bd c3 5e aa 3d
       -0.09861202 -0.08523565 -0.048305646 0.083188556
000030 4c 73 a5 bd 8d 2c 07 3e b9 1e 42 3e 2e 40 4a 3d
       -0.08078632 0.13200589 0.18957032 0.049377613
000040 ec 9a 97 3d a1 b9 6f bd 45 e4 8e bd 3d 21 c3 3d
       0.07402596 -0.05852664 -0.06977133 0.09527824
000050 3c e5 63 bd 41 0e 27 be ab c4 03 bd 71 40 75 bd
       -0.055638537 -0.16314031 -0.03216998 -0.05987591
000060 5e 72 18 bd 60 19 3c 3d eb 05 54 3e 78 d5 c4 bd
       -0.037218444 0.045922637 0.20705383 -0.096110284
000070 35 6b ae 3d 0d 18 1d 3e a0 ef 0d 3a 2a 5e 51 bd
       0.08516542 0.15341206 0.000541443 -0.051115192
000080 6b fa dd bc f7 b8 05 3d a2 8d c8 bc 50 a7 fe bc
       -0.027096948 0.0326471 -0.024481598 -0.03108564
000090 5f 74 fe 3b e8 7e 05 be 14 28 d7 ba fe 83 09 3d
       0.0077653374 -0.13036692 -0.0016415142 0.033573143
0000a0 fc 6d ff 3c c5 88 83 bd a0 b7 a9 bd 92 83 c6 bb
       0.031180374 -0.06422571 -0.08286977 -0.006058165
0000b0 73 d4 25 bd 2c c5 39 3e 71 b4 3a be e8 a4 02 be
       -0.04048581 0.18141621 -0.18232895 -0.12758219
0000c0 5e 10 19 be 73 c4 d4 3d 14 31 3c 3e 9b b3 78 bd
       -0.1494765 0.10389032 0.18378097 -0.06071816
0000d0 fd ca a4 3c 0b c7 db 3c 93 59 f9 bd 46 40 64 3e
       0.020116324 0.02682831 -0.12175288 0.22290143
0000e0 52 c9 5d bd 71 8e 5c 3d 81 99 cb 3d 11 20 6d 3c
       -0.054147072 0.05384678 0.09941388 0.014472977
0000f0 78 b4 c5 3d 65 f0 84 3c e4 bb 9f 3d 06 bd e7 bd
       0.09653562 0.01622791 0.07799509 -0.1131535
000100 3b 92 8e 3d 54 09 e9 bd 07 33 e7 3d bf 86 83 3c
       0.06961485 -0.11378732 0.112890296 0.016055463
000110 06 36 b0 3d 21 88 8e bb 25 e8 15 3e 89 54 26 bd
       0.08604054 -0.004349724 0.14639337 -0.040607963
000120 7a 73 2f 3b 7a 1d 8d bd a6 3a 21 3e ef 56 90 bd
       0.002677171 -0.06890388 0.15745029 -0.07047831
000130 62 cc 00 bd 2f b7 cb 3d 70 22 2a be b3 3b ae bc
       -0.031444915 0.09947049 -0.166147 -0.021268701
000140 27 d6 d1 3d 2e 4c 3d 3e 3d 98 67 3d 99 a9 a1 3d
       0.102459244 0.18486091 0.05654167 0.07893676
000150 08 fb be bd d3 53 8a bd 4e 6e 33 3c 85 08 9e 3c
       -0.09325224 -0.067542695 0.010951592 0.019291172
000160 ad b6 16 bb 6a dc 54 3e ef 5f 69 3b ec 11 21 be
       -0.0022997067 0.20787206 0.003561016 -0.15729493
000170 e6 ff 25 bd d9 38 71 bd 44 91 f7 3d 1f ce fa bd
       -0.040527247 -0.058892105 0.12088254 -0.12246346
000180 6d ff eb 3b 41 0c a2 bc 3b 4c f0 bd a0 6b ee bd
       0.00720208 -0.019781234 -0.1173329 -0.116416216
000190 7f b1 dd 3a 3e 28 75 bd 35 a0 32 3e 07 cf eb bb
       0.001691386 -0.05985283 0.17443927 -0.0071963104
0001a0 b8 f0 c4 bc ed dc 11 be dc 1f a0 3d 38 61 99 bd
       -0.024040565 -0.14244433 0.07818577 -0.07489246
0001b0 7e 0c bc bd ab 5d e2 bd ad ca 25 3e e1 c0 15 bd
       -0.0918207 -0.11053022 0.16190596 -0.036560897
0001c0 a2 15 ab bd bb 63 ea bc c5 4a d2 3c 98 3a 1a 3e
       -0.083537355 -0.028612008 0.025670419 0.15061414
0001d0 e5 36 b7 bc 9a 45 ae bd 5d c8 99 3d c8 4f 94 3b
       -0.022365043 -0.08509369 0.075089194 0.004526112
0001e0 df e3 b5 bd a7 33 a3 3d 87 ec 17 3e ee fe 43 3d
       -0.088813536 0.07968836 0.14836322 0.04785054
0001f0 65 eb cf bd 80 a9 66 bd aa 77 b8 bc 2a 56 cd bd
       -0.1015232 -0.05631399 -0.022517998 -0.100262
000200 b8 c5 9d bd ea 4f 52 bd 79 e9 57 3e 33 59 22 bd
       -0.077037275 -0.051345743 0.21085157 -0.03963585
000210 96 5d 50 bc 7d 55 8d bd cf 65 6d 3d 88 07 15 bd
       -0.012717625 -0.06901071 0.05795842 -0.036384135
000220 9b 63 9e 3c 21 cc 3f 3e d0 36 b5 3d e2 ad 2f 3e
       0.019334605 0.18730213 0.08848345 0.17156175
000230 ae 9c aa bd b9 36 b6 bb e9 c6 ab bd c8 05 7b b9
       -0.083306655 -0.0055607227 -0.083875485 -0.00023939379
000240 28 b3 d5 bd 7f 93 9a bd b1 7c 0c be 6f a4 4c 3e
       -0.10434562 -0.07547664 -0.13719441 0.19984601
000250 d0 fe 17 bd f7 77 09 3e 3b bc 1f 3e 4d 61 df 3d
       -0.037108243 0.13424669 0.15599148 0.109072305
000260 af 0c 13 be 0f 21 17 3d 13 f3 b6 3d 5d 11 96 3d
       -0.14360307 0.03689676 0.089330815 0.073275305
000270 f6 89 c1 3d 04 e5 83 bc 96 23 ba 3d 55 5a 44 3e
       0.09450142 -0.016100414 0.09088819 0.19175084
000280 41 81 f6 bd 89 3b d2 3d 59 9c 20 bd 2c 1a cf bd
       -0.12036372 0.10265262 -0.039211605 -0.10112414
000290 c8 e6 39 be 13 f4 25 be 5d 53 bc 3d b0 3b b9 bd
       -0.18154442 -0.16206388 0.09195588 -0.090445876
0002a0 d7 fa 89 3d 1a c5 34 3e 9e 5d b2 bd c7 e5 6b bd
       0.06737297 0.17653313 -0.08709262 -0.05759218
0002b0 61 eb 6e bd 64 74 19 be e5 0a 54 3d 65 15 a3 3c
       -0.058329944 -0.14985806 0.051768202 0.019907663
0002c0 51 ad 1f bd aa 8f 37 bd 32 cb 2e be 40 82 d8 3d
       -0.038983647 -0.044814743 -0.170697 0.10571718
0002d0 dc a7 7a 3d 9c df c2 bd 2f c3 50 bd 89 b2 f2 bd
       0.06119524 -0.09515306 -0.05096739 -0.11850459
0002e0 3b 4b 1c bd 8e 9d 31 bd 66 0a f4 bc 9b 83 2c bd
       -0.038157683 -0.043363146 -0.029790115 -0.042117696
0002f0 bf 8b bb 3c b2 6a d9 3d 33 bd 09 3b 51 59 14 bd
       0.022893785 0.10616054 0.0021017313 -0.03621799
000300 af ea 34 3c 11 1d 95 bd fe 40 1c 3d f1 82 d8 bc
       0.011042281 -0.072809346 0.03814792 -0.026429625
000310 0f e4 47 bd e2 a2 aa 3d 0e 76 b0 bd b4 07 aa 3a
       -0.048801478 0.08331849 -0.08616267 0.0012972266
000320 15 6c 13 3e 06 1f 9e 3d 35 25 ab bd 7b 9e c5 3d
       0.14396699 0.07720761 -0.08356706 0.096493684
000330 1e 57 ce bc d8 d0 58 bd 55 bc 26 3e 18 c7 83 bd
       -0.025188025 -0.052933544 0.1628278 -0.064344585
000340 0e 6e d9 3d 86 89 e5 3d e7 cb 15 bd 7f 66 dc 3d
       0.106166944 0.11207871 -0.03657141 0.10761737
000350 39 13 8f bd a6 45 b9 3d 22 b3 fd bd 28 ba 1c be
       -0.06986088 0.090464875 -0.123876825 -0.15305388
000360 5c 8b 5c 3d 13 d4 0e 3e 01 81 a6 bc 8c 6b 07 3e
       0.05384384 0.13948087 -0.020325186 0.1322462
000370 af bf 7d bc b0 c1 10 3e ed 06 6a bb 96 34 98 bd
       -0.015487595 0.14136386 -0.0035709694 -0.07431905
000380 e4 4c 6c 3e 3b 38 b8 3d f1 1e 1e be 5d 30 d1 3d
       0.23076206 0.089951 -0.1544149 0.10214303
000390 da 09 6c 3c f3 5f e1 3d 88 46 c1 3c c3 c9 d1 bd
       0.014406646 0.11004629 0.023593202 -0.10243561
0003a0 6f 1a 6e 3e e6 5c bf bd fe 2b c9 3d fd 1f eb bd
       0.23252271 -0.09343891 0.09822844 -0.11480711
0003b0 14 cc 34 bc 67 ba 11 bd 98 98 34 3e 2f e0 7c bd
       -0.011034984 -0.035578158 0.17636335 -0.061737236
0003c0 6b 09 3e bd 8f 15 19 be 99 9c 2a 3c fd 09 11 3d
       -0.0463957 -0.1494963 0.010413312 0.035409916
0003d0 da 61 68 3d 72 a2 31 3c ba 5c b1 bd 31 96 4b bd
       0.056733944 0.010841953 -0.08660264 -0.04970378
0003e0 fd be 50 3c f6 36 9d 3d 9b 92 d1 3d 65 6e 8e bc
       0.012740848 0.076764986 0.10233041 -0.017386625
0003f0 17 02 6c bd 18 d8 b1 bd 61 db 5a 3d c0 e7 03 3d
       -0.05761918 -0.08683795 0.053431872 0.032203436

classifier.4.bias f4 [10]
000000 6f a8 21 be f5 a1 8c 3b b4 8a 24 3d 24 78 9d 3d
       -0.15786909 0.0042917677 0.04017134 0.07688931
000010 a7 65 35 bd 9e 29 d1 bd e6 10 ca 3c 9e ba 3f 3d
       -0.044286396 -0.10213016 0.02466626 0.04680883
000020 78 9a 5c bd 70 42 2b bd
       -0.05385825 -0.041811407
