experiments/LeNet/CIFAR10/experiment-7/last-epoch.pt (torch, 255339 bytes, 10 tensors)

features.0.weight f4 [6, 3, 5, 5]
000000 83 8c ae bd dd b8 ac 3d 6b b6 a3 3d 0b bd dc ba
       -0.08522894 0.084336974 0.07993778 -0.0016841007
000010 87 34 bd 3d 69 f3 b2 3d de 50 3e 3e ad eb 0f 3e
       0.092385344 0.08737833 0.18585536 0.14054747
000020 9e 65 3a 3e e4 75 21 3d 84 84 5d 3e 66 91 78 3e
       0.18202826 0.03941907 0.21632582 0.24274215
000030 2b 37 5d 3e f7 74 df 3d e8 27 8b 3e 64 0e 89 3e
       0.21603076 0.10910981 0.27178884 0.26768792
000040 c0 f7 3e 3e 88 82 81 3e 46 d1 3a 3e 34 8d b4 3e
       0.18649197 0.252949 0.18243894 0.3526398
000050 ba 2d 63 3e 8a f3 8c 3e 01 fc d8 3e b3 b7 f2 3e
       0.22185412 0.27529556 0.42379764 0.47405776
000060 39 8f f2 3e 2c cf c0 3d ab 21 f4 3d 22 40 1f 3e
       0.47374895 0.09414515 0.11920484 0.15551808
000070 72 43 3e 3e 09 8d 14 3e 1d d1 6f 3e 68 4d 3f 3e
       0.18580416 0.14506926 0.23419614 0.18681872
000080 86 e6 b1 3e 3f bd b4 3e 83 b9 95 3e c3 27 66 3e
       0.34746188 0.35300633 0.29243097 0.22476105
000090 10 3e 26 3e 49 7c 72 3e a8 a1 7a 3e 7e 15 8c 3e
       0.16234612 0.23680224 0.2447573 0.27360147
0000a0 46 df aa 3e e1 25 b1 3e b7 fc 88 3e 53 90 b7 3e
       0.3337347 0.34599212 0.26755306 0.35852298
0000b0 10 b0 d3 3e 34 f4 b8 3e 17 2a d3 3e 8f c3 fa 3e
       0.41345263 0.36123812 0.4124305 0.48977324
0000c0 44 7e bd 3e 94 f8 e4 3e d4 1a ef be 27 5e e6 be
       0.37010396 0.447209 -0.46700156 -0.44993708
0000d0 a2 15 02 bf 21 bb f1 be 03 a7 d6 be 9e 0e bb be
       -0.5081426 -0.4721308 -0.41924295 -0.3653459
0000e0 30 b7 07 bf 66 1b d9 be 22 be cf be 12 dc f1 be
       -0.53013897 -0.42403716 -0.40574747 -0.47238213
0000f0 3c eb 18 bf 2b fb e0 be 17 f5 c0 be b0 22 d7 be
       -0.5973394 -0.43941626 -0.3768699 -0.42018652
000100 e5 ce d9 be 9a 8b e3 be 81 2e d0 be 65 ac c3 be
       -0.4254066 -0.44442445 -0.4066048 -0.38217464
000110 1d 31 b1 be 3e 84 d9 be de de b6 be 89 6e a8 be
       -0.34607783 -0.42483705 -0.3571691 -0.32896832
000120 e1 c7 e5 be 26 e5 cf be ff 55 cc be 84 aa 0b 3c
       -0.44879058 -0.40604514 -0.3990936 0.008524541
000130 2c 24 79 bd 94 1b 4e ba d2 15 11 bd 8e 6e 8d 3d
       -0.06082551 -0.0007862386 -0.0354212 0.06905852
000140 48 c8 a8 bc 8a db 0d 3e 08 a0 37 3d 2d a1 cb 3d
       -0.020603314 0.13853279 0.044830352 0.09942851
000150 50 36 95 3d 68 22 8b 3d 34 16 44 3b f8 8a 0e 3e
       0.0728575 0.06793672 0.002992046 0.139202
000160 73 44 d9 3d d5 40 fc 3d 62 97 07 be e8 af 8d bd
       0.10608759 0.12317053 -0.13241342 -0.06918317
000170 28 28 c3 bd 9e e0 0d be b6 6e 2f bd 58 2a 37 3c
       -0.095291436 -0.13855216 -0.04283019 0.011179529
000180 ac f2 c0 bd e8 55 a4 3c 67 b8 c4 bd 03 8a 5d bd
       -0.09421286 0.020060495 -0.096054845 -0.054086696
000190 65 fa a8 3d 70 42 a4 bb 6b 32 17 3c 47 a0 42 bd
       0.08250884 -0.005012803 0.009228329 -0.047516134
0001a0 1b 45 8e 3d 0e fb 30 3d 4e 1f 9a 3d 52 2f 0a bd
       0.069467746 0.043208174 0.07525502 -0.033736534
0001b0 ff 3e 96 bd c8 b1 e7 bb a5 12 af bd 6f 25 91 3d
       -0.07336234 -0.0070707537 -0.08548478 0.07087218
0001c0 67 d4 07 3e a8 9a 97 bd 10 a4 a1 3d 98 b2 b4 bd
       0.13264619 -0.07402545 0.078926206 -0.088231266
0001d0 2f a9 81 3d 15 47 b4 bd 11 33 a2 3c bb fd 1d bd
       0.06331097 -0.0880262 0.019799741 -0.038572054
0001e0 7e f9 2b bd 87 58 c9 bd a5 09 1e be 17 57 e9 bd
       -0.04198598 -0.098313384 -0.15433367 -0.11393564
0001f0 5d 7f 00 be 80 c7 18 bd 13 4a 59 3c 9c 5e db 3b
       -0.12548585 -0.037299633 0.01326229 0.006694628
000200 bd c8 19 3d 40 15 72 bd da 54 5a 3d 89 4a a7 3d
       0.037544955 -0.059102297 0.053303577 0.08168513
000210 14 df 8e bd 13 db 88 3d 08 fb ee 3b 46 e6 e3 bb
       -0.069761425 0.0668241 0.007293109 -0.006954941
000220 b2 34 22 3d 11 69 f4 3c f8 4e 07 3d 46 9e bc 3b
       0.039601035 0.029835256 0.033034295 0.0057561724
000230 6e 3c 01 bd ed 6c 87 3d f7 f1 61 3d 13 07 99 bd
       -0.03155177 0.06612573 0.055162396 -0.074720524
000240 00 4d 63 3d 12 35 b4 3d b2 9c c9 bd 12 bf b7 bc
       0.055493355 0.08799185 -0.098443404 -0.022429977
000250 54 3d ee bd c7 91 69 3d b9 61 eb bc 83 89 1e bc
       -0.11632791 0.05702379 -0.028733121 -0.00967634
000260 70 d3 bb bc 93 e6 17 bd 24 82 bc bd 4c 05 8e bd
       -0.02292797 -0.037085127 -0.0920451 -0.06934604
000270 68 f3 ce 3c 8d 4c 26 3d 20 5b 0f 3d 7d 1a 4d bd
       0.02526255 0.04060035 0.034999013 -0.05007409
000280 3d 9c de bc 85 40 05 be 8b 2d 45 bd e6 83 eb bd
       -0.02717411 -0.13012893 -0.048139136 -0.11499767
000290 29 ea 24 bd ae 08 60 be ec 5f ea bd 0f 9a 9b bd
       -0.040262375 -0.21878311 -0.11444077 -0.07597744
0002a0 a3 da 6d be 2f 21 87 bd 2f 4a 78 bd 3f f8 4f be
       -0.23227935 -0.06598126 -0.060617622 -0.20309542
0002b0 7e cb be bd 81 46 45 be 77 5c 8a be 57 eb 9c bc
       -0.09316157 -0.19265176 -0.2702367 -0.019155188
0002c0 54 41 15 3d 6f d1 7f 3b 2a 7d da 3d 40 e1 ee 3d
       0.036439255 0.0039034744 0.106684044 0.11664057
0002d0 81 b6 23 bd df 2d 0b 3e c2 9c cc 3d 40 1b c2 3d
       -0.03996897 0.13591717 0.09990837 0.09477854
0002e0 45 20 0e 3d 49 11 31 bd ec c2 34 bd 1c 5e 9e bd
       0.034698743 -0.043229375 -0.044131204 -0.07732794
0002f0 57 c4 5f bd 23 88 28 bd ca 54 1f be 1e 8a ec bc
       -0.054630604 -0.041145455 -0.15559688 -0.028874453
000300 f5 5b 66 be cb b3 60 bd 01 f5 18 be 41 b7 f6 bd
       -0.22496016 -0.054858964 -0.14937212 -0.12046672
000310 af 05 92 be 54 d0 eb bd 24 67 35 be af 08 a6 be
       -0.2851996 -0.11514345 -0.17715126 -0.324285
000320 6f 64 b6 3e 2d 2b 5c 3e c1 29 91 3e 3d 36 97 3e
       0.356235 0.21500845 0.28352168 0.29533568
000330 58 92 49 3e a0 f2 a9 3e 46 8d 8a 3e b0 15 d3 3e
       0.19684732 0.3319292 0.27060908 0.41227484
000340 96 63 85 3e 37 a4 28 3e ac 17 6c 3e 5e 49 64 3e
       0.2605254 0.16468893 0.23055905 0.22293612
000350 25 4e 8e 3e d8 2b 0e 3e 4d 39 92 3e 8c 55 eb 3d
       0.27793995 0.13883913 0.28559342 0.11490926
000360 c5 e4 71 3e 93 5b a8 3d 18 04 02 3e e4 8b 14 3e
       0.23622425 0.082205914 0.12696874 0.14506489
000370 99 92 49 3e 08 07 d7 3c 50 d0 f8 3d a2 f1 08 3e
       0.19684829 0.02624847 0.121491075 0.13373426
000380 29 e6 04 3d a0 59 10 bd df 4c 4b 3d b5 58 83 bc
       0.03244606 -0.035241723 0.049633857 -0.01603351
000390 bc a9 d4 bd a5 91 b4 bd 31 19 e7 bd b7 40 43 3d
       -0.10383937 -0.08816842 -0.11284102 0.04766914
0003a0 5c 64 cb bd d9 d5 50 bd 04 19 46 bb 79 e1 cf 3d
       -0.099312514 -0.05098519 -0.0030227313 0.10150427
0003b0 97 97 86 3d 59 8b b1 b9 a6 f6 8c 3c fb 46 b6 3c
       0.06571882 -0.00033863893 0.017207455 0.022250643
0003c0 6b 5f 72 bd 06 bd ac bd 8a 74 4a 3d 3c 61 f5 bc
       -0.05917303 -0.08434491 0.049427547 -0.029953592
0003d0 ea ce e2 bd c4 60 8d 3d 75 25 e6 bd 29 f0 b8 bd
       -0.11074622 0.06903222 -0.11237613 -0.09030182
0003e0 3a 25 68 bd 7f ee 0b bd b5 05 d5 3d 6d 96 e3 3d
       -0.056676127 -0.034162994 0.10401479 0.11112676
0003f0 82 fd 3c 3d be 88 36 3d c5 88 b6 3d 45 5b 01 bd
       0.0461402 0.044564 0.089128055 -0.031581182

features.0.bias f4 [6]
000000 31 54 bf 3e 4c a3 43 3b 98 83 07 bf 7e 74 2e bc
       0.3736892 0.0029851971 -0.5293517 -0.010647891
000010 d3 6e 53 bf 99 0f 8d be
       -0.8259098 -0.27550963

features.3.weight f4 [16, 6, 5, 5]
000000 41 3f b9 bd fa a4 46 bd e1 af 98 bd 1c be 16 be
       -0.09045268 -0.048497178 -0.07455421 -0.14720958
000010 52 f5 bc bd 5b 17 10 bc 27 b7 83 3d a6 a3 7e 3d
       -0.09226479 -0.008794631 0.06431418 0.062167786
000020 75 4c 55 bc a9 8f 95 3d be e7 de 3d 69 7a 89 3d
       -0.013018717 0.073027916 0.10884045 0.06712801
000030 5b 42 00 3e 94 93 67 3d bc ef 07 3e 14 61 a2 bb
       0.12525313 0.056537226 0.13275045 -0.0049554203
000040 2e d3 4c bd 9d 0c 12 bd 20 73 88 bd 6a 2a 43 bd
       -0.050006084 -0.03565656 -0.06662583 -0.04764787
000050 03 d4 99 be b4 6e ac be 0d 00 b7 be 26 32 bd be
       -0.30044565 -0.3367821 -0.35742226 -0.36952323
000060 fd 30 ce be cd fe b3 3d f4 cc 62 3b 59 bd 09 bd
       -0.4027175 0.08788834 0.0034607025 -0.03362784
000070 9c 67 37 bb ae 99 4d bd 1a 28 98 bd 37 fe 01 3d
       -0.002798534 -0.05019539 -0.07429524 0.03173658
000080 e4 9e d3 3c 11 89 a9 3d cf 0d 97 bc 5f 60 8b 3b
       0.0258326 0.082780965 -0.018439202 0.0042534317
000090 c3 35 60 3d a5 5f a0 bd f5 d5 f6 3c 10 fe 09 3d
       0.05473877 -0.07830743 0.03013132 0.03368956
0000a0 34 6c 92 bc 4b 83 b0 3c 5f 58 b8 3d 2a 03 85 bd
       -0.01787386 0.02154698 0.090012304 -0.06494744
0000b0 fe 6b b8 bc 5b c9 83 3c 64 cb 4a 3c de 7a 04 3d
       -0.022512432 0.016087225 0.012377594 0.032343738
0000c0 98 6e 21 bd 3c b5 b1 3d bb fe 06 3e 06 a2 68 3d
       -0.03941211 0.08677146 0.1318311 0.056795143
0000d0 c0 18 fc 3c a8 31 a0 3d e0 da 0c 3e 18 69 86 bd
       0.03077352 0.07821971 0.13755369 -0.06563014
0000e0 a1 f6 95 3c 3b 7b 14 bd c1 d3 95 bd 4c d2 31 3d
       0.018306078 -0.036250334 -0.073157795 0.043413445
0000f0 79 1c 57 3c 01 81 96 bc eb 4b 16 be 8c 44 81 3b
       0.013129347 -0.01837206 -0.14677398 0.003944939
000100 41 4d 89 bd f8 67 f4 3c ae 22 01 3d bc bc ce bc
       -0.06704188 0.029834732 0.031527214 -0.02523648
000110 ae e2 c0 3d ce c8 ac 3d 99 bd a9 bd 6e b2 ba 3d
       0.09418236 0.08436738 -0.08288116 0.09116064
000120 a1 d4 26 bd 2a 5a 15 3d 30 9a 53 bd 5e d0 1a 3d
       -0.040730122 0.03646294 -0.051660717 0.03779637
000130 94 77 83 3d ac a1 b8 bc ff 87 cc 3c 49 f9 56 bc
       0.06419292 -0.022538029 0.024967192 -0.013120958
000140 22 bc 4d bd 90 32 1a 3d 9d a8 0f bd b3 3a 2d bc
       -0.050228246 0.037645876 -0.03507291 -0.010573077
000150 35 82 04 3d f0 c8 48 bb 92 53 98 3c b5 33 00 bb
       0.032350738 -0.0030637346 0.018594537 -0.001956207
000160 5a 66 97 bd 47 69 df bc b1 1f 0d bd 03 18 9a bd
       -0.07392569 -0.02727188 -0.03445405 -0.07524111
000170 0e 97 9f 3d 5a 3e 01 bd 3e 35 56 bd 0a 3d 0a 3d
       0.07792483 -0.031553604 -0.05229687 0.033749618
000180 37 17 6e bd a7 15 45 bd c4 91 36 bd b9 d0 61 3d
       -0.05812761 -0.048116352 -0.044572607 0.055130694
000190 d4 60 29 3e df 8d d2 3d bc 37 0d 3e fb 70 db 3d
       0.16540843 0.10280966 0.13790792 0.10714909
0001a0 20 ab 6b 3e 7b 42 d7 bd 5b 30 22 be ad 3b fb bc
       0.23014498 -0.10510727 -0.15838759 -0.030668104
0001b0 d8 9a 05 bd e4 f6 7d 3d d1 f6 5f 3c c0 71 60 bc
       -0.032618374 0.06200303 0.013669685 -0.013698995
0001c0 47 16 8a bc 95 8f c2 3d d9 b6 05 3e 19 37 26 3d
       -0.016856326 0.09500042 0.13058032 0.04057989
0001d0 75 3d fd 3d 7e 11 67 3d 25 b6 51 3e 95 44 12 3e
       0.123652376 0.056413166 0.20479639 0.14283974
0001e0 7b 60 c6 bd 96 20 74 bd 74 fb 21 3c 56 2a a5 bc
       -0.09686371 -0.05960139 0.009886611 -0.020161789
0001f0 8c 1e a3 bd 95 b2 9d 3b 9a 23 d1 bc 32 5a 20 3d
       -0.07964811 0.0048125484 -0.025529671 0.039148517
000200 ce 3c 26 bd 7f f3 95 bc ea 81 b0 bb 9d b5 86 bb
       -0.04058533 -0.018304585 -0.0053865807 -0.0041110055
000210 67 2d a8 bd ff 61 84 bd 50 7c 92 3c e2 46 ba 3c
       -0.08211785 -0.06464004 0.017881542 0.022738878
000220 61 53 01 be 36 d9 1a be e9 91 25 be 32 85 0e bd
       -0.12629463 -0.15121922 -0.16168942 -0.034794994
000230 40 ee 09 3b 4e d3 f4 bd 05 d7 11 be db 93 10 be
       0.002104655 -0.11954366 -0.1424218 -0.14118902
000240 61 bd b7 bc 82 38 9b bd ce 18 b3 bb ee ef 76 3a
       -0.02242917 -0.075791374 -0.0054656034 0.00094199076
000250 1f 11 79 bb ae b2 fd bd 97 b0 2d 3e 2d 30 da 3d
       -0.003800459 -0.12387596 0.16961895 0.1065372
000260 73 a8 ff bc e1 06 0d be c8 36 b8 bd bc e8 9b 3d
       -0.031208253 -0.13772155 -0.08994824 0.0761275
000270 ed d8 e7 bb d7 de 2b bc e1 04 32 be 5f d6 76 be
       -0.00707542 -0.010490141 -0.17384674 -0.24105214
000280 2a 3a 22 3e 19 d8 a7 3c 3a 94 cc bc f7 8d 36 be
       0.158425 0.020488786 -0.024973024 -0.17827593
000290 8b c2 be bd a8 d1 87 3c e9 00 76 3c 89 bb fc 3c
       -0.0931445 0.016579464 0.015014865 0.030851142
0002a0 18 0d 17 be b6 d1 f7 bb 9e df 6b 3e da 50 93 3d
       -0.14751089 -0.0075628413 0.23034522 0.071931556
0002b0 04 1b 05 3e 57 bc dc 3c db 6b 65 3c 4b a5 93 3c
       0.12998587 0.026945276 0.0140027655 0.018023154
0002c0 96 77 70 3c c7 a7 0b bd 40 af 59 bd d4 c0 24 3d
       0.014676949 -0.03409555 -0.053145647 0.040222958
0002d0 9b 9d 8d 3c 85 c4 a2 bb ff df 9a 3b b2 a0 aa bc
       0.017287066 -0.0049672746 0.0047264094 -0.020828579
0002e0 91 d4 a1 3d 21 c9 89 3d d3 33 79 bd 3c 6b 0f bd
       0.07901872 0.067278154 -0.06084044 -0.035014376
0002f0 97 b0 0f 3d 92 24 a5 3c f3 1e 94 bd 14 26 9f bd
       0.03508052 0.02015904 -0.072324656 -0.07770935
000300 d6 1a 4e 3d 15 59 bc 3c 0f d4 66 bd 68 b6 b8 bc
       0.05031856 0.022991696 -0.05635458 -0.022547916
000310 6e cb 4b 3c e5 13 15 3d 9e 77 a3 3c 40 a1 ab bd
       0.012438638 0.036395926 0.019954499 -0.08380365
000320 b4 67 bc bc de 3c a8 3c 42 7c a4 bd 5d b3 79 bd
       -0.022998668 0.020536836 -0.08031513 -0.06096207
000330 9d 46 15 3a 2a e0 ab 3d 5f b6 0d 3d e9 52 b6 bc
       0.0005694421 0.08392365 0.03459775 -0.022256332
000340 c3 2d a5 bd f1 65 2e bd bd 5f db 3d 86 f1 55 3d
       -0.08065369 -0.042577688 0.1071162 0.052232288
000350 a6 0e 53 bd ea 8c 03 be a4 27 31 bd 42 28 41 3c
       -0.05152764 -0.12846723 -0.043250695 0.011789383
000360 91 c8 8d bb d2 1e 95 3c c8 e9 1a bc 2d 0b 17 be
       -0.004326888 0.018203173 -0.009455152 -0.14750357
000370 72 bc 9a bd 68 43 a3 bd 3b b3 94 bc 6b fd a8 bd
       -0.07555474 -0.07971841 -0.01815187 -0.08251461
000380 36 2a 3f 3c 5d b9 8b bd aa 22 df 3c 90 b2 9d bd
       0.011667779 -0.068224646 0.027238209 -0.07700074
000390 e6 a2 d6 3b 5c 00 28 3c ad 1d 3a bd e4 97 a6 bb
       0.0065501807 0.010253992 -0.045438457 -0.0050840247
0003a0 56 89 b2 3c 57 b1 11 3c 75 09 5a bd 56 09 3d 3d
       0.021794003 0.008892379 -0.053231675 0.04615148
0003b0 2e 61 8d bc f7 36 37 3d 8b db 3a 3d c1 06 75 3d
       -0.017258253 0.044730153 0.04561953 0.059820894
0003c0 dc ec 89 3d 64 0d a5 bc eb 01 32 3d a8 f7 f8 bb
       0.067346305 -0.020147987 0.04345886 -0.0075978823
0003d0 f0 48 49 bc 77 d9 0c bd 3a 1a 98 bc 20 fb 60 3d
       -0.012285456 -0.034387078 -0.018567193 0.05492699
0003e0 b9 04 ad bc cc 9d 1b bd ce b4 c3 3d b0 1a 5f bd
       -0.021120416 -0.037992284 0.0955597 -0.05446881
0003f0 fb df 15 be 74 9d d9 be f3 2e be be 53 69 83 3e
       -0.14636223 -0.4250294 -0.37145194 0.25666294

features.3.bias f4 [16]
000000 dd c0 f5 3d 33 43 c2 3e 77 2a 7b 3e bd 1c 27 3e
       0.119996764 0.37941894 0.24527918 0.16319557
000010 05 f8 00 bd 7d a5 80 bd 0c 4b 7f bd 21 47 63 3e
       -0.03148653 -0.062815644 -0.06232743 0.22195102
000020 f8 35 97 bd be e5 ea bb 29 07 83 be 91 2d 0c bf
       -0.073833406 -0.0071685007 -0.255914 -0.5475703
000030 f1 88 a0 bc b9 63 ad 3d 47 15 df 3c 86 9e 13 3d
       -0.019596549 0.08466286 0.027231826 0.03603985

classifier.0.weight f4 [120, 400]
000000 5b 3f 1b bc 73 ff 0d 3c 32 c7 1b 3c 9a 2f ad 3c
       -0.009475554 0.008666861 0.009507941 0.021140862
000010 1d 51 6b 3d bc e3 ec 3a 99 8f cd 3c 9a 8a 09 bd
       0.057450403 0.0018073241 0.025092887 -0.033579446
000020 f0 c0 3e 3d 7a 29 f5 bb 98 ba a2 bc 77 7d 33 3d
       0.04657072 -0.007481751 -0.019864365 0.043820824
000030 4a f9 17 3d 23 fa 01 bb 9a 88 b7 3c 43 51 c4 bc
       0.037102975 -0.001983293 0.022404004 -0.02396453
000040 45 38 c0 3c c5 32 24 bc 95 9c 1c bd c2 1a 9a bc
       0.023464331 -0.01002187 -0.038235266 -0.018811587
000050 e8 f4 0f 3c 5b 41 65 3c 57 75 b9 bc 71 4b e9 bc
       0.008786418 0.013992633 -0.02263896 -0.028478356
000060 a2 92 b0 bc 6c 8f 6d bb 9f f1 bf 3d 58 bf 3b bc
       -0.021554295 -0.0036248816 0.093722574 -0.011459194
000070 07 7a 09 bd 94 48 36 3d b7 d3 5b bd 08 c0 96 3d
       -0.03356364 0.04450281 -0.053668704 0.07360846
000080 47 4b cd bc f8 0b 8c bd b0 3e b4 bc bc 6d de 3c
       -0.02506031 -0.0683822 -0.022002548 0.027151935
000090 49 54 98 3d 91 97 25 bc 21 ae 51 bd 42 10 e5 3c
       0.07437951 -0.010106937 -0.051191453 0.027961854
0000a0 65 19 3d bd cc 4c 95 3d 14 fe 87 ba f8 45 b4 bc
       -0.046166796 0.072900385 -0.0010375404 -0.02200602
0000b0 81 b1 b3 bb 03 b7 ce 3c 46 a1 6b 3d 40 29 72 3c
       -0.0054838066 0.025233751 0.05752685 0.014780343
0000c0 22 98 06 3d 44 56 e4 3c 73 00 28 bd 1e b8 ab 3c
       0.03285993 0.027873166 -0.041016053 0.020961817
0000d0 4f 7f 06 3c c9 11 70 3c 56 eb 15 3c da a0 e3 bc
       0.008209064 0.014652678 0.009150347 -0.027786661
0000e0 1b 44 9b bc 2d 7a 86 bc b6 74 02 bb 90 b1 ab 3c
       -0.018953374 -0.01641568 -0.001990599 0.020958692
0000f0 62 65 ca 3c d8 49 e3 bc a1 c5 07 bd 82 95 3e 3c
       0.024706546 -0.027745172 -0.033147458 0.011632325
000100 04 22 84 bc 20 a8 92 39 3a a0 2e 3d bc 11 80 3d
       -0.016129501 0.00027972553 0.042633273 0.062533826
000110 26 2c 8c 3d d3 8e 77 3d bc d5 52 bb 5b 2f 43 3d
       0.06844358 0.060438942 -0.0032170853 0.047652584
000120 39 77 e7 3a c1 a0 27 3d b1 68 17 3d 83 b1 8e bc
       0.0017659432 0.04092479 0.036965076 -0.017418629
000130 4d 01 f4 ba 5c 02 33 bc 2f f2 6f 3d 7c 75 17 bd
       -0.001861611 -0.0109258555 0.058580574 -0.036977276
000140 b3 a2 9e bc 80 c9 b0 3c 6e b2 d7 3c b2 4d 1d 3d
       -0.01936469 0.021580458 0.0263302 0.038404174
000150 82 bb d6 bc 04 2e 97 bb 3f d9 d4 ba e8 8a 22 bc
       -0.026212458 -0.00461364 -0.0016239061 -0.009920813
000160 bc d7 f0 3c 5b 85 da b9 c5 92 14 bd 97 2a b6 bc
       0.029399745 -0.00041679558 -0.036272783 -0.022237105
000170 91 1c fc bc c3 93 92 3a be 28 38 3d 8e b0 a7 bc
       -0.03077534 0.0011182952 0.04496073 -0.02046993
000180 29 cc 1f bc ab 6b 8d 3c f6 dd 71 3c 00 67 0f 3d
       -0.009753265 0.017263254 0.014762392 0.035010338
000190 9a 41 a3 3b 74 f0 67 bc 2f 99 1c bd 55 94 07 bd
       0.0049821856 -0.01415645 -0.038232025 -0.033100445
0001a0 28 2a fa bc 5f ea 78 3c f2 6f fb 3b 3e e5 f3 bc
       -0.03053768 0.015192597 0.007673257 -0.029772397
0001b0 fd df 0e bd 69 7e d1 3c 12 ba 0c bc 0f 02 1d bd
       -0.03488158 0.025572972 -0.0085892845 -0.03833204
0001c0 2c a4 3a bb b5 73 50 3c 42 50 4d 3d f4 a6 28 bb
       -0.0028479202 0.012722899 0.050125368 -0.0025734277
0001d0 e5 a6 dc bc f2 6a 63 3d 57 76 8a 3d 80 c0 8f 3c
       -0.02693505 0.055521913 0.06760853 0.017547846
0001e0 ef 73 89 3c 41 e9 19 ba fa 68 5a bc 99 5c 9e bb
       0.016778914 -0.00058712444 -0.013330692 -0.004832816
0001f0 d0 42 ab b9 f2 9c a9 bc b0 8d 49 3d 98 2b 2d 3d
       -0.0003266544 -0.02070472 0.04920739 0.042277902
000200 cb 40 32 bd fb c2 37 3d f1 72 93 3c 2e e0 21 3d
       -0.043518823 0.044863682 0.017999144 0.039520435
000210 2c 97 ed 3b 4b 2c 21 3d 90 f7 a1 3c 41 3c 13 3d
       0.007250687 0.03934888 0.019771367 0.035946134
000220 6f f8 c3 3c fd 26 95 bc c1 d1 3c bd 6c 05 d6 3c
       0.023922173 -0.018207068 -0.046098474 0.026125632
000230 26 e6 0b bc d4 b8 82 bb bb 44 d1 bb 2b 45 63 bc
       -0.008538758 -0.0039893184 -0.006386367 -0.013871471
000240 be 35 06 3d 00 23 1f 3d 31 cd 35 bd 3a e8 a5 3c
       0.032766096 0.038851738 -0.04438514 0.020252336
000250 0f ab 1f 3d 19 b8 32 3d d7 5c d9 3b 0b 74 14 3d
       0.038981494 0.0436326 0.006633382 0.03624348
000260 05 13 f7 bc 52 95 1a bd a8 0b cc bc 15 93 89 3d
       -0.030160436 -0.03774006 -0.024907902 0.06717507
000270 a8 ce 79 3d 84 6d 74 3c d4 54 1b bd fa 15 a0 3c
       0.0609881 0.014918689 -0.037922695 0.01954173
000280 d2 15 91 bb 27 d1 a8 3c 5f 4e ff bc b6 0d d3 bc
       -0.00442765 0.020607544 -0.0311653 -0.025763374
000290 7e 7d 85 3c 11 35 93 3b a3 b9 48 bd 23 91 e9 bc
       0.01629519 0.00449241 -0.049005162 -0.02851159
0002a0 ba 9f 4a bc 0d c1 ac bc 87 28 73 bb 03 ad a5 3c
       -0.012367183 -0.021088148 -0.0037103014 0.0202241
0002b0 95 29 31 bc 48 eb 29 bc a6 aa 0d bc ae 69 fa bb
       -0.010813137 -0.010371037 -0.008646643 -0.0076419925
0002c0 a6 21 cd 3c 83 f5 01 3d 26 a1 0f bd 05 57 07 3d
       0.025040459 0.03172828 -0.035065793 0.033041973
0002d0 cf f7 e0 bc 36 7f 03 3d ff 6b 1d bc d6 06 51 bc
       -0.027461914 0.03210374 -0.009608268 -0.0127579775
0002e0 19 89 51 bd cd 7c 37 bb c0 2f e4 bc 4a cc 5b bd
       -0.051156137 -0.002799797 -0.0278548 -0.053661622
0002f0 69 e5 6d bd 52 6b 1d 3c 47 51 05 3d d7 e2 84 bb
       -0.05808011 0.009608107 0.032548215 -0.0040553617
000300 82 fb 1a 3c e3 c0 26 bd f6 ae 22 3d ab 0f 04 3b
       0.009459378 -0.040711295 0.039717637 0.002015094
000310 a7 d5 e3 3c 3f f9 2e bd 98 ce 18 3d d0 ad e3 bc
       0.027811838 -0.04271817 0.0373064 -0.027792841
000320 0d 6f 92 3c 72 da 2c 3c bd 9f 9f bc 13 05 5d 3d
       0.017875219 0.010550128 -0.019485349 0.053959917
000330 31 e5 63 bc 9d d6 01 bd 98 f2 15 bd de 8f 48 bc
       -0.013909624 -0.03169881 -0.03660831 -0.012241332
000340 86 30 96 bb b1 21 f5 3c 5f 72 0b bd 62 ed f2 bb
       -0.004583421 0.029923292 -0.03404462 -0.007413552
000350 27 65 c2 3c da e1 21 3d 13 36 92 bb 47 f6 bf bc
       0.023729874 0.03952203 -0.0044620126 -0.023432864
000360 a8 9f 54 bd a9 b9 26 3d de dc ca 3c 56 67 6c bd
       -0.051910073 0.040704403 0.02476352 -0.057715736
000370 7b c6 ba bc 25 f8 17 3c 44 a4 4d 3d fe 93 43 bc
       -0.022799721 0.009275471 0.050205484 -0.01193714
000380 da f4 6e bd a0 00 e7 bc e1 db 23 3c 6d 28 20 bc
       -0.058338977 -0.02819854 0.010001154 -0.009775263
000390 4a 2e c5 3c 6e 81 51 3d 67 63 7a bd 97 c8 05 bd
       0.024069924 0.051148824 -0.061129954 -0.032662
0003a0 f5 04 a2 bc 11 0b 25 3d 7c e0 30 3d 41 60 29 bd
       -0.019777754 0.040293757 0.043182835 -0.04135156
0003b0 86 f7 49 bd a8 ff 08 bb 74 c6 18 3d 02 cf 30 3d
       -0.049308322 -0.0020904336 0.037298635 0.043166168
0003c0 42 1d 06 3c 72 1c 8e bc 61 38 1d 3d 59 af c0 3b
       0.008185687 -0.017347548 0.038383845 0.005880278
0003d0 04 23 97 ba 56 a5 28 bd 4a 0e 91 bb fc dd 0f bd
       -0.0011530821 -0.0411733 -0.004426752 -0.03512381
0003e0 ca 1e 1b bd ba ae 93 bc 6f 70 8c bc 4c 16 5a 3c
       -0.03787116 -0.018027652 -0.017143456 0.01331098
0003f0 d9 8b ee bb e1 f5 0d 3d c2 21 30 3d 12 db a8 3b
       -0.0072798547 0.034658317 0.043000944 0.0051530683

classifier.0.bias f4 [120]
000000 0b 8f 1a bd 51 00 2c 3d 03 73 c9 3d 2d cf 96 3c
       -0.037734073 0.04199249 0.0983639 0.018409336
000010 6d 98 a5 3d 21 66 88 3d fd 5a 47 bd b3 9f 1c 3e
       0.080857135 0.066601045 -0.048670758 0.15295295
000020 c8 35 85 3c 95 ff 9a 3c 2c e0 0b bd 5f c1 4a bd
       0.016260996 0.0189207 -0.034149334 -0.04950082
000030 f9 01 32 3d 58 62 7f 3e 32 4a 0e bc 20 46 03 3d
       0.043458913 0.24939859 -0.008684682 0.0320493
000040 ee 12 68 3c 61 7d cc 3b d2 4c e6 3c 95 b2 a9 3d
       0.014164669 0.0062405323 0.028112803 0.08286015
000050 71 90 75 3d f3 8c b5 bc f7 a5 2d bb b9 a0 3c bd
       0.059952203 -0.022161936 -0.0026496628 -0.046051715
000060 2f cf 3f 3c a9 ef 06 3d fc 47 ea ba 04 dc 8b 3d
       0.011707111 0.0329434 -0.0017874236 0.06829074
000070 21 a7 9b 3c 18 4a a9 3d f9 b3 13 bd 03 e4 f4 3d
       0.019000592 0.082660854 -0.036060307 0.11957552
000080 9c 68 83 3d b9 3d 76 bd 7d bb 5c bd 91 08 0f bd
       0.06416437 -0.060117457 -0.05388974 -0.03492028
000090 bc 85 e3 3d 17 3b 55 3c 2b b2 ca 3d 65 e4 23 3d
       0.11109492 0.013014576 0.09897264 0.040012736
0000a0 d3 1d f4 3d 7b c1 21 3e 93 71 37 3e 20 d3 1b bd
       0.11919751 0.15796463 0.17914419 -0.03804314
0000b0 49 e5 82 bd 3e 76 8b bd c5 ee 63 3d 8d 85 97 3d
       -0.06391389 -0.06809662 0.05564763 0.0739852
0000c0 5f 58 57 3c ab 61 af 3d 0b 57 d0 bc 03 1b f4 bc
       0.013143628 0.085635506 -0.02543213 -0.029798036
0000d0 73 4b 92 3b dc 61 c9 bc c4 8d 14 bd 57 9a a7 3c
       0.0044645607 -0.024582796 -0.03626801 0.020459337
0000e0 94 4e 45 3d 2f 02 bb 3c 85 67 04 3e be b7 c6 bd
       0.04817064 0.02282819 0.12930115 -0.09703015
0000f0 5f d7 01 bc 40 ed 40 3e e5 ac 9a bc f6 16 b3 3d
       -0.007924884 0.18840504 -0.01888127 0.08744614
000100 41 b0 3e 3d 09 12 41 bd e7 1a d5 3d 1d a1 4e 3d
       0.046554808 -0.04713634 0.10405522 0.05044662
000110 da c7 1e bd e4 c5 3c 3d ad 5d ed 3c 36 7d b6 bc
       -0.038764812 0.04608716 0.028975332 -0.022276502
000120 4a b0 54 bd b1 a1 21 3e b9 fe b3 bc 16 19 e3 3d
       -0.051925935 0.15784337 -0.021972047 0.11088769
000130 b6 ea 0e be 60 41 68 bc cf 01 8c 3c 45 d4 1e 3e
       -0.13956723 -0.014175743 0.017090706 0.15510662
000140 a2 4e 03 bb b2 e4 73 3c fb ae fe 3c b5 e8 e7 3c
       -0.0020035882 0.014886068 0.031089297 0.028309206
000150 7e c5 b1 bc d2 c5 6a 3d 89 31 0d 3c 66 af b2 3b
       -0.021700617 0.057317562 0.008617767 0.005453038
000160 e1 b4 95 bd 7a bc 5c 3d 27 72 33 3c 59 52 0e 3e
       -0.073098905 0.053890683 0.010952509 0.138986
000170 af 7e 22 be 9a be 87 bb 35 a8 28 bc 70 39 94 bd
       -0.15868638 -0.0041425945 -0.01029401 -0.07237518
000180 7f ee 16 bd fd cb 01 bd 78 3a 12 3d 56 28 06 bd
       -0.03684854 -0.03168868 0.03570029 -0.03275331
000190 0a fa d7 3c 1f 6e 16 bd 84 b8 7f bd c2 fa fb bc
       0.026364345 -0.036726113 -0.062431827 -0.03075922
0001a0 d8 f0 42 bd 5c 08 6b bc 6c b1 3f 3d b5 c5 ee bc
       -0.047592968 -0.014345255 0.046800062 -0.029147008
0001b0 6e 66 8b 3d c2 06 16 3d 46 bd 83 3d db fc 48 3c
       0.06806646 0.03662754 0.064325854 0.012267317
0001c0 ea f0 f9 3b 9b 57 58 bd 5c 5b 5d bb 51 3e 01 3c
       0.007627596 -0.052817922 -0.0033776378 0.007888393
0001d0 4c 77 40 3d f4 43 47 bd e0 3c 28 3e d1 c6 64 3e
       0.04698877 -0.04864879 0.16429472 0.22341467

classifier.2.weight f4 [84, 120]
000000 1c 37 59 3c 3c 80 2a 3d b7 74 40 bc 9d 3f 92 3d
       0.013257768 0.0416262 -0.011746577 0.071410395
000010 9b 03 7a 3d 7a ad ac 3c e3 1e 33 bd 95 0b f2 3d
       0.061038595 0.021078814 -0.043730628 0.11818615
000020 d7 3c 82 3d e5 ae b8 3d dd 71 71 3d 9d 32 b7 bd
       0.063592605 0.090177335 0.05894648 -0.089452006
000030 7b c7 c4 3d 34 a6 9e 3d d6 af b8 3d f9 3e 57 3d
       0.096083604 0.077465445 0.09017913 0.05255029
000040 2d d9 ae bc ce da e8 bc 1e 1d 04 3d 43 86 ad 3d
       -0.021343792 -0.028424647 0.03225433 0.08472874
000050 b9 ee 95 3d da f6 d7 3c 90 1a df bc 41 59 b1 3d
       0.07320923 0.026362825 -0.027234346 0.08659602
000060 35 70 90 bd b3 f0 d1 bc b0 15 80 3d ee 24 54 3d
       -0.07052652 -0.02562747 0.062541366 0.05179303
000070 a4 4d ba bd 22 37 8a 3d 0a fc 9f bd 47 44 19 3d
       -0.0909684 0.06748797 -0.078117445 0.03741863
000080 ba d2 86 bd 5c 7f bd 3b e1 ca 79 bc 42 02 b3 3c
       -0.06583162 0.0057830047 -0.015246124 0.021851663
000090 19 96 00 3d 43 95 3a 3d 3c 63 97 bd b7 be 8c bd
       0.031393144 0.045552503 -0.07391974 -0.068723135
0000a0 46 67 c0 bc 11 a6 61 bd d8 a8 1b 3d 18 61 28 bd
       -0.023486745 -0.055090014 0.03800282 -0.04110822
0000b0 65 7e 8b bb cf 55 a0 bc d6 94 e1 3d 88 e3 31 bc
       -0.0042570108 -0.019572167 0.11014716 -0.01085747
0000c0 eb 6d a6 3d f3 9f 51 3d df 03 90 bd bc d6 6f 3b
       0.08126434 0.05117793 -0.07031988 0.0036596498
0000d0 8a 71 5a bd 63 dd d0 bc c3 dd 76 3c dd 58 30 bd
       -0.053330936 -0.02549619 0.015067521 -0.043053497
0000e0 32 65 03 3e fb dc 5a 3d a7 49 19 3d 90 bf dc bc
       0.12831572 0.0534334 0.037423756 -0.026946813
0000f0 6e 40 9c 3b c2 67 16 3d c9 13 a2 bd 49 46 f0 3d
       0.004768423 0.036720045 -0.0791393 0.11732156
000100 05 42 04 3d ed fb eb bd 12 0c 5c bd a1 a9 8a 3d
       0.032289524 -0.115226604 -0.05372245 0.067706354
000110 18 c0 7a 3c 78 b6 be 3d 4a cd 69 bb 93 e9 bf 3d
       0.015304588 0.09312147 -0.003567534 0.093707226
000120 5c f3 82 3d 02 e7 7a 3c 22 0d 46 3d b9 c2 19 3c
       0.06394073 0.015313866 0.04835237 0.009384804
000130 fe 78 7e bc 60 2d 30 bd 7d 98 f3 3c 44 b5 d5 3d
       -0.0155317765 -0.043012023 0.029735798 0.10434964
000140 fb 0b a0 bd 48 ee 50 3d 68 5a 88 bd e9 2f 6f 3d
       -0.07814785 0.051008493 -0.066578686 0.0583953
000150 65 45 28 bd ec 1a 4b bd 57 6d d9 3c 68 c3 75 bd
       -0.041081805 -0.04958622 0.026541395 -0.060000807
000160 da 27 e7 3d 7f 95 6a bd 7e 0c 29 3c 2d 2f c1 39
       0.11286898 -0.057271477 0.01031792 0.00036846977
000170 52 e0 3a bc 9e b6 e6 3d db a0 62 3d da 5b 7f 3d
       -0.011406021 0.112653 0.055329185 0.062343456
000180 8f 3d 20 bd 40 7c 9b bd ff 64 8d 3d 02 43 a3 3c
       -0.039121207 -0.07592058 0.06904029 0.019929413
000190 75 30 9d bd f7 e0 b8 3d 21 16 f8 bc 56 ff d3 3b
       -0.07675258 0.09027284 -0.03028399 0.0064696474
0001a0 1b 10 db bc ac 4a ab bd c5 07 84 3b e7 c7 d3 3d
       -0.026741078 -0.08363852 0.0040292465 0.10340863
0001b0 c9 5d 94 3c d7 2b 19 3d c7 71 6f bd 89 10 cf 3d
       0.018111126 0.037395325 -0.058458116 0.10110576
0001c0 e5 8f 21 bd ec 32 3b 3d 01 ee a7 3d 06 99 f4 bc
       -0.03944387 0.04570286 0.081996925 -0.029858124
0001d0 f5 40 3e bd 7b a0 ca bb 1a b2 2d bd 04 a4 03 be
       -0.046448667 -0.0061836815 -0.04240618 -0.12855536
0001e0 4a 78 23 3d 39 ec a7 3c bf 84 b6 3c 91 50 a7 3d
       0.03990964 0.020498382 0.022280095 0.08169664
0001f0 22 62 c0 3d bb 4a a8 bd c8 53 39 3d d3 a4 31 bd
       0.09393717 -0.08217379 0.045245916 -0.04337008
000200 41 e1 ac bd ed 70 fa bc f4 11 ae bd 42 c2 67 3c
       -0.08441401 -0.030571425 -0.08499518 0.014145436
000210 f9 e3 f6 3c 37 98 9d 3d da 80 7e bd c1 45 16 3b
       0.030138003 0.07695048 -0.0621346 0.002292976
000220 39 03 5b 3c 7b f6 44 bd a1 2b c6 3c 2d e8 4c bd
       0.013367468 -0.048086625 0.024190726 -0.050026108
000230 ff 2e d1 3d 8b d4 a4 bd ed 1a 0f bd ce d3 92 bd
       0.10214042 -0.08048352 -0.034937788 -0.07169305
000240 48 66 94 3d ad 09 7d bc ac 6b ad 3d d7 ee 58 3d
       0.07246071 -0.015444201 0.084678024 0.05296215
000250 ee 4f 83 bd 20 2c c4 bd 41 cf 89 bd 00 0f 37 bc
       -0.0641173 -0.09578729 -0.06728984 -0.01117301
000260 d3 e7 ee 3d f0 20 8b 3d e8 de 99 bd 12 40 09 bd
       0.11665311 0.06793392 -0.07513219 -0.033508368
000270 c6 4c 0e 3d c7 17 48 3d 59 57 0f bd 5a 91 83 3d
       0.034741186 0.0488508 -0.03499541 0.06424208
000280 f5 a3 a2 3d a9 de fb 3c c2 98 bb 3b b3 c9 aa 3d
       0.079414286 0.030745821 0.0057249973 0.08339252
000290 98 3f 8d bd 5b 9c f9 3d d7 dd 98 bd 43 30 04 bd
       -0.06896895 0.121880256 -0.074641876 -0.03227259
0002a0 48 a4 9e 3d 67 f8 4d 3d 46 a2 b6 3d e3 cd 94 bd
       0.07746178 0.050285723 0.0891767 -0.07265832
0002b0 4b ae 9b bc 31 f0 33 3d f2 b9 80 bd 5a a3 d7 bd
       -0.019004008 0.043930236 -0.06285466 -0.10529204
0002c0 73 45 c8 bd 85 50 34 bd 45 bb aa 3d 4d 9f 5d ba
       -0.097788714 -0.044022102 0.083365 -0.00084542186
0002d0 93 68 a5 3d 8e fe f4 3c 71 a8 84 3d 71 12 e3 bd
       0.080765866 0.029906537 0.0647744 -0.11087502
0002e0 46 f7 0b 3d ff 57 34 3d 35 73 98 bd 4e e9 30 bd
       0.034171365 0.044029232 -0.07443849 -0.043191247
0002f0 5f f6 c1 ba 50 65 37 bd af 97 96 bc e6 2f 55 3b
       -0.0014798156 -0.044774354 -0.018382875 0.003252977
000300 f8 92 7e 3d 13 a6 7d bd 48 0a 8f bd 4c a0 a4 bd
       0.06215188 -0.06192596 -0.06984383 -0.08038387
000310 e0 03 9c bc 4e 0c 91 3d 4d fd e2 3c 0a 35 45 bd
       -0.019044816 0.07082425 0.027708674 -0.048146285
000320 cc da a3 bd 1e 8d 55 bc 7b 86 4f 3d 1c d7 05 bd
       -0.080007166 -0.013034133 0.05066536 -0.032675847
000330 89 56 5a 3d fc f5 b1 bd 23 80 6f bc f6 79 39 3d
       0.053305183 -0.08689496 -0.0146179525 0.045282327
000340 ff fc aa bd cd d4 f6 3b c6 cf 5e 3c c3 57 63 3d
       -0.083490364 0.007532692 0.013599342 0.055503618
000350 09 b4 65 bd f6 0c ff 3d 3e ab c1 3c 2b 71 86 3d
       -0.056079898 0.12453644 0.023641225 0.06564554
000360 35 dd 93 3d 39 fd 35 bd d6 c8 61 bd 70 a3 13 bd
       0.07219926 -0.044430945 -0.055123173 -0.036044538
000370 6f dd bb 3d 4b 6e e7 bc 4b 6f 88 bc 78 fc 85 3d
       0.091730945 -0.028250834 -0.016654631 0.06542295
000380 04 b2 9b ba 27 00 44 3d 16 90 5e 3d 67 41 53 bc
       -0.0011878614 0.047851708 0.05433663 -0.012894011
000390 7b f6 c2 bd 4c 68 b2 3c 3d ec 39 bd 6c aa 02 bb
       -0.09519669 0.021778248 -0.04539131 -0.0019938005
0003a0 c1 6e 85 bd 74 ac d5 3c 7e 88 85 bc 70 84 89 3c
       -0.06515265 0.026083209 -0.016300436 0.016786784
0003b0 e2 71 e2 bd 8d c4 9b bd fd 5a 6b bd 9a ca a8 bd
       -0.11056878 -0.076058485 -0.05745982 -0.08241768
0003c0 f6 08 2f 3d 17 b4 3e 3d aa 20 85 3d 59 93 52 bc
       0.042733155 0.046558466 0.06500371 -0.012852513
0003d0 20 2b 90 3c a7 a1 40 3d 9f 4a 4d bd fb a4 03 bc
       0.017598689 0.047029164 -0.050119992 -0.00803494
0003e0 02 a5 94 3d f0 6c 6e 3d 80 52 a5 3d 96 b6 8a bc
       0.07258035 0.05820936 0.08072376 -0.016932767
0003f0 9a b4 da 3d d1 eb 2e bd 95 7e 42 bd ff 4f 5d 3d
       0.10678978 -0.04270536 -0.047484 0.05403137

classifier.2.bias f4 [84]
000000 ab 19 a4 3d d3 45 1a 3e 0a 4e 20 ba 6d b9 8d 3d
       0.08012708 0.15065698 -0.00061151444 0.06920133
000010 88 45 f4 3c 63 b9 51 bd 2f b2 0e 3e c2 06 b4 3d
       0.029818311 -0.05120219 0.13935159 0.087903515
000020 ac b5 d6 bd 5b 62 35 3e 08 a4 70 3e d4 47 2e 3e
       -0.1048387 0.17713301 0.23500073 0.17019588
000030 da fb 99 3d 39 b3 79 3d 9b 53 8e bd e5 e4 20 3d
       0.0751874 0.060961936 -0.0694954 0.03928079
000040 95 9e 00 bc 2e 34 33 bd 0c 75 7d 3c 14 a9 31 bd
       -0.007850309 -0.043750934 0.015469801 -0.043374136
000050 75 96 34 bd a0 e1 0a 3e ed d9 ad 3d 00 ec a2 bd
       -0.0440888 0.13562632 0.08488832 -0.0795517
000060 79 8a 1c 3e 71 39 c0 bd 69 12 67 bd 51 a1 7d 3e
       0.15287198 -0.09385956 -0.05641404 0.24768569
000070 c4 4f 02 be e1 96 af bd 52 4a 49 bd 1f 6b 4f bd
       -0.1272574 -0.085737 -0.049143143 -0.050639268
000080 0c ad 13 3e a6 73 0b bb 1f 20 04 3e 45 40 37 bd
       0.14421481 -0.0021278649 0.12902878 -0.044739027
000090 b1 33 12 3e 5e 00 b6 3d 28 81 e7 3c b2 ae c2 bc
       0.14277531 0.08886789 0.028259829 -0.023764942
0000a0 2b be 68 3d cf e7 79 ba 8b b3 b6 bd 8b eb 22 be
       0.056821983 -0.00095331384 -0.08920964 -0.15910165
0000b0 bb 4a 65 3e 30 92 e2 3d d0 ca 63 3e 53 e9 05 3e
       0.22391789 0.11063039 0.22245336 0.13077287
0000c0 46 95 c3 3c a6 77 12 bd b9 71 b8 bd c5 b4 27 3d
       0.02387489 -0.035758637 -0.09006066 0.04094388
0000d0 59 a2 92 3d fa f8 1c 3d 63 fa 09 3e 53 5b b1 3e
       0.071598716 0.03832338 0.13474421 0.34639987
0000e0 95 1f a2 bc 01 21 3e bd f9 cc 64 3d b2 72 28 3d
       -0.01979045 -0.046418194 0.05585954 0.041125007
0000f0 62 eb f9 3d 07 f1 ea bd 7d 7f 7f 3d ea 39 90 3e
       0.12203099 -0.114717536 0.06237744 0.28169185
000100 ce c3 64 3d 0e 81 f5 3c ce 4b b5 3d b5 64 33 bd
       0.055850796 0.029968765 0.08852349 -0.043797214
000110 f3 5f 0d be 41 bb 59 3d f8 16 6c bd fb 58 82 bd
       -0.13806133 0.053157095 -0.057639092 -0.06364628
000120 94 74 ac bd b8 7f 28 3d 1a 1f 2d be 77 d3 0a 3e
       -0.08420673 0.041137427 -0.16906396 0.1355723
000130 63 f2 16 3e be 22 f6 bd 3d 11 3e bd f8 a5 eb 3d
       0.147409 -0.12018345 -0.04640316 0.115062654
000140 3d dd 69 bc 6d 91 4e 3e 89 46 cf 3d 37 dd 8d bd
       -0.014273939 0.20172663 0.101208754 -0.06926959

classifier.4.weight f4 [10, 84]
000000 68 2e 21 3d b8 2d 5f 3e 9f b1 03 3e 9f 05 46 bd
       0.039350897 0.21794784 0.12860726 -0.048345204
000010 a7 72 88 bd a1 14 bb 3d da b0 75 bc 1e a9 75 bd
       -0.06662493 0.09134794 -0.014995778 -0.059975736
000020 75 c5 95 3c ac 4a 9f 3d 6e 4e c2 bd c3 f8 89 bd
       0.018282631 0.077779144 -0.094876155 -0.06736901
000030 b2 d5 4d 3e d1 3a 47 3e a6 1f 1c bd d1 ac 8c 3d
       0.2010105 0.1945603 -0.03811612 0.068688996
000040 56 3a 9d bc 0c af 84 bd d4 80 a7 bd c3 b6 d1 bd
       -0.019192856 -0.064787 -0.08178869 -0.10239937
000050 45 28 09 3e d3 ec 30 3c 44 d6 8b 3c fc dc ca 3d
       0.13394268 0.010798651 0.017069943 0.09905431
000060 06 99 a8 bd b7 d5 0e 3e f1 0a bc bc 0c 50 06 be
       -0.08232312 0.13948713 -0.022954436 -0.13116473
000070 62 3d d2 3d 2f f8 53 bb fc 2a f0 bd 03 1d 6e 3d
       0.10265614 -0.0032343974 -0.117269486 0.058133136
000080 2e 1b 72 3e c4 2b 10 bd 10 f7 1e 3d 42 03 ea bc
       0.2364318 -0.03519799 0.038809836 -0.028566007
000090 a5 b0 bb 3d 2a 70 98 3d 7e 54 72 3e 2b 18 8b bd
       0.09164552 0.074432686 0.23665044 -0.06791719
0000a0 47 57 67 3e 9a 7e d0 bd b6 7a 49 3d e1 74 55 3d
       0.22591887 -0.10180397 0.049189292 0.052113418
0000b0 77 b7 71 3d ac 59 e0 3d 09 19 49 3c af 4d 87 3e
       0.059012856 0.109546036 0.012274035 0.26426455
0000c0 11 ea ca bd 88 23 10 bb d8 90 af 3d a2 cd 98 3e
       -0.09907926 -0.0021993835 0.08572549 0.29844385
0000d0 6f 07 12 3e e1 88 2e 3d f0 cc f2 3d 1f 48 87 bc
       0.14260648 0.042611007 0.11855495 -0.016513882
0000e0 d8 df 0d 3d 30 8e a2 3d c2 35 dd bd f3 28 e5 bd
       0.034637302 0.07937276 -0.10801269 -0.11189451
0000f0 f8 1e 82 3e 1e 95 0b 3e d1 b3 ad 3d 3a 7f 05 be
       0.25414252 0.13631102 0.08481563 -0.13036814
000100 4d 97 83 3d 50 f1 fe bd b0 4f 43 3e 7a c0 35 bd
       0.06425343 -0.124483705 0.19073367 -0.044373013
000110 01 d9 e8 3d bc 4c 10 3e 6c 23 58 3e 0e 2c a1 bd
       0.11369515 0.14091772 0.21107262 -0.07869731
000120 6b 21 0c bc 4c 29 ad bd 54 a4 fe 3c d4 b4 f4 3d
       -0.008552889 -0.084551424 0.031084217 0.11948553
000130 c8 24 83 bd 6a 6e 64 bc 44 65 a6 3d cd 6c c8 3d
       -0.064035 -0.01394234 0.08124784 0.09786377
000140 63 3b 97 3d 2c 94 52 be 91 2d a4 3e 5b 84 16 bc
       0.07384374 -0.20564336 0.32066014 -0.009186829
000150 51 60 0b 3e be c3 81 bd 4d af c5 3d 18 94 de bc
       0.1361096 -0.06336163 0.096525766 -0.027170226
000160 6b 4e d0 3d 78 23 25 bc cf 16 cb 3c d6 7a 7d 3d
       0.10171207 -0.010079257 0.02479115 0.061884724
000170 5e 24 a7 bd 14 94 46 be 81 c9 81 3d 1c 1c 56 3d
       -0.08161233 -0.19392425 0.06337262 0.0522729
000180 e6 19 7d 3e 07 71 46 be f9 45 e0 3d a2 10 85 3d
       0.2471691 -0.19379054 0.10950846 0.06497313
000190 ec 93 19 bd f7 45 98 3d ce f1 84 3c 52 8b c6 3c
       -0.037494585 0.0743522 0.016228583 0.024236355
0001a0 10 5c 05 3e 96 af b0 3e 2f 26 0c be b1 ad 10 be
       0.130234 0.3450896 -0.13686441 -0.14128758
0001b0 26 91 fd 3d 8d b3 60 3d 47 c0 1e 3d d0 ba 85 be
       0.123812005 0.054858733 0.03875759 -0.2611909
0001c0 95 d3 a3 3d 39 f6 18 bd a0 78 16 be c9 c3 0e 3e
       0.079993404 -0.03734419 -0.14694452 0.13941874
0001d0 a5 d8 be ba 2a de 79 3d 3c 87 89 3d 4c 94 99 bd
       -0.0014560415 0.061002888 0.06715247 -0.074989885
0001e0 fa c4 81 3b da 7a a9 3e 61 12 5b bd b6 7c ab bd
       0.003960249 0.3310154 -0.053484324 -0.08373396
0001f0 00 bd e1 3d 83 50 8f 3c 9f 9f 63 3e b5 08 f8 3d
       0.11022377 0.017494446 0.2222886 0.12111036
000200 77 cd 38 be b1 4b f5 bd 79 f9 9d be 61 4f 42 3d
       -0.18047129 -0.119773276 -0.30854395 0.047438983
000210 95 d2 ef bd be 5c 71 bd bf 74 88 3d 6a b2 59 be
       -0.11710087 -0.058926336 0.066628926 -0.21259466
000220 7e 98 38 3e 67 a4 a0 3d a9 f0 76 3d cd e9 a3 bc
       0.18026921 0.07843857 0.060288105 -0.020008946
000230 3b 1a a8 3d 68 06 95 3c 8e f2 0e bd 2b e1 79 3e
       0.08208128 0.018191531 -0.034899287 0.24402301
000240 5c e7 51 3e 8b ef f5 3d 7a 71 72 3e 2d 2e e7 bc
       0.20498413 0.1200858 0.236761 -0.02822026
000250 cd a6 a5 3e 4a 11 ba 3a 7d 3f be 3e 72 62 13 bb
       0.3235382 0.0014195826 0.37157813 -0.0022489098
000260 d2 98 21 3e f1 79 d6 3d d6 e6 aa b9 dd 32 e2 3c
       0.15780953 0.10472477 -0.00032596913 0.027612144
000270 0c 38 0a bd 1e 9a b3 3d a0 00 00 3d a4 ca 24 be
       -0.033744857 0.0876963 0.031250596 -0.16092926
000280 32 bc 32 3e c9 4b 1b 3e 6c f0 3e 3d 25 58 49 3d
       0.17454603 0.15165628 0.046616003 0.049156327
000290 87 e1 75 3c 43 d8 d8 bd 58 85 fe bd a0 a1 f8 3d
       0.015007383 -0.10588124 -0.12427777 0.121402025
0002a0 f8 29 c2 3d 8f f9 68 bc 87 eb 01 3e 00 c2 f7 3d
       0.09480661 -0.014219656 0.12687503 0.120975494
0002b0 2b e9 eb 3d f5 12 2c bd f3 8d 45 3e 50 c9 01 3e
       0.11519083 -0.042010266 0.1929243 0.12674451
0002c0 71 29 f0 3d db fa ec 3e f3 92 0a be 1f 15 34 3e
       0.11726654 0.46285138 -0.13532619 0.17586182
0002d0 d9 5d 2e 3e 2f c5 cf 3d c8 84 57 bd 79 32 ed bd
       0.17027988 0.10145032 -0.052616864 -0.115818925
0002e0 df 9b a2 3d 6f 8a ff 3d cc 7f 7e 3d c2 bb c9 bd
       0.07939886 0.12477576 0.062133595 -0.09850265
0002f0 46 a7 d0 3d 31 a1 10 3c 18 a2 08 bd a5 cc 3c 3e
       0.10188155 0.0088274935 -0.03335771 0.1843744
000300 bd c9 b8 3d 2a 0e 1d 3d 82 0f d9 bd 1d 20 e8 3c
       0.090228535 0.038343586 -0.10598661 0.028335625
000310 65 21 19 bd 86 82 99 3d 5f db d0 3d 1d fa 15 be
       -0.037385363 0.074955985 0.10198092 -0.14646192
000320 34 e7 b2 bd fa fe 27 3d f9 37 67 bd 50 8e 5f b9
       -0.08735505 0.04101465 -0.056449864 -0.00021319953
000330 1b a8 0a be 58 08 07 be 4c bd 88 bd ad 1d c6 3d
       -0.1354069 -0.13186777 -0.066767305 0.09673629
000340 63 af 21 3d c2 95 db 3d bf 19 5c 3d 98 86 46 bc
       0.039473902 0.107219234 0.05373549 -0.012117051
000350 e6 49 b1 3d 4b 38 1d bb af 31 81 3e 4a 04 d9 3c
       0.08656673 -0.0023989852 0.25233218 0.026491303
000360 32 4b e7 3d 7b df 38 be 5e f4 2a 3e ff f1 8b 3e
       0.11293639 -0.18054001 0.16694781 0.27333066
000370 4c d6 04 3d 93 9f 8d 3d 04 ec 02 bd f3 70 30 bd
       0.032430932 0.06915202 -0.031963363 -0.043076467
000380 0f 7f a0 bd 7b bb c7 bc d1 96 62 bc 69 2b a8 3d
       -0.078367345 -0.02438139 -0.013829903 0.08211405
000390 b9 fa ea 3c fe 42 07 be 2b d6 29 3c c7 fd 12 3e
       0.028684007 -0.13209149 0.010366003 0.14354621
0003a0 38 d8 cd 3d 4a 2e 86 bc 07 a9 9d bd 9b 54 31 bd
       0.10051006 -0.016379494 -0.07698255 -0.043293577
0003b0 57 0d e6 bb a4 55 c5 3d 46 42 45 3d f7 66 ba bd
       -0.007020633 0.09635475 0.048158906 -0.0910167
0003c0 9a 4e 84 3c eb b7 04 3e 53 7c b4 3d 7a 7c 38 3e
       0.016150761 0.12960784 0.088127755 0.18016234
0003d0 24 69 3a 3d 0c 26 d5 bd 79 ae fb bc 24 68 db 3d
       0.045510426 -0.104076475 -0.030722843 0.107132226
0003e0 6c 40 81 bc 20 e9 8d bc a5 ba 13 3e 4f 96 b7 3d
       -0.015777789 -0.017323077 0.14426668 0.08964216
0003f0 23 08 8e 3c a2 78 b6 3d cf 65 75 be ef c6 ea 3d
       0.017337864 0.08909728 -0.23964618 0.11463725

classifier.4.bias f4 [10]
000000 ab 56 43 bd 21 6f 2b 3e 5b 9e 05 3e 70 db 05 3e
       -0.047690075 0.16741611 0.13048689 0.1307199
000010 91 20 f2 3e b8 b1 ae bd 8e 05 e2 3e 6a 8b de bd
       0.4729047 -0.08529991 0.44144863 -0.10866435
000020 20 f5 d8 3e 3e d7 88 3e
       0.42374516 0.26726717
