experiments/LeNet/CIFAR10/experiment-1/last-epoch.pt (torch, 258795 bytes, 18 tensors)

features.0.weight f4 [6, 3, 5, 5]
00000000: ce78 623c e945 2dbd cdcb d63d 1904 a73c
00000010: fb8c d9bd ee37 02be a8cb debd 2571 263e
00000020: 8cc1 503e d163 193c 8d94 fabd a183 d6bc
00000030: f42c be3e aed0 8e3e c4ce 193e 4a32 913d
00000040: 9f1b 253c 4249 ae3e 3e9c c83e be4f 693e
00000050: e4a5 3c3e 52a7 203e ac15 503e 975f 533e
00000060: 6678 933d b464 f9bd a64b 2cbd 12b3 8cbd
00000070: d317 ba3c 2775 03be 98ca fdbe 5a65 73be
00000080: 8dd6 7abd 5038 cabd 34b1 9bbe 557f 9bbe
00000090: ad6f 88be 4100 553d 6bc7 5c3c 7a64 19bd
000000a0: b3f2 4abe e055 9dbe 3f8e 34be 7a32 22bd
000000b0: 03fa b6bd b623 8abd 407d 9ebe fe4b 7abe
000000c0: 84f3 8abe 44db 57be 3040 763d 16f6 663e
000000d0: 138f f53d 1373 013c 9cda 51be abbb 59bd
000000e0: 694e 663e a670 a03e 1e0a 603e 65b9 c03c
000000f0: 6189 e6bd 4499 dd3d 5bc0 993e f80a c03e
00000100: b310 c73d af2b fe3d f3d5 163e 1160 763e
00000110: 009b 523e 0db7 0ebd dbad ea3d c4ae 0fbb
00000120: 7ba5 abbc e22a 11be 11ae edbd 4982 85bc
00000130: 09a0 adbd bddb 943c 50ea c33d ef0e 443d
00000140: b041 84bd 5e4f 9bbc a293 9bbc 438c bfbd
00000150: 3186 e0bc 9d58 c13c 16bf e4bd f094 db3d
00000160: 9319 aebd 1654 58bd de67 553c 8b2b f03c
00000170: 0818 9f3d 03cb 933d 78cd 13bc 9687 823c
00000180: 270b 4d3d 00a1 92bd 84f8 3dbd c74c 343d
00000190: 425a b63c 2583 0a3d 05f5 91bc 3a22 553d
000001a0: b5d0 7a3d c49c f2bd 2f02 e1bd 4270 96bd
000001b0: 4c3b 47bd 836b b5bd e1f0 9f3d ee45 c33d
000001c0: 02d9 a1bd 2f8f 70bd 796d 6b3d b11d 0dbd
000001d0: 576b debd 1ea7 943d 3c8e 4b3d 2991 92bd
000001e0: 5f8c 2b3d 4feb a2bd 59c9 ea3c 9312 eebd
000001f0: a98c 01be 68bc d4bd a5eb e4bd cf0c d73d
00000200: e0d9 de3d 209b ac3d e917 2fbc b75b 0dbc
00000210: c2c3 02be 05d4 0bbd 3bb7 413c 5d7a a7bd
00000220: 5a30 01be bf49 8fbc 41e3 80bd c789 0abe
00000230: c3a6 06be d387 a63c 2080 b6bd a17e e2bc
00000240: 38dc 0cbe 5997 c2bd 09e4 633d 4b02 01be
00000250: f512 cfbd bf38 2dbd de7e dbbc 1721 adbc
00000260: a82f 713c 4e31 1fbc a538 e1bc 0a6d 993d
00000270: b876 073d 685b e2bd f3cd 713d e896 9abd
00000280: fa7d 51bd dc3b 92bd 4555 0b3d fe75 bcbd
00000290: f789 66be 09ef cabd 1116 56be 9379 90bd
000002a0: 53af 94bd 10e0 67be 1282 1ebe 0314 8dbe
000002b0: 6e4a 2bbe e3c1 1cbd 583f d6bd 5eef 3ebb
000002c0: 4c05 923c 1ce6 6e3d 8fae fcbc 0763 7e3d
000002d0: 271e 6c3e 9d8f 1c3e 06b7 883e 5700 c6bc
000002e0: 7822 24be 707b 5e3e 9252 983e eb2d a13e
000002f0: a607 bebc c87c 36be 7b0d 663d 1991 343e
00000300: 584c 2c3d d285 323d 96ae abbd d545 11be
00000310: 7526 a9bd 0778 023d 97e5 20be 110f d9bd
00000320: 359a cb3c 2187 0a3e cac7 a63d 6f6f c4bd
00000330: 3208 32be b473 833e 1aa4 a93e 087d a83d
00000340: 7d8c b33d 2f33 89bd dcbc 9b3e e0fa d03e
00000350: 6dfe 463e 5eaf 893d df2c 65bd ab02 cc3d
00000360: bb86 6a3e eb43 b73d 729d 423e 036a 2abe
00000370: fa94 5a3d 0ec0 bcbc 2255 d4bb 1206 d6bc
00000380: ebf9 b9bc 248c 063e e51b be3d 49a6 fbbd
00000390: fbe9 5dbd 43a6 d73d 3ca6 7dbd b1ea 83be
000003a0: cedb a4be 3228 7cbe f9f9 1abe 6058 143d
000003b0: cfef e4bd dd3c 4abe 5580 f9bd 9388 74be
000003c0: 06f3 63bd 676f 593e 860d 513e 19bd 343d
000003d0: b5d5 85bd 3d74 84bd 9eb6 fd3d 8f0e 853e
000003e0: 8d2c 7e3e 924b 793d 88e9 163e cef6 9abd
000003f0: 3ef5 c23d e004 243e 5dc8 743e 0456 493d
0.013822747 -0.042303 0.10488091 0.020387696 -0.10622593 -0.12716648 -0.10878688 0.16254099
0.20386332 0.009362177 -0.12235365 -0.026185812 0.37143672 0.27893585 0.15020281 0.0708967
0.010077386 0.34040266 0.39181703 0.22784325 0.18422657 0.15688828 0.20320767 0.20641933
0.072006986 -0.12177411 -0.04206433 -0.068700925 0.022716438 -0.12837659 -0.4956863 -0.23769131
-0.061239768 -0.09874022 -0.30408633 -0.30370584 -0.26647702 0.052002195 0.013475279 -0.037449338
-0.19819145 -0.3072958 -0.17632388 -0.03959892 -0.08934405 -0.067450926 -0.30954933 -0.24443051
-0.27138913 -0.21079737 0.060119808 0.22554812 0.1199018 0.007900971 -0.20493549 -0.05315749
0.22490849 0.31335944 0.2187886 0.023525903 -0.11256672 0.10820249 0.30029568 0.37508368
0.09719982 0.12410676 0.14730053 0.24060084 0.2056694 -0.03484254 0.114589415 -0.0021924237
-0.02095293 -0.14176515 -0.11605466 -0.016297476 -0.0847779 0.018171186 0.09566176 0.047865804
-0.064578414 -0.018958744 -0.018991295 -0.09352925 -0.027407737 0.023601824 -0.11169259 0.10721767
-0.08500972 -0.052814566 0.013025252 0.029317638 0.077682555 0.07216456 -0.009021156 0.015933793
0.050059464 -0.071596146 -0.04637958 0.044018533 0.022259835 0.033816475 -0.01781703 0.052034594
0.061234195 -0.11846307 -0.109867446 -0.0734563 -0.048640534 -0.08858397 0.07809616 0.095348224
-0.07902719 -0.0587303 0.057477448 -0.034452144 -0.10860317 0.072584376 0.049696192 -0.07156593
0.041881915 -0.07955038 0.028660463 -0.116246365 -0.12651314 -0.10387498 -0.11177758 0.1050049
0.108814 0.08428025 -0.010686853 -0.008627824 -0.12769988 -0.034137744 0.011823471 -0.08177636
-0.12616101 -0.01749122 -0.06293345 -0.1352912 -0.13149552 0.020328438 -0.08911157 -0.027648272
-0.13755882 -0.095015235 0.055637393 -0.12598531 -0.10111038 -0.042290445 -0.026793893 -0.021133943
0.014720835 -0.009716345 -0.02749283 0.07491501 0.033072203 -0.110525906 0.0590343 -0.07548314
-0.05114553 -0.071403235 0.034016866 -0.09202193 -0.22513567 -0.099088736 -0.20906855 -0.070544384
-0.07260003 -0.22644067 -0.15479305 -0.2755433 -0.16727611 -0.038270842 -0.104613006 -0.0029134373
0.017824791 0.05832492 -0.030844955 0.06210616 0.23058377 0.15289159 0.26702136 -0.024170084
-0.16028774 0.21726775 0.29750496 0.31480345 -0.023197006 -0.17821038 0.0561652 0.17633475
0.042064995 0.043584652 -0.08382909 -0.14186795 -0.08259288 0.03185275 -0.15712582 -0.10598577
0.024853805 0.1352811 0.081435755 -0.09591567 -0.17385939 0.25674212 0.33133012 0.08226973
0.087670304 -0.066992156 0.30417526 0.40816402 0.19432993 0.06722902 -0.055950996 0.099614464
0.22902958 0.08948501 0.19005373 -0.16642003 0.05336473 -0.023040798 -0.006479875 -0.026125941
-0.022702178 0.13139397 0.09282664 -0.12287576 -0.05417822 0.10529759 -0.06192611 -0.25764993
-0.32198948 -0.24624708 -0.1513442 0.036217093 -0.11178552 -0.1974978 -0.121826805 -0.23880224
-0.055651687 0.21233903 0.20415315 0.04412565 -0.06534902 -0.06467483 0.12388347 0.2598767
0.24821682 0.060863085 0.14737523 -0.075666055 0.095194325 0.16017485 0.23904558 0.049154297

features.0.bias f4 [6]
00000000: f605 923e f140 7cbd aa9f c33e 98b7 cc3e
00000010: 0274 c73e d6cf aabd
0.28520173 -0.06158537 0.38207752 0.3998382 0.38955694 -0.08340423

features.2.weight f4 [6]
00000000: 87f7 873f 1dce 7b3f bfc1 5c3f 6505 923f
00000010: 01e4 4a3f af06 803f
1.0622414 0.9836138 0.86233133 1.1407896 0.79254156 1.000204

features.2.bias f4 [6]
00000000: 680b 71bc aadb 643e a2dc 2d3e 1cc0 373e
00000010: b11b 2dbd 1782 05be
-0.014712192 0.2234942 0.16978696 0.17944378 -0.042262737 -0.13037907

features.2.running_mean f4 [6]
00000000: 20e3 2a3f 7ef7 7137 b4c2 363f 2288 743f
00000010: 1b75 333f 8393 bd34
0.66752815 1.4422343e-05 0.71390843 0.9552022 0.70100564 3.5311322e-07

features.2.running_var f4 [6]
00000000: 46ed 223e 7076 af35 6641 7f3e 783a 0e3e
00000010: a99f 813e 3106 4432
0.15910825 1.3072986e-06 0.24927291 0.13889492 0.25317124 1.1410109e-08

features.4.weight f4 [16, 6, 5, 5]
00000000: 9208 97bc a3dd 4a3b ba3c 12bd 0e92 023e
00000010: 3378 96bd 0bd5 1cbd 9498 433d 3633 8fbd
00000020: 4127 ef3d 7453 cfbd 2220 85bc b6e7 513d
00000030: e835 ec3d 5ddc e03d 85e4 dabb 797d 0c3d
00000040: 20bc db3d f9c0 95be 7e15 7cbe 854e 25bc
00000050: aafa 833b 8162 e4bd 22d5 2cbd b424 863e
00000060: b4db 023e 2936 a6bd 435a c1bd b682 6bbd
00000070: 0fd3 bc3c 75ec 06bd 1887 993d e3b2 5bbd
00000080: aa0f ca3c 6062 2c3c f5ae ccbd beff 9a3d
00000090: 4aec 463b 1e5f 4ebd f080 44bd 8d05 e3bc
000000a0: a201 313c 4849 b6bc 2c05 02bd 8dbe 623d
000000b0: f233 a6bd f2c8 ff3b d306 93bc 897a 3f3d
000000c0: aa1b b0bc f9f5 e0bc 057a 143d 6a0a 613c
000000d0: c979 86bd 2322 243d a219 973c d833 1fbd
000000e0: 8b25 e1bb 567d 97bd 5eb3 42bc ec2b 67bd
000000f0: ceb3 8b3d 2595 1dbc 3585 ce3c f59a c73d
00000100: bbc6 27bd 9ef5 70bd eb04 623e 234b 733e
00000110: 5c73 083e ead4 76bd 099f 80bc 313a 01be
00000120: 8fd4 89be ab85 3fbe a5cc 35be 5bf5 d9bb
00000130: e2d6 583c dbec 58bb d806 ae3d 30ea 8dbd
00000140: 1b0a 7ebd 9ddc 453b 3075 473e 89fb ca3d
00000150: 63f6 55bc b971 b8bc 2cb9 433e 8075 873d
00000160: db24 1cbd 313e a3bd 3928 92be 3f69 f3be
00000170: 38d6 09bf 96ce 6dbe 36f1 54bc 510e 6f3e
00000180: 3f6d e13e 8306 f73e 16f1 8f3e 1bb8 2abe
00000190: fdf9 d7bd a6ef 2e3d bfb5 02bd 404a 5d3c
000001a0: a07c 263d 7c39 7b3d 8d73 b13d 423a a93d
000001b0: 1a07 e9bc 0345 19ba d01e 793d 1951 c23d
000001c0: 19d8 1e3e 853d d83d 1527 84bd 4b19 0ebe
000001d0: 92ea 3fbe ec08 32be 28df 18be 7068 1fbe
000001e0: f29c 073d df36 893c 217e c3bd 94d2 fd3b
000001f0: eefe c03d b00d 523d 2d85 9ebd 5c27 c53c
00000200: 67ed 323d 6ddb 55bd 8230 f7bc b0c1 a53d
00000210: b2d0 e3bc ce3d a93c a57f 85bd 21df 793d
00000220: 69dc 4bbd f0bd 2abd 5304 4ebd 0356 a63d
00000230: 3708 ddbc 51a2 9c3d 233a c93c d609 33bd
00000240: 8f7a 583c 05a4 81bd 1425 273d df69 633d
00000250: 49c2 2d3d 5da0 5d3d 3824 fbbd 8212 29be
00000260: 2e40 0cbe ca5b 50bd 8a73 fabc 0948 01be
00000270: efe8 26bc 7878 61bd fb97 a73d 8772 ca3d
00000280: ad16 adbd dc1d 153e 6924 e83d 3a0d 323e
00000290: 519b 133e d2a0 fa3c 537a 6c3e 259e 6a3e
000002a0: f226 503e bc6f 963d f37e 77bd a5d8 35bd
000002b0: 1c20 c13d 75b3 7a3d cba4 91bb ee9b 3b3d
000002c0: 9fd1 873d 0249 7f3d 7b2d 10bc 5638 84bd
000002d0: 18c9 0fbd 50ad 04bd 2dfc 5bbd a603 c0bd
000002e0: 0b11 88bd ed0f 49bc 8eb4 9b3d fb71 e4bc
000002f0: e23d 8cbc bc85 6d3c bc02 c6bb 1fe0 83bd
00000300: 39b2 f0bb 4c33 a03d 52a8 cbbc 7f4a 2e3d
00000310: 17a2 4c3d 43f9 debc 99e9 93bd b764 df3c
00000320: 3b69 513e cdd6 8d3d 9b01 38bb 5dba d33d
00000330: de4c b7bc eb7a 253e 5647 1fbd 2233 febd
00000340: 141a 96bd f814 babb b178 313d 83c6 d03c
00000350: 22c4 6fbd 2416 53bd 320c a5bd 79e2 443d
00000360: 0b58 85bb 5258 e2bd ce7a a7bd 0b81 473d
00000370: 69d5 113e b72a adbd cdb1 82bd ad44 323d
00000380: 050c ee3d 6f97 b43d 612a e43d 3930 193e
00000390: b58b 73bc 1b27 003d 1420 e7bc ddfc 413c
000003a0: e74b 453d 22b7 48bb ebb9 07bb 3f49 723b
000003b0: 8b33 02be b174 d5bd 2e05 fabd a403 03be
000003c0: 5e17 5dbd ee33 adbd 2ff7 f6bd db3a 1cbe
000003d0: d3de 05be 379b 63bd 7982 fabc 3c3f 6cbc
000003e0: 7888 cf3c db97 0abe 8ea9 5ebe 439e 8cbb
000003f0: 3fa9 debd 6688 9abd ade4 abbc bb9a 18be
-0.018436704 0.003095486 -0.035702445 0.12751028 -0.07347145 -0.03828911 0.04775293 -0.069921896
0.11677409 -0.10123339 -0.016250674 0.051246367 0.11533719 0.10979531 -0.0066800737 0.034299348
0.10729241 -0.2924879 -0.24617574 -0.010089521 0.004027684 -0.11151601 -0.042195447 0.26199877
0.12779123 -0.08115799 -0.09441044 -0.057497703 0.02304986 -0.032940347 0.0749647 -0.053637397
0.024665672 0.010521501 -0.09994308 0.0756831 0.0030353242 -0.05038368 -0.047974527 -0.027712608
0.010803612 -0.02225174 -0.031743214 0.055357505 -0.081153765 0.007805937 -0.01794759 0.046747718
-0.021497566 -0.027461039 0.03624918 0.013735393 -0.065661974 0.040071618 0.01844484 -0.0388678
-0.0068709305 -0.07396953 -0.011883585 -0.05643837 0.068214044 -0.009618078 0.025210002 0.097463526
-0.04096101 -0.05882799 0.22072189 0.23759131 0.13325256 -0.060261644 -0.015700834 -0.12619855
-0.26919982 -0.18703334 -0.17753847 -0.006651563 0.013234826 -0.0033100161 0.08497399 -0.06929433
-0.062021356 0.003019131 0.19478297 0.09911258 -0.013059231 -0.022515165 0.19113606 0.06614208
-0.038121086 -0.079708464 -0.28546312 -0.47541234 -0.53842497 -0.23223338 -0.012996962 0.23345305
0.4402866 0.48247156 0.2811362 -0.16671793 -0.10545728 0.042709015 -0.031911608 0.013506472
0.040646195 0.06133412 0.08664618 0.08263065 -0.02844577 -0.00058467704 0.0608204 0.094881244
0.15512122 0.10558609 -0.06452767 -0.13876836 -0.18741825 -0.17386216 -0.14928877 -0.15567183
0.03310866 0.016749797 -0.095455416 0.00774605 0.09423624 0.051282585 -0.07740245 0.02406662
0.043683436 -0.052211214 -0.030174498 0.080935836 -0.027809475 0.020659354 -0.06518487 0.061003808
-0.049770746 -0.041685045 -0.050297093 0.08121874 -0.026981456 0.07648147 0.024563855 -0.043710552
0.013212814 -0.06330112 0.040806845 0.05552089 0.042421613 0.054108012 -0.122627676 -0.16510966
-0.13696358 -0.050868787 -0.030572671 -0.12625135 -0.010187372 -0.05504653 0.08183285 0.098851256
-0.08451591 0.14562172 0.1133507 0.17387858 0.14414717 0.030594263 0.23093538 0.2291189
0.20327356 0.073455304 -0.060423803 -0.04439606 0.094299525 0.0612063 -0.0044446937 0.045803003
0.06631779 0.062325485 -0.008799906 -0.06456058 -0.035103887 -0.032391846 -0.05370729 -0.09375696
-0.06643876 -0.012271863 0.076027974 -0.027886381 -0.017119352 0.014497217 -0.0060428064 -0.06439232
-0.0073454645 0.07822284 -0.024860535 0.042551514 0.04995927 -0.027218467 -0.072222896 0.027269704
0.20450298 0.069257356 -0.0028077129 0.1033828 -0.02237552 0.1616017 -0.03888639 -0.124120966
-0.07329193 -0.005678769 0.04332799 0.025485283 -0.058536656 -0.051534787 -0.08058967 0.048067544
-0.0040693334 -0.11052002 -0.0817772 0.04870705 0.14241566 -0.08455413 -0.06381569 0.043522526
0.11623386 0.08817946 0.11140896 0.14959802 -0.014864852 0.031287294 -0.028213538 0.011840072
0.04816809 -0.0030626734 -0.002071018 0.0036969928 -0.12714975 -0.10422648 -0.12208019 -0.12794358
-0.053977363 -0.084571704 -0.12058865 -0.15256827 -0.13073282 -0.055567946 -0.030579792 -0.014419373
0.025333628 -0.13534491 -0.21744367 -0.004291327 -0.10872125 -0.07545547 -0.020983065 -0.14902775

features.4.bias f4 [16]
00000000: b010 70be 3b64 6a3d b412 0abe f3de 2bbe
00000010: 4012 edbd 026c 08bd da0f 09be 3ea2 b7bc
00000020: fe06 0dbe bf00 543d 0783 edbd 89ea 873e
00000030: 848e cbbc 6e17 d63d b8ae 81be d364 17be
-0.23443866 0.057224493 -0.13483697 -0.16784267 -0.115757465 -0.03330613 -0.13384953 -0.02241623
-0.13772199 0.051758524 -0.11597257 0.26546124 -0.02484823 0.104536876 -0.25328612 -0.14784555

features.6.weight f4 [16]
00000000: 1f25 0040 b27b c53f 4571 ef3f c1b1 d13f
00000010: 1a1b b83f a5fe c03f d34d bb3f 54ea b23f
00000020: e528 0240 9d8f 943f 5ff8 c83f 7d96 b73f
00000030: 265e ce3f bada cb3f 1a59 fb3f f2cc d63f
2.0022657 1.5428374 1.8706442 1.6382371 1.4383271 1.5077711 1.4633125 1.3977761
2.033746 1.1606327 1.5700797 1.43428 1.6122482 1.5926125 1.9636567 1.6781294

features.6.bias f4 [16]
00000000: 9acd c23d 8467 d03d 2dd9 ac3d 5c7c d53c
00000010: 348d f73d 987b bf3d 25a3 453e 875c 183d
00000020: a969 fb3d c77d 073d 3259 fc3d f821 ffba
00000030: 2ef9 2e3e 4600 e3bc afdf 083e db4a 1d3e
0.09511872 0.10175994 0.084398605 0.026060276 0.12087479 0.093497455 0.19300516 0.037197616
0.122760125 0.033078935 0.123217 -0.001946508 0.17087242 -0.027710091 0.13366579 0.15360586

features.6.running_mean f4 [16]
00000000: bf7d bf3e da4a d73e 9d89 a63e 9ea0 8b3e
00000010: 81e1 b43e 9a1c dc3e 575d e43e 4993 c03e
00000020: 982e 083f a385 0f3f c9c8 d13e 1d6e 193f
00000030: 5bec f53e dbe5 e43e cf3b 953e b97d 553e
0.37400624 0.42049295 0.32526866 0.2727098 0.35328296 0.4299057 0.44602463 0.3761237
0.53196096 0.5606329 0.409735 0.59933645 0.48031887 0.44706616 0.29147193 0.2084874

features.6.running_var f4 [16]
00000000: 45a6 223f a99e 113f 2028 e83e 80ba a23e
00000010: 1e20 a73e 55fe 0d3f a84f 043f c596 023f
00000020: ef63 993f 84b1 0e3f 9e03 ed3e 4eef 093f
00000030: 372f 243f 0aad ff3e 9e16 ec3e e390 753e
0.6353496 0.5688272 0.45343113 0.31782913 0.3264169 0.55466205 0.51684046 0.51011306
1.1983622 0.5573962 0.46291822 0.53880775 0.64134544 0.49936706 0.46111006 0.23981051

classifier.0.weight f4 [120, 400]
00000000: 4640 193d d4bd 77bb 53e5 ddbd 80a1 abbb
00000010: ee99 ff3c cf2b bb3d 43fc 6abc 80f8 7dbd
00000020: d05d 90bd 85d7 803d d9ea 3b3d 41c2 81bc
00000030: cce2 9ebd 9c69 99bc dcf7 6e3d 78e7 563d
00000040: cee9 703d 8f02 8e3c 8c86 0c3a 3b2a bbbc
00000050: da4e 103c e231 393a d4c9 78bd 3987 d6bd
00000060: c2b1 9cbd e3df 0f3d 8b74 943d 8491 973a
00000070: 671c 843c e821 263d 048f 9e3c 543f b73b
00000080: 6897 2a3d 9f7f 0a3d 1c4a 02bd 0a91 d23c
00000090: 328e 74bb 172a a3bc 5c47 f73c e3d5 bfba
000000a0: 3bb0 64bd 40ce 41bd 7004 883c ad2a 24bd
000000b0: 3aa6 733d ef38 04be 7560 1abd 6a73 26bd
000000c0: 7cc3 b9bc 4121 a43c db32 d13c 5be3 053c
000000d0: 9d41 2a3d e1ed 0bbd 70bc dd3b f9ce 65bd
000000e0: 8d8c 9ebc 6ecb cb3b 3159 333a a534 833c
000000f0: 3394 33bd bb48 eb3b 31df 4e3c 5450 f8bc
00000100: 5ce9 2a3b 5d59 65bc d75a 053d 4b8d c9ba
00000110: d817 d93d 5e91 4dbc 57bd edbc 074c 0b3d
00000120: 8785 8bbc 0998 b33d 265b 97bd 0877 323d
00000130: 50f9 e3bc 47d8 ac3d 64a2 aebc 4bed b9bb
00000140: 9bb8 ffbc be77 143d bde7 483b 146c 413d
00000150: 802c c5bc 4e84 263d 1862 6a3c cd9f 703d
00000160: 926a a13d 7cc2 a0bd 9fb9 61bc 59df 103c
00000170: e733 88bd a33a 683d 14a1 b0bd abda 2fbe
00000180: 19de fcbd 93a8 0fbd bafd 8fbd 4bb4 c6bd
00000190: 68b7 45bb 4e07 69bd b7e1 fa3c 6e8d 8cbd
000001a0: c394 05bd 9cd0 593d b2ce 3e3d cb37 5b3b
000001b0: 01bc 2ebd 1109 1d3d 06c5 2a3c 95d0 26bd
000001c0: 24a5 1c3d 3bde 7fbc 8557 44bd 5e94 8cbc
000001d0: cc36 f7bd 78f6 6abd 2d6f e8bc 3782 b2bd
000001e0: bae3 7bbc 68ea 99bc 7867 4d3d 3b56 70bc
000001f0: f89a c7bd 69a4 3c3d b5ce cf3b 504b 4dbd
00000200: 4060 9e3b b3e6 7a3d 5ecf e5bc 0f08 843c
00000210: 3cb1 8fbd 4d04 02bc 603d 693d 1876 e23c
00000220: 02f8 543d cfb4 bfbc 4278 3bbd a5db 6a3c
00000230: 8eec 43bc 6ba3 86bc ef14 a2bc 8a32 3c3d
00000240: 9c44 813d e7b4 e1bc 7ee9 043d 0e60 1a3d
00000250: a00c b63c 6c1f 4c3d 877d 4c3d 6990 9a3c
00000260: 39fa 283c c7bf 663a 95d1 30bd af31 e3bc
00000270: ba1e 8d3d b556 f23c 298d 7f3c 84c7 53bd
00000280: 2aca 7e3b b7bb 73bc 0d4f 3bbc 676e ab3c
00000290: b6a0 9d3b 770f d8bd fc37 13bd c27b d0bd
000002a0: 0f21 5bbd d4ea 2c3b b70d 8d3c e974 93bd
000002b0: d3ce 953b fb40 e8bc b8c1 973a 0959 16bd
000002c0: 3ed2 423d e691 ab3b 3181 ec3b 5aaf 51bd
000002d0: 8a31 dbbd da22 9b3c da1f 1d3d c6eb 0bbc
000002e0: f0a0 b23c 16a8 a5bd 7cf6 b5bd 4c81 00bd
000002f0: 67dc 273b c48c 3d3d aac7 53bb a527 2abd
00000300: 7660 f8bb a79c 8dbd 2169 053d d3f8 843d
00000310: 9c97 a63d f741 593d e140 16bd 3098 a8bb
00000320: 25d5 143c df1f 363c 67df ab3d 6106 623d
00000330: a591 41bd 937c 9a3d 775d d23c 307b e93d
00000340: d563 a2bc 155e 4e3d c938 2abc 10dc f73c
00000350: b151 b73d 44f3 92bd 0fdb 73bc 7b28 1f3d
00000360: b9d0 b6bc 6db5 a1b8 6b2c cdbd e3e8 fb3c
00000370: 3ae4 183d d48f 8a3d 2e51 873d c68f dc3c
00000380: 0ea5 d6bd 66a6 b93b f6f2 983d 4867 7f3d
00000390: e9df 8ebc 2428 09bd 54b1 083d 7aea 803d
000003a0: 170b a23c ed10 e5bc bd1e c2bb 25e3 5a3b
000003b0: 8ee0 143d 7267 623d 8da5 113d 4912 7f3c
000003c0: ff76 193d 4803 77bc 2b04 9dbd 735c 123d
000003d0: fa5a 5fbd aef0 3ebd 74eb 8abb 92d3 febc
000003e0: d639 3b3d 8458 c13b 056f 54bd 9311 16bd
000003f0: 8c2e f6bc 8b88 2b3d 3e3f 303b 3bc6 60bd
0.03741481 -0.0037802355 -0.10834756 -0.005237758 0.03120133 0.09139215 -0.01434237 -0.062004566
-0.07049143 0.06291107 0.045878265 -0.015839698 -0.07758102 -0.018727116 0.058341846 0.05246684
0.058816724 0.017335204 0.0005360625 -0.022847285 0.008807862 0.0007064623 -0.060739353 -0.104750104
-0.07651092 0.035125624 0.07248791 0.0011563753 0.016126825 0.04055968 0.019355305 0.005592266
0.0416483 0.033813115 -0.031808957 0.025703926 -0.00373162 -0.019917531 0.030185394 -0.0014635887
-0.05583213 -0.047315836 0.016603678 -0.04007976 0.059484698 -0.12912343 -0.037689645 -0.04063741
-0.022676222 0.020035388 0.025536945 0.008171882 0.04156648 -0.034162406 0.0067668483 -0.056105588
-0.01935413 0.006219319 0.00068415987 0.016016314 -0.043842506 0.007180301 0.012626455 -0.030311741
0.0026079034 -0.013998357 0.032557335 -0.0015377192 0.10600251 -0.012546865 -0.029020948 0.034008052
-0.017031444 0.08769233 -0.07390432 0.04357055 -0.027828842 0.08439689 -0.021317668 -0.0056740395
-0.031215956 0.036247008 0.0030655705 0.047222212 -0.02406907 0.04065352 0.014305614 0.058746148
0.07881655 -0.07849595 -0.013777166 0.008842313 -0.066505246 0.056696545 -0.08624473 -0.17173259
-0.12347049 -0.035072874 -0.070308164 -0.09702357 -0.0030169133 -0.056891732 0.030625207 -0.06862913
-0.032612573 0.05317746 0.04658384 0.0033450003 -0.042659763 0.038338725 0.010422951 -0.040726263
0.038243428 -0.015616949 -0.047935028 -0.01716059 -0.120709985 -0.057363957 -0.028373325 -0.08716243
-0.015374118 -0.018788531 0.050147504 -0.014668996 -0.09746355 0.04605523 0.00634178 -0.05012065
0.0048332512 0.06125517 -0.028052982 0.016117124 -0.07016227 -0.007935596 0.056943297 0.027644202
0.05199433 -0.023401646 -0.045768984 0.014334594 -0.0119582545 -0.016435346 -0.019785373 0.045946635
0.06311914 -0.027552081 0.032449238 0.03768926 0.022222817 0.049834654 0.0499244 0.018867688
0.010313564 0.0008802381 -0.043168623 -0.027733652 0.06890626 0.02958236 0.01559762 -0.051703945
0.0038877823 -0.014876298 -0.011432421 0.020926667 0.004810418 -0.10549825 -0.035942063 -0.10179855
-0.053498324 0.0026385086 0.017218454 -0.07200033 0.0045717745 -0.028351298 0.0011578118 -0.036706004
0.047563784 0.0052358983 0.0072175493 -0.05119262 -0.10702808 0.018937517 0.038360454 -0.0085400995
0.021805257 -0.080887005 -0.08884904 -0.031373307 0.0025613548 0.046276823 -0.0032315054 -0.041541714
-0.0075798584 -0.06914645 0.032570962 0.06492772 0.08134386 0.053041425 -0.036682967 -0.0051450953
0.009084021 0.011115997 0.0839222 0.055181865 -0.047258038 0.07543292 0.025679333 0.11400449
-0.019822994 0.050382692 -0.010389515 0.030256301 0.08951128 -0.071753055 -0.014883771 0.038856965
-0.022316324 -7.7108714e-05 -0.10018238 0.030750697 0.03732703 0.06765714 0.06607281 0.026924025
-0.104807004 0.005665588 0.07468216 0.062354356 -0.017440753 -0.033485547 0.03337224 0.06294723
0.019780679 -0.027962172 -0.0059240744 0.003339955 0.036346965 0.055274434 0.035558272 0.015568324
0.037467 -0.015076466 -0.076668106 0.035732698 -0.05453012 -0.04661625 -0.004239494 -0.031106744
0.045709454 0.0059004445 -0.05186369 -0.036637854 -0.030051492 0.041878264 0.0026893164 -0.054876547

classifier.0.bias f4 [120]
00000000: d53b d73c 5be0 833b f958 c6bd 8f94 9bbb
00000010: ad61 073d 3f29 54bb 1331 943d 3bd2 58bd
00000020: 35c1 ae3d 3372 bd3c f972 0c3d 8a97 e53b
00000030: d239 893d 059d 0a3c 247e eb3c e5d5 95bb
00000040: 3d27 c1bc 3f46 29bd bd9c ce3c 67a4 9dbc
00000050: 06af 74bc 4d61 653d 2ab2 183d 5768 8cbd
00000060: 1a5a e2bb 51a4 993c 8ddb 49bd 0383 a53d
00000070: d7e6 f43c 251c 80bd 1e74 19bd c65f 30bd
00000080: db46 ed3d 318e 0f3c d131 8abd 2b0a 2c3d
00000090: 2d34 013d a901 05bd 2047 0ebd 4170 853c
000000a0: 39a8 a9bd 6383 32bb 8e1f 4abd a92b 1e3d
000000b0: 807f 9dbd a19d dcbd f5d5 dd3b 4e3c a33c
000000c0: d557 6cbd 7288 a03b ad09 5c3d aefd c0bc
000000d0: 6fa1 7dbc e8b2 a3bd def3 17bd c7d9 db3b
000000e0: 55f4 05be cc5d 5fbd c897 61bd 5adf 43bc
000000f0: 60fe b9ba 09bc bb3d e9bd ab3c 46e2 f9bc
00000100: 9dcf 81bd fc12 c33c 5ddc cabd 12d9 8d3c
00000110: 84e2 f73c f263 5e3c e3c2 a2bc 87c5 793c
00000120: f18f 473d 4d45 8fbc 6446 fabb f27b 8c3d
00000130: 48e4 963d ee0a 87bd a41d b7bc d5b2 90bd
00000140: e5e5 33bd e252 04bd 70dc 3f3c 120d 663c
00000150: 996c 813c 355f fdbc 3a79 afba 0022 11bc
00000160: c8ce d1bb 5382 fbbc ca35 3a3d 241c 1ebd
00000170: f931 8bbd 303b 23bd 5780 b43c fbd9 86bc
00000180: c4f0 6fbc 58de 57bc 4437 0fbc 1080 673d
00000190: 67a7 5e3c 3487 023e 9229 373d 0ab9 e1bc
000001a0: 0598 3ebd de80 033d f1ea cd3c 5efd ccbd
000001b0: b3c4 943b 8e5f 8c3c 333a d03c 6e7d 85bd
000001c0: f8d2 1cbc 2c5b 8d3d 702c cb3c 337f 19bd
000001d0: 90a3 bd3c f8a1 823d 00b1 ad3c 7411 ad3d
0.026273647 0.004024548 -0.09684939 -0.004747934 0.033052135 -0.0032373217 0.07235923 -0.052934866
0.08532945 0.023125743 0.034289334 0.0070065903 0.067004815 0.008460288 0.028746672 -0.0045726174
-0.02357828 -0.041326758 0.025221223 -0.019243432 -0.014934307 0.056000996 0.037279285 -0.06855839
-0.0069077136 0.01875511 -0.049281646 0.08081629 0.02989523 -0.06255368 -0.037464254 -0.043060087
0.1158578 0.008761928 -0.06747783 0.042001884 0.0315439 -0.032472286 -0.0347358 0.016288878
-0.08284039 -0.0027238957 -0.0493465 0.038615856 -0.07690334 -0.10772253 0.0067698904 0.019926216
-0.05770095 0.004899078 0.053720165 -0.023558464 -0.015480383 -0.07993108 -0.037097804 0.0067093107
-0.13081487 -0.05453281 -0.05507639 -0.011955107 -0.001419019 0.09166724 0.02096458 -0.030503403
-0.06338427 0.023812763 -0.09905312 0.017315421 0.030259378 0.0135736335 -0.01986832 0.015244848
0.048721258 -0.0174891 -0.0076377857 0.06859578 0.0736776 -0.065938815 -0.022353001 -0.070653595
-0.043920416 -0.032305606 0.011710271 0.014041202 0.015798854 -0.030929187 -0.0013387569 -0.008858204
-0.006402824 -0.030701792 0.045461453 -0.038601056 -0.06796641 -0.039851367 0.022033853 -0.016461363
-0.014644805 -0.0131755695 -0.008741204 0.056518614 0.0135897165 0.12746888 0.04471738 -0.027554054
-0.046531696 0.03210532 0.025136443 -0.100092635 0.00454005 0.017135408 0.025418377 -0.065180644
-0.009571783 0.06902155 0.024801463 -0.037474822 0.023149282 0.06378549 0.021202564 0.084505945

classifier.2.weight f4 [84, 120]
00000000: 8ca9 403d 08f3 82bb 57f8 4f3c 9575 52bd
00000010: 897a 86bd c5bd 45ba 2560 d43d ee5a 5c3c
00000020: 6e53 833d a0e2 45bc 3e65 a9bd f7a6 b43d
00000030: 4b57 053c db09 203c abc1 053d eb4f 76bd
00000040: 6bb2 623d f88b c4bd 1308 c23b d99e 28bd
00000050: bdd1 2ebd 82bb 0bbd 2950 4f3d 7f75 38bc
00000060: 5c24 dabc d63b b2bd 0356 c43c 71b4 f1bc
00000070: cf1e 513d 6517 823d ce2b 98bd bacb 88bd
00000080: 32ed ca3c 40c4 02be 7f9b c3bd 51e4 023c
00000090: c4b3 72bd f9bc a3bc 5587 533d d38b 683c
000000a0: 1941 64bd ddd6 6abd 305b da3b e0f4 53bd
000000b0: cf14 1e3d b786 9cbd 60bb 283d 7567 ed3c
000000c0: b490 2c3d ea95 283d 9a19 b0bd b304 d03c
000000d0: ac5f a5bd c89d 843d 4de7 083d c982 1e3d
000000e0: 675b adbc 9d54 95bd 1e38 123d e574 a33d
000000f0: 89e5 223d 9428 093a ad46 b13d b90f 973d
00000100: 7247 3fbd 4518 483d b51f 95bd 6b9e c63c
00000110: 855b cb3d f48d d03c fa4d ed3c bd8a 3fbd
00000120: c1b9 c53b 00ab cd3d c9d3 873d 1a64 0bbc
00000130: 5b2c a4bc 78f4 893d dcd3 67bd 0717 a33d
00000140: bfa9 ebbc e08f 233c 9527 2dbd ba78 2c3c
00000150: 4206 0cbc 1035 5abc b29b 3dbd 9f1a 2a3d
00000160: 4479 41bc 2e3f 1cbc 1872 46bd 18cd dabb
00000170: 5c10 6ebc 754c 873c f0a8 e0bb a627 c73b
00000180: cd18 7abd 1d29 143d b776 df3d be4e 873d
00000190: 99f0 c53d 1352 263d 19d6 88bd 1831 993d
000001a0: 901d 2ebc 9476 133d fa6b 853d 895c f0bd
000001b0: ffa0 a53d 5e62 2bbd f7a6 d2bd 890d aabd
000001c0: b8d2 4c3c 2519 8cbd 7caf 453d bc7f 42bd
000001d0: 9dd0 913b 7624 92bd 9834 bebd db8e e23d
000001e0: 1d2f ae3a 2593 39bc b202 723c c51e 883d
000001f0: e1e6 d73d a1f8 3d3b 5d1e 15bd 622b 29bc
00000200: b31e a2bc c881 aabd feb9 423d e88a d13c
00000210: b203 a2bc 7a42 893b a253 91bd a402 253d
00000220: e391 a63c ee32 483d a72a 763d 901b 003e
00000230: 5eda c03d a833 ce3d 327c d2bc 491a ce3c
00000240: 435d 683d e338 d4bd 2f3a 7b3d 9e33 4abd
00000250: 6307 543d 977d e93c 87b2 2e3d e035 c8bc
00000260: 486b 513c 57cc 43bd df19 8cbd f286 dc3d
00000270: d513 3bbc ad20 babd 6ad7 d53d 5005 2a3d
00000280: 81f3 19bc d417 c1bb a8de 093c fe74 81bc
00000290: 7bec 43bc 6419 6ebd 748c b2bd 93cf 3b3d
000002a0: a706 75bd dfcf 4dbd fdac a53c 8e96 483d
000002b0: fe3c 77bd 30a9 c93d 9dff df3b fb44 803d
000002c0: 5d4b 4b3c b9e3 893d dc6e 8ebc d3eb 133c
000002d0: 085e ce3d 1dd5 fab9 a78a b63d 5b1e 973d
000002e0: 514f a8ba a94b cfbd 627b e83c a71d 8f3b
000002f0: 9b38 6e3d 7b63 253d 9ea0 ba3c 1219 82bd
00000300: a414 90bd 2d86 9abc f59c 9bbd 53f4 efbc
00000310: c4a1 83bb ba31 87bd e7b7 9b3d eeb7 8ebc
00000320: 3bb5 30bd 4a5b f23c aeab b2bd eaaf d23d
00000330: c6c2 8c3d dc5a 8bbc 9e31 c0bd fa2a cf3d
00000340: 26a4 c43a eaca 7bbd a598 0cbc 7220 ab3d
00000350: 75c7 e5bd c7d0 7c3c 87db 06bb 1f07 0ebc
00000360: 7711 6a3d c84c d93c cedf cebd 6e26 193c
00000370: 810a 87bd 0110 893d 1366 b8bb 317a afbd
00000380: 24e7 d83c 1799 c2bd 3f02 7e3d 4cb6 e53c
00000390: d737 c7bc 8aab e23c 78f3 16bd b9ae 5abd
000003a0: 8817 a13d c45a ca3b 51b6 9c3d edf6 19bc
000003b0: 46c3 a8bd 29e0 a4bd aa61 0ebc 940d 2ebd
000003c0: 8c0a 1c3e f650 e13d f791 c7bc 381c de3d
000003d0: 3a8c 15bd cae8 153d d9b6 543e 1ec0 c53d
000003e0: f52d e63d 3f2e 8fbd 9e8b 5abb fd7c a9bd
000003f0: 073c 83bc d36a 033e 5c66 0a3e 309b f73b
0.047036693 -0.0039962567 0.012693486 -0.051381666 -0.065663405 -0.00075432315 0.103699006 0.013449414
0.06412397 -0.012077957 -0.082712635 0.088209085 0.008138488 0.009767975 0.0326554 -0.06013481
0.055345934 -0.095970094 0.0059213727 -0.041167114 -0.04268049 -0.03411437 0.050613556 -0.011258482
-0.026628666 -0.08702819 0.023966795 -0.029504986 0.051054772 0.063521184 -0.0743023 -0.06679483
0.024771307 -0.12770176 -0.09551143 0.007989005 -0.05925347 -0.01998757 0.051642735 0.014193493
-0.055726144 -0.057333816 0.0066637024 -0.051747203 0.038594063 -0.07642882 0.04119432 0.028979996
0.042130187 0.041158594 -0.08598633 0.025392866 -0.080748886 0.06475407 0.03342371 0.038698945
-0.021161748 -0.07291529 0.03569805 0.0798128 0.039769683 0.0005232182 0.086560585 0.07376046
-0.046698995 0.04885127 -0.07281438 0.024245461 0.09929565 0.025458314 0.028967846 -0.04676317
0.0060341065 0.10042381 0.06632192 -0.008507753 -0.020040682 0.06736082 -0.05659853 0.079633765
-0.028767465 0.009983033 -0.042274076 0.01052683 -0.008546414 -0.013318315 -0.04629106 0.041529294
-0.011808697 -0.009536548 -0.048448652 -0.006677281 -0.014530268 0.01651595 -0.0068560764 0.0060777245
-0.061058808 0.03617202 0.10911315 0.06606816 0.09665031 0.040605616 -0.06681461 0.07480067
-0.010627165 0.036001757 0.065147355 -0.117364 0.08087348 -0.041841857 -0.10285752 -0.08303363
0.012501411 -0.068407334 0.048263058 -0.0474851 0.0044499175 -0.071358606 -0.09287375 0.11062404
0.0013289187 -0.011326586 0.01477115 0.06646494 0.105420835 0.0028987306 -0.03640591 -0.010325285
-0.01979003 -0.08325535 0.047540657 0.025578931 -0.019777153 0.004188833 -0.0709603 0.04028572
0.020333236 0.048876695 0.06009927 0.12510514 0.0941665 0.100684464 -0.025693987 0.025159018
0.056729566 -0.10362413 0.061334785 -0.049365632 0.051764857 0.028502269 0.042650726 -0.024439752
0.0127819255 -0.047802296 -0.06840872 0.10767926 -0.011418303 -0.09088264 0.104414776 0.041508973
-0.009396435 -0.005892733 0.008414902 -0.015802857 -0.011958237 -0.058129683 -0.087181956 0.045852255
-0.059820797 -0.05024707 0.020224089 0.048971705 -0.0603609 0.09846723 0.0068358914 0.06263157
0.012408105 0.06732888 -0.017386846 0.009028393 0.10076529 -0.00047842498 0.089131646 0.07378837
-0.0012841021 -0.10121853 0.028379146 0.0043675485 0.058159452 0.040378075 0.022781666 -0.06352438
-0.07035187 -0.018862808 -0.075982966 -0.029291308 -0.0040170867 -0.066012815 0.07603436 -0.017421689
-0.043141585 0.029584546 -0.087241516 0.10287459 0.068730876 -0.017011099 -0.09384464 0.10115619
0.0015002533 -0.06147281 -0.008581315 0.08355798 -0.11219684 0.015430636 -0.0020577626 -0.00866869
0.057145562 0.02652587 -0.10101281 0.009347541 -0.065938 0.06692506 -0.0056274026 -0.08568228
0.026477404 -0.09501856 0.06201386 0.028041027 -0.024318619 0.027669687 -0.036853284 -0.053389285
0.07865816 0.006175371 0.076519616 -0.009397251 -0.082403705 -0.08050568 -0.008690277 -0.042493418
0.15238398 0.1100177 -0.024361594 0.10845226 -0.036510684 0.036598958 0.20772876 0.09655784
0.11239234 -0.069912426 -0.0033347378 -0.08275793 -0.016019834 0.12833719 0.1351561 0.0075563416

classifier.2.bias f4 [84]
00000000: 036e 9ebc ffee 91bc 1914 f63b f527 3b3d
00000010: a4e5 343e 128e edbb 731a d63c d56f 723b
00000020: 89cd 8e3d 7a97 4abd d1f9 b83c 33c4 833d
00000030: 65cf d93d 0cdc 533c b0c8 a23c 2f12 fa3d
00000040: b650 a93d 394a 093e 6a0d 9ebb 0ff3 2d3d
00000050: b628 60bd 0e02 d83c 64fc c53d 8c38 243d
00000060: 65e1 9c3d 8e14 823d 83ad 023e a8bd d23d
00000070: 3cf0 573c 5e65 7f3d 3132 0ebd 5219 a1bc
00000080: 7309 cabd 1574 063e 1241 d33d 61a4 50bd
00000090: 1271 b43d 9ae6 8e3d 7fc6 06bd 307d 033e
000000a0: 1932 6c3d 4ecd 8b3c 0cf8 87bd af35 cf3d
000000b0: 797b 5d3a 8f52 413d 67b9 ac3d 3c48 bc3d
000000c0: f070 673d c2ae a8bd 8df8 493b 48d0 a93c
000000d0: 9368 ba3d 5136 c7bc 31c9 edbb 1403 ce3c
000000e0: 56e6 1a3c 7bad 2fbd 98f7 2b3d dc90 1dbc
000000f0: 9428 d93d 2db3 8b3d 1538 563c 6c05 9fbd
00000100: a9f1 5c3d b17b 6d3c f24f 52bc 8673 b63d
00000110: 08c8 3e3c b230 193d 182a 8fbd 514c 0f3e
00000120: d416 b0bb 3920 333e 3206 3cbd 05de babd
00000130: e95f 083d f4ee 383d 89a8 303d 3ce3 af3d
00000140: 1642 5fbd cac8 e53c a2cf a83d e963 413d
-0.019339567 -0.017814158 0.00750972 0.045692403 0.17665726 -0.007249602 0.026135659 0.0036992927
0.069727965 -0.049460866 0.02258006 0.064339064 0.106352605 0.012930881 0.019871086 0.122104995
0.082673475 0.1340722 -0.0048233764 0.042468127 -0.054726325 0.026368167 0.0966728 0.04009299
0.07660178 0.06351577 0.12761502 0.1029008 0.013179835 0.06235253 -0.034715835 -0.019665394
-0.098650835 0.1313022 0.103151456 -0.050938014 0.08810629 0.069775775 -0.032904144 0.12840724
0.057664964 0.01706567 -0.06639108 0.10117661 0.000844888 0.047197875 0.084338 0.09193465
0.05650419 -0.082364574 0.0030818314 0.020729199 0.09101977 -0.024317892 -0.00725665 0.025147952
0.00945433 -0.042890053 0.04198417 -0.009617057 0.10603443 0.068212844 0.013074894 -0.07764706
0.053941403 0.014494822 -0.012836443 0.08908753 0.011644371 0.037399955 -0.069904506 0.13993956
-0.005373815 0.1749276 -0.045904346 -0.09124378 0.033294592 0.04514976 0.043129478 0.085882634
-0.054506384 0.028049845 0.08242728 0.047214422

classifier.4.weight f4 [10, 84]
00000000: 954b 06be f0f6 c8bc 9abc a23e 6dd2 adbd
00000010: 60f5 4a3e b182 873e 263e 3b3e cec7 92bd
00000020: 380a e6bd a3e1 983c 593d 25be 144c 7cbe
00000030: 9ca9 013d 0c66 57bc fc77 193e 425f 9bbd
00000040: a835 2fbe 9747 a5bd 5a8a ec3d 742c a33c
00000050: 53bf 093f ad9d 1dbe 65e3 aabc b470 04be
00000060: 2890 a23c 3586 7fbd e41d a13e b4fb 07be
00000070: cbe6 1cbd e0fb 20bb eeb8 413d bd6e cebd
00000080: d1f6 4a3e b615 06be 11af bbbd c950 993e
00000090: a965 ad3e 75fd 3b3e ec72 b0bd 4b6d 29be
000000a0: 481c a4bd aa1e 493e 1295 84ba 953f af3d
000000b0: c415 99bd bec1 61be b0ca 203e e755 af3e
000000c0: 3053 f6bd 1388 27bc c9b2 f33d a592 48be
000000d0: 1cb0 10be 2c05 62bb cb62 593d 527a c0bd
000000e0: 5127 85bd 2bc6 89bd 42b5 b1be ff69 a33e
000000f0: 6128 433e 77a8 73be 13ec 97be f94d c8bc
00000100: 9096 59bc fae7 d3bd 8f2c 8abe 94c9 893e
00000110: 0c23 e83e 912b b13e c1a4 3d3e be3e 8bbe
00000120: 658e bd3e d243 08be 3bed bf3e 0cc2 ca3e
00000130: 101f 5cbe 65a6 763e 0805 c9bd 37f2 85be
00000140: 37d7 5b3e b4b4 2bbe aab2 f5bd b714 b03d
00000150: e634 f2bd 4fe7 8b3d 9b9c 2d3e c758 21be
00000160: 75f1 bb3e a81d 4ebe adf7 9bbe 4758 0abe
00000170: 5f67 6ebc d19d 0fbe 734b 6ebe c750 9e3e
00000180: bc17 5abe f246 9d3d 176d 08be 2a50 6cbe
00000190: f9a8 b9be b9b7 a33e 20d2 6b3e 3cb3 be3d
000001a0: 2b29 cabd ec8b dfbd f20d 8a3e 352e 0ebd
000001b0: a46d d63b 30c8 f2bd 4b44 e13e 53f5 943e
000001c0: 9d21 c73c e701 693d 822e c23e 4eb0 143e
000001d0: 099b d5bd b573 97bd 6b69 20be 73d3 eebe
000001e0: 19dc 88bd 94cb 74be f6ed c0bd 5ebf fd3e
000001f0: 65dd b7bd 9ef6 143d da97 963c 566c b0be
00000200: a36d 94be 2cd2 143e 8b06 54be 40ab f43d
00000210: 2bdf 623d 7d41 543d a906 9fbb ef36 463e
00000220: a988 a73e a3fc 6ebb 727c 8c3d e0f8 3abe
00000230: b945 623e 1e2d 82bd 6748 54be 2816 0aba
00000240: 1338 743d 06a0 863c 8e97 633e 2dce 273e
00000250: bdcd cf3e 2abb 0abe f051 e53e d89b 6c3e
00000260: 288c 2a3e fed7 a0bd 41f0 c9bd b6fb 1dbd
00000270: 24f2 2e3e 2102 00bd 94f8 ee3e 0969 c7bc
00000280: d9ce d5bd c5df a5bd f0b6 ca3e 7345 db3c
00000290: 6ebf 1cbe 9b1d 9abd 04a7 a83c 0daa b8be
000002a0: 7ecc 3c3e 43af b8bd 9524 f9bd de95 fdbd
000002b0: 7aca 88be d64d 053d d36b 863e a45b 8c3d
000002c0: c0e2 c8bd d7c8 e63b d1aa 9f3e 64a9 ec3b
000002d0: 9b72 5fbe c086 ad3e 81ed ecbd 2ae8 00be
000002e0: ac3e 133e a6f5 9cbe 40e2 c93d d114 893d
000002f0: 0d85 593e d705 be3e 6f19 7cbc a01d 1dbd
00000300: 7673 d63d e7a2 423e f86c 97be aa44 143e
00000310: 70c5 033d 191b d7bd 8326 74be 47be 83be
00000320: 26d9 1b3e adb1 abbd 04fe 24be 17f1 b93e
00000330: 5d53 e0bd e7f9 2bbe 0531 093c 88d3 cb3d
00000340: ee81 8dbd 42b3 47be 8829 cebd 480c 303e
00000350: e0e9 f63e 78c8 cbbe 2979 993d 5139 16be
00000360: a650 f23d 5bfc 1abc 3cc0 f7bd 66dc 36be
00000370: a074 85be 3006 e43e b6f6 d9bd 2952 563e
00000380: 542b 9b3d d2f7 4f3c 74e9 ac3d 8c38 b33d
00000390: c737 7bbe 67b4 a93e 0bc7 bd3d 6f73 c9bc
000003a0: b6c6 33be a64f 673e 8097 813e 480a a83e
000003b0: 0451 d63e 2777 a13d 8a36 983e 9873 d1bd
000003c0: 34cc 9b3e c825 763e b45a 453d 1597 ab3e
000003d0: b1f5 6b3e 8d44 263d d540 b13c 3908 bf3e
000003e0: b71d 213e 54cf a13e 12bb 08be a394 e4bd
000003f0: 4d2e a13d cbf3 9bbd fc4e b4bd b56b 093e
-0.1311477 -0.024531811 0.31784517 -0.08487401 0.19820166 0.26466897 0.18285426 -0.07167016
-0.11232418 0.01866228 -0.16136684 -0.24638397 0.031655893 -0.013146888 0.14987177 -0.07586528
-0.17110312 -0.08070295 0.11549826 0.019918658 0.5380756 -0.1539218 -0.020860383 -0.12933618
0.01984413 -0.06238385 0.31468117 -0.13279611 -0.03830604 -0.0024564192 0.047295503 -0.100797154
0.19820715 -0.1309422 -0.09164251 0.29944447 0.33866623 0.18358405 -0.086156696 -0.16545598
-0.08013207 0.19640604 -0.0010115227 0.08557049 -0.074748546 -0.22046563 0.15702319 0.34245226
-0.120275855 -0.010225314 0.11899335 -0.1958719 -0.1412968 -0.0034487946 0.053072732 -0.09398331
-0.0650164 -0.06727251 -0.347086 0.31916806 0.19058372 -0.23794733 -0.29672298 -0.024451243
-0.013280526 -0.103469804 -0.2698712 0.26911604 0.4533924 0.3460355 0.1851988 -0.27196306
0.370227 -0.13307121 0.3748568 0.3960117 -0.21496224 0.24086912 -0.09815413 -0.26161358
0.21468817 -0.16768152 -0.11996968 0.08597701 -0.11826496 0.06831228 0.16954271 -0.15756522
0.36707655 -0.201285 -0.304624 -0.13510238 -0.014551013 -0.14025046 -0.23270969 0.30921003
-0.21298116 0.07679547 -0.13322864 -0.23077455 -0.36261728 0.31976107 0.23029375 0.0931153
-0.098711334 -0.1091536 0.26963764 -0.034712035 0.006543832 -0.11854589 0.43997416 0.29093418
0.02430802 0.05688658 0.37926108 0.1452038 -0.10429961 -0.07395116 -0.15665214 -0.46645698
-0.06682605 -0.23905784 -0.094203874 0.49560064 -0.089777745 0.036368005 0.018382955 -0.34457654
-0.28989896 0.14533299 -0.20705621 0.11946726 0.05538861 0.051820267 -0.004853089 0.19356893
0.3272145 -0.0036466501 0.068596736 -0.18259001 0.2209691 -0.06356262 -0.20730744 -0.0005267584
0.05962379 0.016433727 0.22225782 0.16387244 0.40586653 -0.1354796 0.44789076 0.23106325
0.16655028 -0.07853697 -0.09860278 -0.03857013 0.17084557 -0.03125203 0.46674025 -0.024342077
-0.10439844 -0.08099321 0.39592695 0.026766514 -0.153074 -0.07525178 0.020587452 -0.36067238
0.18437383 -0.090178035 -0.121651806 -0.123821005 -0.26716977 0.032544933 0.26254138 0.068534166
-0.09808874 0.007042985 0.3118501 0.0072223414 -0.21821062 0.3389187 -0.11568738 -0.12588564
0.14379376 -0.30656165 0.09857607 0.066934235 0.21242161 0.3711383 -0.015386923 -0.03835833
0.10471241 0.19007455 -0.29575324 0.14479318 0.032170713 -0.10503215 -0.23842816 -0.25731108
0.15219554 -0.08383498 -0.16112524 0.3631675 -0.109534 -0.16794549 0.008373504 0.09952456
-0.06909548 -0.19501975 -0.10066515 0.17192185 0.48225307 -0.39801383 0.074938126 -0.14670302
0.11831789 -0.00945958 -0.12097213 -0.17857513 -0.2606554 0.4453597 -0.106427595 0.20929779
0.075766236 0.012693362 0.08442965 0.0875102 -0.24532996 0.3314545 0.0926648 -0.024591176
-0.17556271 0.22588977 0.25310898 0.32820344 0.41858685 0.07884055 0.2972911 -0.10227126
0.30429232 0.2403785 0.048182204 0.33513704 0.23042943 0.04059272 0.02163736 0.3731096
0.15733992 0.3160349 -0.13352612 -0.11161163 0.07870159 -0.07614859 -0.088041276 0.13419993

classifier.4.bias f4 [10]
00000000: 0a16 3c3c 8473 443e 1c4f 8abc 6220 023e
00000010: 3dad 2c3d dd93 343c 2709 053e a7df 1f3e
00000020: d6ed 7bb8 9974 4a3e
0.011479864 0.1918469 -0.016883425 0.12707666 0.0421574 0.0110215815 0.12991773 0.1561266
-6.0064565e-05 0.19771041
