experiments/LeNet/CIFAR10/experiment-3/last-epoch.pt (torch, 258795 bytes, 18 tensors)

features.0.weight f4 [6, 3, 5, 5]
000000 20 b4 e6 be 79 62 aa 3e 32 dc d8 bd 85 2b 3a be
       -0.450593 0.33278254 -0.10588874 -0.18180664
000010 2a d1 38 be ae fb bd 3d 9b 3d 5d 3f 23 3d e8 be
       -0.1804854 0.0927652 0.8642213 -0.45359144
000020 07 d7 3d be 33 48 98 3e b6 0a a9 3e 47 42 83 3f
       -0.18539058 0.29742584 0.33015984 1.0254601
000030 7b a5 73 bf eb 1e d4 be 71 f0 14 3f 23 9f e6 3e
       -0.9517438 -0.4142984 0.58179384 0.45043287
000040 60 a3 6d 3f ef 21 80 bf bb eb 73 be 5f 04 5d 3f
       0.92827415 -1.0010356 -0.23820393 0.86334795
000050 03 2b 8a bd 6e ae e8 3e a1 a0 3e bf 40 77 d9 be
       -0.06746485 0.4544558 -0.7446385 -0.42473793
000060 27 28 b9 3e 53 f1 09 3e 44 2c f0 3e 55 b8 f5 be
       0.36163446 0.13470964 0.46908772 -0.47992197
000070 61 2b d9 bd 2f 83 8c 3c 6c 61 a5 3e 29 43 12 3f
       -0.10603977 0.017152397 0.3230089 0.5713373
000080 d6 2d 81 bf 5c 57 3e bf 5e d3 c8 3e eb 14 c7 3e
       -1.0092113 -0.7435205 0.3922376 0.38883147
000090 6a c8 3d 3f c7 4f dd bf 59 92 80 bf 25 9c 18 3f
       0.7413393 -1.7289971 -1.0044662 0.5961326
0000a0 7c c7 dc 3e af e1 09 3f 20 05 c4 bf ce e6 28 bf
       0.43120944 0.5385999 -1.5314064 -0.6597718
0000b0 cf ea 59 3f 52 00 d5 3d d0 72 6c 3e 32 7c 8b bf
       0.85123914 0.10400452 0.23090672 -1.0897276
0000c0 6f 1b f6 be 62 dd 3a 3f 76 8f cc bd 89 a0 ac 3e
       -0.48067805 0.72994053 -0.099883005 0.3371623
0000d0 b7 18 d4 be f0 50 17 bd be dc 68 3e 38 9b 20 3e
       -0.41425106 -0.036942422 0.22740456 0.15684211
0000e0 4c 3e 35 3f 77 9e 53 bf 01 f4 fe be 50 e5 cf 3e
       0.7079818 -0.82663673 -0.49795535 0.4060464
0000f0 9f f3 08 3f a1 78 64 3f 8b 48 95 bf 51 dc 28 bf
       0.53496736 0.89246565 -1.1662763 -0.65961176
000100 d3 e9 2c 3f 1c 56 e0 3e cc 50 3b 3f 6f 41 a6 bf
       0.6754429 0.43815696 0.7317016 -1.2988719
000110 87 2e 12 bf bf cf 46 3f 8e 18 8d 3e c1 37 c0 3e
       -0.57102245 0.77660745 0.27557796 0.37542537
000120 b8 12 63 bf 0a 65 68 be 44 b5 28 3f 50 ff 6d 3e
       -0.8870044 -0.22694793 0.6590159 0.23241925
000130 a5 e7 36 3e c1 26 a3 be 59 03 32 be 0c ff 71 3d
       0.17861803 -0.31865504 -0.1738409 0.059081122
000140 fb 69 05 be 1a 82 40 3e af c5 09 3e 12 d9 64 be
       -0.1302871 0.1879963 0.13454317 -0.22348431
000150 e6 38 f4 be 07 11 91 be 7b 9a 66 3f b8 59 e6 3f
       -0.4769966 -0.28333303 0.9007947 1.799613
000160 21 52 b4 3f 02 a6 f7 3e 63 e7 d5 be cf 10 d9 be
       1.4087564 0.4836884 -0.41778097 -0.42395636
000170 3e bf d8 be d8 3f 1b be 80 e5 cf bc 68 75 14 3f
       -0.42333406 -0.15161073 -0.025377989 0.5799165
000180 3f 6d f0 be 39 9e c6 bf 98 24 8d bf f8 01 e4 bd
       -0.46958348 -1.5517036 -1.1026793 -0.11133188
000190 63 c1 87 3e fc 73 4e 3b 94 80 20 bf b9 7d d0 be
       0.2651473 0.0031502238 -0.62696195 -0.4072092
0001a0 44 d6 8a 3d 16 65 bb bc e7 e5 f4 3d b5 ef 23 be
       0.06779149 -0.02287535 0.11957913 -0.1600941
0001b0 1a 93 32 be 7f 6d 35 be c5 85 98 be 7b c6 7c 3f
       -0.17438927 -0.1771755 -0.29789558 0.9874036
0001c0 1d ec e0 3f f1 ba bd 3f e7 f2 0f 3f 1f 04 c3 be
       1.7572056 1.4822675 0.56230015 -0.38089082
0001d0 da e0 8f be 1c c7 32 be 3a 7f ef bd 8e 6d ec bd
       -0.28101236 -0.17458767 -0.116941884 -0.115443334
0001e0 ef ee 29 3f a0 1d eb be 6f 0e c2 bf 95 ee 8b bf
       0.6638021 -0.4592104 -1.5160655 -1.0932184
0001f0 5a ad 60 bb 5d 48 a4 3c 80 3a bf be 96 4c 50 bf
       -0.0034283013 0.020054037 -0.3734932 -0.8136686
000200 62 e6 14 bf 4c bb f3 bd a1 f3 a2 be c4 16 b1 bd
       -0.58164036 -0.119009584 -0.318265 -0.0864692
000210 a0 e7 b0 be 40 1b f7 be 52 2e cf be ef 4a 86 bd
       -0.34551716 -0.48262978 -0.40465027 -0.06557261
000220 c0 44 38 3f 39 22 e4 3f 03 db c6 3f 9e 73 23 3f
       0.71979904 1.7822944 1.5535587 0.6384829
000230 66 b0 60 be f1 53 32 be 25 40 72 3b c9 bf 52 3e
       -0.2194229 -0.17414834 0.0036964503 0.20580973
000240 a1 96 21 3e f9 72 2a 3f e2 98 33 be 4b 4c 9d bf
       0.15780117 0.66581684 -0.17538789 -1.2288908
000250 13 e2 4e bf 4b 4e b1 bc a6 17 e6 bd ca 02 5b bd
       -0.8081371 -0.021643778 -0.11234979 -0.053469457
000260 e9 3b 37 bc 3d 78 9c bd ed bd 27 be cb b7 92 be
       -0.011183717 -0.07640121 -0.16381045 -0.28655848
000270 15 30 ca be 8c 19 bc be 6e 94 ab be c1 32 de be
       -0.3948981 -0.3673824 -0.3351168 -0.43398097
000280 49 b1 bb be 93 16 09 bf b8 5b ae be 87 cb 04 bf
       -0.36658695 -0.5355007 -0.3405435 -0.5187306
000290 63 a8 dd be 55 31 ea be ee 13 f9 be 5c 5e 03 bf
       -0.4329253 -0.45740762 -0.48648018 -0.51315856
0002a0 49 e6 e8 be ed f3 a9 be a1 84 d1 be c9 eb 9c be
       -0.45488194 -0.33193913 -0.409215 -0.3064864
0002b0 18 dc df be 44 fb df be c0 60 a8 be 0f d1 94 3e
       -0.43722606 -0.43746388 -0.32886314 0.2906575
0002c0 b6 81 cc 3e 27 76 7c 3e 45 d5 93 3e 9c 68 48 3e
       0.39942712 0.24654447 0.2887365 0.19571155
0002d0 d5 1a 89 3d a0 d7 a2 3e 82 e7 b7 3e 11 63 e2 3d
       0.06694571 0.31805134 0.35918814 0.11054052
0002e0 47 2e e1 3d 8d f3 14 3e 3f 9b 6f 3e 16 7e c0 3e
       0.10995155 0.14546032 0.23399065 0.37596196
0002f0 ab ef 5f 3e 92 21 04 3e 35 4d b6 3d 2f 32 6a 3e
       0.2186877 0.12903431 0.08901445 0.22870706
000300 07 50 76 3e 80 44 42 3e 84 e5 5f bd b3 a1 24 bd
       0.24053966 0.18971443 -0.054662243 -0.04019327
000310 44 5a 0b 3e b7 be 92 3e f9 7c 64 3e 26 c9 d9 3d
       0.13608652 0.2866113 0.22313298 0.10634069
000320 9a 05 86 3e 14 cd a5 3e aa 23 a9 3e c2 59 18 3e
       0.2617615 0.32383025 0.33035022 0.1487799
000330 14 25 99 3d e2 2d 43 bd 68 b7 78 3e b5 73 ad 3e
       0.07477775 -0.04765118 0.24288714 0.3387734
000340 e9 a7 95 3e 35 77 8d bc 9e 50 9d bd 20 4d bb 3e
       0.29229668 -0.017268756 -0.07681392 0.3658228
000350 5f 5a b5 3e 6c f9 69 3e c0 9a 3e 3d 8c c7 96 3c
       0.3542051 0.22849053 0.0465343 0.018405698
000360 13 c5 4e 3e e6 0a c8 3e 21 38 d9 3e 61 fd a4 bc
       0.20192365 0.39070815 0.42425635 -0.020140352
000370 ab 2b bd 3d ef d5 e1 3e 41 7d f9 3e c2 a8 da 3e
       0.09236845 0.4410853 0.48728374 0.42706877
000380 cc 39 82 3e 67 f4 8d 3e 53 53 b1 3e e9 b2 64 3e
       0.2543472 0.27725527 0.34633884 0.22333874
000390 dd 96 5a 3e 88 fb 35 3d a0 42 13 3e 18 c3 69 3e
       0.21346612 0.044429332 0.14380884 0.22828329
0003a0 f2 e4 65 3e 04 af 03 3e 01 c9 1d 3e 84 03 47 bd
       0.22450617 0.12859732 0.15408708 -0.048587337
0003b0 b0 2e 80 3d 7a 42 13 3e 23 90 44 3e b1 17 26 3e
       0.06258905 0.14380828 0.19195609 0.16219975
0003c0 f2 6b 94 3d 00 19 8e 3e 0b 54 45 3e 59 0f 6c 3e
       0.072471514 0.27753448 0.19270341 0.2305273
0003d0 8c ef 6b 3e 6f d8 82 3e a6 01 b7 3e 37 e5 8b 3e
       0.23040599 0.2555575 0.35743445 0.27323315
0003e0 a0 0b 9d 3e 31 06 3e 3e ae 94 92 bd f3 6c 51 be
       0.30672932 0.1855705 -0.07157265 -0.20451717
0003f0 4a 6e 54 be 57 81 f5 bd 32 2c 5a be 88 a6 d7 be
       -0.20745197 -0.1198756 -0.21305922 -0.4211924

features.0.bias f4 [6]
000000 ce a1 07 3d ba 7a ce 3d ce 2b 13 3f ce bf a9 3e
       0.033113293 0.10082002 0.57488716 0.33154148
000010 7b c1 df 3e 1d 88 b8 3d
       0.437023 0.090103365

features.2.weight f4 [6]
000000 8d 89 cd 3f fd 84 d9 3f 07 a1 4a 3f 3e 0d 54 3f
       1.6057602 1.699371 0.7915196 0.82832706
000010 a4 09 88 3f cf 95 b8 3f
       1.0627942 1.4420718

features.2.bias f4 [6]
000000 81 42 0b 3e 85 48 84 3e cf aa d8 3e fd e2 12 3e
       0.13599588 0.25836578 0.42317817 0.14344402
000010 6d 00 39 3e 8e d0 99 3e
       0.18066569 0.30041927

features.2.running_mean f4 [6]
000000 9c 82 94 3e 9a 78 8a 3e 12 ce a4 3f 46 53 b0 3f
       0.29005897 0.27045137 1.2875388 1.3775413
000010 4d b9 d9 3f bf c3 b0 3e
       1.7009674 0.34524342

features.2.running_var f4 [6]
000000 ab 36 01 3f 20 2a e4 3e f3 14 8d 3f 08 98 12 3f
       0.5047404 0.4456339 1.1022018 0.5726323
000010 33 86 0c 3f d2 f3 16 3f
       0.5489227 0.5896579

features.4.weight f4 [16, 6, 5, 5]
000000 8b 9d cc be b8 b4 52 be 43 6b 2f 3e 34 39 56 bd
       -0.39963946 -0.20576751 0.17130761 -0.052300647
000010 8a 12 f5 3c ba 70 c7 be 10 e6 97 be c8 57 88 bd
       0.029916067 -0.3895319 -0.2966771 -0.06657368
000020 31 35 a4 be be f9 be 3d 6c bf d2 3d 06 f9 6b be
       -0.32071832 0.09324978 0.10290417 -0.23044214
000030 fa 8f 2d be 90 fb e9 bd 6e f6 ce bc 12 91 af 3e
       -0.16949454 -0.11424935 -0.025263991 0.34290367
000040 ac fb 88 3e 94 25 36 bc 0c 5a a4 bc 48 36 d9 bd
       0.2675451 -0.011117358 -0.020062469 -0.106060565
000050 aa 9f 82 3e 1f 87 2e 3f e2 f3 b6 bc c8 43 86 bd
       0.2551244 0.6817493 -0.02233309 -0.06555897
000060 71 75 2f be 56 d1 36 3e d7 f2 36 3d 8f 94 05 3e
       -0.17134644 0.17853293 0.044665184 0.13044952
000070 a8 84 f5 3d e7 c4 7f bd 8c 06 62 3d 5a d2 81 3d
       0.11988193 -0.06244364 0.055182025 0.063389495
000080 00 b7 64 3e 90 cd 9d 3e a0 07 a1 be d4 2d 49 be
       0.22335434 0.30820894 -0.3145113 -0.19646388
000090 82 07 39 bd 7f 87 ff 3c 2a c3 8a 3e 66 c3 b4 3d
       -0.045173176 0.03119254 0.27102023 0.08826332
0000a0 74 3f 93 bd 16 5b 81 3e 46 84 cc 3d 71 33 37 bd
       -0.07189837 0.25264806 0.09986167 -0.044726793
0000b0 6e 96 ec bc 69 b0 d7 bd 95 ca da 3d e4 79 cf 3a
       -0.028880324 -0.105316944 0.10683171 0.0015829173
0000c0 0d 94 2e bd 24 ed 53 be 2e d0 0c bc e5 5e 04 be
       -0.04262166 -0.2069593 -0.008594556 -0.12926824
0000d0 ed 0c 4f be 16 7f 3e be 9f fe 89 be b6 6d 8f 3e
       -0.20219775 -0.18603167 -0.26952073 0.2801339
0000e0 94 ee 15 3e 88 7e c2 3c e7 24 f2 bd c8 2e c6 be
       0.14641792 0.023741975 -0.11823445 -0.38707566
0000f0 77 22 a5 3e b6 cd 6b 3e fe 47 fc 3d 07 77 9a 3c
       0.32252857 0.23027691 0.12318419 0.018855585
000100 7d d5 fc be 34 31 0f 3f 6a 8d 69 3e 29 2d d1 3d
       -0.4938163 0.55934453 0.22807851 0.10213692
000110 bf 3a 67 3c 1f d8 d5 be 1a df 3e 3f 22 93 ee 3e
       0.014113127 -0.4176645 0.74559176 0.46596628
000120 e4 57 8d 3e d3 1d 84 3e a1 62 84 3b 54 42 f8 bd
       0.27606118 0.25804004 0.004040078 -0.12122026
000130 65 7a ec bd d8 9c 3e bd 90 5a 5a 3d 19 7e dc 3d
       -0.115467824 -0.046536297 0.053309023 0.10766239
000140 e7 84 ac bd 8c 05 46 be 2f 43 9b be 17 ca ec bd
       -0.084237866 -0.19338053 -0.30324695 -0.11561983
000150 c2 c4 fe bd c4 eb 92 bd 75 72 00 be 1c ad 07 be
       -0.12439872 -0.07173875 -0.12543662 -0.1324963
000160 37 4a 41 3c 10 65 b8 3d 06 d8 ea 3d 3b 3a 40 3e
       0.011797479 0.09003651 0.114669845 0.18772213
000170 10 51 71 3c a6 fa 9b 3d 1c 48 e0 3e e0 a1 8c 3e
       0.014728799 0.07616167 0.43805015 0.2746725
000180 f3 85 b8 3e 51 ab 99 3e ea 07 b1 3e ec 5e 0a 3f
       0.36039695 0.30013517 0.3457635 0.5405109
000190 ac 99 50 bd 7b 96 a8 bd 7c d3 ef 3b 00 5a 9b 3d
       -0.050927803 -0.08231827 0.007318912 0.075855255
0001a0 0d 56 b2 3e e8 6b 33 be e5 be 8e be 55 48 9f be
       0.34831277 -0.17521632 -0.27880016 -0.31109872
0001b0 ed 05 6d be fb f4 59 3d 1c e8 31 bd ce 13 07 3c
       -0.23146792 0.053212147 -0.043434247 0.008244468
0001c0 f0 af 1f bc e6 77 4b 3e 2d 72 c7 3e 39 fb ea be
       -0.009746537 0.19869956 0.38954297 -0.45894793
0001d0 98 22 ce bd ae df 0c 3e 5a 49 e0 3c 57 3d 26 3e
       -0.10065192 0.13757202 0.027378727 0.16234337
0001e0 a1 9f 91 be 34 96 fd bb eb 22 51 3e b4 5e 09 bd
       -0.284421 -0.007738853 0.20423476 -0.03353758
0001f0 7e 3d d5 bd c2 ff 94 3e 77 6f a7 3d 72 07 78 3d
       -0.10412119 0.29101378 0.08175557 0.060553975
000200 a2 de 04 3d 99 3b 06 be 76 00 1e be bc 7c 4b be
       0.03243888 -0.13108672 -0.15429863 -0.19871801
000210 83 1d f3 bc 83 e1 80 3d 9e 9c 81 3e f3 aa 83 3d
       -0.029677158 0.06293013 0.25314802 0.0642909
000220 58 13 d1 3d f6 49 d4 bc 39 28 5a be 14 8f 7b bd
       0.10208768 -0.025914174 -0.21304406 -0.061415747
000230 7d ed 32 3e bd ff 8c 3d 29 dc 5c 3d 5d 97 11 bc
       0.17473407 0.06884716 0.0539209 -0.0088861855
000240 83 1d 85 bc 88 d8 1d 3e 09 8c cb 3d c7 0b 80 3e
       -0.016249424 0.15414631 0.09938819 0.25008985
000250 d7 fd 86 3e 5a 33 6f 3e 61 26 b7 bd cb 71 dd bd
       0.2636554 0.23359433 -0.08942867 -0.1081272
000260 4a 3d 45 be e7 3d b1 3b a5 59 e0 3d 26 73 48 3e
       -0.19261661 0.0054089907 0.10954598 0.19575176
000270 e6 2a 7d 3e 1f c0 d0 be bb f7 02 be 9f 8e 2b 3e
       0.24723396 -0.40771577 -0.12789814 0.16753624
000280 9e d1 89 3e f6 39 84 3e 36 86 bf be af c3 5d be
       0.26917738 0.2582547 -0.37407082 -0.21656679
000290 75 3a 64 3e 54 a8 51 3d 4d 62 f4 3c cd 18 01 be
       0.22287925 0.05118592 0.02983203 -0.12607117
0002a0 03 48 59 be 21 a5 f9 3d d2 75 1d 3e ff 4a 9b 3e
       -0.21218877 0.12189699 0.15376976 0.30330655
0002b0 a7 10 22 3d df 4e e1 bd 11 66 8e 3d 9d d0 4d be
       0.039566662 -0.110013716 0.06953061 -0.20099111
0002c0 12 ca 19 be eb 22 99 bd 1d 42 db 3d 9c a1 31 3e
       -0.1501849 -0.07477363 0.107059695 0.17346805
0002d0 b0 b0 0a be 01 22 a4 bc 29 94 52 3d 79 82 0b bc
       -0.13543963 -0.020035746 0.051410828 -0.008514994
0002e0 36 9c d7 3d e9 6b 89 3a 34 d6 1b be 2d ce 5c 3e
       0.10527842 0.001048443 -0.15218431 0.21563025
0002f0 41 5b 4a 3e ba 09 0c 3c 02 49 33 be 10 9b 85 be
       0.19761373 0.008547241 -0.17508319 -0.26094866
000300 48 41 80 3b 0a a1 36 3e f0 25 1b bc 42 ba b2 bd
       0.003914032 0.17834869 -0.009469494 -0.08726932
000310 db 5e 01 be 67 44 43 be 66 d3 86 bd 12 1c 81 bd
       -0.1263384 -0.19069062 -0.0658329 -0.06304182
000320 d9 75 33 be 99 15 7c be d2 c8 3d be 01 44 8a 3d
       -0.17525424 -0.24617614 -0.18533638 0.06751252
000330 e3 35 86 3e a9 60 23 be 6d e1 b5 be 81 7a d8 bd
       0.26212987 -0.15954842 -0.3552355 -0.10570241
000340 1c 16 ab 3d 8c 65 b7 3e d3 95 48 be 53 b3 a9 be
       0.083538264 0.35819662 -0.19588403 -0.33144626
000350 b3 0a 53 bc e0 ff a0 3e d0 a7 ef 3e 75 93 90 be
       -0.012880969 0.31445217 0.46807718 -0.282375
000360 fd 05 a4 be 34 2e 24 be 89 c6 7d 3e 9c 06 08 3f
       -0.3203582 -0.1603325 0.24782766 0.53135085
000370 0a 8d 6c be ce cd 98 be 51 d3 5b be 31 e6 5e 3e
       -0.23100677 -0.29844517 -0.2146733 0.21767499
000380 6e 70 b6 3e 70 c4 09 be 5f 65 ad bd fc 18 9e 3d
       0.35632652 -0.13453841 -0.084666006 0.07719609
000390 b3 55 05 3e f0 41 b7 3d c2 cc 73 be 4f b0 ef bd
       0.13020973 0.089481235 -0.23808578 -0.1170355
0003a0 89 83 ba 3d 0d f8 93 3c c4 f3 f7 bd d0 21 80 be
       0.091071196 0.018062616 -0.121070415 -0.25025797
0003b0 8a ae 69 be 66 1a 30 3e 2f d5 10 3e 96 1a 8a be
       -0.22820488 0.1719757 0.14143823 -0.26973408
0003c0 34 c0 5d be 42 31 6c be fb 49 41 3e 78 cf c9 3e
       -0.21655351 -0.23065665 0.18875878 0.394161
0003d0 57 b0 56 bb 84 54 2e be 86 a1 98 be 99 c8 99 3d
       -0.0032758915 -0.17024428 -0.29810733 0.07508964
0003e0 b8 99 8e 3e e5 5e 0a 3e 87 77 ac bd f6 af a5 3b
       0.27851653 0.13512762 -0.084212355 0.0050563766
0003f0 c8 eb 03 bd 5a e0 92 3b db 6d 26 bd 50 57 7b be
       -0.03220728 0.004482311 -0.04063211 -0.24545026

features.4.bias f4 [16]
000000 98 f4 17 3f 8f 92 0f bf 72 9f 92 3e 90 8c 4c 3e
       0.59357595 -0.56083006 0.28637272 0.19975495
000010 07 65 d1 be 43 eb 20 bf e3 9a 80 bd 3a d6 a6 bd
       -0.4089739 -0.6285898 -0.06279542 -0.08146329
000020 86 0f 0c 3d 5d b7 c2 bd 5b 98 37 bf 4d 62 02 bf
       0.03419449 -0.0950763 -0.7171685 -0.50931245
000030 3d da 51 be 27 4d 2b be 44 6d d8 3e 66 8b a7 be
       -0.20493408 -0.1672865 0.42270863 -0.3272354

features.6.weight f4 [16]
000000 25 2a e0 3f b4 1f 05 40 c2 07 d9 3f 41 f7 cf 3f
       1.7512861 2.08006 1.6955492 1.6247331
000010 d6 55 f2 3f 40 f1 f5 3f 01 f8 cd 3f 4a d4 ef 3f
       1.8932445 1.9214249 1.609131 1.873666
000020 13 38 dc 3f 3a b7 0b 40 5a 3f 02 40 56 05 e9 3f
       1.7204612 2.1830583 2.0351167 1.8204753
000030 f5 9a f5 3f ff 35 e3 3f ec cd ce 3f 6c 17 ec 3f
       1.9187914 1.7750853 1.6156592 1.8444648

features.6.bias f4 [16]
000000 92 53 cc 3e b4 60 2d 3e b5 e9 95 bd f4 9a c3 3e
       0.3990751 0.1693142 -0.07319967 0.38204157
000010 24 b3 94 3e 4c 97 28 3e a4 df 41 3e 2e 1d 5a 3e
       0.29042923 0.16463965 0.18932968 0.21300194
000020 79 bc bf 3e 58 4e 63 3e 26 46 91 3e 44 e9 36 3e
       0.3744848 0.22197855 0.28373832 0.17862421
000030 19 3e 2b 3c 6d bc 4b 3e d6 89 42 3e 25 da a5 3e
       0.010451817 0.19896097 0.18997893 0.32392994

features.6.running_mean f4 [16]
000000 93 4c 11 40 01 b9 67 3f 02 7d b3 3f 59 5a 9b 3f
       2.2702987 0.9051667 1.4022524 1.2136947
000010 01 0b 53 3f 62 f4 b6 3f 13 25 74 3f 73 46 7d 3f
       0.82438666 1.429333 0.9536907 0.9893562
000020 64 38 52 3f 14 e9 7d 3f ca 62 47 3f 3d 9d c7 3f
       0.82117295 0.99183774 0.77885115 1.559486
000030 1f 9a 90 3f 14 19 6d 3f 96 15 2d 3f c4 ec 86 3f
       1.1297034 0.9261639 0.6761106 1.0541005

features.6.running_var f4 [16]
000000 24 a2 cd 40 11 5c 7c 40 e0 a2 6a 40 f3 25 74 40
       6.4260426 3.9431193 3.666191 3.8148162
000010 94 38 1a 40 87 5a 9b 40 12 c6 24 40 36 cc 54 40
       2.4097033 4.8548007 2.5745893 3.324964
000020 d1 16 16 40 36 4a 70 40 f0 55 4a 40 b9 6c a4 40
       2.3451426 3.7545295 3.1614952 5.138272
000030 38 8b 79 40 97 3f 32 40 a1 fb b9 3f d9 a5 6a 40
       3.8991222 2.7851312 1.4529916 3.6663725

classifier.0.weight f4 [120, 400]
000000 34 0f 32 bd 6d 4b 1f bd a0 dc 92 bd 2c f0 05 be
       -0.04347153 -0.03889029 -0.07170987 -0.130799
000010 0d b7 00 be 04 da f0 bd bc 5d bf bd 8d f8 e0 3d
       -0.12569828 -0.11760333 -0.0934405 0.10984907
000020 48 9e 18 3e 51 cb b4 bb 4a 2f fc 3c 4a a9 06 be
       0.1490413 -0.0055174013 0.030784268 -0.13150516
000030 cd 55 ed bd 7f 4c 21 bd 9d 9a e2 bd 88 cb b9 3d
       -0.11588631 -0.039379593 -0.110646464 0.09072024
000040 e1 70 8a 3d 3d 66 e2 3c c6 13 34 3c 70 29 dc 3d
       0.06759811 0.027636642 0.0109910425 0.10750091
000050 cf 88 46 be 2d 39 49 bd 30 84 8d bd a5 b1 28 be
       -0.19388126 -0.049126793 -0.069099784 -0.16474016
000060 86 72 6d 3d 94 e1 91 3e 27 87 33 3e 16 29 c0 bd
       0.057970546 0.28492415 0.17532025 -0.093828365
000070 0b 4a 2b bd 3b ef c0 bd 9f 13 56 3d 3c 5d 94 3d
       -0.04181866 -0.094206296 0.052264806 0.072443455
000080 26 e8 0d 3e 1e 63 a2 3c 1f 53 61 bc 8c 31 74 bd
       0.13858089 0.019822653 -0.013752728 -0.059617564
000090 fa 04 67 bd 0e 42 b0 bc bf 6d c7 3d 28 a6 77 3d
       -0.05640123 -0.021515872 0.09737729 0.060461193
0000a0 38 d7 77 bd 0b 93 c9 3d 56 5b a0 bd ed 19 56 3d
       -0.060507983 0.09842499 -0.07829921 0.05227082
0000b0 ee 43 96 bd 53 59 15 be 94 a4 e2 bd be 57 6a 3d
       -0.07337175 -0.14584856 -0.11066547 0.057212584
0000c0 c9 5c 2a 3e 6b 92 7d 3d c2 75 5e 3d 16 87 ed 3d
       0.16636957 0.061907213 0.05431152 0.11598031
0000d0 aa 6d 15 3e 25 f4 56 3e 9d 8f 45 3e c5 3e e9 bd
       0.14592615 0.20991571 0.19293065 -0.113889255
0000e0 49 94 0c be 01 2c 4b bd 03 c1 20 3d de 7d fd bd
       -0.13728441 -0.049602512 0.03924657 -0.12377523
0000f0 3a ca 95 3c 0f 1e d7 bd 80 bd 7f 3d db 84 a4 3c
       0.018284906 -0.1050378 0.06243658 0.020082882
000100 c2 dc 8f bd 3d a4 dc bc 02 5d 1a 3d 45 62 c9 3c
       -0.07024528 -0.026933784 0.037686355 0.024582991
000110 17 3f 8d bd 60 68 8f bd 91 93 81 3d 5e 9e 2e bd
       -0.06896799 -0.0700233 0.06326974 -0.0426315
000120 f9 c3 ad 3d 4d 6f d0 3d 13 09 3b bd da 08 46 bc
       0.084846444 0.10177479 -0.04566295 -0.012087071
000130 20 0e ad 3a 57 6a 61 bd 9c 98 45 bd 9b 91 92 bb
       0.0013203062 -0.055033054 -0.048241243 -0.004472924
000140 23 44 7a bd 84 14 22 3d f5 68 99 3d 36 96 1e 3d
       -0.061100136 0.039570346 0.07490722 0.03871747
000150 40 41 2e 3d 7e ad 0c 3c 2b 65 ec bc 3f 14 cd 3c
       0.042542696 0.008586286 -0.028856834 0.025034068
000160 0b dd 81 be 20 f2 1c bd 2a c2 23 be 65 8a 2e 3e
       -0.25363955 -0.038316846 -0.15992036 0.17044981
000170 d3 fa 48 3e bd f6 ba bb 50 59 c3 bc 10 5f e2 bd
       0.19626932 -0.005705683 -0.023846298 -0.11053288
000180 b4 07 c5 3d 16 08 9f 3c 95 17 78 bd 33 c3 d1 bd
       0.0962061 0.019413035 -0.060569365 -0.102423094
000190 b1 09 c8 bd 1f 0a a8 bd 88 b5 c1 3d 90 47 cc 3c
       -0.097674735 -0.082050554 0.094584525 0.024936467
0001a0 0b 06 38 3c 27 a1 0c 3b 90 35 2e 3d 80 12 0b be
       0.0112319095 0.002145836 0.04253155 -0.13581276
0001b0 f9 43 18 bd 0b 30 fc bb ce 2c a3 bc 65 ce de bd
       -0.0371742 -0.007696157 -0.019918825 -0.108792104
0001c0 75 7f 43 be c1 99 cc 3c 65 5c 67 be 96 bc 2c be
       -0.1909159 0.02497566 -0.2259384 -0.16868815
0001d0 26 6c 01 3d b3 1e fb bd 6a 36 6b bd 32 7d 03 be
       0.03159728 -0.12261715 -0.05742494 -0.12840727
0001e0 b3 e0 31 3e 5e 95 ca bd 9f e1 ee bd 2b 89 db 3b
       0.17370872 -0.09891771 -0.116641276 0.0066997013
0001f0 d0 d4 5b be f0 8e 10 3c 3f b1 a9 bd 2e 30 22 3e
       -0.214679 0.008823141 -0.0828576 0.15838692
000200 b9 f7 e5 bd c2 27 c8 3d fd 93 08 3e 56 1f 8b bd
       -0.1122889 0.09773208 0.13337703 -0.06793086
000210 6e 66 6d bc 68 98 88 bd 1f a0 2d be 11 df e8 3d
       -0.014489753 -0.06669694 -0.16955613 0.113706715
000220 46 cf c6 bd ff 49 30 bd 7f ff 0e 3e ba e0 80 3d
       -0.09707503 -0.04303932 0.13964652 0.06292863
000230 a3 ba 03 3d d6 21 c1 bd 3a 8f 53 bd bf e6 a3 bc
       0.032160413 -0.09430282 -0.051650263 -0.02000749
000240 ac c7 0b bd 3d 27 83 bc 0b 15 25 3b 24 ee 4e 3d
       -0.03412597 -0.016009921 0.0025189545 0.050520077
000250 10 5f 78 3d 1e 20 9a bd 80 34 02 3e b8 fe 25 be
       0.060637534 -0.07525657 0.1271534 -0.16210449
000260 08 00 0a 3d 01 7d 3f 3e 0e f9 56 bd fe d1 d6 bc
       0.033691436 0.18700029 -0.05248361 -0.026223179
000270 af a2 32 bd d9 94 d5 3c ca e4 71 3e 0b ae dd bd
       -0.04361218 0.026071953 0.23622432 -0.10824212
000280 39 0b 09 3d be 2a 6b 3c 8e 38 70 3b db c0 b6 3c
       0.03345797 0.014353452 0.0036654803 0.022308758
000290 17 f5 f8 bd fb db 23 3c 97 30 ea 3c 22 12 1c be
       -0.12156122 0.010001178 0.028587623 -0.15241292
0002a0 9d d6 a7 bd 4f 9b 5d bd 0c 8a 1d 3d d7 05 c7 3d
       -0.08195231 -0.054103192 0.03846173 0.09717911
0002b0 c9 7f 70 3c d8 ea f3 3d 6d de 43 3d 90 73 0e be
       0.014678904 0.11910027 0.047819544 -0.13911271
0002c0 f3 e2 a7 be fc b0 29 be dc ad 27 be 8d 71 18 be
       -0.32790336 -0.1657142 -0.16374916 -0.14887066
0002d0 7a 1b 72 bd 7e a6 8e bd df ee 35 be 4d 52 88 3c
       -0.059108235 -0.069653496 -0.17766903 0.016640807
0002e0 b1 3a 3b 3d 37 80 f8 3d 79 90 07 3d e9 fa 4a bc
       0.04571027 0.1213383 0.033096764 -0.012388923
0002f0 75 a9 03 3c 32 ed 8d 3c 41 f7 0e bd 59 37 5f 3d
       0.008036007 0.017325018 -0.03490377 0.054496143
000300 a2 df 91 bd 5c 71 c2 bd 85 39 52 3d 5f a6 15 3e
       -0.07122733 -0.09494278 0.051324386 0.14614247
000310 d8 0a d7 3c 71 f2 01 be da 25 23 bd bf 6e 97 bd
       0.026250288 -0.1269014 -0.03983102 -0.0739417
000320 ad 03 ad bc 0d 30 5b bd 67 81 4a bd 51 84 e1 bc
       -0.021119917 -0.05351262 -0.049439814 -0.027528914
000330 c9 2b 5e 3d 45 16 13 be 5a a2 9c 3d dd c5 dd 3d
       0.054240976 -0.14363964 0.076481536 0.10828755
000340 fb d6 89 bd 31 37 8f bd 56 26 9c 3d 99 b2 62 3b
       -0.067304574 -0.06992949 0.076244995 0.0034591316
000350 5f 8f fc 3c a0 4e 94 3b b1 bc a3 bd be 53 23 bd
       0.030830083 0.0045259744 -0.079949744 -0.039874785
000360 90 08 b6 3d cd bc 44 be c9 b8 05 be 91 14 40 be
       0.08888352 -0.19212647 -0.13058771 -0.18757845
000370 f7 0b 31 be 2c cd 2a be e9 74 ae bb ea 79 16 be
       -0.1728972 -0.1667983 -0.0053239954 -0.14694944
000380 f4 a8 ed bd 82 bc 40 be 01 7f 56 be e4 0d 9a bd
       -0.11604491 -0.1882191 -0.20946886 -0.07522181
000390 fc ae 1e bd d5 ec 4f bd 6f 80 73 bd 5a 47 05 be
       -0.038741097 -0.05076297 -0.059448656 -0.130155
0003a0 c3 ce 40 be 8e 64 67 be b9 1f 53 bc 88 6b 8d 3d
       -0.18828873 -0.22596952 -0.012885981 0.069052756
0003b0 14 a4 24 bc fa 7f 24 be 87 a1 0b be 74 9e ea bc
       -0.010048885 -0.16064444 -0.13635837 -0.02864001
0003c0 e8 d9 be 3d 13 b1 70 bc ce f3 c2 3d 52 e7 0d 3e
       0.09318906 -0.014690655 0.09519158 0.13857773
0003d0 59 40 09 3e 56 d6 28 3d 3f f1 71 be 84 dc 99 3c
       0.13403453 0.04122003 -0.23627184 0.018781908
0003e0 b4 b7 9c 3d dc 58 9f 3c 1c 53 01 be 7f c5 2b be
       0.07652226 0.019451551 -0.1262936 -0.16774558
0003f0 b6 83 c6 bd 02 a8 b9 3d 97 a7 3b bb d1 42 ff 3d
       -0.096930906 0.09065248 -0.0028633827 0.12463916

classifier.0.bias f4 [120]
000000 e0 b6 0e 3d 91 8d 47 be 48 45 35 bd b4 bb 53 be
       0.034842372 -0.19487597 -0.044255525 -0.20677072
000010 68 a7 3b be e8 9a 5b be cb 12 f3 3d 00 00 93 bd
       -0.18325579 -0.21445811 0.11868819 -0.071777344
000020 fa 93 24 be b0 88 f3 bd e5 5a 83 be 41 78 13 be
       -0.16072074 -0.118913054 -0.25655285 -0.14401342
000030 e5 ca 6e be be 80 93 3c c2 fe 58 be 50 59 2d 3c
       -0.23319586 0.018005725 -0.21190932 0.010580376
000040 c8 5a ff 3b 68 2f 01 3d a2 20 30 3d 28 ee d1 bd
       0.0077928044 0.03153935 0.04299987 -0.10250503
000050 68 48 c3 3d 5b 0a 0e 3d bf fd 5f be 70 88 f0 bd
       0.09535295 0.034677844 -0.2187414 -0.117447734
000060 7c 9e 69 be de e0 da bd 8d e4 3a be 87 e0 97 be
       -0.22814363 -0.10687421 -0.18251248 -0.29663488
000070 db e1 ce bd 49 37 46 bd e4 35 26 bd a5 ec 03 be
       -0.10101672 -0.048392568 -0.040578738 -0.12883241
000080 ed 98 fd 3c c2 9c 46 3d 2e 78 44 be e0 f2 fa be
       0.03095671 0.04848934 -0.1918647 -0.49013424
000090 9e 7a 21 be 5e b1 4a be c7 81 d7 bd 65 db b8 bd
       -0.15769431 -0.19794223 -0.105228 -0.09026221
0000a0 c9 3c 57 3d d6 f4 c8 bc c1 45 e7 bc 9d 41 96 bd
       0.052548204 -0.02453081 -0.028231503 -0.073367335
0000b0 52 d7 4b 3d 93 eb bb bd d8 4f bb 3d 32 f5 86 be
       0.049765892 -0.091757916 0.09146088 -0.26358944
0000c0 c8 b8 9d 3d b3 28 14 be f1 c4 00 be 0c 47 5b be
       0.0770126 -0.1446865 -0.12575127 -0.21413821
0000d0 3c 0f 91 bb bf 04 4f bd 3b a8 8f 3c d1 71 0b bd
       -0.004426865 -0.050541636 0.017536273 -0.03404409
0000e0 bb c9 cc bd e5 c3 cb bd 9a 14 cc bd 3f d7 06 be
       -0.099994145 -0.09949473 -0.09964867 -0.13168047
0000f0 67 d9 24 be 53 e1 f3 bc d0 a8 07 be 7f ec c3 3c
       -0.16098557 -0.029770529 -0.1324799 0.023916481
000100 ad 11 9f bd d8 4e ac bd 03 d8 c4 bd 3c a5 f0 bd
       -0.07767043 -0.08413476 -0.096115135 -0.11750266
000110 bc ff a5 bd 80 4e 45 be bb 4e 3a be c6 69 fc bd
       -0.08105418 -0.19268227 -0.18194096 -0.12324862
000120 3d 6e 99 bd 21 70 16 be 98 c6 8c be 98 53 b6 bd
       -0.074917294 -0.14691211 -0.27495265 -0.08902663
000130 38 5b ce bd 4b fe 2d be 70 c6 2f bd 79 09 d7 3d
       -0.10075992 -0.16991536 -0.042913854 0.10499854
000140 1a 07 32 be 94 94 56 be 3e 3c 08 be d3 75 26 be
       -0.17385522 -0.20955116 -0.1330423 -0.16255884
000150 f0 59 4c be 36 7b fb bc 9d 69 48 be 79 3c 57 bc
       -0.19956183 -0.0306984 -0.19571538 -0.013136976
000160 fe 60 a1 bd 70 99 0f 3e 8f a3 03 be 10 98 29 be
       -0.07879828 0.14023376 -0.12855361 -0.16561913
000170 1a e4 55 be 28 5a 54 be 03 e1 9b 3d 36 39 92 bd
       -0.20887795 -0.20737517 0.07611277 -0.07139818
000180 cc e1 d5 bc 22 48 3c be 42 f8 c1 be d5 d2 b1 bd
       -0.026108645 -0.18386891 -0.37884718 -0.08682791
000190 5e 89 5b bd 47 44 d5 bd 29 c6 49 bd f4 c6 ba bd
       -0.0535978 -0.104134135 -0.049261246 -0.091199785
0001a0 a5 bf 86 be 02 80 2c be cd 51 ab be 56 5d 45 bd
       -0.26318088 -0.16845706 -0.33460847 -0.048184715
0001b0 da 5f 1f 3e 11 2f 5e be 65 c2 51 be d5 6b 38 be
       0.15563908 -0.21697642 -0.20484312 -0.18009885
0001c0 04 27 a5 bd f4 2d cb bd 49 81 d7 bd a0 7c 92 3d
       -0.08064082 -0.09920874 -0.10522706 0.071526766
0001d0 5a 73 c7 bd c4 e5 8b bd 42 92 92 bd 4d 37 c6 bd
       -0.097387984 -0.06830934 -0.07156803 -0.096785165

classifier.2.weight f4 [84, 120]
000000 d4 70 a2 3d 1f b7 20 3e 66 57 09 be 95 ff 40 3e
       0.079316765 0.15694855 -0.13412246 0.18847497
000010 5a b7 66 3c 22 07 34 bd 08 99 5a be 85 00 95 bd
       0.0140818 -0.043952115 -0.2134744 -0.0727549
000020 f1 83 90 3d c6 6e 42 be e8 d0 eb bd 82 98 3f bd
       0.07056416 -0.18987569 -0.11514455 -0.046776302
000030 aa d0 1e be 88 02 96 3d a7 bb 1f 3c 9a 2d 39 bc
       -0.15509287 0.073247015 0.00974933 -0.011302376
000040 48 f4 51 bd 9c 47 bb 3d 55 01 58 bc 9e f1 1d be
       -0.051258355 0.09144518 -0.013183911 -0.15424201
000050 70 ba 23 3d ba d8 68 3d 05 59 c5 39 a9 17 5d 3e
       0.039972723 0.05684731 0.00037641093 0.21591057
000060 8b 8d 88 bd 67 ce 96 3d 15 69 1f 3e b4 38 c9 bd
       -0.06667622 0.07363587 0.1556743 -0.098252684
000070 f3 f4 53 3d 53 18 74 3e b0 bf 94 bd 60 60 22 be
       0.051747274 0.23837404 -0.07263124 -0.15857077
000080 2b be c8 bd 6f fd 9c bc 01 bf 5f be d6 ab 39 be
       -0.09801897 -0.019163815 -0.21850206 -0.18131956
000090 f0 16 ad 3d 03 34 3d be cc dd 9e bd 1f ca 0c 3e
       0.084516406 -0.18476872 -0.07757148 0.13748978
0000a0 2e a1 25 3c 09 7e 3d 3d db d9 5a 3d 33 47 ad bc
       0.010109229 0.046262775 0.05343042 -0.021152114
0000b0 7e 55 22 be bf 0e e1 3d ac c2 ba 3d 2b c2 cd 39
       -0.15852925 0.10989141 0.09119162 0.00039245313
0000c0 20 55 c7 bc db b6 3f be dd c2 ba bc 96 9a 0e 3e
       -0.024332583 -0.18722098 -0.022797996 0.13926157
0000d0 14 3d 3c 3d 41 a3 af bd 72 30 ad bc 02 67 17 bd
       0.045956686 -0.0857606 -0.021141265 -0.03696347
0000e0 76 6b cc 3a 54 73 ed bd 77 ac 94 bc cc 92 a5 3e
       0.0015595991 -0.11594263 -0.018148644 0.3233856
0000f0 b1 71 d4 bd 81 d7 1e 3d 03 2e f4 3c 8f b1 41 3c
       -0.103732474 0.03877974 0.029807096 0.011822118
000100 49 a1 cd bd 42 01 40 3d aa 24 f8 3c 01 6a 9c 3d
       -0.10040528 0.0468762 0.03029092 0.07637406
000110 b9 89 a4 bd b4 9d 3f 3d 46 34 0d 3d 71 d1 c2 3d
       -0.08034081 0.046781257 0.03447368 0.09512604
000120 e1 95 49 3e 79 66 25 3e d3 82 5c 3d f9 0c 5d bc
       0.1968608 0.16152371 0.0538357 -0.013491862
000130 f1 ac 32 3e e4 04 e7 3d 26 84 14 bd 16 1a cf 3c
       0.17448784 0.1128023 -0.03625884 0.025280993
000140 1e 12 4f 3e a6 88 a4 3d f5 f3 a8 3d ca 5c 02 3e
       0.20221755 0.08033876 0.08249656 0.12730709
000150 26 1c 21 be c8 ca ef bd ab 8d 41 3e 19 50 d8 3d
       -0.15733394 -0.11708599 0.18901698 0.105621524
000160 e8 ae cd bd 03 4e 79 be 0f 7b 8d bd 28 00 8c 3b
       -0.10043126 -0.24346165 -0.06908237 0.0042724796
000170 e3 aa 06 be 0e fa 2c be bc 03 a4 3e 8f 81 c5 be
       -0.13151126 -0.16892263 0.320341 -0.38575408
000180 6f 73 81 bd 18 ca d3 bc 00 73 4b 3c d8 8e 43 3d
       -0.06320845 -0.025853202 0.012417555 0.04774365
000190 18 ca ee 3c 29 bb 00 be 8d 24 ad 3d 6c b9 3a be
       0.0291491 -0.12571396 0.08454237 -0.18234795
0001a0 92 92 ba be 1f 5b cc bc c7 4a 9c be 26 69 1f 3d
       -0.3643995 -0.024945794 -0.305258 0.038918637
0001b0 a1 2b 9c 3d 58 eb 0e 3d 26 17 65 3e f7 ca 28 3e
       0.07625509 0.03489241 0.22372112 0.16483675
0001c0 66 34 97 bd 29 bf 12 bd 08 fb 82 bb 40 d0 c7 bd
       -0.07383041 -0.035826836 -0.0039972104 -0.097565174
0001d0 71 bc e0 3c c8 6b 81 3d 13 ed 2d 3d d7 39 87 bd
       0.027433606 0.06319386 0.04246242 -0.06602829
0001e0 11 6e 96 bb 2d b3 f6 3d 85 ba f8 bd db ce 72 3c
       -0.0045907577 0.12045894 -0.12144951 0.014819826
0001f0 92 c3 91 bd 08 b7 a9 bd 43 00 94 bd 48 e8 d8 bd
       -0.0711738 -0.082868636 -0.072266124 -0.10591179
000200 53 4d a4 3d 6f b6 83 3d ac 06 78 3d 89 cd 9a be
       0.08022561 0.06431281 0.060553238 -0.30234936
000210 cb a8 6f 3e d8 19 dd bd b5 32 9c 3d b3 55 4b 3e
       0.23404233 -0.10795945 0.07626859 0.1985691
000220 ad 2f 21 be be f5 75 3e 36 b3 d6 3d 4e 33 90 be
       -0.15740843 0.24019524 0.104834005 -0.28164142
000230 a0 03 26 bd f9 ef ac 3c ec a7 46 be 73 5b 13 3e
       -0.0405308 0.021110522 -0.19399995 0.14390354
000240 81 53 32 3d 6b 1d a4 3d 6f e1 07 3c e7 db 02 3e
       0.043536667 0.080134235 0.008293494 0.12779199
000250 f3 f3 a8 bd 9e 5c 96 3c 38 e0 65 3c e1 03 43 be
       -0.082496546 0.01835471 0.014030509 -0.19044448
000260 d7 a7 15 bd ce b9 dc bc 4c 9c 95 bd f3 7a 74 bc
       -0.036537018 -0.026944067 -0.07305202 -0.0149218915
000270 9a b8 1c be e3 7b 10 3e 9e ed bc 3c d3 4b 44 ba
       -0.15304795 0.14109759 0.023062523 -0.00074881053
000280 28 ba 5b bd 5a 1c 2a bd a8 81 4f 3e 56 db 6b 3e
       -0.05364433 -0.041530944 0.20264304 0.23032889
000290 d4 dd 70 bd 6e c7 cb 3d c2 6a 0a bd d2 c9 10 3e
       -0.0588053 0.099501476 -0.03379322 0.14139488
0002a0 6f 35 1e be 62 77 82 3e 4d 6c 7f bd 1a 08 d7 3d
       -0.15450071 0.25481707 -0.062359143 0.10499592
0002b0 48 28 32 be c1 b8 0d be a9 43 c6 bd f6 dd 52 bd
       -0.17398179 -0.1384001 -0.09680874 -0.05148121
0002c0 67 9a 0f 3e 36 1d 54 be 01 f4 1c 3d 55 61 d5 3d
       0.14023744 -0.20714268 0.038318638 0.10418955
0002d0 0b 22 07 3d bd 8d 11 3c 74 de bc bc 86 70 45 be
       0.03299145 0.008883891 -0.023055293 -0.19281206
0002e0 3e 02 48 3d a1 5e 57 3d 45 b2 88 3d f6 cb a3 bd
       0.048830263 0.05258048 0.06674627 -0.07997887
0002f0 39 73 a1 bd 82 d3 8f bd 25 8f 46 3d b4 9f 1e 3e
       -0.07883305 -0.07022764 0.048476357 0.1549061
000300 16 99 24 3e 84 f8 01 3d 91 8e 0d 3e d2 be 0a 3e
       0.16074023 0.031731144 0.13823916 0.13549355
000310 94 21 10 be 3a 76 93 3d 7e e8 81 be 13 b0 71 3d
       -0.14075309 0.07200284 -0.2537269 0.059005808
000320 4c 20 b2 be cb 42 b6 3d fc 34 93 3d 13 7f f3 3d
       -0.34790266 0.088994585 0.0718784 0.11889472
000330 aa 2a 17 3e 70 35 9a 3e 92 04 54 bd ba 73 d6 3c
       0.14762369 0.30118895 -0.05176217 0.02617823
000340 b5 16 20 be d3 78 c4 3d 32 38 64 3d f1 b9 40 bd
       -0.15633662 0.09593358 0.055717655 -0.047052328
000350 55 a5 4e be 79 b7 f8 3d fa 7d a8 3a 83 e1 68 3d
       -0.20180257 0.1214437 0.0012854927 0.05685569
000360 70 8c 84 bc 6a 75 5b bd d3 7c 2e be 09 e6 95 3d
       -0.016180247 -0.05357877 -0.17039804 0.07319266
000370 7c 07 35 3e cd 64 2f 3d 29 a3 35 3e 72 dd 25 be
       0.17678636 0.04282074 0.17738022 -0.16197756
000380 cf 57 63 bd fc b7 a8 bc 2d ee 35 bd 82 ad 1e bd
       -0.055503663 -0.020595543 -0.044416595 -0.03873969
000390 a2 48 84 3e 59 6f 50 bc 90 a1 54 3d 91 52 32 3e
       0.25836664 -0.01272186 0.05191189 0.17414309
0003a0 bf c3 9b be 15 78 e8 3c c5 da 59 3e d8 1f 73 be
       -0.3042278 0.028377572 0.2127486 -0.23742616
0003b0 88 d1 7a be c2 e8 82 3e 56 45 aa bd e4 67 20 3d
       -0.24493992 0.25568205 -0.08314006 0.039161578
0003c0 78 fc 45 3d 7d 89 b4 bc bb 53 4c 3c dd 9e 4c 3e
       0.048336476 -0.022038216 0.012471135 0.19982477
0003d0 91 20 80 bd 17 7d a6 bd a8 dd 9c bd b8 6f 4f 3d
       -0.062562115 -0.08129328 -0.07659465 0.050643653
0003e0 dc e8 53 be 1d 1c 5e be 8e 27 a0 bd 6e 49 28 3e
       -0.20694298 -0.21690412 -0.078200445 0.16434261
0003f0 ab db 7e be e9 86 9b 3d 5d ff 74 3e 11 62 b6 bd
       -0.24888484 0.075940914 0.23925538 -0.089054234

classifier.2.bias f4 [84]
000000 57 22 52 3d e9 63 1a 3e 79 d9 68 3d 8a 2e bd 3c
       0.05130228 0.15077175 0.056848023 0.02309348
000010 27 b6 30 bd 6f a6 bd 3d bc c6 b0 3d d7 0f 08 3e
       -0.043142464 0.0926026 0.086316556 0.13287292
000020 b8 9f 44 3d 2e 3b b0 3d 1e 48 8b 3d 86 2e 00 bb
       0.048003882 0.08605038 0.06800865 -0.001955898
000030 c9 16 8a 3d d3 41 b3 3c b8 97 30 3e d2 8c 4b 3b
       0.06742627 0.021881973 0.17245376 0.0031059277
000040 82 a1 04 be 2d c5 a3 bc a9 44 99 3d 87 7f 0a 3c
       -0.12952235 -0.019991482 0.07483799 0.008453256
000050 88 56 99 3d ba 28 6e 3d 53 2b 0d 3b a7 3a 64 3d
       0.07487208 0.05814431 0.0021540716 0.055719998
000060 36 b5 5b bd 29 d5 a7 3d cb 56 bd 3c c2 08 5d 3d
       -0.053639613 0.08194954 0.023112675 0.05396343
000070 9a b9 1c bc 98 b2 0c 3e 8c d3 31 3e ec 8f d5 bc
       -0.009565735 0.13740003 0.17365855 -0.026069604
000080 75 a6 ae bc 5f 85 d3 3d 57 cd 67 3d 7c 48 59 bc
       -0.021319607 0.10328173 0.05659231 -0.0132619105
000090 68 d9 61 3d 61 2f 7c bd 3a 17 31 3c 0b 7a a8 3b
       0.055138975 -0.06156862 0.01080876 0.005141502
0000a0 0e 3e 3b bd d8 ce 57 bd a5 db 18 bc bd 2d 42 3d
       -0.045713477 -0.052687496 -0.009329711 0.0474069
0000b0 07 5d 66 3c 9d bb 84 3d f0 a8 dc bd 59 34 52 3d
       0.014060265 0.06481097 -0.1077441 0.051319454
0000c0 83 d0 2d bc f2 c6 14 bd 6a b0 1a 3c 07 a7 34 3c
       -0.010608795 -0.03632254 0.009441474 0.011026151
0000d0 cc 73 2e 3e 5a 15 0d be bf b4 23 3e 62 9b db 3c
       0.1703636 -0.13777676 0.15986918 0.02680749
0000e0 2b 85 6a 3d 4a 80 ad bd 65 19 57 3d 74 9c 20 bd
       0.057255905 -0.08471735 0.052514452 -0.039211705
0000f0 b6 92 2a 3c be 7b d6 3d 2a 04 5d 3e 11 94 21 3e
       0.010410955 0.10472821 0.2158362 0.15779139
000100 ba 2c b6 3d 3d d9 d7 3d 47 06 cf bd 8f 7c 21 3b
       0.0889525 0.10539482 -0.10108619 0.0024640893
000110 35 67 a5 3d 01 c1 49 3d ee 27 f1 3d 8b da 20 3e
       0.08076326 0.04925633 0.11775194 0.15708368
000120 37 cf 14 3c 35 59 ec 3d f6 68 3d bd a6 d3 28 bd
       0.009082607 0.115404524 -0.046242677 -0.04121747
000130 52 a1 a7 bb e7 64 15 bc 7b b4 05 3e 92 03 08 3e
       -0.0051156664 -0.009118295 0.13057129 0.13282612
000140 76 92 88 3d 58 70 30 bd d1 c1 a9 bd 1a 5e 8e 3d
       0.0666856 -0.04307589 -0.08288921 0.06951542

classifier.4.weight f4 [10, 84]
000000 7c fc 32 bd 4c 03 e1 3e ec 4d aa 3d ac 20 aa bd
       -0.04369782 0.43947828 0.08315644 -0.08307013
000010 55 eb b9 3e 8e 53 27 bf fa 77 46 3e 02 2a 0e 3e
       0.36312357 -0.6536187 0.19381705 0.13883212
000020 f4 d0 f9 bb 1c 7e 24 bf 7e 64 93 be b3 07 db bd
       -0.007623786 -0.6425493 -0.28787607 -0.10694828
000030 0a 90 65 be 1b 17 b3 bd a6 cf aa be 8a d2 97 bd
       -0.22418228 -0.087446414 -0.33361548 -0.07413204
000040 e7 69 06 bd 21 7e f6 bd d8 23 f5 3e 5c 92 7e be
       -0.03281584 -0.12035776 0.4787891 -0.24860519
000050 7d 40 9c 3e 04 d1 3b be 83 13 6f be 92 dd e8 3e
       0.3051795 -0.18341452 -0.23347287 0.45481545
000060 fd 9b a8 3e a3 2d 7b bd 36 80 7b 3e de 70 e6 be
       0.3293151 -0.06132282 0.24560627 -0.45007986
000070 ab 4a 66 be 86 4b 0e 3f a8 de 01 bf 18 82 02 bf
       -0.22489421 0.5558399 -0.5073037 -0.5097976
000080 0d 5b 9d bd d0 50 83 3d 7e 1f 6c 3e fd a9 2a bd
       -0.07683382 0.06411898 0.23058888 -0.04166602
000090 ae bb 9b be 00 7d 1a bd ad c3 5d 3e 0d b5 09 bf
       -0.30416626 -0.037716866 0.21656676 -0.53791887
0000a0 ea 33 3f 3e 35 6e 22 3e ab 9f e7 be d6 5b 0a 3e
       0.18672147 0.15862353 -0.45239004 0.13511595
0000b0 ad 0c 4d be 76 84 24 be 3d 62 4d be 57 d1 01 be
       -0.20024367 -0.16066155 -0.20057006 -0.12677513
0000c0 25 f1 cc 3e 25 05 6a 3e a2 c0 8b be b6 49 b3 bd
       0.4002773 0.22853525 -0.27295405 -0.087542936
0000d0 bc 1d 37 3e 49 90 07 be 8f 78 b8 3e c1 ce 4c be
       0.17882437 -0.13238634 0.3602948 -0.20000745
0000e0 0f 2b 3c 3e f0 b0 0a be 12 d6 a7 3e 11 e1 51 3e
       0.183758 -0.13544059 0.3278051 0.20496012
0000f0 26 68 97 3c 62 1f 87 3d fb 66 b3 bd 12 af 6d be
       0.018482279 0.06597783 -0.08759876 -0.23211315
000100 36 23 ee be d8 1b 7a be cc 99 ca 3e d9 2b 45 3e
       -0.4651124 -0.24424684 0.39570463 0.19255008
000110 a2 99 af be 16 97 71 bd f9 f3 72 be 34 2d f5 be
       -0.342969 -0.058981977 -0.2372588 -0.4788605
000120 55 be 9c 3d e5 3f 80 3e f9 5a 69 be 13 6d b4 3d
       0.076534905 0.25048748 -0.2278861 0.08809867
000130 07 c9 24 3f 5f 00 35 3e 1b 65 26 3e ff a6 72 3d
       0.64369243 0.17675923 0.16249506 0.05924129
000140 34 2a 77 be 1c 64 97 3e e2 f6 d8 3d fe 18 7b 3d
       -0.24137193 0.29568565 0.10593964 0.06130313
000150 47 61 81 be 48 62 f0 be 56 a4 37 be 34 3a 47 be
       -0.2526953 -0.46949983 -0.17933783 -0.19455796
000160 f5 be 42 be b3 c9 c7 3d fb d0 02 3e e2 bf a9 bc
       -0.19018157 0.09755268 0.12775032 -0.02072138
000170 22 71 f8 bd 7a 4c a3 be 47 f2 8a 3e 21 fc 02 3f
       -0.12130953 -0.31894284 0.27137968 0.5116597
000180 04 2f b3 bb a7 1d e4 be ee 6d 8e be ea f3 e4 3d
       -0.005468251 -0.44553873 -0.27818245 0.111793354
000190 53 48 24 be 8d ed 59 be 31 0c 9c 3d c4 90 0f 3f
       -0.16043214 -0.21282025 0.07619513 0.5608027
0001a0 eb 4c 8a bc 11 0d 06 bf 09 8a 86 be 61 ef 1e 3e
       -0.01688238 -0.5236369 -0.26277187 0.15521003
0001b0 b5 39 80 be 8b 63 b0 bd fb c0 49 bd 97 8a a7 bd
       -0.25044027 -0.08612736 -0.049256306 -0.08180731
0001c0 c0 96 35 3e f3 2d 8d be 3b 3c d9 be 0c 01 44 3e
       0.17733288 -0.2757412 -0.42428765 0.19141024
0001d0 67 3c 95 3e 97 a5 8c 3e 69 e7 d0 3d 01 10 6f be
       0.29147646 0.27470085 0.10200388 -0.23345949
0001e0 b8 d4 d8 be 73 ea 6d bb 0a 6b de be 78 dd 19 3c
       -0.42349792 -0.0036303073 -0.4344104 0.009391181
0001f0 42 13 aa 3e ef e8 8e be 64 d5 81 be 63 d8 d1 be
       0.33217818 -0.2791209 -0.25358117 -0.40985402
000200 7e a6 f3 3e 30 29 13 3f 05 d9 b9 3d d8 c2 8a be
       0.4758796 0.5748472 0.09074596 -0.2710178
000210 79 a8 21 3d ba 86 68 be 73 27 08 be e6 87 52 bd
       0.03946731 -0.22707644 -0.13296299 -0.051399134
000220 ec 1c 0f bd 20 4b dc bd 61 5e 00 bf 34 d0 e3 3e
       -0.03493969 -0.107565165 -0.5014401 0.44494784
000230 6f 9c 02 3e 15 3f ce 3e 14 25 a2 be 78 f4 a6 3e
       0.12754987 0.40282503 -0.31668913 0.3260839
000240 ac d3 54 3d 98 0a e5 be 99 b3 57 3e 7a cc be be
       0.05195968 -0.44734645 0.21064605 -0.37265378
000250 89 8f 60 3d 75 f3 94 bd df 2a bd be 07 4a 56 ba
       0.054824386 -0.07272998 -0.3694677 -0.0008174483
000260 86 7c ca 3e ea c8 1b be 02 75 9b 3e ba a1 c6 be
       0.3954813 -0.15213361 0.30362707 -0.38795263
000270 aa d3 73 3e 11 e9 2f 3e 84 68 00 be f5 a7 c6 bd
       0.23811212 0.17178752 -0.1253987 -0.09700004
000280 d5 91 ea 3e 42 47 8e 3d d5 e1 e2 be b8 28 2e bf
       0.45814386 0.06947185 -0.4431292 -0.6803088
000290 75 46 fd 3e 99 57 9c be 47 33 4f 3e 7d be f8 be
       0.49467817 -0.30535582 0.20234405 -0.4858283
0002a0 4e b1 f3 be 11 04 e1 3d 12 c3 09 bf 1e 74 e0 3e
       -0.4759621 0.10987104 -0.5381328 0.4383859
0002b0 98 2d c1 3e 33 8b 85 3e 59 94 34 be 9e b0 97 3d
       0.37730098 0.26082763 -0.17634715 0.07406734
0002c0 f0 ca 19 3e 4a 06 ac bc b5 d1 51 be 14 20 85 be
       0.15018821 -0.020999093 -0.20490153 -0.26001036
0002d0 33 96 0e 3f 5b ee e6 3e b5 c3 f1 bd cb 02 5a 3e
       0.55697936 0.45103726 -0.11804906 0.21290128
0002e0 1a 0c 94 3c ff fb b9 3e 4d 83 f4 bd 1c 00 7d 3e
       0.018072177 0.3632507 -0.11939106 0.24707073
0002f0 dd f5 13 3e 87 8f 92 bd e6 5b af bd cf d3 04 3e
       0.14449258 -0.07156282 -0.0856245 0.12971424
000300 f0 2d f1 3c e8 bd a7 3e c9 9b 86 bd 86 c6 64 3e
       0.02944085 0.32762074 -0.065726824 0.22341356
000310 bf a8 6c 3d 62 32 15 3c 88 43 1e be a2 36 f7 3d
       0.057778116 0.0091062505 -0.15455449 0.12070967
000320 2c 90 27 3e 5e 34 90 bc e9 b3 42 3e b8 14 53 3e
       0.16363591 -0.017603096 0.19013943 0.20613372
000330 e1 69 2d 3c cd 59 3e be 22 a9 e8 3e 2e 1f 81 3e
       0.0105843255 -0.18588944 0.45441538 0.252191
000340 a6 87 fa 3e c1 87 97 3e 81 d4 76 bd 3e 4a b0 3e
       0.48931617 0.2959576 -0.060261253 0.34431642
000350 7b 91 68 be b1 23 04 bf 97 eb 70 3e bb 04 92 bd
       -0.22711746 -0.5161696 0.2352737 -0.071298085
000360 7c 07 11 bf 5b c1 bd be b3 b8 12 bf 97 ba c6 be
       -0.56652045 -0.3706158 -0.5731308 -0.38814232
000370 7a 29 f4 be 94 ae 9f 3e c8 85 f2 bd 4e db 2a be
       -0.47687894 0.3118788 -0.11841923 -0.1668522
000380 9a df 84 3e 56 61 2a bd c4 1b 54 be 71 94 94 be
       0.25951844 -0.041596733 -0.20713717 -0.29019502
000390 75 2d 5a bd 8d a9 f4 3e 7d 9b ee be 55 a9 a6 bd
       -0.053266007 0.47785607 -0.46603003 -0.08137766
0003a0 2a d8 8b 3e eb 89 d0 3e c8 7b 0a 3f cb 62 d1 3e
       0.27313358 0.40730223 0.54095125 0.40895686
0003b0 5c e6 c2 3e 78 3b 7b be 46 07 83 be b5 42 8f 3e
       0.38066375 -0.24534404 -0.25591487 0.2798058
0003c0 ad 68 9d 3e da 3d 71 be cb 2b d5 3e 73 ff 9a bd
       0.30743924 -0.23558751 0.41634974 -0.07568254
0003d0 8a b4 90 be a9 e0 6f be df 5c cd bd 9e 0b 95 3e
       -0.2826274 -0.23425545 -0.100274794 0.29110426
0003e0 45 9d 84 be 2b f7 a5 3e bd 99 a3 3d 2a b1 bc 3e
       -0.25901237 0.32415137 0.079883076 0.36853915
0003f0 0c 93 b1 3d 11 f0 3f 3d f7 54 bd be 5e 17 be 3e
       0.08670625 0.046859805 -0.36978886 0.37127203

classifier.4.bias f4 [10]
000000 28 8c 82 3d c6 52 00 3b 5a e1 03 be b8 15 b3 3e
       0.06374389 0.0019580587 -0.12878934 0.34977508
000010 6c 47 11 3e e3 1a b8 3d 09 3e 50 be 73 d3 31 3d
       0.14187402 0.08989503 -0.20336165 0.043414544
000020 d0 5d c6 3d 77 86 6c 3d
       0.09685862 0.057745423
