experiments/LeNet/CIFAR10/experiment-9/last-epoch.pt (torch, 258859 bytes, 18 tensors)

features.0.weight f4 [6, 3, 5, 5]
00000000: 7856 9bbe 60c7 d13e b607 aa3e 8440 eabb
00000010: 516f eb3d c418 303e 2eb2 4a3f 0477 253e
00000020: 5935 d5be cfae ea3d efa6 93bd 0fc9 563e
00000030: 8c7a 14bf d224 d8be 5a4a a4bd 039d 26be
00000040: a5df d8bd 31cd 3dbe cc24 f73d c8c6 123e
00000050: 37a0 193e 5321 203e c963 a7bd 74bb cd3c
00000060: a7c1 66be c369 39be 3032 c13e c9a4 b53e
00000070: 4199 5cbe fe8a 6d3d fb21 9d3e 1921 133f
00000080: 515f 22be 89be c5be 159a 513e 618d 52bd
00000090: 8315 453c f83c 24bf ba84 afbe 6d23 2abd
000000a0: fd40 32be e404 08be 6e54 4cbe 0bf1 263d
000000b0: 21ea 7e3e 42bd 2a3e 8472 443e efd3 8fbd
000000c0: 51cb 1bbb 1868 45be bdae 60be c578 953e
000000d0: 7b0e 2e3e cb18 85be 9936 013e c027 d73d
000000e0: 2287 c63e a120 81be dffd 07bf 9933 503e
000000f0: 3449 86bd 539d 0abd b7df 45bf 19f3 90be
00000100: 06b4 f83d fdba 32be c50a b4bd af63 fcbd
00000110: 8f20 813e 7e6d b33e 76ad 6f3e e704 623e
00000120: b8c3 01bd f199 563e 301c b53d 104d 38bd
00000130: ec1e d13d b55d 053e feae 94bc e0e7 85be
00000140: 1ad6 8abd 7b50 5ebe 978b 2d3e f1f1 e33e
00000150: 5cbc dbbc 1c0d f03b 1ccf 00bf 8cb8 8fbe
00000160: a0a6 983e fe1a 3d3e d75f ac3e 84c1 b2be
00000170: 9297 fdbe 41af 81be 732b 2d3e 65a6 173f
00000180: f0cf 973e 1971 10be dd48 f0bd ade7 be3c
00000190: 7147 323d 3fc7 ab3d baca b33e f58b 3b3e
000001a0: 52c0 41be b661 8abe 873f a5be 5e64 9d3e
000001b0: 3e92 1d3f 3f00 c13d 23a1 aebd bc7b 33bf
000001c0: 904d 8abe 99c2 a93e f4aa 9d3e 9551 a03e
000001d0: e581 e8be c224 27bf ee35 87be aa80 da3d
000001e0: 17ac 2d3f 9157 743e 8b8f 58be 8229 97be
000001f0: 762f 82bd 90be d5bd 8d93 753e ae74 893e
00000200: 8375 fb3c 6c75 4fbe 8fb9 9ebe 42b1 6cbe
00000210: b383 bc3e 4b89 e53e df81 163c d5d9 26be
00000220: a0ef f9be b7d7 78be 2ef1 993e 3e70 953e
00000230: ba86 913e 5eeb c2be dbb5 0bbf 99ff 36bd
00000240: 4be3 4e3e 6226 bb3e 3911 9a3e 61e7 2dbe
00000250: 15f7 49be 2dbb 343c da0e 563c 52c5 cebd
00000260: f7e4 32be 8c5b a9be cc90 bd3d cea5 5ebd
00000270: 8e50 babe 3ad9 ddbe 5bb8 5dbd b8d3 b63e
00000280: cc81 7fbe a2a2 d5be 3f13 cbbd c9aa 8d3e
00000290: 6544 d13e 349a afbe 71fa eebc 713f ba3e
000002a0: d497 cd3e 1305 693e 5ba8 a33d 87ff 843e
000002b0: 291f f23e 63f6 603e f358 55be 80ae c83d
000002c0: 63fe 243e 3e34 a6bc ab9e 4ebe cd01 55bd
000002d0: 9684 ef3d 32ef 6fbe 7c74 ccbe 0329 56be
000002e0: dd7e 2e3e 7a9d 2fbe 5fd4 61be ed14 04be
000002f0: 1d39 403e 2b99 9a3e ee0a 82be 7182 28be
00000300: 97bd 2f3e d794 153e 1af7 6b3d 3ed9 eebd
00000310: 356b 483e cacf 823e f35b 2b3d 6ef5 aebe
00000320: 48b0 3a3e 61e1 1f3e 2c10 a53c ecad 2cbe
00000330: 37ff 223c 8937 753e 88dc 7fbc 07c0 e5bd
00000340: 8954 873c 5249 2f3e 7815 363e 2a07 5abe
00000350: c002 cebd ee2f 713e f9db f73d 1d07 c8bd
00000360: 93e3 7f3d 3227 ff3d 86c6 0d3e e88c 2dbe
00000370: cebd 793d 3dfd ca3d 1764 063d 3082 5dbe
00000380: 9cd4 80be a2a4 92bd 6837 5bbd 647d edbc
00000390: 3e86 a23d c45a 9bbc e604 30be eba5 6dbe
000003a0: 30c2 28be e4e9 22be 6220 423c d66b 5dbd
000003b0: a887 95be c400 4abe 0b66 68be 7928 c5bd
000003c0: bba8 b7bd de2f 96be a199 2fbe aadf b7bd
000003d0: ef84 cebd b19f 9bbd 57ad 11be 40e9 b7bc
000003e0: 02fd f53c 3c29 333d db18 6ebe 1e99 16be
000003f0: 81dc c3bd 969e 793d 6459 06bd e962 343c
-0.30339408 0.40972424 0.33209008 -0.007148804 0.11495841 0.17196947 0.7917813 0.16158682
-0.41642264 0.11459123 -0.072095744 0.20975135 -0.5799949 -0.42215592 -0.08021994 -0.16270833
-0.10589532 -0.18535306 0.12067565 0.14333642 0.15002523 0.15637712 -0.081733294 0.025113799
-0.2253481 -0.18106751 0.37733603 0.35477284 -0.21542837 0.05799388 0.30689988 0.5747238
-0.15856673 -0.3862193 0.20468934 -0.05140436 0.012029055 -0.6415553 -0.3428095 -0.04153769
-0.17407604 -0.13283116 -0.19954082 0.04075722 0.24894 0.16673759 0.19184309 -0.07022845
-0.002377231 -0.1927799 -0.21941657 0.29193702 0.16997711 -0.25995478 0.12618484 0.105056286
0.38774973 -0.25220206 -0.5312175 0.20332183 -0.06556931 -0.033841442 -0.77294487 -0.2831047
0.12143712 -0.17454143 -0.087911166 -0.12323701 0.25220153 0.35044473 0.23406014 0.22072183
-0.031680793 0.20957161 0.08843267 -0.044995368 0.10210976 0.13024028 -0.018149849 -0.2615347
-0.06779118 -0.21710388 0.1694778 0.44520524 -0.026823215 0.0073257815 -0.50316024 -0.28070486
0.29814625 0.18467328 0.3366687 -0.34913266 -0.495297 -0.2532902 0.16911106 0.5923827
0.2965083 -0.14105643 -0.117326476 0.023303831 0.043525163 0.083876126 0.35115606 0.18315108
-0.1892102 -0.27027673 -0.3227503 0.30740637 0.6155127 0.09423875 -0.08526828 -0.7011068
-0.270123 0.3315628 0.3079449 0.31312242 -0.45411602 -0.6529046 -0.26408333 0.10669072
0.67840713 0.23861529 -0.21148507 -0.29523855 -0.06356709 -0.104367375 0.23982067 0.26846832
0.030695682 -0.20259637 -0.31000945 -0.23114493 0.3681923 0.4483131 0.009186237 -0.16294034
-0.48815632 -0.24301039 0.30066818 0.29187196 0.284231 -0.38070196 -0.54574364 -0.04467735
0.20203893 0.3655272 0.30091265 -0.16982795 -0.1972316 0.011030954 0.013065064 -0.100962296
-0.17470156 -0.33077657 0.092561334 -0.054357342 -0.36389583 -0.43329793 -0.054130893 0.35708404
-0.24951857 -0.4172564 -0.0991578 0.2766936 0.40872493 -0.34297335 -0.029172154 0.36376527
0.40154898 0.22755842 0.07991096 0.25976202 0.47289398 0.21968989 -0.20834713 0.09798908
0.16112666 -0.020288583 -0.20177715 -0.05200367 0.11695211 -0.2343109 -0.3993262 -0.20914082
0.17040582 -0.17149916 -0.2205367 -0.12898608 0.18771787 0.30194983 -0.25398964 -0.1645601
0.17162167 0.14607559 0.0576087 -0.116625294 0.19572146 0.25549155 0.041835736 -0.34171623
0.18231308 0.15613319 0.020149313 -0.16863221 0.009948543 0.23946966 -0.015616544 -0.11218267
0.016519802 0.17117813 0.17781627 -0.21291795 -0.10059118 0.2355344 0.12102503 -0.09766982
0.06247289 0.12458648 0.13845262 -0.16948283 0.060972027 0.099115826 0.032810297 -0.21631694
-0.25162208 -0.071603075 -0.053519636 -0.028990455 0.07935761 -0.018964179 -0.17189369 -0.23207824
-0.16480327 -0.15909535 0.011848541 -0.05405792 -0.2920506 -0.19726855 -0.22695176 -0.0962686
-0.0896773 -0.29333395 -0.17148449 -0.089782074 -0.10083949 -0.07598818 -0.1422628 -0.02245009
0.03002787 0.043740496 -0.23251669 -0.14706847 -0.09563542 0.060942255 -0.032800093 0.01100991

features.0.bias f4 [6]
00000000: 6f45 dbbe 2617 88be 6f3f 68be b0d8 523f
00000010: 5cbe 9b3e 01b4 7abc
-0.4282641 -0.2658016 -0.22680448 0.8236189 0.3041867 -0.015301705

features.2.weight f4 [6]
00000000: e067 8d3f f449 ac3f c2f0 893f 3a70 0a3f
00000010: e068 1a3f 93f4 313f
1.1047325 1.3460069 1.0776598 0.54077494 0.60316277 0.69513816

features.2.bias f4 [6]
00000000: d41e 8f3e b0b8 c03d 3bcf 8abc 6a61 0a3e
00000010: d806 8f3d 85d2 c5bd
0.27953207 0.09410226 -0.016944518 0.13513723 0.06983727 -0.09659294

features.2.running_mean f4 [6]
00000000: e3dc 4c3e b2ec ac3e fefa 813e d6b6 333f
00000010: d971 cd3e 2361 943e
0.20006137 0.33774334 0.25386804 0.7020086 0.4012592 0.2898036

features.2.running_var f4 [6]
00000000: 81f4 8d3e 99cd 2b3f ca7e eb3e 24ef 0a3f
00000010: 812f 953e 3549 393e
0.27725604 0.6711059 0.4599517 0.5427115 0.29137805 0.18094333

features.4.weight f4 [16, 6, 5, 5]
00000000: 8a7d ce3a c8c7 033d 7b26 0b3d 9afc 973d
00000010: 8889 4d3d 19cf 17bc 4267 673c b7b9 b23c
00000020: 8a79 093d 3260 bc3d b50c a33d 766f 673c
00000030: a84d 0c3d 0165 fe3c 838b 433d e49b 5fbc
00000040: f421 68bd 769d 4c3c d717 a83d a287 603d
00000050: 5c26 013e 881d 8a3d 3395 f13d 8c6a 363d
00000060: 2cad 853c 15f2 ebba ac27 47bd 0152 f8bd
00000070: a781 93bd 2067 03be 8cc4 d4bd 3fb4 0dbe
00000080: fec0 10be b8bb 19be a67b cdba fa38 20be
00000090: b435 bbbd c595 febd 7370 93bd 66c2 053d
000000a0: b4a2 a8be 8d3d 58be a95c 0abe 4a69 ebbd
000000b0: 8a01 983a 98a0 cfbd e4f5 99bd 1d94 bb3c
000000c0: 7f8a e4bc eafb aa3c 0f4d 623b 168f abbc
000000d0: 46a6 7dbd 3eb7 7abd d610 debc 4c5c cc3c
000000e0: 8a7e 1a3d 9fc8 3b3d 66ab dcbc 0307 b0bd
000000f0: 85e1 ef3c a76b 953c eb50 1abc 87bf ab3b
00000100: 9b95 aabd faf2 8ebd fdd5 b53d 1d7f ad3c
00000110: db7f 973c 04f6 f5bc f4d6 b8bc 9b79 18bd
00000120: 7a5a 203d d867 e4bc 7e4e 1fbe 7781 d8bd
00000130: ca39 8dbd c34f 88bd 8e6b efbd 8eef c63d
00000140: 1314 7cbd 4b9e 67bb d606 fa3c fde4 3cbd
00000150: 983e 883c be18 8abd da16 9c3d a965 8ebd
00000160: 14f2 6abd 43c3 da3d 8b92 9cbd e3d9 ea3c
00000170: 9ba4 86bd afaa 9dbc bf24 a1bb 84e0 c73d
00000180: 908d df3d ca51 263c 7678 a3ba 1ed2 763d
00000190: 5a6a d4bd 3c1e e3bd 1e75 9a3d 37bf 4c3e
000001a0: ccd5 a13e bc74 57bd 3999 a93c 5158 213d
000001b0: 7297 7a3d 5499 313e 3e82 96bc 0137 2d3d
000001c0: c306 debc 0e17 00bd 1de4 c43d 26d8 113d
000001d0: 0d5a a6bb b537 87bc 71c8 bb3c 0971 163d
000001e0: ea9e 673c 339e 6f3d a581 033c ce4c 673c
000001f0: f78f babd e608 85bd 122b 74bc dfa0 6bbd
00000200: 3581 bbbd 7d43 0abd 8634 ecbb eb27 65bc
00000210: c18c a23d 5ba2 9fbb c376 7f3c 5b18 853c
00000220: 7abc 23bd 8bb5 143c b2e0 f03c 4050 54bd
00000230: a708 453c 77b1 a8bd 5efd 533d 6d28 a2bd
00000240: 91f4 523c 9b9f f63d 17d4 303d 1720 fd3c
00000250: e6c6 0d3d 489b a3bd 1020 d3bc 0643 ed3c
00000260: c1a9 cd3b 5997 843c 3660 2c3d 79ad 40bd
00000270: 4a8a 313d c5cf c43d 8018 8c3d d52f 043d
00000280: 5841 4c3d 6bdf 183c 8e91 dcbc b39b d4bc
00000290: 4951 8abd 1484 0abd 47bd a6bd b857 0bbd
000002a0: cd1f 9fbd 7294 383d 6a63 31bd d6ef 53bd
000002b0: 3996 82bd edf4 2abd 7289 c5bb b872 3fbd
000002c0: 2b08 febc 8e9c a1bb ca78 f03c 3ad7 f63d
000002d0: de60 a7bc 8a3e 393c f39c 403c 8a44 743d
000002e0: efdc 423d 2364 ae3b 8645 c73c abd1 fcbb
000002f0: 56ac 4e3d 89e9 76bd d096 bf3b fe83 eb3c
00000300: 39e7 acbc 0306 853c 8981 f43b 31cc 123b
00000310: 1ddc 6fbc 2ce5 473c de1c 1c3d ff17 46bb
00000320: 6d4f be3d 166f 543d 978e 20bd f2dd 093c
00000330: 3a3f afbc 271c bcbc ee1b 4a3d 1646 2c3d
00000340: bd07 8b3c e564 93bd 8915 5ebc c69b a2bc
00000350: 528c 84bc b715 8b3d f9df 143d 007b bb3c
00000360: 54a9 20bd 462d 16bd 158b 56bc d0a9 aabc
00000370: 9b58 8e3d 819d 99bd 7eff fcbc 7681 4cbd
00000380: ac15 b0bc 44ee 33bd 7c79 73be ba8e 37be
00000390: 7820 34be dba8 02bd 6761 b03d ebaf edbd
000003a0: 0907 67be 146f 19be 879f aabd 5f73 713e
000003b0: 06ab ef3d f8e9 ccbd fd29 73bd 7ec0 7ebe
000003c0: 35db a13e fd26 2a3e 9486 6fbd b4a6 60bc
000003d0: 9cae 71be 5906 833e a847 433e 7046 213e
000003e0: 0d10 4abc 2d67 eabd 70d2 b6bd f74e 99bd
000003f0: 2d41 73bd ea97 483b 5c9f 8b3d db9b 573c
0.0015753966 0.032172948 0.033972245 0.07421227 0.05017999 -0.0092656845 0.01412374 0.021817071
0.033563174 0.09198035 0.07961408 0.014125695 0.034253746 0.031054022 0.04774047 -0.013648007
-0.056673005 0.0124887135 0.08207672 0.05481685 0.12612289 0.06743914 0.117960356 0.044535205
0.016317926 -0.0018001223 -0.04862182 -0.12125016 -0.072024636 -0.12832308 -0.10389051 -0.1383829
-0.1413612 -0.15013015 -0.0015677109 -0.15646735 -0.091411024 -0.1243091 -0.07199182 0.032656096
-0.32936633 -0.2111723 -0.1351191 -0.11494692 0.0011597138 -0.10138053 -0.07517603 0.022897774
-0.027898071 0.020872075 0.0034530794 -0.020942252 -0.06192615 -0.06120991 -0.027107637 0.024946354
0.037718333 0.045845624 -0.026937198 -0.085950874 0.02928234 0.01823981 -0.009418706 0.0052413377
-0.08329316 -0.06979938 0.08878706 0.021178776 0.018493583 -0.030024536 -0.022563435 -0.037225347
0.039148785 -0.027881548 -0.15557286 -0.105715685 -0.06895788 -0.06655838 -0.11690436 0.0971366
-0.06154258 -0.0035342153 0.030520838 -0.046116818 0.01663141 -0.067430004 0.07621546 -0.06952984
-0.05735977 0.106817745 -0.07645138 0.02866835 -0.06574365 -0.019246427 -0.0049177106 0.0975962
0.10915673 0.010151336 -0.0012471813 0.060258977 -0.103718475 -0.11089751 0.075418696 0.19994818
0.31608427 -0.05260156 0.020702945 0.039390866 0.061179586 0.17343646 -0.018372651 0.042288784
-0.027102834 -0.031271987 0.09613822 0.035606526 -0.005076653 -0.016506055 0.022922726 0.036728892
0.014137009 0.05850048 0.008026515 0.014117433 -0.0910949 -0.06495838 -0.014902847 -0.057526466
-0.09155504 -0.033755768 -0.0072084097 -0.013986568 0.07937003 -0.004871649 0.01559228 0.016246965
-0.039974667 0.009076486 0.029404018 -0.051834345 0.012025989 -0.08236974 0.0517553 -0.07917867
0.012875692 0.12042161 0.043171015 0.03089909 0.034613512 -0.07988602 -0.025772125 0.028962623
0.0062763398 0.01618545 0.04208394 -0.047040436 0.043344773 0.096099414 0.068406105 0.03227218
0.049867004 0.009330611 -0.026924875 -0.02595315 -0.06753785 -0.033817366 -0.081415705 -0.034019202
-0.077697374 0.045063443 -0.0433077 -0.051742397 -0.06376309 -0.041737486 -0.0060283476 -0.046740264
-0.031009754 -0.004931993 0.029354472 0.1205277 -0.020431932 0.011306414 0.01175617 0.059635676
0.04757398 0.005321996 0.024325144 -0.007715424 0.05045732 -0.06028131 0.0058468357 0.028749462
-0.02110635 0.016238218 0.007461731 0.002239954 -0.014639881 0.012200635 0.038113467 -0.0030226705
0.09292493 0.051863752 -0.039198484 0.008414732 -0.021392453 -0.022962643 0.049343042 0.042059027
0.016971463 -0.071969785 -0.013554939 -0.01984967 -0.016180191 0.06791251 0.03634641 0.0228858
-0.039223984 -0.03666427 -0.013094683 -0.020832926 0.06950494 -0.075007446 -0.030883547 -0.04992815
-0.021494709 -0.0439284 -0.23776811 -0.1792554 -0.17590511 -0.031899314 0.08612328 -0.11605819
-0.22561277 -0.14983779 -0.08331209 0.23579167 0.11702542 -0.100055635 -0.059366215 -0.24878117
0.31612554 0.16616435 -0.058477953 -0.01371162 -0.23601764 0.2559078 0.19070303 0.15749526
-0.012332928 -0.114454605 -0.089268565 -0.074857645 -0.05938833 0.0030608126 0.06817505 0.013159717

features.4.bias f4 [16]
00000000: 5785 693e 41d0 673d 10e3 89bd 99fe e6bd
00000010: 1100 d1be 9e5c 92be ab43 623e 34de 2a3d
00000020: 7dc9 5ebe 107d 0ebe 20af 23bd 99a0 e43a
00000030: 62c4 c23d 5292 ffbd f727 c5bd 9283 5c3e
0.22804771 0.05659509 -0.06732762 -0.112790294 -0.40820363 -0.28586286 0.22096126 0.041715816
-0.21756549 -0.13914895 -0.039961934 0.0017442881 0.09510113 -0.1247908 -0.09626763 0.21534565

features.6.weight f4 [16]
00000000: 2f74 a33f d79d 8e3f 0749 a73f 8887 9c3f
00000010: 149d 9a3f 87ef 933f 8a6a 8a3f 5ce0 8f3f
00000020: eaa6 a03f 1ae4 973f ef82 8f3f 27c5 9b3f
00000030: a63c a43f 7a45 983f 2ed0 a33f 6426 973f
1.2769831 1.1141919 1.3069161 1.2228861 1.2079186 1.1557473 1.0813763 1.1240344
1.2550938 1.1866486 1.1211833 1.2169541 1.2831008 1.1896203 1.2797906 1.1808591

features.6.bias f4 [16]
00000000: d660 97bd 100e 8e3d 8bcc b03d 66c2 fbbc
00000010: 5dd2 403c 8715 8f3b b3f3 9fbc 2e5b 583d
00000020: 006c bd3d 05d6 4c3d c330 583d f31b 853d
00000030: d436 a03d ee10 683d 3985 a13d e8b2 043d
-0.07391517 0.06936276 0.086327635 -0.030732345 0.0117689045 0.00436658 -0.019525385 0.05282133
0.09249115 0.050008792 0.052780878 0.064994715 0.07822958 0.05665677 0.07886738 0.03239718

features.6.running_mean f4 [16]
00000000: 17d0 2e3f b21a 693e c34e 553e 7521 c43e
00000010: 1155 1e3e 4c13 383e e345 033f a704 2b3f
00000020: ea57 453e 1848 673e b0e1 b93e ed0e 6f3e
00000030: 459d 583e 8d32 9d3e c36f 723e f209 2a3f
0.6828627 0.2276409 0.20830826 0.38306776 0.15462138 0.17976111 0.51278514 0.66803974
0.19271818 0.22586095 0.36304998 0.23345537 0.21153744 0.3070263 0.23675446 0.66421425

features.6.running_var f4 [16]
00000000: 5b2e d63e b70d d83d a1ad 2f3e fd04 823e
00000010: 32e7 933d 3993 aa3d a5a8 553e 54bc c23e
00000020: 008b 003e 49c8 0c3e b057 643e 7da0 fd3d
00000030: e107 e13d 4a55 483e d975 013e 6560 ec3e
0.4183224 0.10549491 0.17156078 0.2539443 0.072218314 0.08328862 0.20865114 0.38034308
0.12553024 0.13748278 0.22299075 0.12384126 0.10987831 0.19563785 0.12642612 0.46167293

classifier.0.weight f4 [120, 400]
00000000: cceb b13d b65d 0f3d d183 213d 6ce9 013d
00000010: c541 513d 4d96 a53d c662 603d a240 3f3b
00000020: ef5d 0c3d f343 903d b8ac ed3c 3c4a 073b
00000030: 5e3e f5bb 5570 373d 6ad1 fd3c e4f8 803d
00000040: d229 18bd 2848 423b 9f05 afbc 08bd b33c
00000050: 595e 7cbc 9d8c c73c 98a1 e33c bfa4 cd3c
00000060: 114b 5dbb 18ab 903b 92fa 943d 96da b63a
00000070: 8106 a2bc a439 213d 3ff6 73bb a6d1 813d
00000080: 5c4b 0e3d d135 db3c 1c16 873c 9f3a 293c
00000090: c24b 453c ebee 15bc c078 fc39 0546 0c3d
000000a0: 5693 573c cb1a cebb 7d7b 85bc 1c81 26bd
000000b0: 8cc6 153d 6111 4abc 40da 523a ad99 133c
000000c0: 44d6 a5bd abf4 4dbd 2a69 8abc 3a15 b6bc
000000d0: a82a 35bb 7a37 cfbc c2ec e7bc 848f fdbc
000000e0: 5036 76bc 9cfb 1bbd 2c32 2fbd 81aa b6bc
000000f0: 9644 57bc 6b87 0dbc 838a d7bc e84a 07bc
00000100: a296 f83a 8b7c 193b 11f7 a1bc 0a5d 99bb
00000110: 737d 5e3d f644 383d 3254 eabc 625c 763b
00000120: bd01 543d 0e8b 883d f279 2e3d 99ee 9c3c
00000130: 0d7c 87bc fb7e d8bc e1f4 683c 89f2 a8bc
00000140: 78dc 513c e7b1 b53c 7908 82bc 1bdd cebb
00000150: 504b 3abd c6d0 82bc d98d 653d 1396 533c
00000160: f3ce 07bd c8e6 93bc d6ca 063d 6b67 d1b9
00000170: ab01 1f3c 0336 1c3d bc92 063d 1357 7d3b
00000180: 0663 30bd ed65 a9bc 9fb3 033d 3ab3 493d
00000190: a4b4 45bd e337 56bc 34a9 163d d4e2 a5b8
000001a0: cd17 c73a be34 64bd eafb 01bd 6a07 9ebc
000001b0: 4c61 35bd cf94 cd3c c481 a6bc 767e e8bb
000001c0: ed9e 983c 4fd2 8d3a 7d05 353d 5eed 953c
000001d0: bfa3 343c 82f6 0b3d 2236 8bbc 3cac f3bc
000001e0: a6c0 123d c7ca 5f3d cca4 403c f0fb 643a
000001f0: a511 8dbc 3227 8b3c cb0f de3c 477c 583d
00000200: 3bcc d73c 085c 1a3d 3c9d 1a3d 80e5 7f3d
00000210: 9590 343d 0265 16bd 55ac 21bd e392 fb3c
00000220: be16 2dbc 5e43 fabc e9f1 0abc 1b88 29bd
00000230: f560 333d eac7 bd3c 7f4a 11bd 572e 9b3c
00000240: 3cfa 02bd a070 a4bc 6cd0 c03c 604d 263d
00000250: 908f dd3c ab54 98bb f072 b7bb 5cea ff3c
00000260: 77e9 d83c 7f67 6f3c c93b 993c 09f2 313d
00000270: 839e 9e3c b918 9d3b 308e 923c b864 7bbc
00000280: f149 8e3c aa72 133b 662e 25bc d69e 0dbd
00000290: 3aab 1bbc 94e1 ba3c c4be 1e3d 2fc0 5bbd
000002a0: e4d0 05bd 0c31 bdbc 1124 b7bc 77fb 283d
000002b0: a7d2 d03a ba2f 8a3c ac25 93bc 5184 823c
000002c0: 35fd 1e3a 9bbc 67bb 6821 193d 1104 e83c
000002d0: acf3 7b3c 7b34 423c 538b a53c 2f3f 863c
000002e0: 6d52 a53b d757 c8b8 c79b cc3c 4fbf 4f3d
000002f0: 7cca f9bc 3c9c 7c3c 4509 6e3a b581 9e3c
00000300: 0c4a 823b d756 c4bc 6ea4 2c3c f57c 273d
00000310: eca9 2c3c f6e3 22bd b6f2 4ebd 9897 4fbd
00000320: 9c70 5cbd a3a0 49b9 a060 0cbc 1e25 d4bc
00000330: ed17 6cbd af09 3839 5495 183d d04c 383d
00000340: 34b2 573d 21a5 3fbd 3a6a 853d 2256 d6bc
00000350: de21 583d 1593 b73d 3185 53bc 1b13 fbbc
00000360: 87e3 003d 7669 693d 42bd 413c f5ea 1f3c
00000370: 3b7e a2bd 5c1a c9bc 795c 87bc fff4 08bd
00000380: e443 613d 8701 6e3c b4c9 2fbd bfec 11bc
00000390: 9bf6 173d adab d03b 7e7b d6bb 7f1b f5ba
000003a0: bd0b 31bd 8799 bf3d a416 643c 16fe a8bc
000003b0: a475 73bd 1646 ea3c 9321 a03d 8759 6c3d
000003c0: d6ec edbc 5471 53bc c365 96bc f951 0e3d
000003d0: fdbb c43b 9f13 0c3c 8d09 bb3b 0ec1 cf3b
000003e0: 761d e3bc b675 47b9 ea1d 17bd 1f02 afbb
000003f0: 2d58 843b 4b50 8cbd 00fd b33c ed88 41bd
0.08687553 0.03500148 0.03943235 0.03171675 0.051088113 0.08085308 0.054781698 0.0029182811
0.03426927 0.0704421 0.029013023 0.0020643612 -0.0074842414 0.044784863 0.030983645 0.06297472
-0.037149258 0.002964506 -0.021364985 0.021940723 -0.015403354 0.024359042 0.027787015 0.025102971
-0.0033766667 0.004414927 0.07274355 0.0013950642 -0.019778492 0.03936161 -0.0037225632 0.063388154
0.034739837 0.02675906 0.016490035 0.010328918 0.012041988 -0.009151201 0.0004815515 0.034246463
0.013157686 -0.006289815 -0.016294235 -0.040650472 0.036566302 -0.012333245 0.0008043386 0.009008807
-0.080975085 -0.05028216 -0.01689585 -0.022226918 -0.0027643833 -0.025295008 -0.028311137 -0.030952223
-0.015027598 -0.03808175 -0.042772457 -0.0222981 -0.013138911 -0.008638243 -0.026311165 -0.008257605
0.001896579 0.002342018 -0.01977113 -0.0046802806 0.054318856 0.04498764 -0.0286046 0.0037591686
0.05175947 0.066671476 0.042596765 0.019156741 -0.016538644 -0.026427737 0.01421854 -0.020623462
0.0128089115 0.022179557 -0.01587318 -0.006312979 -0.04548198 -0.015968692 0.05604348 0.012914198
-0.033156347 -0.018054381 0.032908283 -0.0003994064 0.0097049875 0.038137447 0.03285478 0.0038656637
-0.043063186 -0.020678485 0.032153722 0.04924319 -0.048267975 -0.013074848 0.03678246 -7.910063e-05
0.0015189588 -0.05571436 -0.031734385 -0.019290645 -0.044282243 0.025095372 -0.020325549 -0.0070951534
0.01863047 0.0010820123 0.044194687 0.018301662 0.011025368 0.034170635 -0.016993586 -0.029745214
0.035828255 0.054636743 0.011758041 0.00087350514 -0.017220328 0.016986463 0.02710714 0.052852895
0.026342502 0.037685424 0.037747607 0.062474728 0.044083197 -0.036717422 -0.03947099 0.03070969
-0.010564504 -0.030549701 -0.008480527 -0.041389566 0.043793637 0.023166616 -0.035471436 0.018942995
-0.031976923 -0.020073235 0.023536883 0.040601134 0.027045995 -0.004648765 -0.0055984184 0.031239681
0.026478512 0.014612078 0.018705266 0.043443713 0.019362694 0.004794207 0.017890066 -0.015343837
0.017369242 0.0022498765 -0.010081863 -0.034575306 -0.009501273 0.022812642 0.038756147 -0.053650077
-0.032669917 -0.023094676 -0.022356065 0.04125544 0.001593192 0.01686846 -0.0179623 0.015932234
0.00060649525 -0.003536022 0.037385374 0.028322252 0.01537792 0.011853333 0.020208037 0.01638755
0.0050452263 -9.5531046e-05 0.024976624 0.050719555 -0.03049206 0.015418109 0.0009080361 0.019348959
0.003976112 -0.02396719 0.01053725 0.040890653 0.010538559 -0.03976818 -0.050524436 -0.05068168
-0.05381833 -0.00019228696 -0.008567959 -0.025896605 -0.057640005 0.00017551215 0.037251785 0.04499513
0.052660182 -0.04678834 0.06514402 -0.026164118 0.052766673 0.089636005 -0.012910173 -0.030648759
0.031466987 0.05698534 0.011824908 0.009760608 -0.07934233 -0.024548702 -0.016523587 -0.03343677
0.054996386 0.014526731 -0.04291697 -0.008906542 0.037100416 0.0063681216 -0.006545483 -0.0018700211
-0.043224085 0.09355455 0.013921414 -0.02062897 -0.059438363 0.028597873 0.07818904 0.057702567
-0.029043596 -0.0129054375 -0.01835907 0.034746144 0.0060038553 0.0085496 0.0057079257 0.0063401526
-0.027724009 -0.0001902197 -0.036893763 -0.005340829 0.0040388317 -0.06851252 0.021971226 -0.047249723

classifier.0.bias f4 [120]
00000000: 38d2 4abd b6b9 793c 300a 10bd ead4 4b3c
00000010: 167f 213c 611d 03bd f80b 1c3b efa0 ee3c
00000020: 6f7e a73c 513e e7bc 5e54 d23c db3b 4abc
00000030: 2d99 6d3d dff3 7dbc dee5 453d 55a1 273c
00000040: ed45 cf3c df67 48bd 18c0 a13d 9956 65bc
00000050: 6b98 1dbd cf8b 473d 8128 963b 50ce 8abb
00000060: 380d eb3c ce97 d53c bea2 173c 9072 153d
00000070: 346e 453d 668d 9d3c a018 053b 30a4 3ebc
00000080: 6c44 9f3c eebc 1fbc b198 d73c 769a 943c
00000090: d36c 853c 26c7 b5bc 9778 963c 0e73 4d3b
000000a0: a268 91bb caeb 123d 532e 8c3d 6dfd 2dbc
000000b0: e592 f3bc 41e5 3abd a9fe 413d e9cc ba3d
000000c0: bbb5 afbc c0e0 803d 9863 73bc 74e4 4a3b
000000d0: ee68 06bd 586b a03b 64d7 103d 197d ddbc
000000e0: ef13 883d 67d1 583d 69c2 f33c c4d0 c7bb
000000f0: 1510 e6bb 9835 5a3d 32ec 8c3b 28a7 883a
00000100: bb26 733d 32ce cfbc 0cf7 853d df5a 5fbb
00000110: 2d1a e63b eca6 903c 113a 923d 34f1 44bd
00000120: 0e09 99bc a473 713d df6d 173d 59e4 48bd
00000130: 1479 ee3c 0271 de3c 3375 463d 3b0b 8f3b
00000140: 1533 a8bc 20ec 3dbd 29f4 44bc 2301 533c
00000150: 08ab 94bc efb2 403c b672 b6bc b443 f13c
00000160: b146 44bc 762d 4f3c 78f2 813d 811e 18bc
00000170: 0351 893d 9b29 25bd 1900 5b3b 56e2 b1bd
00000180: 7677 efbc 83d0 c23c 4e9e e33a 5802 ddbc
00000190: 1506 26bd a370 edbc 0ba3 3bbc 3688 ed3c
000001a0: 96b8 47bd 36ca 773d 8443 d73c 644e 303d
000001b0: 03cf f83c 01af 6a3d fed6 de3c 248e f73c
000001c0: 3348 22bd be54 213d ec8b 873d 7ea5 fb3c
000001d0: cc99 c23d 16d9 2a3b e9d2 183d ea12 013d
-0.049516886 0.015242031 -0.035165966 0.012440899 0.00985696 -0.03201044 0.0023810845 0.029129473
0.02044603 -0.028227957 0.025674995 -0.012343372 0.058007408 -0.015500038 0.04831492 0.010231336
0.025301898 -0.048927184 0.07897967 -0.013997697 -0.038475435 0.048717316 0.004582465 -0.00423602
0.028692827 0.026073363 0.009255109 0.03648621 0.0482008 0.019232463 0.0020308867 -0.011635825
0.019441806 -0.009749634 0.026317926 0.018140059 0.016287243 -0.022189688 0.018368049 0.0031349096
-0.004437522 0.035869397 0.06844773 -0.010619503 -0.02973313 -0.04562879 0.047362003 0.09121115
-0.02144896 0.06292868 -0.014855288 0.0030958923 -0.032814912 0.004895609 0.035361663 -0.02703719
0.06644427 0.052934077 0.029755788 -0.006097885 -0.00702096 0.053273767 0.0043006176 0.0010425793
0.059363108 -0.025366876 0.06541261 -0.0034081263 0.0070221634 0.01765772 0.071399815 -0.04808159
-0.018681075 0.058948174 0.036970016 -0.049045894 0.029110469 0.027153496 0.048451614 0.0043653524
-0.02053217 -0.046367764 -0.012021103 0.012878689 -0.01814796 0.011761411 -0.022271495 0.029451229
-0.011979745 0.012645116 0.06345075 -0.009284616 0.06704905 -0.04032288 0.0033416806 -0.08685748
-0.029231768 0.023781067 0.0017365904 -0.026978657 -0.040533144 -0.028984373 -0.011452447 0.028995614
-0.04876002 0.060495578 0.026277311 0.04304351 0.030372148 0.057295803 0.027202126 0.030219145
-0.039619636 0.039387457 0.06618485 0.030718561 0.09501991 0.0026069335 0.037310515 0.03151218

classifier.2.weight f4 [84, 120]
00000000: e4e7 053d b865 9dbd 013e d3bd d79f b93b
00000010: ea9b b3bc 3f61 f53d eb5a ea3c 632e b8bc
00000020: b05b 95bd 1d1e 813d 1eb5 b33d f929 a63b
00000030: 3972 953d 1962 67bd a075 943d e756 c73c
00000040: a486 78ba 5588 e03d ee91 9abd ff0c abbd
00000050: cc5e 13bd ced0 68bd 54a3 013c ba62 8bbd
00000060: 1831 69bd 2505 ebbd f8d5 703d f628 5f3d
00000070: eb30 ae3c 2925 59bc f63a 223d 9ff8 04bc
00000080: aaad b03d 43df 973d 9dd3 bebd 7fc8 e1bc
00000090: 9aea f03c 278a 8e3d cc65 973d 66c5 9e3d
000000a0: b246 733d 6ba7 be3d c447 493d 0141 a0ba
000000b0: 4692 95bd af83 7b3c ae51 3e3d 3678 adbd
000000c0: ddc8 5a3d 76bc 263e 1d00 8f3d 2a3a 8ebd
000000d0: b637 103e a58f de3b d3a6 83bd aece d93d
000000e0: a880 2bbd 9467 84bc 6d5a 363b 8e2d c43d
000000f0: 9c8e a73d fa16 afbc 7caf 843c 7705 563b
00000100: 6847 0c3d 67e6 c0bd 6212 e53d 4c41 35bd
00000110: 51fa 503d 5755 55bd f3f9 b03d 0b27 133d
00000120: aee3 7c3d bd07 8abb f61f 81bd fd4c 14bd
00000130: 1671 fd3c 6a37 093c 790e b3bc e226 783d
00000140: 7e7d 493b 52c2 7fbd 00e5 8ebd 976b a0bd
00000150: e921 c2bd 9158 c7bc c4d9 b83d bb73 f0bc
00000160: fe7e 183d 0521 203c 43e9 753b 24d3 5d3d
00000170: a0ea a83d 4395 9ebb 5215 84bd 696f 323c
00000180: 70b3 f4bd c633 11bc 5342 b73d f3b5 fd3d
00000190: 6458 3cbd 8223 1d3c 305e 93bd 46e7 c1bc
000001a0: cb5c 80bd b388 a03d 45bf c63d 1a4c d5bc
000001b0: ab12 f8bc 4808 cc3d ffc8 8f3d ee08 e43b
000001c0: 548c 99bd 206d 883c c7f3 483d 94b5 b83c
000001d0: 3664 ffbd e128 ac3c 35bc 27bd 631e 3cbd
000001e0: b154 bbbd ca29 e5bd 1103 6cbc 5448 48bc
000001f0: ff03 253d 8a98 4ab9 419b 87bd 26be 993d
00000200: 4122 c5bc cffc a5bd f09c 353d 7c91 febc
00000210: 5572 493d 33f8 c1bc 9709 9a3d 6abc bb3d
00000220: fb12 84bc 098b 58bd bc8e 553d 6610 01bc
00000230: c593 f4bc 6a43 9b3d bb6a fbbc 5e58 d7bc
00000240: 5587 6abd 6f32 143d 2530 183d 384b d23c
00000250: 152e f5bc b198 f9bb d3dc ce3d 9b82 b73d
00000260: 8799 3e3b 1ea3 adbc 34c6 613d 09e9 bcbc
00000270: 13d3 dd3c 85a2 80bb f6bb 943c 1a3f b83d
00000280: bd2d 83bd 8ed7 87bd 5ce9 fd3c ef7e 06bd
00000290: fbc2 94bd 3d1c c93d 9063 8cbd 882a e73c
000002a0: a635 a33d 870d cebd 1d78 3f3b c104 8cbd
000002b0: b375 9fbd a353 cf3d e21a ba3c 50f5 a43d
000002c0: 1714 88bc 4172 913d df40 8b3d 4558 043d
000002d0: a493 c73b b3c0 ea3c d8fd c2bd b7db 9bbd
000002e0: 074b 29bd e2ef 87bc 9b7c 0bbd 9b2e b2bd
000002f0: 97ec 603d 5b52 173d eb7d 2d3d 959e 11bd
00000300: a20d 983b 982e 96bd 331a 4fbd a0f2 36bd
00000310: 15e9 a0bc c872 ab3d 5c06 9c3d 822f 6e3d
00000320: cea0 99bc 4781 84bd c54f 90bd e807 c2bc
00000330: a8df 4c3d 8070 a03c 4b13 cf3c 9532 283d
00000340: ba60 f7bc b406 b33b 0a04 adbd 658c 47bd
00000350: 1fd7 0f3d 558b 233c 5cf6 95bd e885 253d
00000360: 7cb8 8abd 1aef 64bb e1df 773d 15e4 933d
00000370: 0c53 9f3d 41ba 793d 8139 033d 3212 153d
00000380: 8045 403c 763e 0e3d 3d18 aabc e19c a7bc
00000390: 7e27 9dbb b303 88bc 563e 4b3b cd75 85bd
000003a0: 3d08 4dbc d2ce c43d 201d 3fbd 021d 303c
000003b0: 3f5f 773d 70a4 013d 7af1 793d 0e92 b13b
000003c0: 9fb4 e43c 11e9 62bd 6919 6dbb 71f9 84bd
000003d0: 1554 903d 2563 42bd d38d 82bc 599a 243c
000003e0: 0131 cd3c fd4b 9c3d 87ef 2f3d 4fcb fd3d
000003f0: 0a1f 523d 79fa c43c a6dd d03d 64f1 36bd
0.03269185 -0.07685417 -0.10314561 0.0056648063 -0.021924932 0.11981439 0.028607806 -0.022483056
-0.07292879 0.06304572 0.0877478 0.0050709215 0.07297177 -0.056490038 0.07248998 0.02433343
-0.0009480512 0.10963503 -0.07547365 -0.08352088 -0.035979077 -0.056839757 0.007912476 -0.0680594
-0.056931585 -0.114755906 0.058797807 0.054482423 0.02126356 -0.013253489 0.03960701 -0.0081159165
0.08626874 0.07415631 -0.09317706 -0.027561424 0.029408742 0.06959944 0.07392463 0.077524945
0.059393592 0.09309276 0.049140707 -0.0012226404 -0.0730329 0.01535122 0.046464615 -0.08470194
0.053414214 0.1628283 0.069824435 -0.06944688 0.14083752 0.006792026 -0.064283036 0.10635124
-0.041870743 -0.016162671 0.0027824894 0.09579001 0.081814975 -0.02137326 0.016196959 0.0032657066
0.034247786 -0.09418946 0.11185147 -0.044251725 0.05101997 -0.05208334 0.08641424 0.035925906
0.06174057 -0.0042123483 -0.06304924 -0.036206234 0.030937713 0.008375028 -0.021857487 0.060583957
0.0030744965 -0.062441178 -0.06977272 -0.07833021 -0.09479124 -0.024334224 0.090259105 -0.02935206
0.037230484 0.0097734975 0.0037523068 0.054156438 0.08247876 -0.0048395707 -0.06449379 0.01089082
-0.119482875 -0.008862441 0.08948197 0.1238822 -0.045982733 0.009590985 -0.07195699 -0.02366985
-0.06267699 0.07838573 0.097044505 -0.026037265 -0.03028234 0.09962517 0.07020759 0.0069590723
-0.074974686 0.016653597 0.04906061 0.02254752 -0.124702856 0.021015586 -0.040950973 -0.045927417
-0.09147013 -0.11189611 -0.014405028 -0.012224276 0.040287014 -0.00019321046 -0.06621409 0.07506971
-0.024064185 -0.0810486 0.04433912 -0.031075232 0.0491813 -0.02367792 0.0752136 0.091667965
-0.016122332 -0.05286697 0.052138075 -0.007877445 -0.029855618 0.075812176 -0.030690541 -0.026287254
-0.05725797 0.03618091 0.03715529 0.025670633 -0.0299292 -0.007617079 0.101007126 0.08960458
0.0029083209 -0.021195944 0.05512066 -0.023060339 0.027078187 -0.003925624 0.018156033 0.08996411
-0.06405208 -0.06632911 0.030995063 -0.032835897 -0.07263752 0.09819839 -0.068549275 0.028218523
0.07969217 -0.10061174 0.002921588 -0.06836844 -0.07786121 0.10123374 0.022717897 0.08054602
-0.016611142 0.0710187 0.067994826 0.032310743 0.006090598 0.02865634 -0.09521073 -0.07610267
-0.041331317 -0.016593877 -0.03405438 -0.087002955 0.05491313 0.036943775 0.042356413 -0.035551626
0.004640297 -0.07333106 -0.050562095 -0.04466498 -0.019642392 0.08371502 0.076184005 0.058150776
-0.018753435 -0.0646997 -0.07046465 -0.02368541 0.050017983 0.019584894 0.025277754 0.041063864
-0.03019749 0.0054634456 -0.08448036 -0.048717875 0.035117265 0.00998195 -0.0732238 0.040410906
-0.06773469 -0.0034932555 0.060516242 0.072212376 0.07779512 0.06096864 0.032037262 0.036394306
0.01173532 0.034727536 -0.02076351 -0.020460548 -0.0047959676 -0.016603326 0.0031012497 -0.06516609
-0.012514171 0.0960976 -0.046658635 0.0107491035 0.060393568 0.03165096 0.061021306 0.0054190224
0.027918158 -0.05539805 -0.0036178476 -0.0649289 0.070472874 -0.047457833 -0.015936768 0.010046565
0.025047781 0.07631681 0.04295304 0.12392294 0.051299132 0.024045216 0.10198526 -0.0446638

classifier.2.bias f4 [84]
00000000: cd96 35bd 3633 0f3c 0bec df3d 5c53 e13d
00000010: 36cd 453d 16a3 f33d 56db 40bd f9f1 c1bc
00000020: 8e83 bb3d 1e30 03bd fe5b 20bd c4fa 5b3d
00000030: 2491 71bd 32d6 a63d 3693 8cbd a837 03bd
00000040: 6254 db3d 71fb ca3d a894 6bbd bfcf 0d3e
00000050: cc37 31bd 8a31 9dbc e389 82bd 4890 963c
00000060: ba83 823d a8c0 73bd 374c db3d b8bd c6bb
00000070: 7cce 48bd 621e 8a3c 55f9 d13d 1391 7bbd
00000080: 566e 603d 24e4 66bd f6cb 3dbd ad3f 8f3c
00000090: 863b 79bd 1ffd 923d d509 4abc 8b29 cdbc
000000a0: 1b3c c23d 1d55 8638 cee2 26bb f08d 143d
000000b0: 437d 883d 29a1 8b3d 2bb3 853d fe92 2dbd
000000c0: b8b7 ef3b 6da7 4ebb 87ab 453d d4ce d43d
000000d0: 6d02 aebc a663 403d 1631 2dbb f548 09bd
000000e0: 1663 9ebc 371d 063e 07e9 053a b2c4 bf3d
000000f0: 3493 08bc a8cd 0ebd eee7 f23d 4f01 8f37
00000100: 8f62 c7bd af7e f03c 2e4f 9c3d 1acb a03d
00000110: d1fe f1bc d7d0 3f3d 231c 5c3d c2a8 d23d
00000120: 6a2b d73c 4e56 5ebc 4e46 b2bd 3033 72bd
00000130: 57f2 3e3d 1ea0 0c3e 6bef 62bd 8871 f53d
00000140: a5d0 ca3d 10bd 333b 7756 0f3e 67ab a83d
-0.044333268 0.008740237 0.109336935 0.11002228 0.048291408 0.118963405 -0.047084175 -0.023674952
0.091559514 -0.03202831 -0.03915023 0.053705946 -0.058976308 0.08146323 -0.06864016 -0.0320355
0.10709454 0.0991124 -0.057514817 0.1384878 -0.043266103 -0.019188661 -0.06373956 0.018379346
0.06372781 -0.059509903 0.10707896 -0.0060650967 -0.049025044 0.01686019 0.102526344 -0.06141765
0.054792725 -0.056369916 -0.04633709 0.017486418 -0.06084778 0.07177185 -0.012331446 -0.025044223
0.094841205 6.4054715e-05 -0.0025464776 0.036268175 0.06664517 0.06817848 0.06528314 -0.04237651
0.007315602 -0.00315329 0.048259284 0.10391012 -0.021241391 0.046970032 -0.0026426963 -0.033516843
-0.019334357 0.13097082 0.0005108271 0.093636885 -0.008335877 -0.034864098 0.11860643 1.7047538e-05
-0.097355954 0.029357282 0.0763229 0.078512385 -0.029540451 0.046830025 0.05373777 0.10286094
0.026265819 -0.013570381 -0.08704816 -0.059130847 0.046617832 0.13732955 -0.055404108 0.11984545
0.09903077 0.0027425922 0.13997827 0.082358174

classifier.4.weight f4 [10, 84]
00000000: b778 b9bc c5a0 5fbd 0022 c1bd 16cb 853d
00000010: 2870 893d e28c babd d9a5 143c de9d 65be
00000020: 82e4 3a3e 9314 15bc f28e 1a3e bd15 fb3b
00000030: 34b8 5abc 2662 723c 85f9 2e3d cb33 82bd
00000040: 0c87 1e3e 985f 533e 3c5c 03bd 6d91 b8bd
00000050: 959a 6fbd 9f41 ca3a 7420 533c 8595 3a3e
00000060: 6cfc 393e a4e2 2f3d 6a0a 293e 3bae 8f3d
00000070: 48a3 b83d 0979 1bbd 646c c9bd ac11 fe3d
00000080: 3c1f a2bd 0a87 2f3d f8c8 8b3c 474c 253e
00000090: f789 3c3e 903a 99bd c7e1 f9bd c71b b83d
000000a0: 65ce 23bd e0f3 32be 7183 95bc 822e 8abe
000000b0: dd82 183d 375f 9b3c 3890 d1bd 4e83 433e
000000c0: a3a9 0ebc 5130 973e 1839 193e f12c a63c
000000d0: 1c8c 9c3e 68fd 8dbc 10ca ff3d 2f6d 863d
000000e0: 904d 28bd 8c82 00be 716f b93d 2244 6a3e
000000f0: c519 8d3e e259 bfbd a3db ccbb 3373 5d3e
00000100: cfcf 7a3e bd8e 463d 43b0 d03d 26a4 9dbd
00000110: afca 12bc 30b1 9bbd 5afa 92bd 4ab6 52bd
00000120: 3a93 763e f081 693c e51d 6abc 8a2a 78bd
00000130: 8814 a03e b238 653d 3025 38bc fecf 083e
00000140: 4700 6b3e 9102 8e3d 1cfe 05be 0997 b33d
00000150: 4f99 193d 5b4b f03a aa83 18be 6a41 c2bd
00000160: 7dd4 92bc d3db 3c3e a548 613d d893 2ebc
00000170: 5252 483e a158 d53e 90ad 623e 5f50 313d
00000180: 82e6 8fbc 8d26 b5bd 6fb8 533e d926 00be
00000190: c9c9 cdbd 620a 9c3d 62ef 9cbd 6fcd 963e
000001a0: 504f c53d 8544 04bd d48e 123e f516 fd3d
000001b0: 4eb7 dfbc 80b9 983e c60f efbd ad7b aebd
000001c0: 4726 82bd 5108 e63d 492c 903d 4872 983e
000001d0: c583 d5bd dba6 5a3e 12eb a4bd 4918 b13c
000001e0: 9e6c 8dbd 583a fc3c b840 cf3d fedf 44bd
000001f0: a79a 0b3d f3bf 05bc 431a 4dbd d688 273e
00000200: a10a 153e 1af4 8fbd 3415 14bc 71bb 58bc
00000210: 7b7b 623e 5a8d 99bd 09f1 f7bd 85b9 a5bd
00000220: f4e8 34be 0601 ac3d 9029 b23e cb24 e33d
00000230: 2974 173d b410 40bd 301b d93d a8e7 953e
00000240: d1e3 963d a50b 323e 6810 8cbd 97e1 a8bc
00000250: 45e3 0dbe a756 b63d 3f67 5cbd beae a2bd
00000260: 472d cebd d36e 9fba e0ff 43bd 451d de3d
00000270: 95cd a9bd 1d28 4cbe 3950 73bd ce7f 39be
00000280: 6b67 423e fdec 7cbd e71e 84bd 508b 92be
00000290: b3db 8cbe d972 d53d 004d 41be 3e46 0d3e
000002a0: 9a5a 25bd d349 e83c 8ed4 d33d d9f0 8dbd
000002b0: 8b39 80bd 629c 7a3e 8a6f 613d 0c7d 37bd
000002c0: f086 a0bd 671c 9ebd c537 59bd db4c 093e
000002d0: 03bd 713d fd05 ec3d 27b1 78ba 3325 3e3d
000002e0: b12f 39be 2de3 5cbc 256b 133d eed4 bdbd
000002f0: f54e e63d b58d 453e c0a6 86bc 8ba7 803d
00000300: 7b46 e3bd ae24 82bc f56c 103e 573d f93c
00000310: 24e3 faba bd3a 4a3e 2038 c23e c7fa 1a3c
00000320: 7afc 893e 469b a0bd ab22 bf3a d8bb eabd
00000330: 7301 743e d2c1 943c 240c 9e3a 3a79 53bc
00000340: d6e4 4fbd 8ba9 b53c eca8 64be 5ec1 7bbd
00000350: dcfa 10bd 05b4 0cbd 78de f03d 4314 f3bd
00000360: 6ee4 babd ea0c 6b3e 1d69 6b3e 62ad 6bbd
00000370: 8b62 803d 3f84 713e b149 273e ad46 683d
00000380: c991 5e3d 5ff9 b83d 78c4 1ebd 99cb 3ebe
00000390: b4f0 083d e207 c23d 6674 0dbe c124 adbc
000003a0: 29a8 8c3e 737d 033e 94cc 7f3b b4c3 413d
000003b0: dcad d3bc a0b6 263e 2374 203d 70a6 653e
000003c0: 87fb f23c ab53 e93c 3ad0 71bd b1cc 6dbd
000003d0: 38f5 013e aa6c 003f 7f7e 833d bac6 be3e
000003e0: 07b1 10bd eef7 80bc 3040 f1bd 4ea1 6cbc
000003f0: dd94 763d 2113 103e 53f9 84bc e2f1 413e
-0.02264057 -0.05459668 -0.09430313 0.06532876 0.06710845 -0.091089025 0.009072744 -0.22423503
0.18251231 -0.009099144 0.15093592 0.0076625035 -0.0133495815 0.014793908 0.04271843 -0.06357535
0.15481204 0.20641935 -0.032070383 -0.09012113 -0.05849703 0.0015430934 0.012886155 0.182211
0.18162698 0.04294075 0.16507879 0.07015654 0.090155184 -0.037957225 -0.09835127 0.124057144
-0.07916114 0.042853393 0.017063603 0.16142379 0.18412004 -0.07481873 -0.12201267 0.08989673
-0.039991755 -0.17475843 -0.018251153 -0.26988608 0.037234176 0.0189663 -0.10232586 0.19093058
-0.008707437 0.2952905 0.14963186 0.020285102 0.30575645 -0.017332748 0.12489712 0.06563794
-0.041089594 -0.125498 0.09054459 0.22877553 0.27558723 -0.09343316 -0.0062517687 0.21625976
0.24493335 0.04847597 0.10189869 -0.076973245 -0.008959456 -0.07602155 -0.07176657 -0.051443376
0.240796 0.014252171 -0.014289354 -0.060587443 0.31265664 0.055962272 -0.011239335 0.13360593
0.22949325 0.06934083 -0.13085216 0.08769042 0.037499722 0.0018333005 -0.14893976 -0.09485133
-0.017923588 0.18443231 0.05500092 -0.010655366 0.19562653 0.4166918 0.22136521 0.04328954
-0.01756597 -0.088452436 0.20675825 -0.12514819 -0.10048253 0.07619168 -0.07662846 0.29453608
0.09634268 -0.032291908 0.14312297 0.12357894 -0.027309086 0.29829025 -0.116729304 -0.08519683
-0.06354957 0.11232055 0.07039697 0.2977469 -0.10425524 0.21352713 -0.080526486 0.021618025
-0.06905483 0.03078954 0.10119766 -0.048065178 0.034083035 -0.00816344 -0.050073873 0.16360793
0.14554836 -0.070289806 -0.009038258 -0.013228283 0.22117417 -0.07497664 -0.12106521 -0.08092026
-0.1766699 0.08398633 0.34797335 0.11091002 0.036976013 -0.04689093 0.10600889 0.29278302
0.07367671 0.17387255 -0.06839067 -0.020615382 -0.13856228 0.089032464 -0.0538094 -0.07943486
-0.1006723 -0.0012163765 -0.047851443 0.108454265 -0.08291165 -0.19937177 -0.05940268 -0.1811516
0.18984763 -0.061749447 -0.06451207 -0.28621912 -0.27511367 0.10422296 -0.1887703 0.13796327
-0.040369608 0.028355515 0.10343276 -0.06930704 -0.062609755 0.24473718 0.055038013 -0.04479699
-0.07838237 -0.07720261 -0.0530317 0.13408224 0.059018146 0.1152458 -0.0009486847 0.046422195
-0.18084599 -0.013481897 0.035990853 -0.09269129 0.112455286 0.19292338 -0.016436934 0.06281956
-0.110974275 -0.01588663 0.14104064 0.030424757 -0.001914118 0.1974897 0.37933445 0.009459204
0.26950437 -0.07842116 0.0014582475 -0.114616096 0.23828678 0.018158827 0.0012058062 -0.012907321
-0.050755344 0.022175571 -0.22330064 -0.061463706 -0.03539549 -0.034351368 0.117611825 -0.11869099
-0.09125601 0.22954145 0.22989316 -0.057538398 0.062687956 0.23585604 0.16336705 0.056708027
0.05433825 0.09031939 -0.038761586 -0.18632354 0.033432677 0.0947416 -0.13813934 -0.02113569
0.27472046 0.12840824 0.003903185 0.047305778 -0.025839739 0.16280603 0.039173257 0.22426772
0.029660953 0.028482279 -0.05903647 -0.058056537 0.126912 0.5016581 0.064206116 0.3726099
-0.035325076 -0.015743222 -0.11779821 -0.014442755 0.06020056 0.14069797 -0.016232168 0.18939927

classifier.4.bias f4 [10]
00000000: 6b3b a1bd 9e1f 873d 2ae2 573d cd77 2a3e
00000010: 7784 c83d f991 4a3d b4fd af3d 3f15 ff3d
00000020: 6a31 803d b147 993d
-0.07872661 0.065978274 0.05270592 0.16647263 0.09790891 0.049455617 0.08593312 0.12455224
0.06259425 0.07484377
