experiments/LeNet/CIFAR10/experiment-10/last-epoch.pt (torch, 261355 bytes, 18 tensors)

features.0.weight f4 [6, 3, 5, 5]
0	0xbd997d78	-0.074946344
1	0x3e14df3a	0.14538279
2	0x3e178ff7	0.14801012
3	0xbe1b38ca	-0.15158382
4	0xbed0a086	-0.4074747
5	0xbe477e69	-0.19481815
6	0x3d2e58cb	0.04256515
7	0x3f075f53	0.5287983
8	0x3f0211cc	0.50808406
9	0xbda7fdd9	-0.082027145
10	0xbe6df6dc	-0.232387
11	0xbf29da8b	-0.66349095
12	0xbd9da9b5	-0.07698385
13	0x3f15a82d	0.5845974
14	0x3ead17c4	0.33807194
15	0x3e1a5f55	0.15075429
16	0xbeb069f2	-0.3445583
17	0xbf08c4f4	-0.53425527
18	0xbe26fc00	-0.16307068
19	0x3eb2bdae	0.3491034
20	0x3e3dfc2d	0.18553229
21	0x3e77ce63	0.24199824
22	0xbdedbe42	-0.116085544
23	0xbd37418e	-0.044740252
24	0x3e50f57f	0.2040615
25	0x3de5ef78	0.11227316
26	0x3ea63d12	0.32468468
27	0x3e9c60f5	0.30542722
28	0xbe179cde	-0.14805934
29	0xbdd29660	-0.10282588
30	0xbe4ac2fa	-0.1980094
31	0xbcdc144b	-0.026865145
32	0x3efc33f4	0.49258387
33	0x3f17e50d	0.5933388
34	0xbe093ab6	-0.13401303
35	0xbc86d805	-0.016460428
36	0xbf53ef6b	-0.827872
37	0xbe5251fb	-0.20539086
38	0x3f21caa6	0.6319984
39	0x3dfcf311	0.12351049
40	0x3e877a3b	0.26460442
41	0xbeb567ba	-0.354307
42	0xbf395aa7	-0.7240395
43	0xbe4fc70d	-0.20290776
44	0x3df0c48f	0.117562406
45	0x3ec6d4af	0.3883414
46	0x3ed341f3	0.41261253
47	0xbe525f58	-0.20544183
48	0xbe962524	-0.2932521
49	0xbe494605	-0.19655617
50	0xbd9d4d32	-0.076807395
51	0x3e00ce3f	0.12578677
52	0x3d9d4c8f	0.07680618
53	0xbe9ede29	-0.3102887
54	0xbeb718b7	-0.35761043
55	0xbe774674	-0.2414797
56	0xbde4b717	-0.11167734
57	0x3f115662	0.56772435
58	0x3ec843cf	0.39114234
59	0xbd6dde7f	-0.058073517
60	0xbcad6974	-0.021168448
61	0xbf367721	-0.71275526
62	0xbe3ff23d	-0.1874475
63	0x3ee14c4a	0.44003516
64	0x3dbf100e	0.09329234
65	0x3e8aea52	0.27131897
66	0xbe5ab5f6	-0.21358475
67	0xbf03a978	-0.51430464
68	0xbd3e8c67	-0.046520617
69	0x3e494c71	0.19658066
70	0x3ec8a80a	0.39190704
71	0x3edab9c1	0.42719844
72	0xbd88dbed	-0.066825725
73	0xbdfa0444	-0.12207845
74	0xbc885a95	-0.016644755
75	0xbec04a64	-0.37556756
76	0x3e1f964d	0.15584679
77	0x3df18029	0.11792023
78	0xbe80afe4	-0.25134194
79	0x3dbb6f85	0.0915213
80	0x3e82a7ef	0.25518748
81	0x3f8c683a	1.0969307
82	0x3da88f20	0.08230424
83	0xbeb575d4	-0.35441458
84	0x3e1b15a4	0.15144974
85	0x3e9b3aab	0.30318198
86	0x3e1895f6	0.14900956
87	0xbf58f636	-0.8475069
88	0xbf244c54	-0.6417897
89	0x3e349fd3	0.17639093
90	0xbd8cb905	-0.06871227
91	0xbf10b6a2	-0.56528676
92	0xbf3fa211	-0.7485667
93	0xbdd5a15c	-0.104311675
94	0x3f06a3e7	0.52593845
95	0xbd9f09cc	-0.077655405
96	0xbd880a81	-0.066426285
97	0x3e45f854	0.19333011
98	0x3f063d14	0.5243695
99	0x3e6ddfc3	0.2322989
100	0xbf1892b3	-0.59598845
101	0x3e8c75f2	0.27433735
102	0x3e4f7ccf	0.20262454
103	0xbd84e211	-0.06488431
104	0xbcdf6e36	-0.027274232
105	0x3ead9134	0.33899844
106	0x3f9ad765	1.2096983
107	0x3ebcf545	0.36905876
108	0xbebceb46	-0.3689825
109	0x3e1492db	0.14509146
110	0x3f02ef31	0.5114623
111	0x3e99d987	0.30048773
112	0xbf5ab8ac	-0.85438037
113	0xbf117ca3	-0.56830806
114	0x3d820d41	0.06350184
115	0xbd6b79f9	-0.05748937
116	0xbf132b88	-0.574883
117	0xbf0c1fa3	-0.54735774
118	0x3bebb73b	0.0071934736
119	0x3e00659c	0.12538761
120	0x3cb8b859	0.022548841
121	0xbcdb3e3b	-0.026763072
122	0x3dd4c081	0.1038828
123	0x3e1ea6ab	0.15493266
124	0xbe1299bc	-0.14316458
125	0xbf45dabd	-0.77286893
126	0xbc601bcd	-0.013678503
127	0x3dc4aad8	0.09602898
128	0xbdfab519	-0.12241573
129	0xbe00191b	-0.12509577
130	0xbe3e6426	-0.18592891
131	0x3f6f475c	0.9346826
132	0x3ea12080	0.31470108
133	0xbe889067	-0.2667267
134	0x3dc6ee6a	0.097134426
135	0x3e48ea0b	0.1962053
136	0x3ecd827c	0.40138614
137	0xbf07ce91	-0.5304957
138	0xbe9ffe4d	-0.31248704
139	0x3e2c576c	0.16830224
140	0xbdf584bc	-0.11988208
141	0xbeb89103	-0.36048135
142	0xbecdc57a	-0.40189725
143	0xbd1118cc	-0.03542404
144	0x3e02afaf	0.1276233
145	0x3d90f086	0.07077126
146	0x3de478ab	0.11155828
147	0x3e2ccc74	0.16874868
148	0x3ebc6a32	0.3679977
149	0xbe8ebdfc	-0.27879322
150	0x3e845edf	0.2585363
151	0x3e9b5424	0.30337632
152	0x3ea20368	0.31643224
153	0x3e92df7f	0.2868614
154	0x3e0e5ee5	0.13903387
155	0x3e5d4438	0.21608055
156	0x3efe5b99	0.49679258
157	0x3e8a1a29	0.26973084
158	0xbbcb826b	-0.0062106154
159	0xbc0d3a2d	-0.008619827
160	0x3e603659	0.21895732
161	0x3f08acaa	0.53388464
162	0x3e9a5b58	0.30147815
163	0x3c17986d	0.00925265
164	0xbed66cfe	-0.4188003
165	0x3df416c0	0.11918402
166	0x3e4ac8e7	0.198032
167	0x3ee5b589	0.44865063
168	0x3dda0ead	0.106473304
169	0xbee9572c	-0.4557432
170	0xbea8801b	-0.32910237
171	0xbe9a1489	-0.30093792
172	0xbe10fc26	-0.14158687
173	0x3c92937e	0.017892595
174	0xbedaf5d1	-0.42765668
175	0xbebfe6e5	-0.37480846
176	0xbed52c57	-0.4163539
177	0xbf14234b	-0.5786635
178	0xbe9290b3	-0.28626022
179	0x3e19d80b	0.1502382
180	0xbe9bf935	-0.30463567
181	0xbe85822c	-0.26075876
182	0xbeee1b66	-0.46505278
183	0xbf0194f7	-0.5061793
184	0xbd5bff4b	-0.053710263
185	0xbd9c7d2e	-0.07641064
186	0x3c8faed9	0.017539429
187	0xbdb5a19d	-0.08868716
188	0xbed6738b	-0.41885027
189	0xbeabcd6c	-0.33555162
190	0xbe364804	-0.1780091
191	0x3c61e76d	0.013788086
192	0x3ef55d79	0.47922876
193	0x3e58952e	0.21150658
194	0xbd6579a6	-0.056024216
195	0xbdf7b812	-0.120956555
196	0xbdbdcc78	-0.09267515
197	0x3e3f758c	0.18697184
198	0x3f16fb5d	0.589773
199	0x3ebd86af	0.37016818
200	0x3e436f1c	0.19085354
201	0xbcee04c1	-0.029055001
202	0xbe0f0a4e	-0.13968775
203	0xbe17290b	-0.1476175
204	0x3deff6e5	0.11717013
205	0x3e48f31a	0.19623986
206	0xbd5c3806	-0.053764366
207	0xbeb2b764	-0.3490554
208	0xbeecef8a	-0.46276504
209	0x3ccd6d4a	0.025076527
210	0x3d906318	0.07050151
211	0x3dd65602	0.104656234
212	0x3be7ce22	0.0070741335
213	0xbe614c37	-0.2200173
214	0xbeaedddd	-0.34153643
215	0x3dcf2dd9	0.101161666
216	0x3e133702	0.14376453
217	0x3edf16f6	0.43572205
218	0x3e578e50	0.21050382
219	0xbe0200a1	-0.12695552
220	0xbd9be487	-0.076119475
221	0xbcf74b07	-0.030187143
222	0x3e743f53	0.23852281
223	0x3ee0a111	0.43872884
224	0x3d8a82fc	0.067632645
225	0x3a9a749f	0.0011784023
226	0x3b298132	0.002586436
227	0xbc229d26	-0.009925162
228	0x3c995dca	0.01872148
229	0x3d8a44bd	0.06751392
230	0xbdccb2d0	-0.09995043
231	0xbe474723	-0.1946073
232	0xbed36d56	-0.41294354
233	0xbe788efe	-0.24273297
234	0x3cc94511	0.024569066
235	0x3dbc6732	0.091993704
236	0xbe4e716e	-0.20160457
237	0xbdf0da30	-0.11760366
238	0x3e763508	0.24043667
239	0x3e8b8f9c	0.27258003
240	0x3e529803	0.205658
241	0xbdaa7ceb	-0.083246075
242	0x3decac87	0.115563445
243	0x3ea9f1ce	0.33192295
244	0x3e1a8628	0.15090239
245	0xbb8ead81	-0.0043541794
246	0x3b80fa78	0.003936108
247	0x3dd52978	0.104083
248	0x3e0c032d	0.13673086
249	0xbdead565	-0.11466483
250	0x3c9a0bbf	0.01880443
251	0x3d27e13f	0.040986296
252	0x3cc54891	0.024082454
253	0x3cb4f150	0.022087723
254	0xbc670e40	-0.014102519
255	0xbd51cd60	-0.05122125

features.0.bias f4 [6]
0	0xbe648b5a	-0.22318783
1	0xbea599d7	-0.32343933
2	0xbd7de44b	-0.061985295
3	0xbea66088	-0.32495522
4	0x3f15e8b8	0.58558226
5	0x3f60e278	0.87845564

features.2.weight f4 [6]
0	0x3fa3431e	1.2754858
1	0x3f9b5a4d	1.2136933
2	0x3f84c698	1.0373106
3	0x3f816e57	1.0111798
4	0x3f1ea35f	0.61968035
5	0x3f23711b	0.6384446

features.2.bias f4 [6]
0	0x3df418cc	0.11918792
1	0x3e86bd48	0.26316285
2	0x3d59088f	0.052986678
3	0x3d4cd379	0.050006364
4	0x3e1d8e19	0.15386237
5	0x3e5d4f80	0.21612358

features.2.running_mean f4 [6]
0	0x3eb12696	0.3459975
1	0x3eb8841a	0.36038285
2	0x3ec81601	0.39079288
3	0x3e38d011	0.18048121
4	0x3f07f832	0.5311309
5	0x3f834e52	1.0258276

features.2.running_var f4 [6]
0	0x3f261235	0.6487153
1	0x3f332d1c	0.69990706
2	0x3f0fdd26	0.5619682
3	0x3e87fd6c	0.26560533
4	0x3ecba90d	0.39777413
5	0x3f2b37c0	0.6688194

features.4.weight f4 [16, 6, 5, 5]
0	0xbd7f1002	-0.062271126
1	0xbd15b20c	-0.03654675
2	0x3ce90e62	0.028449241
3	0x3d519d41	0.05117536
4	0x3e05a891	0.13052584
5	0xbe0da3f1	-0.1383207
6	0x3c1651b7	0.009174756
7	0x3d60151d	0.054707635
8	0x3d591ac0	0.053004026
9	0xbc2f7074	-0.010707963
10	0xbdac05ed	-0.08399568
11	0xbd6d4b56	-0.057933174
12	0xbacd15bd	-0.0015646737
13	0x3ca11578	0.019663557
14	0x3cdf8152	0.027283344
15	0x3ac66754	0.0015136995
16	0x3d5c8270	0.053835332
17	0x3da90421	0.08252741
18	0x3db4466f	0.08802497
19	0x3e01ae6c	0.12664193
20	0xbde5da4e	-0.11223279
21	0xbc965666	-0.018351745
22	0xbc9973c3	-0.018731957
23	0xbd407069	-0.046982203
24	0x3bfd5583	0.007731141
25	0x3b33c3ff	0.0027430055
26	0x3c917384	0.017755277
27	0x3d9628ef	0.07332026
28	0x3df226bd	0.11823795
29	0xbce16e74	-0.027518488
30	0xbd5872f2	-0.052843995
31	0x3d279ab0	0.040919006
32	0x3bcc6d81	0.00623864
33	0xbdd49b12	-0.1038114
34	0xbd8477c9	-0.0646816
35	0xbd076376	-0.033053838
36	0xbd679371	-0.056537095
37	0xbe137e2d	-0.14403601
38	0xbe0cd37a	-0.13752547
39	0xbd70f9b2	-0.058831878
40	0xbd413844	-0.0471728
41	0xbddbbcb5	-0.107293524
42	0xbc2f274e	-0.010690523
43	0xbbcc22f4	-0.0062297527
44	0xbca0c774	-0.019626357
45	0xbcfb44fa	-0.030672539
46	0xbdc6460a	-0.09681328
47	0xbdb09d5e	-0.086237654
48	0xbd4212c0	-0.047381163
49	0xbd1ad9b3	-0.03780527
50	0xbdafc5a6	-0.0858262
51	0x3b847f13	0.0040434687
52	0x3caebf9b	0.021331599
53	0xbe01c70e	-0.1267359
54	0x3ddb6b45	0.107138194
55	0xbd4a18e8	-0.04934016
56	0x3c143f37	0.009048275
57	0x3d14418e	0.03619533
58	0x3d1226e7	0.03568163
59	0x3cdb26ac	0.026751839
60	0xbd59cd62	-0.053174384
61	0xbd88f55f	-0.06687426
62	0x3ca68809	0.020328538
63	0x3def6e2c	0.116909355
64	0x3d07d751	0.033164326
65	0xbd8b436b	-0.06799968
66	0xbdfcae08	-0.12337881
67	0xbe35fc88	-0.17772114
68	0xbd1eaaee	-0.03873723
69	0x3d884adb	0.066549025
70	0xbdfdf1c9	-0.123996325
71	0xbe3051df	-0.17218731
72	0xbea120bc	-0.31470287
73	0xbeb2111b	-0.34778675
74	0xbd95c0d5	-0.073121704
75	0xbe1383c8	-0.1440574
76	0xbd22422d	-0.03961389
77	0x3c48facd	0.012266827
78	0xbd48be66	-0.049009703
79	0x3d567c1a	0.052364446
80	0x3d46bc36	0.048519336
81	0xbe0729b9	-0.1319951
82	0xba059d89	-0.0005097022
83	0xbcb494a0	-0.022043526
84	0x3da2cbb4	0.079490095
85	0xbde3eb57	-0.11128872
86	0xbd942045	-0.072327174
87	0xbd33c5d0	-0.04388982
88	0x3d815ebf	0.063168995
89	0x3bc69e9f	0.0060613896
90	0xbce9c582	-0.028536562
91	0xbd8a166d	-0.06742559
92	0x3bb7ec6c	0.0056129005
93	0x3d0d5332	0.03450317
94	0x3bf2f11a	0.0074139955
95	0xbd18ab8e	-0.037272982
96	0xbd6bb26d	-0.057543207
97	0x3c836ba7	0.016042544
98	0xbd1652d3	-0.03670008
99	0x3e21475d	0.15749879
100	0xbe14a325	-0.1451536
101	0xbade31cd	-0.0016952098
102	0xbc3c3d69	-0.011489251
103	0x3d4fb335	0.050708015
104	0x3c90a11f	0.017654954
105	0xbc20c045	-0.009811466
106	0xbd25f9b5	-0.040521342
107	0x3d5970bb	0.053086024
108	0x3d86a4d1	0.06574405
109	0xbd01a558	-0.031651825
110	0xbd840345	-0.06445936
111	0x3cd2e67c	0.02574467
112	0xbd84a344	-0.06476453
113	0xbd12e87b	-0.035866242
114	0x3cdbfe2e	0.0268546
115	0x3b0588a2	0.002037563
116	0xbddd7d0b	-0.10814866
117	0xbd22131f	-0.039569017
118	0x3d92e9a3	0.07173469
119	0x3dee114d	0.116243936
120	0xba81d5fd	-0.0009905692
121	0xbd2479db	-0.040155273
122	0xbc9b58cb	-0.018963238
123	0x3cea1261	0.028573217
124	0x3d885528	0.06656867
125	0x3d6b1814	0.05739601
126	0xbcb4b114	-0.022057094
127	0x3cd39d43	0.025831824
128	0x3dbbb689	0.09165675
129	0x3e5bc10b	0.21460359
130	0xbd8a9369	-0.067663975
131	0xbcdefcb9	-0.027220117
132	0xbcf09223	-0.029366558
133	0x3e0576d4	0.1303361
134	0x3da8a23c	0.08234069
135	0x3c69d6c0	0.014272392
136	0xbd189860	-0.03725469
137	0x3c47f2f6	0.0122039225
138	0xbc05c0e9	-0.008163669
139	0x3cb89986	0.022534143
140	0xbd08521e	-0.033281438
141	0xbda1f080	-0.079072
142	0xbe379614	-0.17928344
143	0xbdc84375	-0.097784914
144	0xbc46b449	-0.012127944
145	0xbd95714d	-0.07297001
146	0xbd0e1afb	-0.0346937
147	0xbddb3b8f	-0.10704719
148	0xbdc0ae82	-0.09408285
149	0xbd4df0ef	-0.0502786
150	0x3e002940	0.12515736
151	0x3d1838a0	0.037163377
152	0x3d28f914	0.041253164
153	0xbdad867f	-0.08472919
154	0xbddc416d	-0.107546665
155	0x3d452877	0.048134293
156	0xbcf3e0e2	-0.029770318
157	0xbc6a4fae	-0.014301224
158	0xbe254a34	-0.16141587
159	0xbe8e0bcf	-0.27743384
160	0x3bfa09eb	0.007630577
161	0xbe4718e2	-0.19443086
162	0xbe510dad	-0.20415373
163	0xbe88e5ec	-0.26737916
164	0xbe73c3b0	-0.23805118
165	0xbe288528	-0.16457045
166	0xbe37d24c	-0.17951316
167	0xbe9b978a	-0.30389053
168	0xbe5cbb23	-0.21555762
169	0xbe41a5d2	-0.18910912
170	0xbece4e66	-0.40294188
171	0xbed92a62	-0.42415148
172	0xbea89f45	-0.32934013
173	0xbe7af6c8	-0.24508202
174	0xbd8729f9	-0.065998025
175	0x3d4246ed	0.04743092
176	0xbc540408	-0.012940414
177	0xbced29ef	-0.02895066
178	0xbd45a2d9	-0.048251007
179	0xbd8c80e8	-0.068605244
180	0x3c428a88	0.011873849
181	0x3c4e0a39	0.012575679
182	0x3c846fc6	0.016166579
183	0x3d18698f	0.037210044
184	0x3c2f30e7	0.010692812
185	0xbd09676b	-0.033545893
186	0x3daeb619	0.08530826
187	0x3d0dc355	0.03461011
188	0x3d92a71c	0.0716078
189	0x3dad2033	0.08453407
190	0xba3f9ba0	-0.0007309262
191	0xbc683ef5	-0.014175166
192	0x3cd104df	0.025515018
193	0x3d680ba8	0.05665174
194	0xbd84adf2	-0.0647849
195	0xbd23c8ea	-0.03998653
196	0x3dae9998	0.085253894
197	0x3d668c37	0.056286063
198	0x3da361f5	0.07977668
199	0xbd8b2ba8	-0.06795436
200	0xbd1ce877	-0.038307633
201	0x3b576d71	0.0032871629
202	0xbd3c4f3e	-0.04597401
203	0xbda6825e	-0.08130334
204	0x3d75fd7e	0.060056202
205	0x3cd9fd42	0.02661002
206	0x3ccb1190	0.024788648
207	0x3ccde048	0.02513136
208	0x3d059ef3	0.03262229
209	0xbc879e00	-0.016554832
210	0xbd7bfa4e	-0.061518006
211	0x3d0ec199	0.034852598
212	0x3d391bd8	0.04519257
213	0xbd072f38	-0.033004016
214	0xbc72fca4	-0.014830742
215	0xbca1e27f	-0.019761322
216	0xbddea92e	-0.10872112
217	0x3ab94538	0.0014135009
218	0x3d035c41	0.032070402
219	0x3de4ae59	0.11166067
220	0x3e2dee0f	0.16985343
221	0x3da71140	0.08157587
222	0x3d1ace2b	0.037794273
223	0x3da24872	0.07923974
224	0x3dc7012f	0.09717023
225	0xbd6c3f55	-0.057677586
226	0x3d05ec49	0.032696042
227	0x3d3e7209	0.04649547
228	0x3c3cb889	0.011518606
229	0x3db6bf82	0.08923246
230	0xbd362949	-0.044472966
231	0x3dc7dd1c	0.0975897
232	0x3df1211e	0.11773895
233	0xb9c1dd96	-0.00036976923
234	0x3d55b89a	0.052178003
235	0xbd69eddb	-0.057111602
236	0xbce42fe7	-0.027854873
237	0xbb90c664	-0.0044181813
238	0xbbe69b97	-0.0070375907
239	0x3daac048	0.08337456
240	0x3c6f7dba	0.014617378
241	0x3d9a9d19	0.07549495
242	0x3ca1048f	0.019655494
243	0xbc8a62d2	-0.016892824
244	0x3c30d7c0	0.010793626
245	0xbd84840e	-0.064705
246	0x3da3b148	0.07992798
247	0xbd15c786	-0.036567234
248	0x3c924785	0.017856369
249	0x3d0e49e5	0.03473844
250	0xbd6cc62c	-0.05780618
251	0x3cab1f52	0.020888958
252	0x3d2458cb	0.040123742
253	0xbc9eb1d2	-0.0193719
254	0x3c7986be	0.015229879
255	0xbd1a9aed	-0.037745405

features.4.bias f4 [16]
0	0xbd33cc7a	-0.043896176
1	0xbd4e869a	-0.050421335
2	0xbe8b5ab1	-0.2721763
3	0xbdb9d23c	-0.09073302
4	0x3df3280a	0.11872871
5	0xbbe78e42	-0.007066519
6	0xbe69febf	-0.22851084
7	0x3c9a6f79	0.018851982
8	0xbd0c75b2	-0.03429193
9	0xbe5eb6fb	-0.21749489
10	0xbe941dac	-0.28928888
11	0xbd2beaf9	-0.041972134
12	0x3d25d8f7	0.040490117
13	0x3db970c4	0.090547115
14	0xbdf41585	-0.11918167
15	0x3e6bdd2f	0.23033594

features.6.weight f4 [16]
0	0x3f9ee322	1.2413065
1	0x3fa6727a	1.3003685
2	0x3fa25ab8	1.2683935
3	0x3f9f8e81	1.2465364
4	0x3face5e7	1.3507661
5	0x3f9d1406	1.2271736
6	0x3faadc47	1.3348473
7	0x3f95ec5a	1.1712754
8	0x3fa2843b	1.2696604
9	0x3f9e6b20	1.2376442
10	0x3fb651dc	1.4243731
11	0x3f8fc6ec	1.1232581
12	0x3f99f06d	1.2026497
13	0x3f999750	1.1999302
14	0x3f9f1e7e	1.243118
15	0x3f8e9baa	1.1141255

features.6.bias f4 [16]
0	0x3d99c85e	0.0750892
1	0xbd9249db	-0.07142993
2	0x3c748134	0.014923383
3	0x3d995968	0.07487756
4	0x3d824e30	0.06362569
5	0x3de00962	0.1093929
6	0x3da9e929	0.08296425
7	0x3d576a5b	0.052591663
8	0x3d64e081	0.055878166
9	0x3d9aead1	0.07564319
10	0x3e1fae02	0.15593722
11	0xbcdef083	-0.027214294
12	0x3d2da5b4	0.042394355
13	0x3e3d3987	0.18478976
14	0x3dff5963	0.12468221
15	0x3da460a5	0.08026246

features.6.running_mean f4 [16]
0	0x3e76c8e5	0.24100073
1	0x3eb41c5d	0.3517789
2	0x3e7b1ada	0.24521962
3	0x3e9faa2d	0.3118452
4	0x3ea39b36	0.31954354
5	0x3ede465d	0.43413058
6	0x3e1ffe5e	0.15624377
7	0x3ecc27b6	0.39874047
8	0x3ede450e	0.4341206
9	0x3e138680	0.14406776
10	0x3e28b75b	0.16476195
11	0x3ebc0902	0.36725622
12	0x3ea384e6	0.3193733
13	0x3f4b3624	0.7937949
14	0x3e2ed1bf	0.170722
15	0x3edef395	0.43545213

features.6.running_var f4 [16]
0	0x3e25a2a5	0.16175325
1	0x3e700b8e	0.23441908
2	0x3e3aaf5c	0.18230957
3	0x3e7f8178	0.24951732
4	0x3e67510e	0.22589514
5	0x3eb99904	0.36249554
6	0x3e15f2a9	0.14643349
7	0x3ebbe885	0.36700836
8	0x3ea11e18	0.31468272
9	0x3ddee59e	0.1088364
10	0x3e4347ee	0.19070408
11	0x3e7e535f	0.24836491
12	0x3e6bf648	0.23043168
13	0x3f1da7db	0.6158425
14	0x3e00007b	0.12500183
15	0x3e5cb113	0.21551923

classifier.0.weight f4 [120, 400]
0	0x3dae277e	0.08503626
1	0xbc09f486	-0.008420115
2	0xbdca3c71	-0.098748095
3	0xbdbcf86f	-0.092270724
4	0xbdfe9d04	-0.12432292
5	0x3d90675b	0.070509635
6	0xbcb7fd75	-0.022459725
7	0xbd100f03	-0.035170566
8	0xbd472c1e	-0.048626058
9	0xbda8809c	-0.08227655
10	0x3d78c636	0.060735904
11	0xbc1ee10e	-0.009697212
12	0xbd079a9e	-0.03310644
13	0xbc7895d7	-0.015172443
14	0xbd3097ab	-0.04311339
15	0x3d77d33d	0.060504187
16	0xbb75e4e9	-0.0037520474
17	0xbcafcd1a	-0.021460105
18	0x3c2bb75f	0.010480731
19	0xbd60acb3	-0.0548522
20	0x3daad231	0.08340872
21	0x3b699e0f	0.0035647189
22	0xbd19c91e	-0.037545316
23	0xbd95edcf	-0.07320749
24	0xbd9690f6	-0.07351868
25	0xbc652c26	-0.013987577
26	0xbd2f19ad	-0.042749096
27	0xbd80e1fc	-0.06293103
28	0xbd8cdd0c	-0.06878099
29	0x3d02feaa	0.031981148
30	0xbdc7cfd0	-0.09756434
31	0xbd88e379	-0.06684012
32	0xbda4ce38	-0.080471456
33	0xbd942d3c	-0.0723519
34	0x3a46ed2b	0.00075884414
35	0xbde3b0e8	-0.111177266
36	0xbd966752	-0.073439255
37	0xbd446478	-0.047947377
38	0xbbda2757	-0.0066575217
39	0x3c856683	0.016284233
40	0xbdfcb400	-0.1233902
41	0xbd9c3e60	-0.076290846
42	0x3c12c22d	0.008957428
43	0x3cf14066	0.029449653
44	0x3cf1be8d	0.029509807
45	0xbc11847f	-0.008881687
46	0xbe0bb67c	-0.13643831
47	0xbc62b406	-0.013836866
48	0x3d30b999	0.04314575
49	0x3c80de33	0.015730953
50	0xbd8a4407	-0.067512564
51	0xbd8acee5	-0.06777743
52	0xbd52d463	-0.05147208
53	0xbd416fbf	-0.04722571
54	0xbd9ccc87	-0.07656198
55	0xbd3bf2b8	-0.04588577
56	0xbd02e593	-0.03195722
57	0x3cfd09c5	0.030888448
58	0xbadcf945	-0.0016858956
59	0xbd916710	-0.07099736
60	0xbd36ff13	-0.04467685
61	0xbc8c113e	-0.017098065
62	0x3c2efb28	0.0106799975
63	0xbcdff03b	-0.02733623
64	0xbd834d3c	-0.06411216
65	0xbc66d70a	-0.014089355
66	0xbc3b6d79	-0.0114396745
67	0xbd180c69	-0.03712121
68	0x3c8025c6	0.015643012
69	0x3c8c53e2	0.017129842
70	0x3b408135	0.0029373888
71	0x3c7ad14e	0.015308691
72	0xb9440d68	-0.00018697011
73	0x3d90a000	0.070617676
74	0x3d5a93f3	0.05336375
75	0xbdc6b400	-0.09702301
76	0xbd439e58	-0.04775843
77	0xbca110d7	-0.01966135
78	0xbce86139	-0.028366672
79	0x3badae53	0.005300322
80	0xbb9104fe	-0.004425644
81	0xbcb04849	-0.021518843
82	0xbcd1fc7e	-0.025633093
83	0xbcdd4077	-0.027008278
84	0xbd8c36e3	-0.06846406
85	0xbbca9694	-0.006182501
86	0x3bfb7826	0.007674235
87	0x3d004b66	0.031321906
88	0x3bcf20dc	0.006321056
89	0xbcf68d3d	-0.030096645
90	0xbc861c9e	-0.016371068
91	0xbd2543af	-0.04034775
92	0xbc7c34f6	-0.015393486
93	0x3c700244	0.014648978
94	0x3ca3b419	0.019983338
95	0xbc3f7433	-0.011685419
96	0xbd399bf5	-0.045314748
97	0xbca55228	-0.020180777
98	0x3d79b33c	0.060961947
99	0x3d0d56b2	0.034506507
100	0xbc65f2ae	-0.01403491
101	0xbcdeeebd	-0.027213449
102	0xbd49dd9c	-0.04928361
103	0xbd082147	-0.03323486
104	0xbcc299d5	-0.023754993
105	0xbc425f8f	-0.011863603
106	0xbd9d272a	-0.076734856
107	0xbd291c8d	-0.041286994
108	0xbc733246	-0.014843529
109	0xbd65bace	-0.056086354
110	0xbc193952	-0.009352045
111	0xbc9cf401	-0.019159319
112	0xbcb322c0	-0.021867156
113	0x3bc5b163	0.006033109
114	0xbcfcf432	-0.03087816
115	0x3c96d7e3	0.01841349
116	0x3c125c5c	0.008933153
117	0xbc668438	-0.014069609
118	0xbcec14b5	-0.028818468
119	0xbd667bf8	-0.05627057
120	0x3c04d263	0.008106801
121	0x3cbb3d11	0.022856267
122	0xbbfa3a2c	-0.007636329
123	0xbd73bfb8	-0.05950901
124	0xbe230c48	-0.15922654
125	0x3c927ce8	0.017881826
126	0x3ce32dc3	0.027731782
127	0x3d25a512	0.040440626
128	0x3d392df4	0.04520984
129	0x3d8b7192	0.06808771
130	0xbc95ee40	-0.018302083
131	0x3d08522f	0.0332815
132	0x3c7ded89	0.015498527
133	0x3d64c563	0.055852305
134	0x3dc77895	0.09739796
135	0xbd3eae09	-0.04655269
136	0x3b1671a9	0.002295593
137	0x3d2c4b4b	0.042063992
138	0x3d1576f6	0.036490403
139	0x3d747342	0.05968023
140	0xbd8283fe	-0.06372832
141	0x3bef7d14	0.0073086116
142	0x3c5694f3	0.013097036
143	0xbad1ce2e	-0.0016006881
144	0xbbe06b59	-0.0068487343
145	0xbda33e81	-0.07970906
146	0xbc437d36	-0.011931708
147	0x3da848dd	0.082170226
148	0x399b2603	0.00029592225
149	0xbcfbac2a	-0.030721743
150	0xbc6fed83	-0.01464403
151	0x3c268b74	0.010165084
152	0xbad3d52f	-0.0016161556
153	0xbb48af39	-0.003062202
154	0x3d40c761	0.047065143
155	0xbc817b04	-0.015805729
156	0xbca11091	-0.01966122
157	0xbc67b921	-0.014143259
158	0x3bc07980	0.005873859
159	0x3ca53874	0.02016852
160	0xbcd6be7f	-0.026213882
161	0xbccd6d91	-0.02507666
162	0xbc94cd18	-0.018164203
163	0xbcbf3b79	-0.023343788
164	0xbb860ee2	-0.0040911296
165	0xbc8043d5	-0.015657345
166	0xbcfd7f8c	-0.030944608
167	0xbb548ec0	-0.0032433718
168	0x3bb38c16	0.005479346
169	0xbce5991b	-0.028027108
170	0xbcbf1391	-0.02332476
171	0x3a694f34	0.0008900047
172	0xbcbee066	-0.02330036
173	0x3bc34faf	0.0059604268
174	0x3c715ba9	0.014731326
175	0x3cd2d86f	0.02573797
176	0xbca6aa69	-0.02034493
177	0xbd3b369d	-0.04570638
178	0xbd072828	-0.03299728
179	0xbcf0d2c9	-0.029397385
180	0xbd28047c	-0.0410199
181	0xbd768e38	-0.060194224
182	0x3c8fe01b	0.017562917
183	0xbd7a3e05	-0.061094303
184	0xbd5ca6ef	-0.053870138
185	0xbd8615fb	-0.06547161
186	0xbcd43506	-0.02590419
187	0xbcbee3a2	-0.023301903
188	0xbc3e3fe9	-0.011611917
189	0xbcd02762	-0.025409404
190	0xbd76c6b2	-0.060248084
191	0xbdb68147	-0.089113764
192	0xbd7092bd	-0.05873369
193	0xbc6ddb3a	-0.0145176
194	0xbc3fa705	-0.011697535
195	0xbd0ac720	-0.033881307
196	0xbd2440f3	-0.040101003
197	0x3ce63e29	0.028105812
198	0x3d00df0b	0.03146271
199	0x3c690f2f	0.014224811
200	0xbda542bf	-0.080693714
201	0xbc9555e1	-0.018229427
202	0xbd107355	-0.03526624
203	0xbd043567	-0.03227749
204	0xbd4a505d	-0.049393047
205	0xbce21a1b	-0.027600339
206	0xbd4b2e84	-0.049604908
207	0xbd2bda95	-0.041956503
208	0xbcc5195e	-0.024059948
209	0xbcbfe29d	-0.023423487
210	0xbda8983c	-0.082321614
211	0xbd0f814b	-0.035035413
212	0xbd36a08f	-0.044586714
213	0x3a3159e2	0.0006765408
214	0xbc8dc576	-0.01730607
215	0xbd178ecc	-0.037001416
216	0xbcfba6cb	-0.030719182
217	0x3c7b58bf	0.015340983
218	0xbd0a5acd	-0.033778
219	0xbd1af8d1	-0.037834946
220	0xbd48147b	-0.048847657
221	0x3c9c8aae	0.019109096
222	0xbcfc54d5	-0.03080217
223	0xbd2fe613	-0.042944025
224	0x3ccd912c	0.025093637
225	0x3cb8d1fd	0.022561068
226	0x3d3481f1	0.044069234
227	0x3ca20e12	0.0197821
228	0x3d0ae765	0.03391208
229	0x3ddfc5aa	0.10926373
230	0xbb858ab9	-0.004075375
231	0x3d6fc0e6	0.05853357
232	0x3cd77820	0.026302397
233	0x3cdb40e7	0.026764346
234	0x3c2567d0	0.010095552
235	0x3d5ba943	0.053628217
236	0x3d3a7db5	0.04553004
237	0x3c61fbd7	0.013792953
238	0xbbd89e38	-0.006610658
239	0xbd0bcce6	-0.034130953
240	0x3be48090	0.0069733337
241	0xbc0d926f	-0.0086408695
242	0x3bd21360	0.006411001
243	0x3c80a8db	0.015705517
244	0xbd9697d8	-0.07353181
245	0xbd785bdd	-0.060634483
246	0x3a82532b	0.0009942999
247	0xbd0d3ce3	-0.034481894
248	0x3d40030e	0.046877913
249	0x3d6be180	0.0575881
250	0x3cc81699	0.024424838
251	0x3ce8935f	0.028390585
252	0x3cce9a7f	0.025220154
253	0x3cd28b7a	0.025701273
254	0x3ad16c51	0.0015977715
255	0x3d11eaca	0.035624303

classifier.0.bias f4 [120]
0	0x3bc2e875	0.005948121
1	0xbd17405a	-0.036926605
2	0x3d7e27df	0.062049743
3	0xbda86c07	-0.082237296
4	0xbdb1f40e	-0.08689128
5	0xbd415620	-0.047201276
6	0x3c0fa1f5	0.008766641
7	0x3ced59f0	0.02897355
8	0x3d0d424d	0.034487057
9	0xbca81244	-0.020516522
10	0x3cdea5da	0.027178694
11	0xbd2c2b05	-0.042033214
12	0xbc891c61	-0.016737165
13	0x3c9189a7	0.017765833
14	0x3cd46858	0.025928661
15	0xbd22f3d9	-0.039783332
16	0xbc5390c8	-0.0129129365
17	0xbd000414	-0.03125389
18	0xbb5f5446	-0.003407733
19	0xbd4d2b71	-0.050090257
20	0xbd845500	-0.06461525
21	0x3da6de93	0.081479214
22	0x3dc23402	0.09482576
23	0xbd0f3c3f	-0.034969565
24	0x3d54f93c	0.0519955
25	0xbd30ded0	-0.04318124
26	0x3d1e414e	0.0386365
27	0xbc572b58	-0.013132893
28	0xbd1ebe08	-0.038755447
29	0x3db4d68c	0.08829984
30	0x3d88180a	0.0664521
31	0x3bf68255	0.007522861
32	0x3cab958e	0.020945337
33	0x3d0c5350	0.03425914
34	0x3c0225c0	0.007943571
35	0xbd1bc4eb	-0.038029592
36	0x3d400a39	0.04688475
37	0x3d27c95c	0.040963516
38	0x3cf4ce74	0.0298836
39	0x3af9562a	0.0019022871
40	0xbc807f69	-0.015685754
41	0xbc7d9a74	-0.015478719
42	0x3dbe3e32	0.092892066
43	0x3d2181ec	0.039430544
44	0x3d43ba00	0.047784805
45	0x3e09c8fd	0.13455577
46	0xbd228e2b	-0.039686363
47	0xbd1eeaf0	-0.038798273
48	0xbc24ac28	-0.010050811
49	0x3d440c24	0.04786314
50	0xbcffce12	-0.031226192
51	0xbd3e84a1	-0.046513204
52	0xbd178f7b	-0.037002068
53	0x3d04e73b	0.03244708
54	0xbcd11759	-0.025523828
55	0x3d11e16a	0.035615362
56	0xbc45abf2	-0.012064921
57	0x3d9012ae	0.07034813
58	0xbd220617	-0.03955659
59	0x3d9e0bec	0.07717118
60	0x3d08223f	0.033235785
61	0xbd450f93	-0.048110556
62	0x3b89840b	0.004196649
63	0x3cdef4f2	0.027216408
64	0xbb66a483	-0.0035193271
65	0x3cd0fb58	0.025510475
66	0xbc90a58d	-0.017657066
67	0xbc499008	-0.012302406
68	0xbb7bbbf0	-0.003841158
69	0xbdaf9a51	-0.085743554
70	0xbd0881a1	-0.03332675
71	0x3c8d016f	0.017212598
72	0x3db2368e	0.08701812
73	0x3cd7dbe5	0.026349971
74	0x3d6323c4	0.05545403
75	0xbd610183	-0.054933082
76	0x3cda26ff	0.026629923
77	0x3dea9a4f	0.11455213
78	0xbc46e491	-0.012139455
79	0xbcdaaf15	-0.026694814
80	0x39cbfe96	0.0003890886
81	0x3ce9ec8c	0.028555177
82	0xbd2d8183	-0.04235984
83	0xbc01273c	-0.007882889
84	0xbd4d1ed8	-0.050078243
85	0x3cbef142	0.0233084
86	0xbd50f9d2	-0.051019497
87	0x3cb129a9	0.02162631
88	0xbc521aea	-0.0128238
89	0xbd550fed	-0.05201714
90	0xbc610b23	-0.013735565
91	0x3d00ef91	0.03147847
92	0xbd89bf2c	-0.06725916
93	0x3d69c69b	0.05707417
94	0x3ce0ec9a	0.02745657
95	0xbc988a71	-0.018620702
96	0xbd3e5c9a	-0.04647503
97	0xbd2eb311	-0.04265124
98	0x3d8c4c96	0.06850545
99	0xbc8ee52f	-0.017443268
100	0x3cb1da55	0.021710554
101	0x3c8c905c	0.01715868
102	0x3c499526	0.012303626
103	0xbcdcaf96	-0.026939195
104	0x3d082a47	0.033243444
105	0x3db56e2c	0.08858904
106	0xbcbe36f3	-0.023219561
107	0x3d23eee6	0.040022753
108	0xbced451f	-0.028963624
109	0xbc8b41d9	-0.016999172
110	0x3ce7f36e	0.028314319
111	0x3bb77828	0.0055990405
112	0xbd13613d	-0.035981406
113	0xbd011c70	-0.03152126
114	0x3cdabd7a	0.026701678
115	0x3cb3a953	0.021931326
116	0xbc4ca9b5	-0.012491633
117	0xbcc45b69	-0.023969369
118	0x3d435a9b	0.04769383
119	0x3cddecd2	0.027090464

classifier.2.weight f4 [84, 120]
0	0x3c494ca3	0.012286338
1	0xbd559bd6	-0.05215057
2	0x3be8b7a6	0.0071019707
3	0xbd815c75	-0.06316463
4	0xbd0080c9	-0.03137282
5	0x3c0619b0	0.008184835
6	0xbd8b944a	-0.06815393
7	0xbd3c6057	-0.045990314
8	0x3dc768eb	0.097368084
9	0xbc5e389f	-0.013563304
10	0x3e22ae8b	0.15886895
11	0xbd8abfda	-0.06774874
12	0xbd91681e	-0.07099937
13	0x3e400f3d	0.18755813
14	0xbd0ac32c	-0.033877537
15	0xbdefd57f	-0.11710643
16	0x3dedf2de	0.11618589
17	0x3d9cb246	0.076511905
18	0xbc6e211f	-0.014534264
19	0xbdb85f21	-0.090025194
20	0x3d8c42c3	0.06848671
21	0x3d2d1167	0.042252924
22	0x3e0f85ab	0.14015834
23	0xbdcba1c2	-0.09942962
24	0x3c8cbfd6	0.017181318
25	0xbcaa6c34	-0.020803548
26	0xbd6ad2ba	-0.05732987
27	0xbd4a5778	-0.049399823
28	0x3d2ecd03	0.042675983
29	0xbb944821	-0.0045252
30	0xbd7faee6	-0.062422656
31	0x3e0554d0	0.13020635
32	0x3d7eed16	0.06223782
33	0xbd176855	-0.036964733
34	0x3d026d46	0.031842493
35	0x3b804011	0.0039138873
36	0x3c51ea39	0.012812191
37	0x3c76bf3e	0.015060244
38	0xbd16655e	-0.036717765
39	0x3e20b425	0.1569372
40	0x3d99555b	0.074869834
41	0xbd7beba4	-0.06150402
42	0x3d4c5165	0.04988231
43	0x3e3d1121	0.18463565
44	0xbe18d25a	-0.14923993
45	0xbda2505b	-0.07925483
46	0x3cf377cf	0.029720215
47	0x3c4edc9e	0.012625841
48	0x3d4134ce	0.0471695
49	0x3d34ba91	0.044123236
50	0x3dacf2c1	0.08444739
51	0xbbd3f858	-0.006468814
52	0x3db0dc47	0.086357646
53	0xbd0e22a3	-0.034701
54	0xbd212184	-0.039338604
55	0xbd1915c0	-0.037374258
56	0xbb96ce35	-0.0046022185
57	0x3d419ee9	0.04727069
58	0xbdfccc6e	-0.12343679
59	0x3c90ea6e	0.01768991
60	0xbd93f3ad	-0.07224212
61	0xbc939626	-0.018015932
62	0x3d05828b	0.0325952
63	0x3d74edef	0.059797224
64	0x3dda769e	0.10667156
65	0xbc00ba3c	-0.007856902
66	0xbc3624bd	-0.0111171575
67	0x3d29675b	0.041358333
68	0xbc45b426	-0.0120668765
69	0x3cccb88f	0.024990348
70	0xbd26978f	-0.04067188
71	0x3da078a2	0.07835509
72	0xbdbc6fc2	-0.092010036
73	0xbcba9e49	-0.022780554
74	0x3d5e5ed2	0.054289646
75	0x3b9a39e2	0.004706607
76	0xbd984c2a	-0.07436402
77	0xbd9f6876	-0.07783596
78	0xbd972441	-0.07379962
79	0xbbce58fd	-0.0062972293
80	0x3a14707e	0.00056625146
81	0xbd591a57	-0.053003635
82	0xbdcef088	-0.101044714
83	0xbddabde2	-0.106807485
84	0xbd6ddba9	-0.058070812
85	0x3d7bd91e	0.061486356
86	0xbc56bb45	-0.013106172
87	0xbd8417ad	-0.06449828
88	0x3ded3577	0.11582463
89	0xbd98c58f	-0.07459556
90	0x3d9a28b0	0.07527292
91	0x3da6f0ec	0.08151421
92	0x3be40a63	0.006959246
93	0x3de95203	0.113925956
94	0x38e36660	0.00010843272
95	0x3df2efca	0.118621424
96	0x3db3511a	0.08755703
97	0xbc15d779	-0.009145611
98	0x3de0e5c2	0.10981323
99	0xbd65f77f	-0.056144234
100	0xbdb045e2	-0.08607079
101	0xbd6eeb35	-0.05832978
102	0xbcc0abb2	-0.02351937
103	0x3d67620c	0.05648999
104	0xbd1b89bc	-0.03797315
105	0xbdc1853d	-0.09449241
106	0xbcf066ab	-0.02934583
107	0xbd9df299	-0.077122875
108	0x3dde41cd	0.10852394
109	0x3c8667e8	0.016406968
110	0x3cb5f6b6	0.022212368
111	0xbbac9e59	-0.0052679
112	0x3c650735	0.013978769
113	0xbb8bc782	-0.0042657265
114	0x3d915a11	0.07097257
115	0x3c53ae87	0.0129200285
116	0x3beb7a65	0.0071862214
117	0x3cc5f782	0.024165872
118	0xbcb580f6	-0.02215622
119	0x3d3f93e4	0.0467719
120	0xbb8fcaff	-0.0043882127
121	0xbd166bc1	-0.036723856
122	0x3d75a6b1	0.059973422
123	0xbd2edd91	-0.04269177
124	0x3c740c51	0.014895515
125	0x3dc05f6f	0.093932025
126	0x3c957e1c	0.01824861
127	0xbd3b96c2	-0.04579807
128	0x3d69fbb9	0.057124827
129	0x3ced8197	0.028992457
130	0xbc16d5b1	-0.009206221
131	0x3c939468	0.018015102
132	0x3d3fe8b5	0.046852786
133	0xbc5fe09a	-0.013664389
134	0x3d9dd503	0.077066444
135	0x3dccdbde	0.10002874
136	0x3d820401	0.0634842
137	0x3a38cf46	0.0007049929
138	0xbda1602e	-0.07879673
139	0xbd7f7bb6	-0.06237384
140	0x3b9906c7	0.0046699974
141	0x3bba700f	0.005689628
142	0xbcec2c81	-0.028829815
143	0xbd496dd1	-0.049176995
144	0xbdd1dec4	-0.10247567
145	0x3dd913ac	0.10599455
146	0xbcd99fad	-0.026565397
147	0xbcd9bc1f	-0.026578961
148	0x3d4f012d	0.05053823
149	0x3d843a4b	0.06456431
150	0xbcd91d56	-0.026503246
151	0x3d71222f	0.05887049
152	0xbdfa30ba	-0.12216325
153	0x3d67dcea	0.056607164
154	0xbd6bb909	-0.05754951
155	0x3dd1ef0d	0.102506734
156	0xbd20de5a	-0.03927455
157	0x3d22c95e	0.03974282
158	0x3d5c60bb	0.053803187
159	0xbd4955f9	-0.049154256
160	0x3d77b754	0.06047757
161	0xbc4cf31c	-0.012509134
162	0x3d5df08f	0.054184493
163	0xbdb44795	-0.08802716
164	0xbc390172	-0.0112918485
165	0xbd9da0ab	-0.076966606
166	0x3dc915e6	0.0981863
167	0xbdb78e10	-0.08962643
168	0xbd7d66ae	-0.0618655
169	0xbda5dbb8	-0.08098549
170	0xbc1c0892	-0.009523528
171	0x3cd434e7	0.025904132
172	0xbce7e0d9	-0.028305458
173	0x3d04be56	0.03240808
174	0x3cab773e	0.020930883
175	0x3bb4cb47	0.0055173966
176	0xbbcbbd8b	-0.0062176636
177	0xbd23c61f	-0.039983865
178	0x3d2292fa	0.03969095
179	0xbd35c152	-0.044373818
180	0x3d848026	0.06469755
181	0xbcbf7240	-0.023369908
182	0x3ca78b59	0.020452188
183	0x3d2231af	0.039598163
184	0x3dad38ce	0.084581
185	0xbd3f0540	-0.046635866
186	0xbbe4e215	-0.006984959
187	0x3d74eec2	0.05979801
188	0x3be7e034	0.0070762876
189	0x3cf04ad7	0.029332561
190	0xbce94527	-0.028475357
191	0xbd11d16b	-0.035600107
192	0x3d3796f3	0.04482169
193	0xbd48f944	-0.049065843
194	0xbd09afa7	-0.03361478
195	0x3d72f007	0.05931094
196	0xbba54d60	-0.005044624
197	0x3b381b05	0.0028092277
198	0x3d1bb3e5	0.038013358
199	0xbdc439e1	-0.09581352
200	0x3cfab4b1	0.030603739
201	0x3de71ee7	0.11285191
202	0xbd408868	-0.047005087
203	0x3c291edf	0.010322302
204	0xbc83d079	-0.016090618
205	0x3bc29cd9	0.005939108
206	0x3d9ccb38	0.076559484
207	0x3bd882c3	0.006607385
208	0x3e0a3373	0.13496189
209	0x3cf36768	0.029712394
210	0xbc8c3188	-0.017113462
211	0xbd5eb2aa	-0.054369606
212	0x3d0e177b	0.03469036
213	0xbd833f67	-0.064085774
214	0x3ca8c5a7	0.02060206
215	0x3bacf541	0.00527826
216	0xbcd82e78	-0.026389346
217	0x3d305280	0.043047428
218	0x3da3b6c3	0.079938434
219	0x3c8d1f08	0.01722671
220	0x3d817c76	0.06322567
221	0xbd62d000	-0.055374146
222	0xbd0305d2	-0.031987973
223	0x3d80bb90	0.06285775
224	0x3d60c84d	0.05487852
225	0x3dc4062e	0.09571491
226	0xbd451559	-0.04811606
227	0x3d49e143	0.049287092
228	0xbc8fd381	-0.017556908
229	0x3c8da580	0.01729083
230	0xbda7bba0	-0.081900835
231	0xbd32e6ee	-0.043677263
232	0x3d4b0e49	0.04957417
233	0x3d53a70b	0.051672976
234	0x3dd0cde9	0.10195524
235	0xbd0eee3e	-0.034895174
236	0x3d0a36c1	0.033743624
237	0xbe0fee0c	-0.14055651
238	0x3d162993	0.036660742
239	0x3d7fed62	0.062482245
240	0xbe0acc78	-0.13554561
241	0xbd93c6dc	-0.07215664
242	0xbb342351	-0.002748687
243	0xbdd42bf2	-0.103599444
244	0xbdfd5ae2	-0.1237085
245	0x3d06ab0d	0.03287797
246	0xbc2b33a1	-0.010449321
247	0x3de7c1f1	0.11316288
248	0xbd84fc01	-0.064933784
249	0x3d6d0200	0.057863235
250	0x3dc607f0	0.09669483
251	0xbc715bed	-0.0147313895
252	0x3c731a97	0.0148378825
253	0x3c78fb45	0.015196626
254	0x3d51f5fa	0.051259972
255	0x3d6cfc9b	0.05785809

classifier.2.bias f4 [84]
0	0x3d920676	0.071301386
1	0x3cb1cb0c	0.021703266
2	0xbd7b841f	-0.061405297
3	0x3dc6af01	0.09701348
4	0x3da5bab7	0.08092254
5	0x3d355b3c	0.04427646
6	0xbb1468f1	-0.0022645558
7	0xbdb38ae4	-0.08766726
8	0xbc976b09	-0.018483656
9	0xbdcb0bec	-0.09914383
10	0x3d305b00	0.043055534
11	0x3df6fefe	0.12060355
12	0x3d64cabc	0.055857405
13	0xbd2792c0	-0.040911436
14	0xbd8aecc0	-0.06783438
15	0x3d2f457d	0.04279088
16	0x3da0ac47	0.07845359
17	0x3dcaed7b	0.09908577
18	0x3d8d197b	0.06889626
19	0xbda1da9a	-0.07903023
20	0x3cbab6de	0.022792276
21	0xbce8a0ee	-0.02839705
22	0xbd3cb2a0	-0.046068788
23	0x3d25606f	0.04037517
24	0x3c903d1e	0.017607268
25	0x3c0e7e40	0.0086970925
26	0xbc48264f	-0.012216165
27	0xbbdc5054	-0.006723443
28	0x3d1dfc42	0.03857065
29	0x3b577c83	0.0032880611
30	0x3e5ad628	0.21370757
31	0xbd2ad9f9	-0.04171178
32	0xbccf04c9	-0.025270836
33	0x3e3374ec	0.17525071
34	0x3cf25fb8	0.029586658
35	0xbd347e4b	-0.044065755
36	0xbd09692a	-0.033547558
37	0x3c7d6405	0.015465741
38	0xbbc231cc	-0.0059263464
39	0xbb853da7	-0.0040661874
40	0xbd89662f	-0.06708943
41	0xbd4091f0	-0.047014177
42	0xbc3f5828	-0.011678733
43	0x3e4506b7	0.19240843
44	0xbd843cbe	-0.06456898
45	0xbcf269cc	-0.029591464
46	0x3a9852af	0.0011621321
47	0x3da446fd	0.080213524
48	0xbd3db5cd	-0.046315957
49	0xbcd11bda	-0.025525976
50	0x3db87e04	0.090084106
51	0x3d46a1a6	0.048494004
52	0xbadf036f	-0.0017014573
53	0x3acc35f0	0.001558004
54	0x3c6f2604	0.014596466
55	0xbd80b094	-0.062836796
56	0xbdba94cf	-0.09110414
57	0x3e48ae9d	0.1959786
58	0xbd4e092d	-0.05030172
59	0x3cb2e49e	0.021837529
60	0x3cdaa346	0.026689183
61	0x3dcd17fe	0.10014342
62	0xbd14e91d	-0.036355127
63	0x3d22d3ef	0.039752897
64	0xbdaf1b33	-0.0855011
65	0x3e08eeb0	0.13372302
66	0x3ce04b3c	0.027379625
67	0xbd964a1a	-0.073383525
68	0xbcba394a	-0.022732396
69	0x3d374863	0.044746768
70	0x3b22d014	0.0024843263
71	0x3db21e6a	0.08697207
72	0x3deadb4f	0.11467611
73	0x3d79ea22	0.061014302
74	0x3d78118f	0.06056362
75	0xbcf74a37	-0.030186756
76	0xbc915bd5	-0.017743984
77	0xbddf5004	-0.10903934
78	0xbd7eb38a	-0.06218294
79	0x3db39ee2	0.08770539
80	0xbd554fda	-0.052078106
81	0x3d8c0eb2	0.068387404
82	0x3d4f9f49	0.050689016
83	0xbd91513e	-0.07095574

classifier.4.weight f4 [10, 84]
0	0x3e8f8ae3	0.2803565
1	0x3e5cfc0f	0.21580528
2	0x3ebb5796	0.3659026
3	0x3e352217	0.17688785
4	0xbde6efdd	-0.11276219
5	0xbd2bd7cc	-0.041953847
6	0x3daba592	0.083811894
7	0x3ded37b3	0.115828894
8	0xbdcf07ca	-0.101089075
9	0x3d1b3a25	0.037897248
10	0x3e0bca0a	0.1365129
11	0x3e14acc2	0.14519027
12	0xbdd2dde6	-0.1029623
13	0x3d62134f	0.055194195
14	0xbcb6c610	-0.02231124
15	0x3e247082	0.16058543
16	0xbdcae075	-0.09906093
17	0x3d827199	0.06369323
18	0x3e11843c	0.142106
19	0x3d730085	0.059326667
20	0x3db6d583	0.08927443
21	0xbdea8ea8	-0.11452991
22	0x3e7f3d74	0.24925786
23	0xbdaea82a	-0.085281685
24	0x3d324e3e	0.04353165
25	0x3eb0a8a4	0.34503663
26	0x3ddfac54	0.10921541
27	0x3de8c357	0.11365383
28	0x3e07b313	0.13251905
29	0x3e959b4a	0.2922004
30	0xbcf967b5	-0.03044496
31	0x3cf30671	0.029666157
32	0xbe06fbab	-0.13181941
33	0xbd7a6f48	-0.061141282
34	0xbe88913b	-0.26673302
35	0xbd7df0fa	-0.06199739
36	0x3d03045a	0.03198657
37	0x3e8760d6	0.26441067
38	0xbcbb9fdb	-0.022903373
39	0xbdcaee09	-0.09908683
40	0x3e1fa2a0	0.1558938
41	0xbe0fa447	-0.1402751
42	0x3e5be57e	0.21474263
43	0x3dad4dcd	0.08462105
44	0x3e3d10ff	0.18463515
45	0xbddecba1	-0.10878683
46	0xbd391e04	-0.04519464
47	0x3d4a74ca	0.049427785
48	0xbe15c08f	-0.14624237
49	0x3e71df56	0.23620352
50	0x3df5d1ca	0.12002905
51	0x3e0acf45	0.1355563
52	0x3e6ff9db	0.23435156
53	0x3d96fdc9	0.073726244
54	0x3e36fb7f	0.17869376
55	0xbd5f89e0	-0.054574847
56	0x3cd17a34	0.025570966
57	0xbe35ccc3	-0.17753892
58	0xbe5c70bc	-0.2152738
59	0x3e64ba4c	0.22336692
60	0x3d168cd0	0.036755383
61	0xbc7b2d43	-0.015330615
62	0x3e7d0b15	0.24711259
63	0xbd518b89	-0.05115846
64	0x3d383e3d	0.04498123
65	0x3e07e431	0.13270642
66	0xbe959c17	-0.2922065
67	0x3de47b9a	0.111563876
68	0x3dee9d03	0.11651041
69	0x3cda3803	0.026638037
70	0x3e67d437	0.22639547
71	0xbd5b8c74	-0.053600743
72	0xbe9cb9c5	-0.3061048
73	0xbdb4c8ce	-0.08827363
74	0x3e53123c	0.20612425
75	0x3d78cf20	0.060744405
76	0x3d3ebadd	0.046564925
77	0xbdc2f810	-0.095199704
78	0xbd5486f7	-0.051886525
79	0x3e4d53e8	0.20051539
80	0x3ce7eba3	0.028310603
81	0x3e060e7d	0.13091464
82	0x3dd287a2	0.10279776
83	0xbd978700	-0.07398796
84	0xbda47970	-0.08030975
85	0x3d85fd7c	0.06542489
86	0xbe04f29e	-0.12983176
87	0x3e6c426c	0.23072213
88	0xbcea183b	-0.028576007
89	0xbe704d02	-0.23466876
90	0xbdafcc0d	-0.085838415
91	0x3e678c59	0.22612132
92	0x3e06a394	0.13148338
93	0x3cf34ed1	0.029700669
94	0xbdd7a6e0	-0.10529876
95	0xbe6b5168	-0.22980273
96	0xbd5b8eb8	-0.053602904
97	0xbda1817f	-0.078860275
98	0x3bbf0cbe	0.0058303764
99	0x3e127788	0.1430341
100	0x3e2ec214	0.17066222
101	0x3e919209	0.28431728
102	0xbe057ce4	-0.13035923
103	0x3da8f889	0.08250529
104	0x3e2e7c01	0.17039491
105	0x3e873937	0.2641084
106	0x3ba39a5c	0.0049927663
107	0xbd1cedae	-0.038312607
108	0x3e1f215e	0.15540072
109	0x3dd9af0f	0.10629093
110	0xbd917822	-0.07102992
111	0xbdcdfd16	-0.10058038
112	0x3d81fe9a	0.063473895
113	0xbe0e3ddc	-0.13890785
114	0xbd4a4222	-0.049379475
115	0xbda4e018	-0.08050555
116	0x3db0d73c	0.08634803
117	0xbe165916	-0.14682421
118	0x3e183ff5	0.14868148
119	0x3de9c1dc	0.11413929
120	0xbd2e324e	-0.042528443
121	0x3ed2e759	0.4119213
122	0x3e292aa8	0.16520178
123	0x3e3b5d67	0.18297349
124	0x3d12f869	0.035881434
125	0xbd1f85cc	-0.038945958
126	0x3dae04ba	0.08496995
127	0xbe8fe068	-0.28100896
128	0x3e4d5b1d	0.20054288
129	0x3e8123dc	0.2522267
130	0x3e84a446	0.2590658
131	0x3eb1a7f1	0.34698442
132	0xbda86413	-0.08222213
133	0xbd06e15d	-0.032929767
134	0x3d8c42ab	0.068486534
135	0xbdf342ee	-0.11878
136	0x3e4838ad	0.1955287
137	0x3e03efaf	0.12884401
138	0xbd056227	-0.03256431
139	0xbd3c4742	-0.045966394
140	0xbcf326cc	-0.029681586
141	0xbe0b4e4c	-0.13604087
142	0x3e6aef7f	0.22942923
143	0xbe059f3c	-0.13049024
144	0x3cf9d33a	0.030496228
145	0xbe0eec3e	-0.13957307
146	0x3d10cc4c	0.035351083
147	0x3eac745b	0.33682522
148	0x3d08482d	0.033271957
149	0x3df6da50	0.120533586
150	0xbd504522	-0.05084718
151	0xbdaa9b3d	-0.083303906
152	0xbcc6780b	-0.024227163
153	0x3d0a3a46	0.03374698
154	0x3de2657e	0.11054514
155	0xbdfe40ab	-0.12414678
156	0x3e24c74d	0.16091652
157	0x3d13703d	0.03599571
158	0xbd84abb7	-0.064780645
159	0x3c89bb98	0.016813084
160	0xbe0ce441	-0.13758947
161	0x3e0f6b42	0.1400576
162	0x3e9cf651	0.30656675
163	0xbcbd7108	-0.023125187
164	0xbc64d2b0	-0.013966247
165	0x3e10271f	0.14077424
166	0x3e85b094	0.2611128
167	0x3aba17c8	0.0014197761
168	0x3e117abf	0.1420698
169	0xbdc28bb4	-0.094993025
170	0x3d898c4f	0.06716215
171	0x3e2cd914	0.16879684
172	0x3d1c6145	0.0381787
173	0x3def2eba	0.11678834
174	0x3e21111d	0.15729184
175	0x3e0ec414	0.13941985
176	0x3d79d42a	0.06099335
177	0x3e5aa815	0.2135318
178	0x3edd84de	0.43265432
179	0x3e9bf94b	0.30463633
180	0x3e4fa1fa	0.20276633
181	0x3eac8172	0.3369251
182	0x3e85be26	0.26121634
183	0xbe0bf7dc	-0.1366877
184	0x3e6455ff	0.2229843
185	0x3e1a72bf	0.15082835
186	0x3e94e5dc	0.2908162
187	0xbe0dffdd	-0.13867135
188	0xbe6777f0	-0.22604346
189	0x3d8b9989	0.06816394
190	0x3e6d26d1	0.23159339
191	0x3d16d99b	0.03682862
192	0xbc5a5805	-0.01332665
193	0xbde62f2d	-0.11239467
194	0x3d347d8a	0.044065036
195	0x3e4ac11c	0.19800228
196	0x3d1ea9f2	0.03873629
197	0x3d38c0b3	0.045105647
198	0x3e0f86e4	0.140163
199	0x3e30e8db	0.17276327
200	0xbe459f0b	-0.19298951
201	0x3e799f24	0.24377114
202	0x3d834ce2	0.064111486
203	0x3e8b9d79	0.2726858
204	0x3c88d6e2	0.016704027
205	0x3bccb1ca	0.00624678
206	0x3e19b53e	0.15010545
207	0x3da2b603	0.07944872
208	0xbe40e5ba	-0.18837634
209	0x3d2b5cd1	0.041836563
210	0x3c6257e7	0.013814903
211	0x3e983106	0.29724902
212	0x3db423fb	0.08795925
213	0x3d9ffc50	0.07811797
214	0xbda84a13	-0.082172535
215	0x3df84010	0.12121594
216	0x3e05ce45	0.13066967
217	0x3d44325e	0.047899596
218	0xbdfda677	-0.12385266
219	0xbd8a01e3	-0.06738641
220	0x3e11cc87	0.14238177
221	0xbd426f5f	-0.047469493
222	0xbbff32e7	-0.0077880505
223	0x3df74637	0.12073939
224	0x3e1b110a	0.15143219
225	0xbe0f33b2	-0.13984564
226	0xbd81a354	-0.063299805
227	0x3e47542d	0.19465704
228	0x3da734f0	0.08164394
229	0xbdad6afd	-0.08467672
230	0xbdd85839	-0.10563702
231	0xbe7f53d5	-0.24934323
232	0xbd3c933a	-0.046038844
233	0xbe52c310	-0.20582223
234	0x3e264b70	0.16239715
235	0x3db490aa	0.08816655
236	0xbe8bbc46	-0.2729208
237	0xbe4afa0d	-0.1982195
238	0x3c502180	0.0127032995
239	0xbcff937d	-0.031198258
240	0xbe8c1435	-0.27359167
241	0x3e16d4a1	0.14729549
242	0x3da69c25	0.08135251
243	0xbce6ab5b	-0.02815788
244	0x3e0dbb96	0.1384109
245	0x3dd840cd	0.10559235
246	0xbd488f1c	-0.048964605
247	0x3e2518fb	0.1612281
248	0x3e33b35f	0.17548893
249	0x3e95cbfa	0.29257184
250	0x3e1c85de	0.15285441
251	0xbd8069fe	-0.062702164
252	0xbdb8a4fb	-0.090158425
253	0x3dc31444	0.0952535
254	0x3dd41ad7	0.10356682
255	0x3d50fe73	0.05102391

classifier.4.bias f4 [10]
0	0xbe82cc80	-0.25546646
1	0xbd6a4373	-0.05719323
2	0xbd519aaa	-0.05117289
3	0x3e75c500	0.24000931
4	0x3dedac90	0.11605179
5	0x3e7f5cef	0.24937795
6	0xbdc3b104	-0.095552474
7	0x3dc073cc	0.093970865
8	0xbde51f33	-0.111875914
9	0x3e6fcd52	0.23418167
