experiments/LeNet/MNIST/experiment-1/last-epoch.pt (torch, 181675 bytes, 10 tensors)

conv1.weight f4 [6, 1, 5, 5]
00000000: 17fe 30bc b13d 043c c8fb 5c3e 2108 2a3e
00000010: 349a 1b3e df95 eebd 2d0c 493e 3ec3 d13d
00000020: 52b5 973d c2aa ffbd 59b2 ecbd 5da3 5d3e
00000030: 6a6b 9a3d 9381 1bbe 0b57 083e af74 583e
00000040: 948e 58bd 7004 18be c907 d03c 8f07 3a3d
00000050: b9be b6bd 4a5f fd3d 745f 843c a1af 42bd
00000060: 3dc2 3e3d b232 f63a d803 233e 4bfc 23be
00000070: d1c6 f9bd ccd9 95bc bcec 1f3e 69a7 243e
00000080: 80e0 3c3c 76a9 14be 8611 03be 29b5 0e3e
00000090: f2c5 283e dbb0 263d d834 e0bd 78ba ba3d
000000a0: 1cc3 803a 7e01 6cbd be65 0cbe e7d7 32bd
000000b0: 4b79 41be bb9f 1ebd 76c2 96bd 1df2 373e
000000c0: d4ce 923d f215 123e 84a6 f43d 2bde 2a3e
000000d0: 8b7d 0cbd d95e 3e3c af78 2a3c 11dc 75bd
000000e0: 7065 fcbd b037 533e 78ca 0e3e 9d54 063e
000000f0: 34da e63d 661d 653d 45bc 463e ccf3 313e
00000100: 0d30 10be 8753 b83d de8a 86bb 3e43 373e
00000110: 4c14 263e 14db 3abe ac18 4bbc b360 95bd
00000120: 649b fbbc d0a5 63bd d7ef ac3c 085a 19bd
00000130: f48c d1bd 0613 0abe 8290 86bd d397 89bd
00000140: 3fad 423b b769 2cbd f572 11be ac27 b8bd
00000150: 63a4 07be fedc f0bd f9ce 43be 05b3 37be
00000160: f8c1 38be 1024 023e a14e 8ebd 91ec 13be
00000170: 1353 f93c 1f77 e9bd 5cf9 45be 4b38 493e
00000180: 7a27 1f3d 734d 163e 0066 373e d26a ebbd
00000190: 7340 133c 3b8c 4dbd d519 983d e0a6 31bd
000001a0: 9ea6 2f3d 0219 1b3e 273b 2b3e ed61 313d
000001b0: f72d 6c3c 4498 0fbe 10da b63c 6072 7dbc
000001c0: 07fd dcbd cb93 753d 3b89 4b3d 47ab c53d
000001d0: 7cf3 f43d 4513 d3bd 9765 59bc 79b6 123d
000001e0: 7992 76bd be4f db3d 96f6 2cbd 2c9e e7bd
000001f0: 8ea9 23be 4bf1 01be 8b5c 543e 01c1 553e
00000200: ff2e 753e f0ae aabd 8dd5 ad3d ee59 273d
00000210: d35e a3bd 819c 5c3e 20e0 cf3d d8d4 113e
00000220: e666 253e f6f4 753e b86a 953d 0f63 393e
00000230: d931 4a3e eb6e f1bc a146 f4bc 1a5a 463e
00000240: 5688 2ebd 415c acbd a373 053c 17de 1bbe
00000250: 4801 123e 4be7 37be
-0.010802767 0.008071349 0.21580422 0.16604663 0.15195543 -0.116496794 0.19633551 0.102423176
0.07407631 -0.12483741 -0.115574546 0.2164435 0.07540019 -0.15186147 0.13314454 0.21138261
-0.052870348 -0.14845443 0.025394337 0.045417365 -0.08923096 0.123716906 0.016158797 -0.047530774
0.04657196 0.0018783419 0.15919435 -0.16014211 -0.12196124 -0.01829233 0.15617651 0.16079487
0.011528134 -0.14517769 -0.12799653 0.13936295 0.1648176 0.040696006 -0.10947579 0.09117597
0.0009823772 -0.05761861 -0.13710687 -0.04366293 -0.18893926 -0.03872655 -0.07361309 0.17963453
0.071683556 0.14266184 0.11945823 0.16686313 -0.034299415 0.011619293 0.01040475 -0.060024325
-0.12324035 0.20626712 0.13944423 0.13118215 0.11272088 0.05593624 0.19407757 0.17378157
-0.1408083 0.090003066 -0.0041059097 0.17896745 0.1621868 -0.18247634 -0.012396019 -0.072938345
-0.030713744 -0.055578053 0.021110458 -0.037439376 -0.10231963 -0.1348382 -0.065705314 -0.06718411
0.0029705314 -0.042093005 -0.14204009 -0.08991942 -0.13246302 -0.11760901 -0.19121923 -0.17939384
-0.18042743 0.12709069 -0.06948591 -0.14445712 0.03043512 -0.11399674 -0.19333404 0.1965038
0.038856007 0.14677982 0.17910004 -0.11494984 0.008987534 -0.050182562 0.07426802 -0.043372035
0.042883508 0.15146258 0.16721784 0.04330628 0.014415256 -0.14022928 0.022320777 -0.015469164
-0.10790449 0.0599554 0.04969142 0.09651809 0.119605035 -0.1030641 -0.01326885 0.03581855
-0.06019828 0.10708569 -0.04222735 -0.11309466 -0.15982649 -0.12689702 0.20738427 0.20874406
0.23943709 -0.08334148 0.08487997 0.040857248 -0.07977071 0.21544077 0.1015017 0.1424135
0.16152534 0.24019226 0.072957456 0.18104194 0.19745578 -0.029471835 -0.029818835 0.19370309
-0.04261049 -0.084160335 0.008145246 -0.1522144 0.14258301 -0.17959325

conv1.bias f4 [6]
00000000: 9643 183a 80cf f93b 7806 70bd 4422 c23d
00000010: 85f4 4a3e 3509 b23d
0.0005808411 0.007623613 -0.05859992 0.09479192 0.1981984 0.08693162

conv2.weight f4 [16, 6, 5, 5]
00000000: 8ab5 f8bc d854 3ebd c878 f63c 4651 02bc
00000010: 7e68 9e3c 270a 143d 6020 20bc 1799 df3c
00000020: 9187 c6bc 5aa3 713d 0271 9d3d 3bc9 793c
00000030: 8a30 843d c757 f53c 0da3 72bc e98b 70bd
00000040: 2631 023d e2ef dd3b e0af 0ebd 2f61 98bd
00000050: 2681 813d f1a5 6c3d 12e7 1b3d 6c7b 8e3d
00000060: 1fb4 b2ba 8017 1c3d 3d54 92bc a377 7cbc
00000070: bfd8 dbbc af6e 5abd b095 923d c143 87bc
00000080: 86cd 0f3c b41d a53d dd89 adbc 45ad 8d3d
00000090: a5c0 a53d b536 5fbd 6e38 6d3d f9a3 6d3d
000000a0: 16cf 4bbd d917 71bd a271 7fbc eff6 05bd
000000b0: 87fe 823d 1b77 263d d686 91bd ed71 a2bc
000000c0: 8e84 d1bc a282 0e3b face 88bd 27fa 313d
000000d0: 6e39 293d 4965 983d da9e 53bd fcb4 353d
000000e0: 42d1 91bd 8e80 38bc 258b 14bb fd0f 5cbd
000000f0: d972 573d 4297 9cbc 73e1 0ebc 9836 32bd
00000100: a0d2 97bd 259a 2c3d 216f c4bb 6bc1 8f3c
00000110: ae5c a4bc 054e 02bd 0197 6bbc 19f9 89bd
00000120: 4fdf 8a3d f16b 623d 11c5 b23d 03d6 03bd
00000130: 5099 8a3d 0dab 4ebb 3b05 bebc c923 813d
00000140: 5bce 473d e353 9bbc 2b0f 1b3d 0441 24bd
00000150: d015 22bd 7a01 613d 773a 24bd 217c 8dbd
00000160: f508 8eba 0e05 943d 13ba 803d 1aa4 ed3c
00000170: f2c8 87bd 7262 f6bc af75 213d 3ae6 983d
00000180: bcfd 5abd 2955 bd3c e498 db3c 49e0 7abd
00000190: 7117 cebb 394c 5c3d c8f6 d43c 0814 4cbc
000001a0: 63f9 8e3d 9255 8cbd 2f65 e83c 7882 8d3c
000001b0: cc9c e8bc ee13 603d 50a4 703c cd4d 47bc
000001c0: ca44 90bc 1d30 913d 6d0b a9bd 4503 40bd
000001d0: ea1a 2fbd 67fe ae3d 1fb5 9b3d 6b05 46bd
000001e0: 2f06 883c d6a2 b43b a102 4d3d da60 7e3d
000001f0: ebbf a6bc e4ad 90bd ebf6 a0bd 87d1 4c3d
00000200: 442d 2c3d 61f7 813d 5343 0abd be72 da3c
00000210: f4fb 3339 9f80 b83d 2b98 803d 6812 9e3c
00000220: c502 1f3d 87f3 35bd 56a1 1bbc 5d55 a0bd
00000230: a428 32bd d4fd 30bd 1c98 9b3d d92d 113d
00000240: 1be8 5fbd 7d29 c63d e2e6 1f3d 2cdc e03c
00000250: ad68 b2bc 8a4e 463d 34c1 e9bb 2f9b 813d
00000260: 7d43 77bd 0018 8a3b 2613 95bd 6987 7ebd
00000270: 4438 a2ba ca7e 4abd da11 093d 90e6 46bc
00000280: e74d 7cbd fca0 bb3b a4b1 1f3c 48d6 82bd
00000290: f00b 3b3d 9fd2 6dbd 6cd2 40bd 50dd 24bd
000002a0: ba9f 843d 370e 5d3c fbdc 213d 6296 b93b
000002b0: 9774 9c3d b1c0 4bbd 4c60 99bc 4a36 02bd
000002c0: b802 2bbd 3678 c8bc bb41 02bd e0b8 f4bb
000002d0: 95a0 4ebd f2ff 5abd ec08 8f3d 2214 14bd
000002e0: a802 6fbd b732 5dbd 007f 293d 20ee b13c
000002f0: 2c5d 1a3d 5f8f 13ba ee48 edbc 6595 723d
00000300: 6e06 64bc ea4b 953d 7d27 213d f8bd 3cbd
00000310: 61a3 93bd aef2 433d b0ad 803d 8d02 4f3d
00000320: 759a 233d 6fb5 403c c85c 3c3d 3909 263c
00000330: 9933 88bd 94ab a93d fc27 9b3c 455c 253d
00000340: 3259 6e3d 45c6 3a3d e83b 983d b856 9c3d
00000350: f32b bb3c 3211 06bd 2794 2cbc 3b94 e7bc
00000360: 31ed 5ebd a5d6 3fbd 9894 ad3b f13f 9fbd
00000370: 1e6a 34bd 8182 c93c 7b80 1ebd 37d7 9abd
00000380: 4041 633d 257b a93c 0eb3 41bd 53cc 4abd
00000390: a206 c03c 40d4 403d 8e42 433d ce55 7abd
000003a0: cd36 93bd 1464 153d e1b1 63bd a435 eaba
000003b0: 1662 933b b1d8 383d c68e 7ebd 1d1c 1c3d
000003c0: d9a4 8a3b bd43 213d 4f8a 0e3c 8ba1 413d
000003d0: eddb 933c b68a 8abd 93e4 673d 60c5 8f3c
000003e0: d5c2 8d3d 286a 873d c067 8bbd d2c6 253d
000003f0: 0dd9 5a3c 2275 84bc 8cf9 853d a7ad a03d
-0.030360002 -0.046467632 0.03008689 -0.007953947 0.019336935 0.036142495 -0.009773344 0.027294679
-0.024234565 0.058993675 0.0768757 0.015245731 0.064545706 0.029949082 -0.014809382 -0.05872718
0.031785153 0.006772981 -0.034835696 -0.07440411 0.06323461 0.05777544 0.038062163 0.069571346
-0.0013634003 0.03810835 -0.017862434 -0.015409383 -0.026836751 -0.053328212 0.07157457 -0.0165118
0.008777028 0.08062306 -0.021183902 0.06917814 0.08093385 -0.054495532 0.057915144 0.058017705
-0.04975804 -0.058860634 -0.015591057 -0.032706197 0.063962035 0.04064093 -0.07105796 -0.019829715
-0.025575902 0.0021745344 -0.06680103 0.043451454 0.041314535 0.074411936 -0.051665165 0.044362053
-0.07119991 -0.011261119 -0.0022665944 -0.053726185 0.05259976 -0.019115094 -0.0087207435 -0.043509096
-0.074132204 0.04213919 -0.005994693 0.017548284 -0.020063724 -0.031812686 -0.014379264 -0.06736965
0.06780874 0.055278722 0.08728994 -0.03218652 0.06767523 -0.003153506 -0.023195853 0.063056536
0.04878078 -0.018960899 0.037856262 -0.040101066 -0.039571583 0.05493305 -0.04009482 -0.06908441
-0.001083641 0.072275266 0.06285491 0.029008914 -0.06630124 -0.03007624 0.039418872 0.07465787
-0.053464636 0.023111897 0.026806302 -0.06124905 -0.0062894155 0.05378363 0.02599658 -0.012455948
0.069811605 -0.06852259 0.02836856 0.017274126 -0.02839508 0.054706506 0.014687613 -0.012164545
-0.017610926 0.07089255 -0.082541324 -0.046878118 -0.042750277 0.08544617 0.076029055 -0.04834501
0.016604511 0.0055125756 0.050051335 0.062104084 -0.020355185 -0.07064417 -0.07859596 0.05000451
0.042035356 0.06346012 -0.03375561 0.026666041 0.0001716463 0.090089075 0.06279024 0.019295886
0.038821 -0.0444217 -0.009498915 -0.07828782 -0.04349579 -0.04321082 0.07597372 0.035444114
-0.054664712 0.09675882 0.039038546 0.027448736 -0.021778429 0.048414744 -0.0071336273 0.06328427
-0.060367096 0.004214287 -0.07279043 -0.062140856 -0.0012376388 -0.04943732 0.03346429 -0.012139931
-0.06159773 0.005725978 0.009746943 -0.06388527 0.04566568 -0.058062192 -0.047075674 -0.040250123
0.06475778 0.013492159 0.039517384 0.005663679 0.07639425 -0.04974431 -0.018722676 -0.031790055
-0.04175064 -0.024471384 -0.031800967 -0.007468328 -0.05044611 -0.053466745 0.069841236 -0.036152013
-0.058352143 -0.054003444 0.041380882 0.021719992 0.037686512 -0.0005628969 -0.02896544 0.059224505
-0.013917549 0.0728987 0.0393443 -0.046079606 -0.072088964 0.04783886 0.06283128 0.050539542
0.039942224 0.011762007 0.04598692 0.010134035 -0.066504665 0.08284679 0.018939964 0.0403712
0.058190532 0.04559924 0.07433301 0.07633728 0.022848105 -0.032731242 -0.010533369 -0.028268924
-0.054425422 -0.04683556 0.005297255 -0.07775868 -0.044046514 0.024598362 -0.038696747 -0.0756058
0.05548215 0.020688603 -0.0472899 -0.049511265 0.023440663 0.047077417 0.047670893 -0.061116986
-0.07188187 0.036472395 -0.05558956 -0.0017868769 0.0044977767 0.045128528 -0.062147878 0.03811275
0.004231077 0.03937124 0.0086999675 0.0472732 0.018049205 -0.06764738 0.05661447 0.01755017
0.06921927 0.066120446 -0.06806898 0.040472813 0.013357413 -0.016169135 0.06541738 0.078456216

conv2.bias f4 [16]
00000000: 22a6 f4bc 0404 1f3d 3c95 49bd 1b13 a93d
00000010: 02a9 063d af41 a1bc fc0b b53b b40b d43c
00000020: 771a 933c 61cd 07bd 2e44 013d 6a09 733c
00000030: 8125 963d 9f4e e6bc fe87 153b 9d8c 5d3d
-0.029864375 0.03882219 -0.049214587 0.08255597 0.032876022 -0.01968464 0.0055251103 0.025884487
0.017956955 -0.03315485 0.03155916 0.014833787 0.07331372 -0.028113661 0.0022816653 0.054089177

fc1.weight f4 [120, 256]
00000000: 97be 1eba 3022 293d 1e3f 09bd 820c 71bd
00000010: 7844 8d3c ab01 803c 5bcb 223d 57aa cdbb
00000020: 7596 47bb da39 033d c6a7 4d3d fc1c 213d
00000030: 9436 7d3d 276c a6bc 407b 243c c95a 163d
00000040: 0bf9 08bd baff 5cbd aec2 e83c effc 1abc
00000050: 0f9d 27bd 1f7a 583d d2bd 62bd 7d7b 6abd
00000060: e232 abbc eac1 39bc a157 8d3a c4cb ddbc
00000070: 1caa 63bd 8e55 f3bc 0ef2 f7bc 9951 693d
00000080: 89e5 673d 4b6d b9bc 1045 eb3c 4125 6dbd
00000090: d1f9 0a3c ef05 143d cd55 a33c 42db 1ebd
000000a0: c2a4 0a3d 8fe5 703d 4dd9 fbbb c797 a63b
000000b0: 80cf 5cbd 3a08 8abb 93b4 b33c 9599 3d3d
000000c0: 0d67 18bd ec40 44bd c9da b43c 6aaf 74bd
000000d0: 6235 a53c dea7 06bd b698 6d3d 2a52 a33c
000000e0: 2ab0 62bb e10f d83c 5d7f 33bb 7d9b c7bc
000000f0: 6cb9 11bc 2a68 213d bb88 bc3c ff45 59bd
00000100: 23a5 0ebd 5205 463c a3ce 253d 869f 243d
00000110: c171 1dbd 1050 cd3c 8cd5 d53c a8e9 3b3d
00000120: 0222 ddbc 84eb 9fba de89 763d e72b 3e3d
00000130: 76ea c5bc 19d7 bebc 2573 9a3c 32a0 9ebc
00000140: b50f 5ebd 51be a03c 851a 883d e62f f7bc
00000150: 56ac 023c 8f22 c0bb f29d 123d aeab a5bc
00000160: a2fa 50bb 53ec cebc 28e3 653d 9119 7bbd
00000170: 395a 0a3c 868b 63bd bfe5 8b3c d8c2 19bd
00000180: ecbd 7d3d 33fc e63c c50f 123d 0f50 013d
00000190: 80f1 cf3c 92f0 d93c 2436 353d dbe6 94bc
000001a0: 1f17 babc 1608 75bd 792b 56bd ec8f c2bc
000001b0: 90f2 1a3d 56aa bfbc 9252 e7bc bd3b 5e3d
000001c0: 971a 2dbd f80c 6d3d 9029 853a 9fff 183d
000001d0: 38d0 53bd a4ab dbb9 fafb 2f3d 3e12 6c3d
000001e0: 7596 dfbc 917c aabc 7468 513d ec6e 3cbd
000001f0: b96c e5bc 6267 2ebd d6ed 2b3d 808e 213c
00000200: 9a43 1b3d 0722 edbc 51c4 163d 53dc 0cbd
00000210: 2a58 623d 654b 1ebd 7149 743a 079d 143b
00000220: b405 84bd 2480 54bd e714 8d3b 8ccf 48bd
00000230: 2070 d13c f14b 1c3d a15c e33b 4a1e 3e3d
00000240: a775 13bd db38 3ebb 5416 6fbb f2ed 463d
00000250: 77fb f0bc 5441 9d3c cbe2 223d c497 c4bc
00000260: 7bd9 62bc 52a8 dfbc 1430 d53c 36cf d7bc
00000270: 4b8b 673d ffbc 15bb 5469 59bc 01fa cd3c
00000280: 2fca 56bd f7df 483d c453 4fbd 81be f03c
00000290: 05fc 41bd 66c9 cdbc d66a 33bc 411b 40bc
000002a0: 45f8 ecbc 2552 423b fd3d b13c 92b2 0fbc
000002b0: 561b 36bd c006 5cbd bb15 5abc 5f83 dcbc
000002c0: cb76 bd3b bdc3 25bd f288 123d 8f12 ccbb
000002d0: b18f 583d a89e 30bd 6e53 f83c 33ed 2cbd
000002e0: 93f9 c7bb dca5 1cbd 1e45 333c a3fe 6b3d
000002f0: ddc7 693d 457f 083d a23b a0bc 01d8 d33c
00000300: 1a48 0bbd 2b93 88bc ba4f ce3c 09bc 23bd
00000310: af2c 6e3d 0e12 7abd 26ee 0cbd b3cf 703d
00000320: 13e5 1bbd 0be5 403b 33b7 3f3d 55e8 593d
00000330: 92c5 5d39 7daa 9dbb b612 b6bc ce4b 59bd
00000340: 0c73 6a3d f81a d93c aae2 233d cbe9 2bbd
00000350: 7e5f 6a3d ee92 51bd ffd5 2e3d 100b 343d
00000360: 6387 5bba 5f6e 3c3d 1f26 8b3b a18e 533d
00000370: cb28 3e3c 1d19 193d f347 cd3c 90b9 663c
00000380: 9012 593d 5c08 a7bc bc43 74bd d595 4cbc
00000390: b406 2dbd d853 253c 5908 a9bc 6477 c13c
000003a0: 2088 a83c f6ea 593d 0478 863b 53b4 2d3d
000003b0: 5cef 2abd a932 a23b ba4a 6c3c d6c4 323d
000003c0: 8d95 623c 89c3 72bd 5ef4 a4bb 9118 44bd
000003d0: c4af 7cbc 2b06 123d ade5 e6bc d39f 42bd
000003e0: 2706 d1bc 5597 653d 1f13 a4bb ee9c dbbc
000003f0: 9ac3 f33c b34d ee3c 4639 febb b319 cbbb
-0.0006055622 0.04129237 -0.03350746 -0.05884982 0.017244563 0.015625795 0.039744716 -0.0062764096
-0.003045467 0.032037593 0.05020883 0.039334282 0.061819628 -0.020315243 0.010039151 0.036707673
-0.03344063 -0.053954817 0.028413143 -0.009459718 -0.040921267 0.05285084 -0.055356808 -0.057246674
-0.020898286 -0.011337737 0.0010783562 -0.027074702 -0.05558215 -0.029703882 -0.030266788 0.056962583
0.056615386 -0.022635123 0.028719455 -0.057896856 0.008482412 0.03613847 0.019938374 -0.03878332
0.03384853 0.058812674 -0.0076858164 0.0050840112 -0.053908825 -0.0042124065 0.02193669 0.046289045
-0.037207652 -0.047913477 0.022076981 -0.0597376 0.020167056 -0.032874934 0.058006965 0.01993664
-0.0034589865 0.02637476 -0.0027389147 -0.024366135 -0.008894306 0.03940598 0.023014417 -0.05304527
-0.034825455 0.012086229 0.040480267 0.040191196 -0.038438562 0.02506259 0.026102804 0.04587713
-0.026993755 -0.0012200926 0.060190074 0.046428587 -0.024159651 -0.023295926 0.018853733 -0.019363496
-0.0542142 0.019622 0.06645683 -0.030174207 0.007975658 -0.0058634947 0.03579516 -0.020223465
-0.003188767 -0.025259173 0.056124836 -0.06130368 0.008444362 -0.05555298 0.017077325 -0.037539333
0.0619487 0.02819643 0.03565957 0.03157049 0.02538371 0.02660397 0.044241086 -0.018176487
-0.022716103 -0.059822164 -0.052287553 -0.023750268 0.037828982 -0.023396652 -0.028237615 0.05425619
-0.042261686 0.057873696 0.0010159481 0.037353154 -0.051712245 -0.00041898817 0.042964913 0.057634585
-0.027293423 -0.020811351 0.051125005 -0.04600422 -0.028005945 -0.042579062 0.041974865 0.009860635
0.037906267 -0.02894689 0.036808316 -0.034389805 0.05525986 -0.03864612 0.0009318805 0.0022676603
-0.064464 -0.051880017 0.0043054703 -0.049026057 0.02556616 0.03815836 0.0069385325 0.046415605
-0.036000874 -0.0029025588 -0.0036481814 0.048566766 -0.029416783 0.01919619 0.039767068 -0.023998149
-0.013845797 -0.027301941 0.026023902 -0.026343923 0.056529325 -0.0022848246 -0.013269741 0.025143625
-0.05243891 0.049041715 -0.050616995 0.029387714 -0.047359485 -0.025120448 -0.010950765 -0.011725248
-0.028926978 0.0029651013 0.021636004 -0.008770602 -0.044459663 -0.053717375 -0.013310845 -0.026918111
0.0057819835 -0.040469874 0.035775132 -0.0062277983 0.05287141 -0.043120056 0.03031322 -0.0422184
-0.0061027496 -0.038244113 0.010941772 0.057615887 0.05707537 0.0333245 -0.019559685 0.025859835
-0.03400431 -0.016671738 0.025184501 -0.039974246 0.058148082 -0.061052375 -0.034406804 0.058791827
-0.03806026 0.0029433395 0.04680557 0.053200085 0.00021149803 -0.0048115836 -0.022225719 -0.05305081
0.057238623 0.026502118 0.040011086 -0.04197101 0.057219975 -0.051165514 0.04268455 0.043955863
-0.0008374361 0.046003696 0.0042464877 0.051649693 0.0116064055 0.037377466 0.025058722 0.0140823275
0.05299622 -0.020389728 -0.05963491 -0.012486895 -0.04224272 0.010090791 -0.020633863 0.0236165
0.020572722 0.05320259 0.0041036624 0.0424083 -0.041732177 0.004949887 0.014422113 0.04364475
0.013829601 -0.059268508 -0.0050340137 -0.04787499 -0.015422765 0.035650413 -0.02818569 -0.0475157
-0.025515629 0.056052525 -0.005007162 -0.026808228 0.029756356 0.029089784 -0.0077582924 -0.006198132

fc1.bias f4 [120]
00000000: 277d 9f3c c125 5bbc 9394 57b9 138b 853c
00000010: c4fc 02bd af73 b3bb fe17 453d e999 533d
00000020: df8d 283c ea42 cd3c ba77 aebb 34b0 62bd
00000030: bb43 82bc f82c 8f3c ced8 c0bc c266 49bd
00000040: 3b0e 74bd 057c 75bd 6a83 18bc 5c16 583d
00000050: c8bb 48bd 4715 75bd 342b 253d 99cf 0cbd
00000060: 4c8a f3bb c432 25bd ac7a 8938 24ef 20bd
00000070: a99a 933c 16a1 5e3c f615 be3c 6dad f73a
00000080: f775 d33c 6d34 0bba 8409 683d 90e1 c53c
00000090: 4e7e 4dbb fd62 4bbd 1233 26bd a0c8 e23c
000000a0: 1266 05bd 6343 773d 6cdc c63c c9b7 4fbd
000000b0: 85ad 053d cff2 2abd 4189 5ebd 29ec e1bc
000000c0: d224 e73b 4930 ebba d9ce 0b3d 74ad d9bc
000000d0: 2614 933c 6085 14bc a86d 1f3d 87de 12bd
000000e0: 9e96 3abd db68 34bc ac4c 7fbd 4838 4f3d
000000f0: ea32 2d3d c090 fabc 1862 aabb 96c9 11bd
00000100: 5fbc 563d 53f8 35bd 5373 513d c3ec 173d
00000110: ead0 073d 0c01 8fbc 8756 40bc f05f b1ba
00000120: 14bb 073d 438e f53c e468 c43b f4a6 0cbd
00000130: 6584 19b9 0d50 c13a e28d 933d 9a45 6bbd
00000140: acaa 3cbd 3e67 3e3d af15 62bd fdcb 743d
00000150: e362 db3c 9ca0 4fbd 854c 4e3d c634 57bc
00000160: a421 d3bb aa49 673c fb36 e93c d94c 08bb
00000170: f11b 503d 44bc ebbc 5730 3d3d c5a2 a03c
00000180: 148e 113d 2329 0dbb e775 e13c bb7e 44bc
00000190: c191 8d3c 06eb a0bc 5d81 073d 50cd 543d
000001a0: 6ace 3fbd a97f 63bb afd3 3e3d 1334 b93c
000001b0: 404b d9bb 77d7 d73b 46f4 05bd 9cfc 263b
000001c0: 7e13 743d be27 24bd 31e8 4bbd be9f ec3c
000001d0: 553b 0b3c 92eb 163c 7c0b 8b3d d154 6a3d
0.019468857 -0.0133757 -0.00020559346 0.016301667 -0.031979337 -0.005476437 0.048118584 0.051660452
0.010287731 0.025056321 -0.005324331 -0.05534382 -0.015901437 0.017477497 -0.02354088 -0.049170263
-0.059583884 -0.059932727 -0.009308675 0.0527557 -0.049007207 -0.059834745 0.040324405 -0.034377668
-0.0074322578 -0.040331617 6.5555185e-05 -0.039290562 0.018018084 0.013588211 0.023203831 0.0018896289
0.025813086 -0.0005310241 0.0566497 0.024155408 -0.00313558 -0.04965495 -0.04057605 0.027683556
-0.032568045 0.060367 0.024275027 -0.05071238 0.032636184 -0.041735467 -0.054330114 -0.02757843
0.00705395 -0.0017943467 0.034132812 -0.026571967 0.017953943 -0.009065002 0.038922936 -0.03585675
-0.045553796 -0.011011328 -0.06232898 0.050590783 0.042284884 -0.0305866 -0.005199682 -0.035592638
0.05242574 -0.044426274 0.051135372 0.037091028 0.03315822 -0.017456554 -0.01173938 -0.001353262
0.033137396 0.029975062 0.0059939492 -0.034338906 -0.00014640538 0.0014748588 0.072047964 -0.057439424
-0.046061203 0.04648518 -0.05519646 0.05976485 0.026780551 -0.05069028 0.050365943 -0.013135141
-0.0064432193 0.014116684 0.0284686 -0.0020797758 0.050807897 -0.028776295 0.04618868 0.019608865
0.035535887 -0.0021539412 0.02752204 -0.0119931055 0.017281415 -0.019643318 0.033082355 0.051953614
-0.04682771 -0.0034713543 0.046588596 0.022607839 -0.006631285 0.0065869647 -0.03270366 0.0025480157
0.0595889 -0.040076964 -0.04978198 0.028884765 0.008498033 0.009211438 0.067893 0.057209793

fc2.weight f4 [84, 120]
00000000: cc1d 383c 306b 1dbd 70a1 a93d 5d63 a5bd
00000010: 2b20 333d 8a63 42bd a161 ad3d bc56 a9bd
00000020: a1b6 813d 0449 53bd 9d36 29bd f3a5 c3bc
00000030: 2346 7e3d 1816 4f3d 874f b8ba 7a9a 393c
00000040: 6cb6 bbbc c505 96bd 2691 00bd b01d 543d
00000050: 3547 973d 853d bebc 96e5 9e3d 1c4a 803d
00000060: e6ae 2a3d 7fc6 283c f28d 27bc 5d1f 71bd
00000070: 17ce 99bc 9256 4d3d 9d29 2f3d 3f24 33bd
00000080: 8199 51bd 4c31 e33c fdc5 18bd 6353 943d
00000090: 633f 9e3d f21f 673d 5704 80bd 940b 8c3d
000000a0: 9757 a1bc 38f4 80bd ad85 a73d 825b 49bd
000000b0: b3b8 acbd fa87 453d 49b8 43bd 5a9e 34bd
000000c0: 8175 86bd 1d80 163d 6f6f e9bc 3a65 8a3d
000000d0: 3793 223d 8fb8 f7bc 9d83 acbd 7cea 323d
000000e0: 3a1f 563d 6fe8 123b 500b 943d dd87 353d
000000f0: 4a89 673d 76bb 5fbd b603 79bc b3c4 79bc
00000100: 8215 a2ba e618 b23c 53dc a6bc c066 c43d
00000110: 5107 30bd 7d56 863d 7f63 f5bb 5b33 603d
00000120: e5d5 90bd 6926 3fbc e094 97bc 15df 86bd
00000130: dfcd 3d3d 5d81 e43c 844e 9b3d c055 3bb9
00000140: ef24 8abc a388 103c 0bd1 45bd 2b98 a73d
00000150: edf8 d5b9 0299 843d 95d9 50bc d0a5 c4bb
00000160: 2d65 a2bd cbf9 56bb a213 413c 5bbc 4ebd
00000170: 71a4 1fbc 49d6 93bd c4f0 9c3d 84db afbc
00000180: 789a 8d3c 45a3 08bd 7186 763d e106 06ba
00000190: c264 70bd 5243 723d 8389 b43c 8828 5dbd
000001a0: 43c4 c33b d8d3 acbd 583d 8a3d 2227 b6bd
000001b0: e2fd a43b f9ae 923d d589 4fbd c1ae 383d
000001c0: 0435 3fbc 43e3 fdbc bd9a 323c 082a b9bc
000001d0: 9a35 f4bc 0059 a7bd 5ae2 a23d fbdb 063b
000001e0: de7e 983c c0a4 adbc 2bd2 71ba d728 5b3c
000001f0: 55b3 e53c 4cd7 53bd 0c5f 6ebd bf7a 353c
00000200: 75b6 9abd 5c7e 413c 4b98 8cbd 0a4b 2b3d
00000210: 9c3e 723d c364 0ebc 26ca 8c3c 31f6 b7bc
00000220: a339 113c f73a 8c3b 6f1e 873d 3cb2 583d
00000230: 7f17 393d ec30 9e3c b3e7 cabc 24fb 153d
00000240: ea9e 88bd 60ef b6bc 3477 423d 3692 acbd
00000250: f40f bebc d886 083d 1292 e1bc e1d4 093d
00000260: fa3e babd 37f9 693c b88b 573b 24d7 2ebd
00000270: eef0 cdbc d604 de3c dcfe 94bc a15c 2d3d
00000280: 00ec 9fbd e1c6 673d 9fbd 9ebd b8ee 5a3d
00000290: 18b0 b53d 1af0 a73d 6357 01bc 9336 d33c
000002a0: 11d0 b63d ee75 763d 19a8 8cbd 2a24 81bc
000002b0: 39bb 9b3d 1480 383d e381 9d3d 1e31 89bd
000002c0: c1fd b03d 54ce 09bc 5755 01bd 2642 eeba
000002d0: 2404 4dbd 0eff 133d 8cd2 bcbc a31b dc39
000002e0: cec5 3d3d c145 59bd b520 283d e465 c23b
000002f0: 7894 313a a513 393d 747e 763d 5275 293d
00000300: 77c4 8f3c eda3 6bbc d81b 0fbd 954f 373d
00000310: 6c2c 3cbd 9b91 013c d23c 76bc ec04 723d
00000320: 292f a1bd 4845 583c fe34 ed3c 5611 72bd
00000330: 4e22 45bd 2b9f 0abd 9b33 a83c 0e36 b63a
00000340: 3cd1 79bd 95cf 86bd 22ca 98bd 02bf 33bc
00000350: 64c5 b73d 73b9 5ebd 33ce 973d 392c bc3d
00000360: 16fc 203c 65cb a4bd 8dbf 7a3b b8e7 cabb
00000370: 01a4 473c 74d2 8d3d 091f bebc caf3 adbd
00000380: f333 e23b bc89 853d 46bb 3abc 625b 1c3d
00000390: cdf7 41bd 6e76 5b3d f210 b13d c56a adbc
000003a0: 3936 323b a8d3 9a3d 1aa9 d03c d00d a43d
000003b0: 5ae3 323d 532f 5abd ceb1 6c3d 1004 11bb
000003c0: ef06 4d3d f12d 6d3c 719e 3ebd 8e87 9b3d
000003d0: 1359 87bd 8f5f 1b3d d2f2 843d 235e 433c
000003e0: 8079 e73c b25e 543d bd1e 42bc 54bd 2abd
000003f0: dd26 a23d 2278 a63d 5466 05bb 9c6a 7d3c
0.011237573 -0.0384323 0.08282745 -0.08075593 0.04373185 -0.04745821 0.08465887 -0.082684964
0.06333662 -0.051583305 -0.04131185 -0.023882842 0.062078606 0.05055818 -0.0014061787 0.011328334
-0.022914134 -0.07325319 -0.031388424 0.051786125 0.073866285 -0.023222694 0.07758634 0.06264135
0.041670702 0.010301231 -0.0102267135 -0.0588678 -0.01877503 0.050131388 0.042764295 -0.04373574
-0.051171783 0.027733468 -0.03729819 0.07242467 0.07726934 0.05642695 -0.06250828 0.06838146
-0.019695086 -0.06296581 0.081797935 -0.049159534 -0.08433666 0.04822538 -0.04778317 -0.04409633
-0.06565381 0.036743272 -0.028495518 0.06757589 0.039691176 -0.030239372 -0.08423541 0.043680653
0.052275874 0.0022416373 0.0722872 0.044319022 0.056527413 -0.054622136 -0.015198639 -0.015244651
-0.0012366029 0.021740388 -0.02036873 0.095899105 -0.042975727 0.06559465 -0.0074886675 0.054736476
-0.07072047 -0.011666873 -0.018503606 -0.06585518 0.046338912 0.027893716 0.07583335 -0.00017865654
-0.016863314 0.008821639 -0.048295062 0.081833206 -0.0004081199 0.064744964 -0.012747188 -0.0060012117
-0.07929454 -0.0032802697 0.011784466 -0.0504726 -0.009743796 -0.07218606 0.0766311 -0.021466978
0.01728557 -0.03335883 0.060186807 -0.00051127194 -0.05868984 0.059146233 0.022038227 -0.05399373
0.005974324 -0.084388435 0.06749982 -0.08894183 0.005035148 0.0716228 -0.050668556 0.045088533
-0.011670355 -0.030992156 0.01090115 -0.02260305 -0.029810715 -0.08171272 0.079533294 0.0020577896
0.018615182 -0.021196723 -0.0009224738 0.013376436 0.028039614 -0.051718995 -0.058196113 0.011076628
-0.07554332 0.011809912 -0.06864985 0.04181961 0.05914174 -0.008691016 0.017186236 -0.02245626
0.008863839 0.00427949 0.065976016 0.052904353 0.045188423 0.019310437 -0.024768686 0.03661646
-0.066709355 -0.02233094 0.047476962 -0.08426325 -0.023200966 0.033331722 -0.027535472 0.033650283
-0.09094043 0.014280609 0.0032889675 -0.042685643 -0.025139298 0.027101915 -0.018187933 0.042324666
-0.07808685 0.05658615 -0.07751011 0.053450316 0.08871478 0.082000926 -0.00789437 0.025782859
0.08926404 0.06017106 -0.068679996 -0.015764315 0.07604069 0.04504402 0.076907896 -0.066988215
0.0864215 -0.008411009 -0.031575527 -0.0018177673 -0.050052777 0.03613191 -0.023049615 0.0004198226
0.04633122 -0.053045038 0.041046817 0.0059325565 0.0006774138 0.04518475 0.06017919 0.04137165
0.017549736 -0.014382345 -0.034938663 0.04475363 -0.0459408 0.00790825 -0.015029149 0.059086725
-0.07870323 0.013200112 0.028955933 -0.059098564 -0.04812842 -0.0338432 0.02053242 0.0013901608
-0.060990557 -0.06582562 -0.07460429 -0.010970833 0.08973196 -0.054376077 0.07412376 0.09188122
0.009825727 -0.08046607 0.0038261146 -0.006192174 0.012185098 0.069249064 -0.023208158 -0.08493765
0.0069031655 0.06520411 -0.0113971885 0.038173087 -0.047355462 0.05357974 0.0864581 -0.021169076
0.0027192964 0.075599015 0.025471259 0.08010447 0.04367385 -0.05326779 0.057786755 -0.0022127666
0.05005544 0.014476285 -0.04653782 0.075942144 -0.066087864 0.03793293 0.06491627 0.011924299
0.028256178 0.05184812 -0.011848149 -0.041684464 0.07917569 0.08128382 -0.0020355182 0.015467312

fc2.bias f4 [84]
00000000: 6e7b 44bd 8025 93bd f68d 99bd 6896 0ebc
00000010: 702a 9e3b 124e 88bd 4ef0 dcbb cff8 c33d
00000020: d2a7 d63d f7e8 40bd 6053 a63c fcd1 6f3c
00000030: d0ef 9fbc c79d 973c 4fb9 64bd 1057 a73c
00000040: 9e0a ddba 28c1 64bd f704 643c 55e1 353d
00000050: fec0 b1bc bb54 9a3c b731 ad3d feb6 683d
00000060: f311 853c f5e9 95bd ce16 933c 44d7 61bc
00000070: 9cec 4ebd c56b 873d c605 31bd cc58 c93a
00000080: 0c44 95bd 2f87 013d abc0 0abd 0658 59bd
00000090: 7341 6cbd cce4 58bd 725d b6bc 9aa5 763d
000000a0: e10f 323d abf8 943d 7eb6 7a3d 4676 2f3d
000000b0: 7b5c 4ebc b5c8 0dbd d5a2 b73d 2872 ad3d
000000c0: a53b e23c 2c67 833b 2c92 eabb 5506 e53b
000000d0: 48cc 60bd 2be0 9dbc 0fad e33c 57b5 373d
000000e0: d757 b2bd a7b6 26bd 1c89 3fbd 3b38 b6bc
000000f0: f028 93bc 3370 a6bd 6b64 87bd 2bc5 21bd
00000100: 6454 aa3d e68d 8a3d 2d11 083d f3bb 74bd
00000110: 7f10 93bd e305 e1bc eb4b 0c3c 832f 9a3d
00000120: 99e8 c13c 616e 81bd 9092 ca3b 36a8 41bd
00000130: 7031 a8bd 00f2 0c3d 0fd4 c43d 0c38 6bbd
00000140: b969 8d3d c526 60bd c41b b13c cb09 a33c
-0.047969274 -0.07184887 -0.0749778 -0.008702852 0.0048268363 -0.06655516 -0.0067425137 0.09568941
0.10481228 -0.047097173 0.020303428 0.0146374665 -0.019523531 0.018507851 -0.055840787 0.020427257
-0.0016864126 -0.05584827 0.013917199 0.044404346 -0.021698471 0.01883923 0.08456748 0.05681514
0.01624391 -0.073200144 0.01795521 -0.0137842335 -0.050518617 0.06612352 -0.043218397 0.0015361547
-0.072883695 0.03162306 -0.03387515 -0.05306246 -0.057679605 -0.052952573 -0.022261355 0.060216524
0.043472175 0.07273992 0.061209194 0.042837404 -0.012595291 -0.034615237 0.089666046 0.08469039
0.027616331 0.004010102 -0.0071585383 0.00698928 -0.054882318 -0.01927193 0.027792482 0.044850674
-0.0870816 -0.040701535 -0.046761617 -0.02224361 -0.017963856 -0.08126869 -0.0661095 -0.039494675
0.083168775 0.06765346 0.033219505 -0.059749555 -0.07180881 -0.027468627 0.008563022 0.075285934
0.023670482 -0.06319881 0.0061820224 -0.04727956 -0.082125545 0.034410477 0.096107595 -0.057426497
0.069049306 -0.054724474 0.021619685 0.01990213

fc3.weight f4 [10, 84]
00000000: 3390 9fbb b870 253c 3ffd 6cbd b010 0d3d
00000010: 8280 573a 40a3 6ebb ab51 933d 2ee9 4fbd
00000020: 27fc c6bd f020 1e3c 8ed6 76bc 716a e13d
00000030: ccbb c73d 4767 96bd dbf7 983c 0dd2 9e3d
00000040: 8ef2 98bd 9e60 2bbd eb9b 69bd 4fc8 a9bd
00000050: 8454 203d adb5 abbd 8b9d e7bc b196 c03c
00000060: 8569 ac3d 4916 533c 3fc9 8e3d 2604 943c
00000070: a41b bbbd 98cc 74bd b3ac 84bc 05a8 f33d
00000080: 6f4f b4bd abc4 66bc ae89 ac3d 7785 353d
00000090: 8368 b73d 7338 e9bd d0db d9bc 4dcf 243d
000000a0: ed39 a63d 0ac1 d73c 07cf 3cbc e441 81bb
000000b0: 6003 9d39 4b4d e53d b26d adbd 080c 30bd
000000c0: c0fd 913d 395a e6bc 1625 843d 6496 4ebd
000000d0: fbee 03bc 6eff c9bd 6b75 3cbc 3f77 bebd
000000e0: 3aea 64bd 37bd 5a3d 0e06 81bd 60e1 acbd
000000f0: 315b 1c3d 20af 923d d308 88bd 12fe 1b3d
00000100: 266f abbd 7023 ce3d 1498 9b3d c9a7 b03d
00000110: 6345 823d c4c0 3e3d d0eb c5bd c2cd cc3d
00000120: 7c28 e0bd 4f0c 3fbc bf28 c53d 2961 283d
00000130: 6a6e aabc beaf 17bd 8c01 aa3d cf56 6d3d
00000140: 252e 493d b933 5ebd 490b babc b8bd ddbd
00000150: f64c 663d 56e1 763d 314f aa3d af1a 92bd
00000160: deed 2a3d 0cbe bb3d 8304 2f3d 7398 8fbd
00000170: 4763 323c da2f 52bd b827 29bd 28a4 d6bc
00000180: 2051 2d3d d6b5 973d 2108 7c3c 67ff 18bb
00000190: 2172 bb3b 720c c5bd c786 ea3c 7f9b 453d
000001a0: 7d1f be3d 66cb 8b3c cc08 593c 6a76 d9bc
000001b0: 06bb dabd 3382 a63d 2842 aa3c 4ac2 893d
000001c0: 624c 4bbd 2aac bf3d 3187 0a3c d288 d03d
000001d0: d6c0 703d ab94 23bd b8ec 543d 62ff c6bd
000001e0: 6d6e 923c 6197 fe3c fe53 763c db14 c0bd
000001f0: c1f7 0dbd 9114 abbd 9828 9c3d f999 c53d
00000200: 606c 393d 8dd3 a2bd 8a23 56bd 2b83 c93d
00000210: cc4b 81bd 0544 b13d 3042 0c3c 40cf a23d
00000220: eb29 c73d ded2 b0bd f47b 163d 963e 453c
00000230: defd 423d 0f86 cdbd b2e4 b4bc 30e2 973d
00000240: e1f5 b9bd 121e c13d 65c9 fdbc 1361 be3d
00000250: d98f d6bb b477 9dbd 9794 9dbc b9c3 ea3c
00000260: 3bba 43bc cdd1 1e3c 663d f7bc c663 933d
00000270: 276d 953d e8a3 aa3d 1c0a 093d 1254 073d
00000280: 21e7 08bd 41b7 9f3d 4dde 38bd 0c34 88bd
00000290: 6140 92bd a731 34bc cfdb adbc f56a cebd
000002a0: df15 7d3d 13b7 043d f5ed b03c f375 ccbd
000002b0: 2ba4 c63b a812 d03c 5a58 ba3d 3691 83bd
000002c0: 1d31 d4bd 6195 703d b763 b73d 5bbf 1bbd
000002d0: 1301 c8bd 07f4 1abd 5290 2b3d fd01 373d
000002e0: 713b 14bc 684d 2abd 5e32 8d3d 7976 41bc
000002f0: 22a7 0c3d adc6 ab3d a754 a5bc f54a 17bb
00000300: ab00 d9bd c6bd 273d 607d db3d 8cb5 cf3d
00000310: a111 b8bd a14a 2bbd 01a1 373d f37d b43d
00000320: a616 b7bd 1311 bebd cfa1 063d 60d4 3ebd
00000330: ce20 9cbd c1e2 3dbb c1c4 9e3d 0e10 eb3b
00000340: d6b8 8abd 92f5 a8bd a497 a33c 0b41 69bd
00000350: c63e 943d 0688 d83d 223e 22bd 014b 4cbc
00000360: 19e3 843c f147 cb3d 6603 67bc 1e6f 51bd
00000370: 5f08 7b3d 1d37 a4bd b675 c83d e29f 863c
00000380: 68c5 93bc 9cbb c73d 1b1e 9fbd 653c 843d
00000390: 3c58 a63d db3d d13d 9d44 adbd 402f 15bd
000003a0: 4438 06bd e3bd 873d 36c8 713b 3eed debd
000003b0: c3e0 bcbd f788 dabd 6a98 2ebd 9a62 be3d
000003c0: 66f5 c33d 2093 7c3d 8843 53bd dc28 e73c
000003d0: 4e72 f5bc f579 2cbd a805 5ebd 2a9b d33d
000003e0: 7b24 80bc a903 bebd 8fac c53c efcf 383d
000003f0: ff73 36bd 033d bcbd 8e27 58bd abeb 123c
-0.004869485 0.010097675 -0.0578587 0.034439743 0.0008220748 -0.0036413223 0.07193311 -0.050759487
-0.09716063 0.009651408 -0.015065802 0.1100663 0.09752616 -0.07343917 0.018672874 0.07754908
-0.07468139 -0.04184019 -0.05703346 -0.08290159 0.0391431 -0.08384261 -0.028273365 0.023509355
0.08418564 0.012883731 0.069719784 0.018068384 -0.091361314 -0.05976543 -0.01619563 0.118972816
-0.08804213 -0.014084975 0.08424698 0.044316735 0.08955481 -0.1138772 -0.026594073 0.04023676
0.08116517 0.026337165 -0.011523969 -0.0039446224 0.00029947888 0.11196383 -0.08468188 -0.042980224
0.07128477 -0.028119193 0.06452386 -0.050436392 -0.008052583 -0.098631725 -0.011502604 -0.09300088
-0.05588744 0.053403106 -0.06299983 -0.08441424 0.038172904 0.07162309 -0.06642308 0.038084097
-0.08370809 0.10065353 0.07597366 0.086257525 0.06360891 0.046570554 -0.09664118 0.10000183
-0.10945222 -0.011660649 0.09626912 0.041108284 -0.020804603 -0.037032835 0.08301076 0.057944115
0.049116272 -0.054248545 -0.02271046 -0.108272016 0.05622574 0.06027349 0.08315886 -0.07133996
0.041730754 0.09167108 0.042728912 -0.07011499 0.010887927 -0.051315166 -0.041297644 -0.026201323
0.042313695 0.07407729 0.015382797 -0.002334559 0.0057203923 -0.096215144 0.02862872 0.048243996
0.0928335 0.017064761 0.013246726 -0.026545722 -0.10680203 0.08130302 0.020783499 0.06726511
-0.04963339 0.093590096 0.008455084 0.101823464 0.058777653 -0.039936703 0.051983565 -0.09716679
0.01787492 0.031078042 0.015034674 -0.09378978 -0.034660105 -0.08353532 0.0762493 0.096485086
0.04526937 -0.07950506 -0.052279986 0.098394714 -0.06313285 0.08655552 0.008560702 0.07949686
0.09724792 -0.0863397 0.036739305 0.012038847 0.047605388 -0.10035335 -0.022081707 0.07416189
-0.09080101 0.094295636 -0.030979821 0.09295859 -0.0065479097 -0.07688847 -0.019235892 0.028657781
-0.011946256 0.009693575 -0.030180644 0.07196765 0.0729621 0.08332044 0.033456907 0.03303916
-0.033423547 0.07798625 -0.045133878 -0.06650552 -0.071411856 -0.010998166 -0.021222977 -0.10078994
0.061788436 0.032401156 0.021597842 -0.099834345 0.006062051 0.025399521 0.09098883 -0.06424181
-0.1036093 0.05873621 0.08954566 -0.038024288 -0.0976583 -0.03783038 0.04188568 0.04467963
-0.009047375 -0.041577727 0.068943724 -0.011808031 0.034339078 0.08387504 -0.020181967 -0.002308545
-0.105958305 0.040952466 0.10717273 0.10142049 -0.089877374 -0.04181922 0.04483128 0.088130854
-0.08939867 -0.092806004 0.032869156 -0.046589255 -0.076234445 -0.0028974267 0.077523716 0.0071735447
-0.06773536 -0.08249964 0.019969769 -0.056946795 0.072385356 0.105728194 -0.039610036 -0.012469054
0.01622157 0.09925831 -0.014099931 -0.05113136 0.06128728 -0.080183245 0.097880766 0.01643366
-0.018038467 0.097525805 -0.07769414 0.06456832 0.08122298 0.10216876 -0.084603526 -0.036422014
-0.032768503 0.06628015 0.0036893017 -0.10885094 -0.092225574 -0.10670655 -0.042625822 0.092961505
0.095682904 0.061663747 -0.051578075 0.028217725 -0.029961731 -0.042108495 -0.054204613 0.103323296
-0.015642395 -0.09278042 0.024130134 0.045120176 -0.044544216 -0.091913246 -0.052772097 0.00896732

fc3.bias f4 [10]
00000000: 2f2a 8c3b 2276 d0bd e762 7abd 4413 0c3e
00000010: 502b fa3b e90a 483c b26e 11bd 1dbc e8bc
00000020: 26df b13d 1f69 e83c
0.0042774896 -0.10178782 -0.061129477 0.13679224 0.007634558 0.012209632 -0.035505958 -0.028410012
0.0868514 0.028370438
