experiments/LeNet/FashionMNIST/experiment-5/last-epoch.pt (torch, 184811 bytes, 10 tensors)

conv1.weight f4 [6, 1, 5, 5]
-0.03194849 -0.65772605 -0.50565475 0.16045178 0.4576481 0.3188212 -0.3823426 -0.20057905
0.02615444 0.41310403 0.6880997 0.07341353 -0.38799077 0.23053536 0.30850825 0.5255409
-0.11606071 -0.11281009 0.30220023 0.18951517 0.7815201 0.33064845 -0.18414503 0.08380347
0.16927908 0.6200266 1.1835328 0.6454265 -0.50479317 -0.63458586 0.025086852 0.61556315
0.30261296 -0.18869193 -0.52816033 -0.322288 0.44027546 0.08000734 -0.2227873 -0.33352286
-0.31244215 0.6622054 0.4015398 -0.12054729 -0.14863074 -0.1806733 0.60467094 0.48386803
-0.1500239 -0.33056116 -0.36851797 -0.58966047 -0.59659266 -0.15678936 0.43047017 -0.41809362
-0.36144227 -0.54939723 -0.070999384 0.5447687 -0.15663703 -0.33198527 -0.007218747 0.41153178
0.42126286 0.041720737 0.18037951 -0.093238175 0.46401945 0.18736643 0.13850312 0.15449731
0.055954106 0.48845464 0.10045889 0.30737194 0.28352398 -0.12654285 0.069392204 0.01029601
0.39699706 0.263283 -0.05114887 -0.18575868 -0.035288364 0.46941993 0.01099677 -0.37015918
-0.33029372 0.14286873 0.0922193 0.0690874 -0.19757676 -0.08260734 -0.19971551 0.38277212
-0.13560927 -0.47666034 -0.22612903 -0.10064669 -0.14772436 0.4427945 0.39517808 -0.01866534
0.06265466 -0.30767554 0.25919348 0.04806227 -0.22908144 -0.08186054 -0.35603526 0.091886826
-0.06291154 -0.42039815 -0.12646556 0.039019838 0.691132 0.17698912 -0.18040337 0.13513501
0.40919054 1.2601233 0.61496866 0.19439705 0.016141139 0.32625273 0.49875095 0.84401244
0.77750623 0.043427084 0.11058467 -0.15932922 0.14697936 0.36924514 0.007762886 0.0051089665
-0.23461328 -0.055179864 0.078923486 0.0026875134 0.0019675244 -0.09342107 0.015991272 0.19467369
-0.075105585 0.07878415 -0.03776461 -0.16913296 0.111478 -0.031988237
00000000: 6bdc 02bd bc60 28bf 9772 01bf 794d 243e
00000010: da50 ea3e 883c a33e 69c2 c3be 9864 4dbe
00000020: d641 d63c 5f82 d33e 4d27 303f d559 963d
00000030: baa6 c6be 7611 6c3e cbf4 9d3e d989 063f
00000040: 3db1 edbd fa08 e7bd fdb9 9a3e 4410 423e
00000050: b411 483f c14a a93e 8490 3cbe 27a1 ab3d
00000060: 7f57 2d3e 10ba 1e3f 017e 973f ac3a 253f
00000070: 203a 01bf 3874 22bf f182 cd3c 8c95 1d3f
00000080: 16f0 9a3e 7538 41be 8435 07bf ef02 a5be
00000090: c96b e13e e3da a33d 5b22 64be 82c3 aabe
000000a0: 6bf8 9fbe 4b86 293f a096 cd3e 7fe1 f6bd
000000b0: a832 18be 6c02 39be b7cb 1a3f 8dbd f73e
000000c0: de9f 19be 503f a9be 63ae bcbe fdf3 16bf
000000d0: 4cba 18bf 648d 20be 9666 dc3e 5e10 d6be
000000e0: f60e b9be 4ca5 0cbf 2068 91bd f675 0b3f
000000f0: 7565 20be f9f9 a9be 3d8b ecbb 4bb4 d23e
00000100: c4af d73e 5de3 2a3d 68b5 383e a8f3 bebd
00000110: f593 ed3e fcdc 3f3e c3d3 0d3e 8b34 1e3e
00000120: 2230 653d ba16 fa3e 64bd cd3d db5f 9d3e
00000130: 0e2a 913e 7394 01be 801d 8e3d 99b0 283c
00000140: 3343 cb3e 08cd 863e 7a81 51bd 8637 3ebe
00000150: 888a 10bd cf57 f03e cc2b 343c 8185 bdbe
00000160: 421c a9be 2e4c 123e 79dd bc3d b27d 8d3d
00000170: 9051 4abe 092e a9bd 3982 4cbe b5fa c33e
00000180: 28dd 0abe d30c f4be 5e8e 67be da1f cebd
00000190: 0e45 17be f6b5 e23e c854 ca3e 0ee8 98bc
000001a0: 1651 803d a687 9dbe 02b5 843e f1dc 443d
000001b0: 5394 6abe 80a6 a7bd 414a b6be 292f bc3d
000001c0: c4d7 80bd 6d3e d7be 3080 01be 44d3 1f3d
000001d0: 07ee 303f a33c 353e a9bb 38be d560 0a3e
000001e0: 6c81 d13e b84b a13f 966e 1d3f 0510 473e
000001f0: 6c3a 843c 990a a73e 495c ff3e 3311 583f
00000200: a60a 473f 99e0 313d 377a e23d 3327 23be
00000210: c281 163e b30d bd3e cf5f fe3b 1e69 a73b
00000220: 773e 70be 4804 62bd a3a2 a13d fe20 303b
00000230: 95f1 003b 8c53 bfbd 2100 833c 8a58 473e
00000240: f5d0 99bd 9659 a13d 10af 1abd 3131 2dbe
00000250: 944e e43d 1906 03bd

conv1.bias f4 [6]
-0.7962914 0.30475178 -0.027440077 -0.020578949 -0.00309109 0.005740013
00000000: c1d9 4bbf 6d08 9c3e 03ca e0bc 2f95 a8bc
00000010: e293 4abb b816 bc3b

conv2.weight f4 [16, 6, 5, 5]
-0.071169496 -0.02659141 -0.04505607 -0.020275325 -0.040320847 0.07416348 -0.047099672 -0.028874824
-0.03758472 0.022015143 -0.06777231 -0.0012247366 0.020558542 -0.005626002 -0.041345537 0.06962107
-0.057154346 0.07879678 0.059487656 0.049511205 0.039663915 -0.041786034 0.05529603 0.05170148
0.058278784 -0.026136415 -0.039168812 0.054364253 -0.05977306 -0.06597844 0.029551545 0.04665692
-0.06198223 -0.039089616 -0.032555897 -0.0678833 -0.027609864 -0.004758209 -0.0151049085 -0.041066706
-0.048414778 -0.05204307 -0.0031371757 0.046902183 -0.03873471 -0.059964478 -0.06504844 -0.0481659
-0.054720737 0.04243683 -0.05551369 -0.034804545 0.035544664 -0.027395472 0.028908629 0.040265046
0.041668788 -0.06775206 0.07700488 -0.059791747 0.06294056 0.05791391 -0.07245926 -0.004189606
0.008651751 0.071492426 -0.06879447 -0.036973085 0.054433323 0.028768372 0.003948998 0.004387057
-0.032702696 -0.027553597 0.06331357 0.00914753 -0.03143161 0.03683802 0.008352212 -0.05807713
-0.030070357 0.05915634 -0.056402598 -0.028418995 0.061404034 -0.031960897 -0.042473953 0.078429855
-0.056713875 -0.045258105 -0.029233817 0.009684391 -0.07181528 0.017889565 -0.015019478 -0.07419332
0.06175636 -0.0004464466 -0.007473642 0.035029016 0.07124512 0.07637878 -0.02255712 0.052603014
-0.069353305 0.044315737 -0.012178967 -0.0053481855 0.0065337676 0.055102848 -0.010487599 -0.035799146
0.028632412 -0.048869025 0.07571572 0.030217 -0.03191115 -0.07126055 -0.04787164 0.04679859
0.05561691 -0.009861815 -0.078227155 0.06936295 -0.033214875 0.037101384 -0.050180882 0.016797185
0.03980203 0.049004458 0.07172284 -0.07966851 0.031685524 -0.042189423 0.025469115 -0.05871263
-0.056627437 -0.01096589 -0.05743982 -0.037185803 0.07735877 -0.047148637 0.07258405 0.054659825
0.008972395 -0.012990102 -0.07783916 -0.04011272 -0.00015465263 0.008254012 -0.073200375 0.04650046
-0.035904083 -0.031937182 0.043604035 0.052221812 0.05430593 -0.015199328 0.02091621 0.002563367
-0.07721614 -0.021038026 -0.031190062 -0.007370279 -0.017568981 -0.063194 -0.07877168 0.05948805
-0.07626311 -0.037279256 -0.07397338 -0.003017047 -0.035843596 0.05459161 0.0370293 -0.044112977
0.009566897 -0.073810205 0.021025298 -0.05545196 -0.023863612 -0.041084018 -0.011385183 0.06668524
-0.052367024 -0.046302587 -0.05788469 -0.036774978 0.056467872 -0.071969554 -0.013196593 -0.047104333
-0.0684766 -0.035577223 -0.037550773 -0.021810291 0.048694104 -0.03778157 0.016900642 0.0398026
-0.06487146 -0.024162242 0.067048386 0.01887049 -0.036437146 0.057751335 0.03706697 0.08038487
0.0046228827 0.0074334536 0.06493561 -0.046845544 0.029049383 0.047450487 -0.007607413 -0.03468684
0.07314723 0.052712213 -0.02453133 -0.046399992 0.014196303 -0.018143566 0.060854945 -0.07007399
0.07671481 0.06937755 0.01059528 -0.039408892 0.0063283397 -0.021338232 0.005045801 -0.07610912
-0.07467643 -0.05498875 -0.034063667 -0.06511996 0.019083304 0.029969374 0.059983917 0.07545967
-0.034373816 -0.06273074 0.057856835 -0.017676784 -0.028520143 0.055255685 0.0031879512 -0.07320993
0.022120906 -0.06725512 0.034129515 0.009950296 -0.0151788425 -0.023563111 0.06516893 0.0508322
00000000: 50c1 91bd 3bd6 d9bc b78c 38bd 7018 a6bc
00000010: 7927 25bd 06e3 973d 96eb 40bd e58a ecbc
00000020: 6ff2 19bd 1a59 b43c 35cc 8abd 5787 a0ba
00000030: 636a a83c 535a b8bb f059 29bd 7e95 8e3d
00000040: ad1a 6abd 3560 a13d 54a9 733d 43cc 4a3d
00000050: a176 223d d527 2bbd 177e 623d eec4 533d
00000060: bcb5 6e3d 091c d6bc 7a6f 20bd 0dad 5e3d
00000070: 99d4 74bd b41f 87bd 1516 f23c 541b 3f3d
00000080: 14e1 7dbd 6f1c 20bd 5559 05bd 6606 8bbd
00000090: 152e e2bc c0ea 9bbb 947a 77bc 9035 28bd
000000a0: 934e 46bd 1d2b 55bd 1399 4dbb 811c 403d
000000b0: 4aa8 1ebd 509d 75bd 1e38 85bd 9b49 45bd
000000c0: da22 60bd 3ed2 2d3d 5362 63bd 368f 0ebd
000000d0: 4897 113d 786c e0bc cad1 ec3c f6ec 243d
000000e0: e4ac 2a3d 98c1 8abd bcb4 9d3d 31e8 74bd
000000f0: fbe6 803d 2337 6d3d 8565 94bd f648 89bb
00000100: 13c0 0d3c 9f6a 923d 1de4 8cbd 1771 17bd
00000110: 7af5 5e3d a6ab eb3c 9966 813b 4dc1 8f3b
00000120: 43f3 05bd 15b8 e1bc 8caa 813d 86df 153c
00000130: 6fbe 00bd 77e3 163d b7d7 083c 49e2 6dbd
00000140: 1c56 f6bc eb4d 723d 6906 67bd f4ce e8bc
00000150: cc82 7b3d 6ee9 02bd 2bf9 2dbd d59f a03d
00000160: cf4c 68bd 9060 39bd c27b efbc 48ab 1e3c
00000170: e413 93bd 238d 923c 4214 76bc abf2 97bd
00000180: 3df4 7c3d 0c11 eab9 74e5 f4bb 967a 0f3d
00000190: f6e8 913d 7a6c 9c3d b6c9 b8bc 4276 573d
000001a0: 1b09 8ebd 6b84 353d 4a8a 47bc d53f afbb
000001b0: 3719 d63b 86b3 613d 2ed4 2bbc 20a2 12bd
000001c0: 858e ea3c e32a 48bd d810 9b3d a489 f73c
000001d0: 44b5 02bd 0df1 91bd 0e15 44bd e1af 3f3d
000001e0: 8fce 633d 7393 21bc 8f35 a0bd 2a0e 8e3d
000001f0: 520c 08bd 9ff7 173d 788a 4dbd 409a 893c
00000200: 7407 233d e6b8 483d 6de3 923d 3e29 a3bd
00000210: aec8 013d d1ce 2cbd 9ba4 d03c a87c 70bd
00000220: 2cf2 67bd 47aa 33bc 0446 6bbd 2450 18bd
00000230: 466e 9e3d ee1e 41bd f2a6 943d fbe2 5f3d
00000240: f400 133c 70d4 54bc 236a 9fbd 3c4d 24bd
00000250: 402a 22b9 d63b 073c 14ea 95bd 4477 3e3d
00000260: 2910 13bd 90d0 02bd 259a 323d 8ae6 553d
00000270: e56f 5e3d 9a06 79bc 7958 ab3c 29fe 273b
00000280: 7f23 9ebd f057 acbc 4d82 ffbc 6282 f1bb
00000290: d3ec 8fbc db6b 81bd 0c53 a1bd bea9 733d
000002a0: d52f 9cbd 22b2 18bd 5b7f 97bd a6b9 45bb
000002b0: bcd0 12bd 749b 5f3d 09ac 173d cfaf 34bd
000002c0: 79be 1c3c ce29 97bd 3f3d ac3c 9821 63bd
000002d0: 9f7d c3bc b747 28bd eb88 3abc 4592 883d
000002e0: ce7e 56bd c8a7 3dbd 7f18 6dbd 5ca1 16bd
000002f0: db4a 673d c664 93bd 8636 58bc 79f0 40bd
00000300: 763d 8cbd 6cb9 11bd d7ce 19bd 7fab b2bc
00000310: 7873 473d d9c0 1abd 3773 8a3c 0d08 233d
00000320: 54db 84bd e5ef c5bc aa50 893d 4996 9a3c
00000330: 1e3f 15bd aa8c 6c3d 89d3 173d d3a0 a43d
00000340: 8d7b 973b 5494 f33b f6fc 843d 1de1 3fbd
00000350: f9f8 ed3c 715b 423d 9b47 f9bb ca13 0ebd
00000360: 37ce 953d c3e8 573d eef5 c8bc eb0d 3ebd
00000370: 9c97 683c d1a1 94bc 0943 793d f482 8fbd
00000380: a81c 9d3d d115 8e3d d397 2d3c 386b 21bd
00000390: f65d cf3b 84cd aebc 3f57 a53b 19df 9bbd
000003a0: f5ef 98bd e23b 61bd 5886 0bbd 9d5d 85bd
000003b0: 9754 9c3c 5582 f53c b2b1 753d 998a 9a3d
000003c0: 8fcb 0cbd f978 80bd 4afb 6c3d e7ce 90bc
000003d0: 13a3 e9bc c953 623d f2ec 503b 16ef 95bd
000003e0: e736 b53c 0dbd 89bd 64cb 0b3d 9106 233c
000003f0: aeb0 78bc 6d07 c1bc 4a77 853d 6d35 503d

conv2.bias f4 [16]
-0.048625164 -0.011174031 -0.71064335 0.08886386 0.18700702 0.8430433 -0.18908048 0.1637778
0.51182187 0.31713313 -0.041400407 0.07866823 -0.058631286 -0.0012618819 -0.23890918 -0.04286956
00000000: 2e2b 47bd 4813 37bc b9ec 35bf 41fe b53d
00000010: c57e 3f3e b0d1 573f 509e 41be 5eb5 273e
00000020: c206 033f 465f a23e 7993 29bd cf1c a13d
00000030: 5c27 70bd bb65 a5ba 9ca4 74be fe97 2fbd

fc1.weight f4 [120, 256]
-0.009687599 0.029821385 0.023456361 -0.03484762 -0.006342324 -0.048768792 -0.009874138 0.01565891
-0.043500885 0.02343346 -0.016015377 0.025586244 -0.039144084 -0.0005860708 -0.008488651 -0.05245907
-0.007797448 -0.053616397 -0.0023942483 -0.039459094 0.04503308 0.024151552 0.043590546 -0.03736014
0.04186086 -0.008903272 0.04928956 -0.0030431051 -0.018441813 0.055442348 0.034464903 0.016746845
0.27973068 0.13678631 -0.07362762 -0.072322145 -0.03587334 0.080233574 0.023691682 -0.015845044
-0.086524814 0.11539102 -0.0902571 -0.0786344 -0.011138652 -0.16149697 -0.12862645 0.11297315
0.03721065 -0.02915318 0.20722207 -0.1452962 -0.11393064 -0.03692336 -0.082619056 0.01162193
0.028203852 -0.071036704 -0.14827001 0.09023465 0.036097724 0.09185216 -0.29630214 0.031845234
-0.051863763 0.16561702 -0.010100686 0.027370706 -0.12612364 0.09147606 -0.09881623 0.02344187
-0.052092846 0.035219405 -0.11581696 0.03769887 0.050012905 0.029877197 -0.028071847 -0.10419912
0.09493455 0.1981713 0.07492935 -0.030355204 0.010903633 0.11951969 0.031115541 -0.100407034
-0.080341 -0.049134735 -0.021759607 -0.04441566 -0.098307304 -0.14752436 -0.12990357 -0.030186921
-0.18219528 -0.048789166 -0.15827532 0.27023524 -0.10692644 0.011554259 0.08637777 -0.08412008
-0.022640634 0.01144883 0.12158546 -0.12856735 -0.061297324 0.104397304 0.059576437 -0.17869794
-0.1188369 0.0799439 -0.002578285 -0.04222456 -0.010770315 0.004730912 -0.0018248314 -0.0017514566
-0.011645693 -0.10400667 -0.014091856 0.020330919 -0.0042142887 -0.09075564 -0.025359873 0.057682816
0.022751058 -0.20773077 -0.13360615 -0.04467881 -0.057425946 0.029783804 0.13466546 -0.093054645
0.029135145 -0.0071974746 0.038194105 -0.017055133 0.19765949 -0.009694323 0.15403153 -0.11124163
-0.044427503 0.054118253 0.00017840078 -0.005315811 0.12176153 0.016434431 -0.15517949 -0.030033685
0.16044961 0.04705728 -0.14660197 -0.02372865 -0.061287686 -0.08737397 -0.08157992 -0.058856156
-0.014394935 -0.050215885 0.027876617 -0.041719478 -0.060279448 -0.046009056 0.0048288815 -0.046183545
0.031000968 0.056824207 0.036695946 0.027063232 -0.010550123 -0.03346989 -0.022687908 -0.0045728222
-0.11663977 -0.31350055 -0.36661294 0.24230051 0.10343728 -0.096334904 0.08614632 -0.052414577
0.1646547 0.11400417 0.04828651 0.035848692 0.016993288 0.027124764 0.15894416 -0.14034595
-0.42254287 0.19601434 0.27078998 -0.024193758 -0.013807177 0.0511949 0.11586931 -0.10901457
-0.0135352975 -0.12992886 -0.01976203 -0.01261748 -0.13405463 0.120056294 -0.10672337 0.18598425
-0.044351794 0.020502264 0.017458595 -0.007603778 0.029273001 -0.04273942 -0.008529749 -0.04817784
-0.050964843 -0.005633214 0.033503808 0.035762165 -0.008543064 0.027831994 -0.023859397 0.051049247
0.22475171 0.036820136 -0.11299886 -0.19856536 -0.15034355 -0.0052002533 0.032079767 0.01785651
0.018904572 0.093654506 0.017502792 -0.12104513 -0.20093152 0.05064035 -0.03677367 0.037774324
-0.024178674 -0.058854457 0.035163406 0.019934649 -0.023745647 -0.006435518 -0.018427102 0.04510061
-0.01828067 0.038592152 -0.030649431 -0.047227155 0.0305756 0.031141818 -0.037783265 0.043571737
00000000: bcb8 1ebc fa4b f43c 8e27 c03c 61bc 0ebd
00000010: 45d3 cfbb c9c1 47bd 23c7 21bc 1d47 803c
00000020: fc2d 32bd 87f7 bf3c ae32 83bc 3e9a d13c
00000030: 8c55 20bd 8ca2 19ba fc13 0bbc 52df 56bd
00000040: bc81 ffbb de9c 5bbd d2e8 1cbb dc9f 21bd
00000050: 9b74 383d 7ad9 c53c 008c 323d f206 19bd
00000060: 4b76 2b3d 08df 11bc dae3 493d d56e 47bb
00000070: 4913 97bc 8417 633d 122b 0d3d ae30 893c
00000080: dc38 8f3e b611 0c3e 14ca 96bd a21d 94bd
00000090: ecef 12bd 8051 a43d 0f15 c23c 77cd 81bc
000000a0: ec33 b1bd 2152 ec3d b7d8 b8bd 130b a1bd
000000b0: e57e 36bc 765f 25be a7b6 03be 785e e73d
000000c0: 326a 183d a6d2 eebc 0632 543e 87c8 14be
000000d0: 7854 e9bd f33c 17bd 2e34 a9bd e869 3e3c
000000e0: c40b e73c b17b 91bd 18d4 17be f2cc b83d
000000f0: 35db 133d fc1c bc3d eab4 97be 2670 023d
00000100: 196f 54bd 8297 293e 597d 25bc 8838 e03c
00000110: 8e26 01be cd57 bb3d 2a60 cabd 2a09 c03c
00000120: 4f5f 55bd 3942 103d 7131 edbd 216a 1a3d
00000130: 55da 4c3d 06c1 f43c eef6 e5bc 5966 d5bd
00000140: 0c6d c23d 6bed 4a3e 8f74 993d 7aab f8bc
00000150: 27a5 323c bdc6 f43d 05e6 fe3c 34a2 cdbd
00000160: d289 a4bd 8141 49bd 3441 b2bc 32ed 35bd
00000170: 5755 c9bd a010 17be 7105 05be 904a f7bc
00000180: 6691 3abe 26d7 47bd ed12 22be 465c 8a3e
00000190: 40fc dabd 134e 3d3c d4e6 b03d 2647 acbd
000001a0: da78 b9bc e093 3b3c cc01 f93d 29a7 03be
000001b0: e712 7bbd 41ce d53d 6c06 743d 98fc 36be
000001c0: c360 f3bd a1b9 a33d 72f8 28bb a9f3 2cbd
000001d0: fa75 30bc c405 9b3b 2e2f efba 2291 e5ba
000001e0: 94cd 3ebc 7301 d5bd 87e1 66bc 078d a63c
000001f0: 0418 8abb 18de b9bd 82bf cfbc d144 6c3d
00000200: 6d60 ba3c 60b7 54be 0dd0 08be 2101 37bd
00000210: 7837 6bbd 2afd f33c bee5 093e 6f93 bebd
00000220: d4ac ee3c cbd8 ebbb 6c71 1c3d 35b7 8bbc
00000230: 4067 4a3e f0d4 1ebc 71ba 1d3e a7d2 e3bd
00000240: 9df9 35bd 1aab 5d3d 1811 3b39 4130 aebb
00000250: 1c5e f93d 80a1 863c 5fe7 1ebe 3409 f6bc
00000260: e74c 243e 22bf 403d d41e 16be 9662 c2bc
00000270: cc08 7bbd 20f1 b2bd 6013 a7bd 2713 71bd
00000280: bcd8 6bbc 2caf 4dbd 815d e43c 0be2 2abd
00000290: 95e7 76bd fe73 3cbd 983b 9e3b f52a 3dbd
000002a0: bef5 fd3c 80c0 683d 7d4e 163d b6b3 dd3c
000002b0: 6cda 2cbc b917 09bd fedb b9bc 9dd7 95bb
000002c0: d5e0 eebd 2583 a0be b1b4 bbbe a01d 783e
000002d0: edd6 d33d 3c4b c5bd 7b6d b03d abb0 56bd
000002e0: 3e9b 283e 057b e93d 13c8 453d 14d6 123d
000002f0: 8235 8b3c c134 de3c 42c2 223e d9b6 0fbe
00000300: 8a57 d8be fcb7 483e fca4 8a3e fd31 c6bc
00000310: 7f37 62bc beb1 513d e44c ed3d 0843 dfbd
00000320: 27c3 5dbc 120c 05be fbe3 a1bc 8cb9 4ebc
00000330: 9e45 09be 13e0 f53d c891 dabd a872 3e3e
00000340: 3aaa 35bd 5df4 a73c 5405 8f3c 1d29 f9bb
00000350: efcd ef3c 880f 2fbd 5cc0 0bbc 2056 45bd
00000360: 83c0 50bd d396 b8bb 4a3b 093d 597b 123d
00000370: 35f8 0bbc ecff e33c c874 c3bc 0419 513d
00000380: 5025 663e b6d0 163d f26b e7bd b854 4bbe
00000390: a9f3 19be e366 aabb 1366 033d d147 923c
000003a0: c3dd 9a3c efcd bf3d 0462 8f3c 82e6 f7bd
000003b0: fec0 4dbe 416c 4f3d fd9f 16bd 40b9 1a3d
000003c0: 5b12 c6bc 5f11 71bd 8107 103d fd4d a33c
000003d0: 3b86 c2bc 0ae1 d2bb 6ff4 96bc 6bbb 383d
000003e0: 58c1 95bc ce12 1e3d 8414 fbbc 4371 41bd
000003f0: ae79 fa3c 201d ff3c a0c2 1abd 4778 323d

fc1.bias f4 [120]
0.018837519 -0.043955494 -0.04216131 0.049986854 0.03566285 0.050234374 0.19163537 0.04754552
-0.037394732 -0.033346254 -0.028365815 0.13560204 0.10294243 -0.013469848 0.03409197 0.03175599
0.16946122 0.03867328 0.34400326 0.0037281543 -0.0119221555 0.017456038 0.07194801 0.04175579
-0.1548156 0.15776026 -0.019690374 0.007339936 0.22472604 0.04251886 -0.17440306 0.0016315469
0.09657196 0.14575492 -0.11979097 0.10133824 -0.11042313 0.05021097 0.007508511 0.06772034
-0.06933798 0.119137235 0.1521265 0.12064025 0.023026437 0.1172955 0.12315855 0.16722941
0.06065041 0.13707761 0.19825491 0.12023498 0.0033112096 -0.009769874 0.046800885 0.021327334
0.0052182185 0.12766583 0.21287651 0.09805949 0.20756133 0.3241651 0.008124487 0.057276577
0.011484373 -0.01980424 0.1838941 0.30047512 0.2561548 0.21241297 0.06214505 0.0953008
-0.053040333 0.053148657 -0.0812501 -0.14929849 0.017128723 0.0551769 -0.09361424 -0.11085126
-0.017588768 0.012398631 0.16682638 0.026202153 0.14616585 0.09349771 0.04423999 0.11396444
-0.14544097 0.12873866 0.1478456 0.08823572 -0.029670155 -0.03261272 0.109941825 0.018118696
0.038224544 0.01114973 -0.097134724 0.004383235 -0.05999313 -0.01445351 0.09986819 0.06216733
0.08547418 0.10350937 -0.023114674 -0.04656852 -0.012037828 0.12411702 0.06720233 0.1617709
0.15401746 0.009601451 0.15545526 -0.031750843 0.2458705 0.009457397 0.118186705 -0.005553768
00000000: 2451 9a3c ad0a 34bd 56b1 2cbd 04bf 4c3d
00000010: 3513 123d 8fc2 4d3d 103c 443e 17bf 423d
00000020: 382b 19bd 1596 08bd 6d5f e8bc 43db 0a3e
00000030: 7bd3 d23d a3b0 5cbc 06a4 0b3d 9212 023d
00000040: 3e87 2d3e e067 1e3d 3221 b03e 0d54 743b
00000050: 2555 43bc f7ff 8e3c 7a59 933d 1f08 2b3d
00000060: fb87 1ebe e88b 213e b54d a1bc d983 f03b
00000070: 951e 663e 4228 2e3d b796 32be a1d9 d53a
00000080: 85c7 c53d c740 153e f854 f5bd 6c8a cf3d
00000090: 8625 e2bd 05aa 4d3d f509 f63b f6b0 8a3d
000000a0: 1201 8ebd 39fe f33d 0dc7 1b3e 3c12 f73d
000000b0: f0a1 bc3c a038 f03d 8d3a fc3d 303e 2b3e
000000c0: 906c 783d 135e 0c3e 5603 4b3e c23d f63d
000000d0: e100 593b d211 20bc 49b2 3f3d a9b6 ae3c
000000e0: 97fd aa3b d5ba 023e 4dfc 593e 6ad3 c83d
000000f0: f58a 543e f8f8 a53e 911c 053c d89a 6a3d
00000100: f428 3c3c 803c a2bc bc4e 3c3e e0d7 993e
00000110: b926 833e c982 593e cf8b 7e3d 112d c33d
00000120: d240 59bd 68b2 593d 7466 a6bd b4e1 18be
00000130: 8951 8c3c 2c01 623d d3b8 bfbd fc05 e3bd
00000140: 5216 90bc a123 4b3c 89d4 2a3e e6a5 d63c
00000150: 80ac 153e ba7b bf3d fe34 353d 3066 e93d
00000160: 7aee 14be 11d4 033e d664 173e eeb4 b43d
00000170: d30e f3bc ea94 05bd 2e29 e13d a96d 943c
00000180: 5791 1c3d 5bad 363c 92ee c6bd 3da1 8f3b
00000190: 5bbb 75bd 6ace 6cbc b287 cc3d 2ca3 7e3d
000001a0: 160d af3d b8fc d33d fc5a bdbc a2be 3ebd
000001b0: 4f3a 45bc 1031 fe3d 60a1 893d 45a7 253e
000001c0: c1b6 1d3e 684f 1d3c aa2f 1f3e 2c0d 02bd
000001d0: 7ac5 7b3e 33f3 1a3c df0b f23d 62fc b5bb

fc2.weight f4 [84, 120]
0.021541076 0.13030009 0.08553939 0.01851694 -0.05479719 -0.07714904 0.06864624 0.032340877
0.13383125 0.101167515 0.085213184 -0.068356976 -0.047165766 0.070478335 -0.1710764 -0.09367552
-0.044214398 0.027703905 -0.08849252 0.0059903604 0.07205623 0.01525203 0.07762783 0.009635959
0.07019171 -0.055061713 0.03757147 0.0730184 0.039356105 0.15127607 -0.048402876 0.02785121
0.07815847 -0.05305554 -0.08999985 -0.03917523 0.013669213 -0.16011703 0.14058763 0.032242924
-0.023706067 0.056301687 -0.00429354 0.042884056 -0.040471695 -0.03128224 -0.098107375 0.08761111
0.031545594 0.056436546 -0.112084925 0.092132956 -0.009957615 0.16866723 -0.021389602 -0.02071199
0.01298797 0.048959855 -0.069850594 0.10798402 -0.06290248 -0.1585274 0.01934716 -0.18799745
0.07881231 0.028496534 -0.11916879 -0.1630682 0.10085144 0.04686861 0.0065641776 0.0038155476
-0.01192481 -0.16330586 0.13235745 -0.07609099 -0.025579747 -0.042726677 0.08340071 -0.004503291
0.038158417 0.092669964 -0.073883004 0.07468825 0.076719455 -0.11164556 0.011539271 0.08457446
0.018067705 0.0044387463 -0.02797989 0.100914635 -0.08491355 0.03213309 0.02425974 0.0028893459
0.03987876 0.12430526 -0.12208281 -0.027045071 -0.05031179 0.018399894 -0.044642422 -0.061356433
-0.08617877 0.05886456 0.021767454 -0.0544131 -0.05219333 -0.09464407 0.07535832 0.093043014
-0.029080233 -0.016344575 -0.18347186 0.10861565 -0.01038939 -0.20189604 -0.12879764 0.085781366
0.12474207 -0.07725873 0.03759991 0.13481693 -0.049266238 -0.10384421 -0.065024346 0.00038670408
-0.017497653 -0.03772992 -0.032950122 0.22016193 -0.008522822 -0.0133985635 -0.038948677 -0.018498866
0.03717106 -0.05785471 -0.027843812 -0.07522592 -0.09037788 0.04648041 0.020375613 0.08517488
-0.09160022 0.08433136 -0.011782096 0.03494863 0.041496556 -0.0053048576 0.013726191 0.025251491
0.12763771 0.015512494 -0.0796531 -0.070971176 -0.012967611 -0.1386464 0.12747058 0.02087289
-0.0113396775 0.15859094 0.02098233 -0.08182754 0.0026049556 0.08010766 0.07479072 0.05455357
-0.043723717 -0.050892714 0.08547983 -0.09938274 0.053517576 -0.03329371 0.049374975 -0.029618775
-0.0148085095 -0.0091978 -0.024540236 0.0081601385 -0.10799553 -0.05958339 0.008988144 0.06983823
-0.05995736 0.0059528667 -0.01001797 0.015803076 0.055629935 -0.014949168 -0.049006265 0.05826576
0.13326558 0.04630992 -0.04974433 -0.036389854 0.14469805 0.0847873 -0.018836193 -0.053419687
-0.07875029 0.071417436 0.057228807 0.030178016 0.13673754 0.112233736 -0.09934417 0.09880075
0.12780437 -0.04294031 0.16049863 -0.07219721 -0.017350946 -0.071932085 -0.034690384 0.16354594
0.009294629 -0.0073210597 0.013042182 0.106056646 -0.13217822 -0.040924426 0.14650849 0.19820265
-0.10972078 -0.004781472 -0.03324397 -0.00867323 -0.011385339 -0.10528969 0.02035975 -0.111611165
0.010262151 -0.011325748 0.044253174 -0.07471652 0.115952 -0.11672261 -0.058229756 0.08809361
0.067722045 -0.067899205 0.042632584 0.02537855 -0.089595005 0.024132796 -0.04430217 -0.053228535
0.13018614 -0.12130955 0.06401403 0.03267641 0.016696714 -0.09263714 0.0345691 -0.035893768
00000000: e976 b03c 636d 053e 472f af3d d6b0 973c
00000010: 0573 60bd 5100 9ebd 6696 8c3d de77 043d
00000020: 0f0b 093e ea30 cf3d 4084 ae3d befe 8bbd
00000030: e430 41bd f256 903d a72e 2fbe f3d8 bfbd
00000040: 281a 35bd 4df3 e23c 913b b5bd c94a c43b
00000050: 3792 933d a7e3 793c 57fb 9e3d 24e0 1d3c
00000060: acc0 8f3d 6488 61bd 8be4 193d ac8a 953d
00000070: de33 213d 1de8 1a3e 1842 46bd 3928 e43c
00000080: 8c11 a03d c450 59bd d751 b8bd 3576 20bd
00000090: d6f4 5f3c b8f5 23be 34f6 0f3e 2811 043d
000000a0: 3a33 c2bc 999c 663d d3b0 8cbb 31a7 2f3d
000000b0: a6c5 25bd ce21 00bd 85ec c8bd 746d b33d
000000c0: f435 013d 022a 673d c88c e5bd 34b0 bc3d
000000d0: 4425 23bc 1ab7 2c3e 3f39 afbc 31ac a9bc
000000e0: 7fcb 543c 218a 483d d40d 8fbd ba26 dd3d
000000f0: 04d3 80bd 0255 22be ef7d 9e3c 6782 40be
00000100: 5968 a13d 9071 e93c c40e f4bd 5afb 26be
00000110: 338b ce3d 4df9 3f3d 5018 d73b 440e 7a3b
00000120: 4760 43bc a739 27be b688 073e 98d5 9bbd
00000130: 9e8c d1bc 2b02 2fbd fecd aa3d 5890 93bb
00000140: 004c 1c3d c0c9 bd3d f94f 97bd 27f6 983d
00000150: 171f 9d3d 6da6 e4bd 360f 3d3c 6035 ad3d
00000160: b902 943c e772 913b 1536 e5bc 55ac ce3d
00000170: 28e7 adbd fd9d 033d 5dbc c63c 2e5b 3d3b
00000180: e957 233d c293 fe3d 8d06 fabd a08d ddbc
00000190: bc13 4ebd 60bb 963c f9da 36bd e250 7bbd
000001a0: 7f7e b0bd f71b 713d a951 b23c 45e0 5ebd
000001b0: acc8 55bd c0d4 c1bd 7655 9a3d 568d be3d
000001c0: ab39 eebc 0fe5 85bc 0ce0 3bbe e271 de3d
000001d0: 4338 2abc d6bd 4ebe 87e3 03be 24ae af3d
000001e0: c578 ff3d d339 9ebd 5d02 1a3d 730d 0a3e
000001f0: 65cb 49bd 46ac d4bd 7c2b 85bd 8bbe ca39
00000200: 3d57 8fbc b08a 1abd b5f6 06bd 2172 613e
00000210: 4ea3 0bbc a685 5bbc a688 1fbd ef8a 97bc
00000220: ae40 183d 0ff9 6cbd b518 e4bc 0c10 9abd
00000230: 0a18 b9bd 3e62 3e3d c2ea a63c 2b70 ae3d
00000240: e598 bbbd ecb5 ac3d b109 41bc 4b26 0f3d
00000250: 4bf8 293d 5fd4 adbb d1e3 603c 37dc ce3c
00000260: 76b3 023e 1e28 7e3c 2a21 a3bd 5659 91bd
00000270: 1a76 54bc 52f9 0dbe a687 023e 9ffd aa3c
00000280: 0eca 39bc aa65 223e 23e3 ab3c 3395 a7bd
00000290: e7b7 2a3b 7c0f a43d e12b 993d 9073 5f3d
000002a0: a417 33bd e174 50bd 0d10 af3d 2e89 cbbd
000002b0: 3f35 5b3d fc5e 08bd 6a3d 4a3d 13a3 f2bc
000002c0: 649f 72bc 5fb2 16bc 9b08 c9bc 1ab2 053c
000002d0: c32c ddbd b60d 74bd 0243 133c 5907 8f3d
000002e0: d995 75bd 4410 c33b 6922 24bc 7475 813c
000002f0: 37dc 633d 5bed 74bc cbba 48bd 14a8 6e3d
00000300: c676 083e 78af 3d3d b6c0 4bbd 870d 15bd
00000310: ba2b 143e f7a4 ad3d 5c4e 9abc 9ace 5abd
00000320: d547 a1bd 4e43 923d c168 6a3d e337 f73c
00000330: ed04 0c3e cdda e53d f574 cbbd 0c58 ca3d
00000340: 26df 023e 2ee2 2fbd c159 243e 21dc 93bd
00000350: 9223 8ebc 2151 93bd 8117 0ebd 9678 273e
00000360: 8048 183c 80e5 efbb e0ae 553c 3a34 d93d
00000370: ba59 07be 5fa0 27bd 5206 163e a3f5 4a3e
00000380: 4ab5 e0bd e5ad 9cbb d42a 08bd 2a1a 0ebc
00000390: 9389 3abc 1fa2 d7bd 7ec9 a63c 6594 e4bd
000003a0: 9522 283c a18f 39bc d142 353d fa04 99bd
000003b0: 3e78 ed3d 440c efbd 5382 6ebd 6c6a b43d
000003c0: dbb1 8a3d bd0e 8bbd 819f 2e3d ade6 cf3c
000003d0: 967d b7bd 24b2 c53c 3176 35bd 2a06 5abd
000003e0: 844f 053e 2471 f8bd ca19 833d b3d7 053d
000003f0: 8cc7 883c 8ab8 bdbd 5498 0d3d 5805 13bd

fc2.bias f4 [84]
0.08336648 -0.053613394 -0.12755102 0.6506333 0.42290315 0.4413985 0.021566194 0.11467063
0.43793246 0.06263017 0.41322023 -0.13273203 -0.09949088 0.08515276 0.42156118 -0.015827589
0.14469354 0.07429996 0.31613868 0.22323692 0.011609135 -0.120307505 0.3369652 0.2130098
0.18479346 0.035133377 0.3696044 0.07026144 0.02923415 0.3583849 0.2778364 0.1497674
0.24768876 -0.041661926 -0.06053098 0.12636665 0.38414678 0.23803721 0.25948086 0.4740037
0.059334062 0.2196962 0.029488027 0.1251482 0.09910324 0.29946643 0.28619906 0.7644086
0.22782679 0.23777553 0.3534609 0.08673172 0.03999024 -0.0047027343 -0.118592024 -0.04323634
-0.161384 0.23447736 0.11600791 -0.048687443 0.49100304 0.21746908 0.26386204 0.10303561
-0.12227511 0.21179616 0.2669941 0.16563086 0.3912877 0.27169913 0.20290937 -0.03736368
0.052766852 0.32104298 0.18217547 0.19172259 0.20961955 0.4185805 0.34861764 -0.050613206
0.077891245 0.24107721 -0.047235806 0.02254925
00000000: 0cbc aa3d b899 5bbd bc9c 02be e78f 263f
00000010: c386 d83e fcfe e13e 96ab b03c 6fd8 ea3d
00000020: af38 e03e 3f44 803d 9a91 d33e e8ea 07be
00000030: e0c1 cbbd 9264 ae3d ded6 d73e dca8 81bc
00000040: 8b2a 143e 942a 983d eedc a13e 3898 643e
00000050: 3e34 3e3c c863 f6bd b486 ac3e 3e1f 5a3e
00000060: 7f3a 3d3e 04e8 0f3d ca3c bd3e 3be5 8f3d
00000070: 757c ef3c 3a7e b73e 9340 8e3e a05c 193e
00000080: 1fa2 7d3e b2a5 2abd 55ef 77bd 4266 013e
00000090: e3ae c43e 07c0 733e adda 843e 9db0 f23e
000000a0: 4608 733d 0af8 603e e090 f13c da26 003e
000000b0: a4f6 ca3d aa53 993e af88 923e 48b0 433f
000000c0: 6d4b 693e 6e7b 733e d4f8 b43e 66a0 b13d
000000d0: cecc 233d 6519 9abb 60e0 f2bd 9718 31bd
000000e0: d941 25be d51a 703e 8e95 ed3d 7c6c 47bd
000000f0: c064 fb3e 37b0 5e3e ed18 873e 5504 d33d
00000100: 5f6b fabd 18e1 583e 73b3 883e 239b 293e
00000110: dd56 c83e 261c 8b3e 79c7 4f3e a80a 19bd
00000120: 0e22 583d bf5f a43e 358c 3a3e ed52 443e
00000130: 82a6 563e 2f50 d63e 037e b23e cb4f 4fbd
00000140: 7285 9f3d f2dc 763e 557a 41bd 34b9 b83c

fc3.weight f4 [10, 84]
0.040907975 -0.20498542 -0.2001066 0.75474674 0.27458152 -0.277437 -0.094984286 0.060048904
0.54526365 0.09263843 -0.2368162 -0.037917107 0.122880846 -0.12091404 -0.052202072 0.034222163
0.33415255 0.18017241 -0.15082923 -0.04145952 0.13902171 0.11891021 -0.35809124 -0.16782567
0.5562018 0.30869862 0.25061202 0.026917757 0.15003961 -0.004496109 -0.03800998 0.18080553
-0.19997945 -0.031976357 0.23240542 0.23627809 0.5633989 0.41250896 0.21434502 0.6953967
0.03631575 0.31244302 0.032920815 -0.13554268 -0.026187927 -0.10375729 0.19164276 0.37442163
0.1651343 -0.069212765 0.20968804 -0.06251997 0.054183953 0.09657452 -0.059690278 -0.039304398
0.16383685 0.3361796 -0.23259854 0.020017553 0.022831528 0.18854323 -0.09995136 -0.09114044
0.04852412 -0.22311088 -0.32647482 0.052416824 0.28029212 0.06088012 0.11678193 0.23550414
-0.29241616 0.34443223 -0.16922565 0.1775137 -0.29171088 0.5444364 -0.2070734 0.19607408
0.08526704 -0.024777949 0.007826652 0.11946076 0.3781789 -0.20188338 -0.05031214 0.29228044
0.00019755591 0.056174476 0.12445372 0.33299 0.10251479 -0.18232144 0.49644387 0.08154413
-0.06704895 0.06530523 -0.021619886 0.002465621 0.46832913 0.015791886 0.15129702 0.22925946
-0.0018214085 -0.24252532 -0.20878676 -0.15227316 -0.194828 -0.17112333 0.10679943 0.24291623
-0.054212954 -0.10242414 -0.3086726 -0.29473606 0.011395782 -0.010124706 -0.0050065513 -0.10214466
0.14024201 -0.2165543 -0.26912192 -0.05919878 -0.13297768 0.39977187 0.12358975 -0.07736361
0.057214543 -0.04032806 -0.1971234 -0.04363399 0.6206423 -0.19708613 0.16546614 -0.1543366
0.14631931 0.38604265 -0.020627508 -0.02026636 0.012723434 0.14912575 0.632953 -0.08726887
0.015722683 -0.093096845 -0.20008212 -0.0052339663 -0.0970861 0.20782733 0.13481517 0.4015364
0.17935598 -0.04877804 0.028443513 -0.08263635 0.6882168 -0.058669645 -0.039188784 -0.1886489
-0.07591511 -0.10122944 0.30527318 0.103920996 -0.0062265415 -0.07920329 0.014848739 0.19854707
0.14408463 -0.14575805 0.088737756 0.1421067 0.28342018 0.31327444 -0.05964934 0.09975834
0.49100548 -0.03086059 0.074584074 0.4437889 -0.026793914 -0.036123883 0.3882171 0.050278127
-0.54803467 0.054661952 -0.016294371 -0.028658638 -0.008590688 -0.14258328 0.44525677 0.15467125
-0.00093384256 -0.017693413 -0.23688127 -0.047570944 -0.27750692 -0.17789893 0.019986248 0.54394805
0.019940646 0.09131677 0.11611034 -0.14553736 -0.18587668 0.087713204 0.5994786 0.6111696
-0.00433641 -0.31596476 -0.13250645 0.053960748 0.11498668 -0.30435306 0.18895367 0.7550515
0.26978198 -0.11731739 -0.35282138 -0.12923178 0.009285812 0.28654963 0.21767831 -0.09754148
-0.08107148 -0.40734056 -0.12432092 -0.0489999 0.074682966 0.5335741 0.17793795 -0.12665519
-0.09123385 0.2047391 0.57355815 -0.12998748 -0.3845517 -0.09001272 0.4687186 0.24320295
0.05667063 0.32879862 0.09184841 0.49785715 -0.12131518 0.46219498 0.1318364 -0.13494703
-0.5293892 -0.25662744 -0.024456175 -0.13826886 0.041971687 0.036552265 0.2502249 0.60491836
00000000: 1f8f 273d b3e7 51be bfe8 4cbe 1537 413f
00000010: f395 8c3e 390c 8ebe 1f87 c2bd d7f5 753d
00000020: 6696 0b3f 38b9 bd3d f27f 72be f84e 1bbd
00000030: f4a8 fb3d c8a1 f7bd d7d1 55bd 8a2c 0c3d
00000040: 0b16 ab3e 1e7f 383e fa72 1abe 75d1 29bd
00000050: b55b 0e3e 3287 f33d bc57 b7be 7eda 2bbe
00000060: 3e63 0e3f bf0d 9e3e 3850 803e a182 dc3c
00000070: fca3 193e 1954 93bb 5ab0 1bbd 1625 393e
00000080: 6ac7 4cbe a4f9 02bd b0fb 6d3e e2f2 713e
00000090: e93a 103f 6034 d33e 437d 5b3e 8505 323f
000000a0: d3bf 143d 88f8 9f3e fad7 063d b3cb 0abe
000000b0: 1088 d6bc b47e d4bd 003e 443e 31b4 bf3e
000000c0: f718 293e 6cbf 8dbd 76b8 563e 780a 80bd
000000d0: feef 5d3d ddc8 c53d cb7d 74bd a6fd 20bd
000000e0: d9c4 273e bc1f ac3e 502e 6ebe dafb a33c
000000f0: 2f09 bb3c 7a11 413e 4cb3 ccbd d7a7 babd
00000100: 3ac1 463d 2e77 64be b527 a7be 06b3 563d
00000110: 7382 8f3e 6f5d 793d 5d2b ef3d ff27 713e
00000120: 92b7 95be 6c59 b03e 7d49 2dbe 27c6 353e
00000130: 215b 95be 2f60 0b3f 0d0b 54be a5c7 483e
00000140: 7ca0 ae3d 20fb cabc 5c3b 003c d8a7 f43d
00000150: aaa0 c13e 84ba 4ebe 1a14 4ebd c8a5 953e
00000160: 0327 4f39 3517 663d 98e1 fe3d aa7d aa3e
00000170: 46f3 d13d 79b2 3abe e42d fe3e 9c00 a73d
00000180: f650 89bd c0be 853d 301c b1bc 4296 213b
00000190: d6c8 ef3e fc5d 813c 9bed 1a3e fec2 6a3e
000001a0: 54bc eeba 8f58 78be 32cc 55be 7fed 1bbe
000001b0: fe80 47be f43a 2fbe a9b9 da3d 08bf 783e
000001c0: 670e 5ebd bfc3 d1bd 560a 9ebe a5e7 96be
000001d0: 60b5 3a3c 18e2 25bc ff0d a4bb 3831 d1bd
000001e0: 9a9b 0f3e 69c0 5dbe 59ca 89be 6c7a 72bd
000001f0: 4d2b 08be e6ae cc3e 9f1c fd3d d070 9ebd
00000200: cc59 6a3d 092f 25bd b7da 49be 8eb9 32bd
00000210: 6ae2 1e3f f2d0 49be f56f 293e 6a0a 1ebe
00000220: bbd4 153e 62a7 c53e 05fb a8bc a305 a6bc
00000230: f375 503c 6cb4 183e 3509 223f 05ba b2bd
00000240: dbcc 803c 8fa9 bebd 54e2 4cbe b181 abbb
00000250: 14d5 c6bd b0d0 543e fd0c 0a3e 2e96 cd3e
00000260: 18a9 373e 7bcb 47bd 5f02 e93c 3f3d a9bd
00000270: fa2e 303f 954f 70bd 6b84 20bd 2d2d 41be
00000280: 6279 9bbd 6151 cfbd c44c 9c3e 88d4 d43d
00000290: 0408 ccbb 5635 a2bd 2048 733c ec4f 4b3e
000002a0: ec8a 133e 9941 15be 24bc b53d 6b84 113e
000002b0: 731c 913e 8265 a03e de52 74bd 1a4e cc3d
000002c0: 1265 fb3e 59cf fcbc 89bf 983d 4c38 e33e
000002d0: e97e dbbc a3f6 13bd 64c4 c63e 70f0 4d3d
000002e0: 004c 0cbf 36e5 5f3d c67b 85bc 85c5 eabc
000002f0: f5bf 0cbc 5a01 12be b2f8 e33e 2462 1e3e
00000300: 1dcd 74ba c7f1 90bc 0191 72be c0d9 42bd
00000310: 6315 8ebe 232b 36be 33ba a33c 2e40 0b3f
00000320: 915a a33c 4904 bb3d 42cb ed3d bf07 15be
00000330: 7556 3ebe fba2 b33d 6e77 193f 9c75 1c3f
00000340: 7218 8ebb 22c6 a1be c5af 07be f205 5d3d
00000350: 237e eb3d 2ad4 9bbe 127d 413e 0e4b 413f
00000360: dd20 8a3e 1a44 f0bd 01a5 b4be 5655 04be
00000370: 8523 183c a2b6 923e 10e7 5e3e d4c3 c7bd
00000380: ce08 a6bd f18e d0be f79b febd 1fb4 48bd
00000390: 62f3 983d 5098 083f 5e35 363e e6b1 01be
000003a0: d0d8 babd 20a7 513e b5d4 123f 701b 05be
000003b0: f6e3 c4be 9758 b8bd e2fb ef3e 320a 793e
000003c0: 761f 683d 4b58 a83e 051b bc3d 22e7 fe3e
000003d0: 1874 f8bd d2a4 ec3e 1f00 073e 8e2f 0abe
000003e0: 0d86 07bf ac64 83be 5158 c8bc 5a96 0dbe
000003f0: 81ea 2b3d d4b7 153d 7a1d 803e eedb 1a3f

fc3.bias f4 [10]
0.04108183 0.25272524 0.621036 0.38644773 -0.10567131 0.71549606 0.6399667 0.24050722
0.36793223 -0.45553523
00000000: 6c45 283d 3465 813e 37fc 1e3f 7adc c53e
00000010: 336a d8bd c02a 373f dcd4 233f 8647 763e
00000020: 9d61 bc3e ea3b e9be
