experiments/LeNet/CIFAR10/experiment-2/last-epoch.pt (torch, 258859 bytes, 18 tensors)

features.0.weight f4 [6, 3, 5, 5]
00000000: cb0d c3bd b81f 3ebd 67b2 9d3d 63f5 14bd
00000010: a9f5 43bd 75c4 abbc 17ec 143c 6ab1 e13d
00000020: bd86 70bd e999 cdbd ab5c 083c 1973 083d
00000030: 87ff 2a3c cc5b 59bd 7d50 a73d 1e45 4e3c
00000040: 5184 963c 48c6 e4bd 9bff 91bd b9b2 91bd
00000050: dda6 b5bd b868 d2bc 3a25 49bb 50b0 213d
00000060: 27c5 0abe a4ac 93bd c72e 0b3d f14a 403d
00000070: e88f c1bd a172 893d 4ccf ef3c 5da4 933c
00000080: dc1b 0c3d cd18 83bd 684f 00be 6ea8 a6bd
00000090: 6b5a 753d 7ed6 b0bd e629 fc3d c90f 523d
000000a0: 2f54 09be e7f5 e1bd cb84 e9bd 6d66 4bbd
000000b0: 589e a3bc d00a 90bd a78a 1ebe bb1b 11bd
000000c0: 8166 6bbd 70c3 febd 9be7 75bd 0307 41bd
000000d0: fb6c fabd 4b20 efbb d050 823d d42f 9e3d
000000e0: 0e2b 70bd b1d2 78bd c2a5 d7bd c765 c3bc
000000f0: 742d 3d3d 36e3 de3b 72a2 b13d 33a3 c73d
00000100: 5789 b93d 15a8 ce3c 4b76 08bd 831f f2bd
00000110: f730 3bbd b464 d3bd 8833 64bb 2ed2 b4bd
00000120: 218c 923d 4439 d5bd 51b4 11bd ecf2 3fbe
00000130: 808b 08be b9ad 16be 6725 50be 4ac9 acbe
00000140: 9358 f0bd 9994 3abe 820b 383d 78f5 4c3e
00000150: e2cd 1dbd b2c4 48be 1614 6abd b204 9f3d
00000160: 1027 883e 790a 1fbd 0e12 f6bd 8280 23be
00000170: 20b9 07bd 8790 dc3d 8c91 25bc e469 8dbe
00000180: 2d4a 4bbe 38cf f3bd da3f b7bb d326 76be
00000190: 34c7 d13e 4c41 803e 8678 a23e 9212 b03e
000001a0: 5d44 173e fedb ab3e 3d4f f93e 270b 093f
000001b0: e6e3 293f da16 7c3e 2a50 043e 9ea9 d73e
000001c0: 3df1 f73e 66a7 303f 06c2 dc3e da80 eb3c
000001d0: 6667 ed3d a948 053f 32a8 013f 4375 5b3e
000001e0: 0165 a43d b158 ce3d fcd0 6f3e 8b2f 443e
000001f0: 910e 573e 152d 6dbe 8a20 acbe 68f3 8ebe
00000200: 3495 a5be b98c afbe 0ac7 abbe e4f4 89be
00000210: cd0a 82be 8941 49be f258 79be 37cc d2be
00000220: bf04 85be 1e36 77be 6914 41be 2932 e8bd
00000230: 403f bdbe bbd8 c9be 5c7f 9fbe cd98 04be
00000240: 4877 48be a540 52be 5cc6 46be bb49 30be
00000250: 99a1 16be 191c 86be fcd1 a2bc d1a1 ccbd
00000260: a2c6 8dbd 3e14 92bd 1162 94bd 555c a53c
00000270: 522c a2bd 93e1 c63d 3e99 c53d f96c d6bc
00000280: e18b b0bc d46f 843d 16b0 633b ae2b d83d
00000290: afd6 fcbd 04d1 eb3d dfe5 b93a 44ce a4bd
000002a0: e4d2 02bd d34f 17be 27da 813d 3cb2 723d
000002b0: 5129 533c d51f 383d ad5f 9a3c 7031 8dbd
000002c0: 7742 abbc 65e5 eebd 4a86 81bd 6900 3b3c
000002d0: 0610 99bd e3a6 dbbc 92bf a7bc 9b99 29bd
000002e0: fd41 19bd 2f9b 8abd 9813 efbd 6bee cc3d
000002f0: 45a4 bf3b 2d2e c03b 12f0 f3bd e5ec 6cbd
00000300: 049c 26bd 0296 d9bd 0a09 a8bc e940 39bc
00000310: eac3 cebd 17be c63d 9586 6abd 02d1 493c
00000320: 0707 e93c 632c 9b3d 7f21 dbbd 45fd 953d
00000330: 60fa bebd f8eb 513d c329 963d 98e0 25bc
00000340: 8875 59bd 6b3d 0dbc 3043 933d 2c9a 863c
00000350: 4980 e5bd 4b68 983d be3d b23d 209a 293d
00000360: 985d a4bd 165b 86bd 0673 bcbd 97f0 dbbd
00000370: 22eb cabd 622b 84bd bced 20bc d8fe 633d
00000380: b157 25bd dbf9 08be 88f0 c6bd 20ab b7bd
00000390: 3baa 41bd 802b 8f3c 194d 76be f45d 82bd
000003a0: bead 87bc 012c b73d c85e 0abf 8941 1ebe
000003b0: 6c72 8e3e 10a9 393e 64f0 e5bd 7f9f eabe
000003c0: 7755 02be 5ff8 fe3d cde2 d3bd 5ce8 e9bd
000003d0: 37fb 5fbe ae30 eebd 1164 57be 6658 a4be
000003e0: 2153 78be db5b 1e3d 4240 fabd 6544 603d
000003f0: 41ac 3f3e c869 5a3e c053 8ebc d2ec 59be
-0.09524115 -0.046416968 0.07700043 -0.03636683 -0.0478417 -0.020967701 0.009089491 0.11020167
-0.058722246 -0.10039122 0.008322875 0.03331289 0.010436899 -0.05306606 0.08169649 0.012589721
0.01837364 -0.11170632 -0.07128831 -0.07114167 -0.08869717 -0.0256847 -0.0030692355 0.039474785
-0.1355177 -0.07210663 0.033980157 0.04694647 -0.09451276 0.06711317 0.029273652 0.01802271
0.034206256 -0.06401215 -0.12530291 -0.08137594 0.059900682 -0.08634661 0.12312679 0.051284585
-0.1341102 -0.1103323 -0.114022814 -0.049658228 -0.019972965 -0.07033312 -0.15482579 -0.035426836
-0.057470802 -0.124396205 -0.06003533 -0.047125828 -0.122278176 -0.007297551 0.0636307 0.07723966
-0.05863481 -0.060747806 -0.10529663 -0.023852242 0.046185926 0.006801988 0.08673562 0.09747925
0.090593986 0.025226632 -0.033315938 -0.11822417 -0.045700993 -0.10321942 -0.0034820754 -0.08829151
0.07155634 -0.10411313 -0.035572354 -0.18745011 -0.13334465 -0.14714707 -0.20326768 -0.3374732
-0.11735644 -0.18220748 0.04493285 0.20015514 -0.038526423 -0.19606283 -0.05714806 0.077645674
0.26592302 -0.038828347 -0.120151624 -0.1596699 -0.033135533 0.10769754 -0.010105502 -0.2761985
-0.19852515 -0.11904758 -0.0055923285 -0.24038248 0.40972292 0.25049818 0.31732577 0.34389168
0.14772172 0.33566278 0.48693267 0.5353264 0.6636337 0.24618092 0.12921205 0.42121595
0.48426238 0.6900543 0.43116778 0.028747965 0.11591987 0.52063996 0.5064727 0.2143145
0.080270775 0.1007551 0.23419565 0.19158761 0.2100165 -0.23161729 -0.33618575 -0.2792008
-0.32340395 -0.3428705 -0.33550292 -0.2694465 -0.25398865 -0.19653906 -0.24350336 -0.4117143
-0.25980183 -0.24141738 -0.18855442 -0.11337692 -0.36962318 -0.39423165 -0.31151855 -0.12948914
-0.19576752 -0.20532472 -0.19411606 -0.17215626 -0.14710082 -0.26193312 -0.019875519 -0.099918015
-0.06922652 -0.07132767 -0.07245267 0.020185629 -0.0791861 0.097109936 0.09648369 -0.02617501
-0.021551074 0.06466642 0.0034742407 0.10555206 -0.12345635 0.11514476 0.0014182887 -0.080471545
-0.031939402 -0.14776544 0.063404374 0.05925201 0.012888269 0.044952232 0.01884445 -0.06894195
-0.020905716 -0.11664847 -0.06324442 0.011413672 -0.07473759 -0.026812976 -0.02047709 -0.041406255
-0.037416447 -0.0676788 -0.11673659 0.10006412 0.00584844 0.0058648796 -0.11911024 -0.057843108
-0.04067613 -0.10624315 -0.020512123 -0.01130698 -0.100959614 0.097042255 -0.057257254 0.012317898
0.028445734 0.075768255 -0.10699748 0.07323698 -0.09325099 0.051250428 0.07332184 -0.010124348
-0.053090602 -0.0086206 0.071905494 0.016430937 -0.11206109 0.07441767 0.08703183 0.04140675
-0.08025664 -0.06560342 -0.092016265 -0.10739248 -0.09908129 -0.06453587 -0.009822305 0.05566296
-0.040366832 -0.13376562 -0.097138464 -0.089681864 -0.047281485 0.017476797 -0.24052848 -0.063655764
-0.016562339 0.0894394 -0.54050875 -0.15454687 0.27821672 0.18130898 -0.112274915 -0.4582481
-0.12727915 0.12449717 -0.10345993 -0.11421272 -0.21873175 -0.11630379 -0.21034266 -0.32098693
-0.24250461 0.03866182 -0.122192875 0.054752726 0.18718053 0.21329415 -0.01737392 -0.21281746

features.0.bias f4 [6]
00000000: e7d7 6cbd 1eb5 7d3f 9c86 82bd 9c51 1f3f
00000010: ddab a0bd 1905 213f
-0.057823088 0.9910449 -0.06373331 0.622339 -0.0784528 0.62898403

features.2.weight f4 [6]
00000000: 1abc 7e3f 4c6e 413f 1338 803f 56b8 903f
00000010: 7a08 7a3f 644c 993f
0.9950577 0.75558925 1.0017112 1.1306255 0.97669184 1.1976438

features.2.bias f4 [6]
00000000: 3523 1bbe 5e8a b33c f51d 90bb f26c 8e3e
00000010: ad77 a3be 6183 f13d
-0.15150149 0.021916565 -0.0043981024 0.27817494 -0.31927243 0.11792637

features.2.running_mean f4 [6]
00000000: 6ff0 fd32 05ec 8d3f 174e 2f34 72d2 a93f
00000010: c605 a132 795b bd3f
2.9562413e-08 1.1087652 1.6326554e-07 1.3267348 1.8745492e-08 1.479354

features.2.running_var f4 [6]
00000000: 6088 b430 0aa6 df3e a4a2 ba31 1eae 183f
00000010: e187 4630 f405 ec3e
1.3135484e-09 0.43681365 5.4318026e-09 0.5964068 7.2225076e-10 0.46098292

features.4.weight f4 [16, 6, 5, 5]
00000000: 126f 093d cb26 fcbc 7728 5bbd b9e3 2c3d
00000010: 2480 a63d 4f08 263d 8d87 7bbc e157 57bc
00000020: 557a bebb a5b4 0fbd 3704 aabc b7dc b4bc
00000030: e0cf e0bb f1b0 453d 407c a13c 187a 9c3d
00000040: 5f5a af3d 3731 4dbd 5fdd 943d af05 9b3d
00000050: f465 82bc 185e 4f3d 06b0 87bb a014 973d
00000060: 17e5 143c 321c debd 4517 a3be df10 68be
00000070: f5aa b4bd 4fcf bcbd 94ed c939 b209 76be
00000080: 39c3 27be 8171 d9bd 1240 5b3e 5c33 3f3e
00000090: 754e 023e 55c1 63bd 0fba 5abe 4389 60bd
000000a0: b580 7fbd ec60 523e b19b 753e ed3b fb3c
000000b0: b589 3abe 4bfc df3d 2cdc 623e 329f 7e3e
000000c0: bc40 493d a99e d53d 26ec f3bc 0328 a23d
000000d0: 949e 8c3b 3f6b 173c 7fdf 54bd 382a bc3c
000000e0: 54b0 903d fcf7 943d 5b4d 42bd de24 173d
000000f0: 1cf1 60bd 6e23 7cbd b526 92bd e390 463d
00000100: d814 61bd 8fcb 91bd 02cc 77bc eeeb c8bb
00000110: 5da3 4ebd fc8a 2a3d 689d 843c 3fb7 4b3d
00000120: 30b1 91bd 99ec f4bc d328 9b3d 8e83 bf3e
00000130: d948 1e3f 42c9 d73e 3906 033e 0671 003e
00000140: 6775 85be 4c30 22be c8e7 0dbe 3d4a 1abe
00000150: 379f 693d 1ea2 acbe 2107 a93c ac39 543d
00000160: 6ea5 85bd e2cc febd 8d35 c7be 5fec 24be
00000170: c345 913d 7921 873e b142 203e ed62 4dbe
00000180: 4c6c 8fbe f3c5 d9be 75c3 8ebe b5b6 813d
00000190: 2663 5a3c 233d 533c c06b 02bd c5ae a23b
000001a0: c869 5f3c cb37 4cbd ad6b f43c e719 533d
000001b0: 7464 d33c 6016 9d3d c2fd 1dbb 8512 5c3d
000001c0: 4cf1 b4bc 92ec 8e3d 628c 84bc 7844 7d3d
000001d0: c391 cb3b 8b0b 6a3d bd36 5d3d e9b4 253d
000001e0: a0b4 603d b5c0 d23d 5dff 933d e99a 4a3d
000001f0: dc7b 933c 02ac 103d 8fec b8bd 59b4 73bd
00000200: 6a10 0c3e 40c0 413d 5a07 0f3e 6a52 cb3c
00000210: aeef 863c 8e02 233d 040c a13d f42a 563d
00000220: b888 613e e45b ba3d a186 b2bc a010 b4be
00000230: 4323 22be bfb0 8cbe 2c0f adbd e281 483e
00000240: fc2e 873e c17b e73d ef36 03bc 60bb ecbd
00000250: 671b 95be a524 46be 5345 143d c40d 813d
00000260: 63ca 3cbd 447a 823d d9fa 2b3d ae08 e3bc
00000270: 3bf8 3bbd 66ca 2a3d 474c 65bd 6c9b 6cbd
00000280: 5d3d 693c bdaa 9ebd 9ead 953d 34c4 40bc
00000290: 5d2a 9a3d 7e0a 4a3c a518 a53c 9b8b 573d
000002a0: 6f17 8abd 30ce 2fbd d970 0dbb af94 9b3d
000002b0: 43ec ac3d ddf1 be3c b369 d83c 5578 57be
000002c0: 99c5 42bd c39b 963d 6e40 cf3d b588 793e
000002d0: 5bea 7ebe 94b9 0ebe a857 3a3e e59e 9f3e
000002e0: 612f 2c3e d5e8 e1be 1235 92be c2b2 193e
000002f0: bade d73e a3df 003e e933 ccbe ef62 aabe
00000300: 38c6 723d 8b99 933e fd8d 973e bee5 02bf
00000310: 48a4 9ebe 78e2 05bd f943 433e 9fa1 ab3e
00000320: c7bf 233c 3381 073d 6fc3 bbbc 144e 9fbd
00000330: 12f2 9d3c 08db 71bd 9249 f33c 740a 15bd
00000340: 1f16 acbd 0302 5e3d 333f d73b 3dd9 a3bd
00000350: b9c0 2b3d 584c a3bd c922 023d 0228 d33c
00000360: 5b14 24bd 3323 72bd 1c38 333c 4fd2 453d
00000370: 5109 233d 02dd cb3c 68e8 74bd 6ba0 c33a
00000380: 9621 ff3c 69db 3f3e f207 0f3d edeb c23b
00000390: e45f 9dbd 3e0e 75be f9bd 933e 4c0e 653d
000003a0: 70a1 30be 72e9 50be 2d71 0abe 9589 e63e
000003b0: 4141 8e3e 7ea2 533b cba8 64be 0251 cabc
000003c0: 3fb1 6e3e bbea 103e 955d 07bc 132e 98be
000003d0: 324d adbe 376f b7bc e762 99bc 31b4 163e
000003e0: 6750 80bd 6788 7ebd 3631 8d3b 98b9 b73d
000003f0: 5293 8fbd 2ec0 ae3d 07cb 363b f6e6 3a3d
0.03355319 -0.030780217 -0.053505387 0.04220936 0.0812991 0.040535267 -0.015352142 -0.013143511
-0.005812923 -0.035084385 -0.020753963 -0.022077901 -0.006860718 0.048264448 0.019712567 0.07640475
0.08562159 -0.050095763 0.07268786 0.075694434 -0.015917756 0.050626844 -0.0041408567 0.07376981
0.009087822 -0.108452216 -0.3185369 -0.22662686 -0.0882167 -0.092192285 0.00038514717 -0.24027136
-0.16383065 -0.10617352 0.2141116 0.18671936 0.12725241 -0.055604298 -0.21360038 -0.054818403
-0.062378604 0.20544785 0.23985173 0.030668223 -0.18216594 0.10936793 0.22154301 0.24865416
0.049134 0.10430653 -0.02977569 0.07917788 0.004291365 0.009241878 -0.051970955 0.02296935
0.07064882 0.07273862 -0.047437053 0.036900394 -0.05491744 -0.061557226 -0.07136289 0.04847802
-0.05495152 -0.07118904 -0.015124323 -0.0061316406 -0.050448764 0.041636452 0.016188338 0.049735304
-0.07113874 -0.029897975 0.07576146 0.37405056 0.61829907 0.42145735 0.12795343 0.12543115
-0.26066133 -0.15838736 -0.13857949 -0.15067382 0.057036605 -0.33717436 0.020633282 0.051812813
-0.06525694 -0.12441422 -0.38908044 -0.16105793 0.07093384 0.26392725 0.15650441 -0.20057268
-0.2801231 -0.42533836 -0.27883497 0.06333677 0.013329303 0.012892994 -0.03184104 0.004964682
0.01363606 -0.049857896 0.0298365 0.051538374 0.025804736 0.07670283 -0.002410755 0.0537286
-0.022087716 0.06978716 -0.016180221 0.061832875 0.0062124445 0.057139914 0.05400728 0.040455732
0.054859757 0.10290662 0.07226441 0.04946414 0.018003397 0.03532029 -0.09029495 -0.059498165
0.13678136 0.047302485 0.13967648 0.024819572 0.01647171 0.03979736 0.0786362 0.052287057
0.2202481 0.09099558 -0.021792712 -0.35168934 -0.15833764 -0.27478597 -0.084501594 0.19580796
0.26403034 0.11302901 -0.008008703 -0.115591764 -0.2912247 -0.19349916 0.036198925 0.06301454
-0.04609145 0.063709766 0.041987274 -0.0277141 -0.045891028 0.04169693 -0.055980947 -0.05776541
0.014235822 -0.077474095 0.073085055 -0.0117655285 0.075276114 0.012331603 0.020153353 0.052623373
-0.06742751 -0.042921245 -0.0021582155 0.075967185 0.08443501 0.023308689 0.026417589 -0.21041997
-0.047551725 0.07353928 0.10119711 0.24368556 -0.24894087 -0.1393798 0.181975 0.31175914
0.16814949 -0.4412295 -0.28556114 0.15009597 0.42162114 0.1258531 -0.39883354 -0.33278605
0.059271067 0.2882808 0.29600516 -0.5113181 -0.30984712 -0.03268668 0.19068898 0.33521745
0.009994454 0.0330822 -0.022920338 -0.07778564 0.019280467 -0.059046775 0.029698167 -0.036386922
-0.08402657 0.054201137 0.006568813 -0.08000419 0.04193184 -0.07973546 0.031771455 0.025775913
-0.040058475 -0.0591156 0.0109386705 0.04829627 0.039803807 0.024885658 -0.059791952 0.0014925128
0.031143945 0.18736042 0.034919687 0.0059485347 -0.07684305 -0.23931214 0.28855875 0.055921838
-0.17249084 -0.20401552 -0.13519736 0.45026842 0.2778416 0.0032292898 -0.22330014 -0.02469683
0.23309802 0.14152043 -0.008262058 -0.29722652 -0.33847958 -0.022391899 -0.018723918 0.14717175
-0.062653355 -0.062141802 0.004308845 0.08970946 -0.07010521 0.08532749 0.002789201 0.045630418

features.4.bias f4 [16]
00000000: f1ae 68bd 4fd1 f5bd 7dd9 2ebd f1ac 15be
00000010: 6228 a6be 1ecd 0e3d 65eb 57be 3ce9 2e3d
00000020: d3f6 f53d 75d9 7bbe c935 0e3d ceb5 c0bd
00000030: 80aa 24be f731 8cbd e961 823c 7571 85be
-0.056807462 -0.12002813 -0.04268788 -0.14616753 -0.32452685 0.034863584 -0.2108589 0.0427029
0.120099686 -0.24594672 0.034719262 -0.094096765 -0.16080666 -0.068454675 0.015915828 -0.26063123

features.6.weight f4 [16]
00000000: c208 f13f 4b90 dd3f 422d fc3f e172 e43f
00000010: 2773 f93f 1c25 b73f 1904 1640 ce58 9f3f
00000020: 6df2 d83f a9dd 0d40 58b3 d83f c25b de3f
00000030: 15ce ce3f 199b d83f f07a c43f caad 0e40
1.8830798 1.730966 1.9701312 1.7847558 1.9488267 1.43082 2.344 1.2448976
1.6948982 2.216654 1.6929731 1.7371752 1.6156641 1.6922332 1.5350018 2.2293572

features.6.bias f4 [16]
00000000: 8358 f33d 67bb 653e 3637 033e a06e 2d3e
00000010: 2c31 a43d 4b9d d93d 3060 de3d 9b4a 79bb
00000020: 906e e63d 7936 8c3d a164 9b3e 16b4 523e
00000030: e7d8 dc3d b582 7c3e 60d5 3a3d bfcf b13d
0.11882117 0.2243477 0.1281403 0.16936731 0.08017191 0.106257044 0.1085819 -0.0038038853
0.11251557 0.06846327 0.3035021 0.2057651 0.10783558 0.24659236 0.045613647 0.086822025

features.6.running_mean f4 [16]
00000000: 94a2 0a3f a290 be3e 972e f73e 3aab 093f
00000010: 7a58 413e 155a df3e 7a1d e83e 5820 633f
00000020: 9df9 2e3f b0d1 193f 958e 253f f9d4 003f
00000030: c1a3 453f 7ac2 003f 1b2e 133f a4c3 e03e
0.54154325 0.3721972 0.48277733 0.53776896 0.18881407 0.43623415 0.4533499 0.8872123
0.6834963 0.6008558 0.6467069 0.5032497 0.77202994 0.5029675 0.57492226 0.43899262

features.6.running_var f4 [16]
00000000: d643 6a3f d457 1f3f b8c7 6b3f b430 803f
00000010: e8ff b93e cb51 423f 23a3 7b3f 0f85 a53f
00000020: 6218 723f 60d1 ca3f 20a7 b23f 4f97 693f
00000030: 4736 c83f b9a0 673f d1e5 693f b49a 6b3f
0.9150976 0.6224339 0.9210162 1.0014863 0.36328053 0.75906056 0.982958 1.2931231
0.94568455 1.5845146 1.3957253 0.91246504 1.5641564 0.9047962 0.91366297 0.92032933

classifier.0.weight f4 [120, 400]
00000000: e9dc 76bc 46f7 05bd 3431 80bd 6fa5 84bd
00000010: 4455 873d 2644 c33c 9d95 ed3d cb9e 46bd
00000020: 4648 dd3c 33b6 f83d 4f0b 803d a588 68bd
00000030: 19db cabc 1cbb f2bd 6098 3c3d 34b6 91bd
00000040: 56d9 64bd 7ba4 683c 20c1 0bbe 431d dcbd
00000050: 8fa9 f4bd 09f5 ae3c ed93 0bbd b424 a23d
00000060: 0491 3bbd 1e5f 003e 7ed6 313e 5ec1 75bd
00000070: cab3 46bc 111f b6bd 6ef8 303d 770c a63c
00000080: 52a0 f13c 1c0b 023d 01be e2bc 79d7 393d
00000090: 2699 a53b 9822 1abb 1cef 0fbd 8261 8abc
000000a0: 7d56 fcbc 8fb7 03bd c34d 903b 1a25 3abd
000000b0: d880 05bc 1490 693d ce92 cabc a994 6a3d
000000c0: e5cf b13d dcb5 e1bd 7cb3 023e 7ed0 19bd
000000d0: de1b e1bc 2f99 df3d 4d42 d3ba aa4f 29bd
000000e0: d36a 443d 5fa2 6f3b 8813 093c 9201 483d
000000f0: 2c70 99bc a5fe 793c 9c02 bfbc 9cb7 573c
00000100: f5bb 6ebd 881b e73c 7594 80bd ccde 81bd
00000110: 648b 83bd 5e15 753d 8d8c 9937 08cd da3c
00000120: 77b9 17bb 570f b03d 0599 083e 88eb 71bb
00000130: 0001 393d 11d1 2e3c fe05 b13d 2318 a93b
00000140: 42f8 fc3c af9a 143d b8e8 15bb bf0f 44bc
00000150: b13b c23d 57d8 79bb 4f8a 133e 2735 ea3d
00000160: c9e0 39bd d108 fa3c ccb3 963c 2ded 0c3d
00000170: f983 b3bc 5362 0abd 0a8d a43d 2fc4 913d
00000180: 36a5 073e 8d80 d2bb 3b5b ae3b 6621 aabc
00000190: 7792 febc cfa5 813c 8947 d2bc 23b9 103d
000001a0: 76f5 ae3c 0bec 9b3b 5944 22bb c599 65bd
000001b0: abc1 81bd f70a 29be d1d0 38be d124 67bc
000001c0: 3647 f23b fd0c e6bc ed29 1fbc 729e fb3c
000001d0: 45d0 cc3c 2ae6 cebc ec69 7fbc 5e42 923d
000001e0: fea6 cc3d 7c7b d93c ea4d c53d 17f3 dbbc
000001f0: 87cb 1e3c 199e 4cbc 8870 0cbd 8648 f0bd
00000200: 1dbf b1bd e18f 8dbd 3851 61bd afde 2fbd
00000210: db09 2bbe 0677 d8bd da2e 11bd 5f64 9a3d
00000220: ea92 e6bb 6fca 9dbd 786d 3b3d 1748 8c3d
00000230: 5ce6 fa3c b0dd 55ba 7536 15bd 0b3f 88bd
00000240: d3ee b4bd e2bb 8a3d cae4 bb3c 7387 23bd
00000250: 4270 4abd 6bcd afbd 126b 0e3d d7e3 153c
00000260: 23c2 cf3c 654a e7bd 135e 71bd bf51 c4ba
00000270: 47cb 983d b278 973d 0a69 3a3b 547f 2cbd
00000280: d060 d93b eafa 133e 0f3f b03d af53 033d
00000290: ba00 923d 393b 493c b567 263d 280b 73bc
000002a0: 677e 983d 9800 be3d aca6 f53d 18f3 31ba
000002b0: ab11 44bc d381 40bd 3ee4 903c 3c61 00bd
000002c0: 8c06 32bd 4112 4a3d 5484 633d c100 5dbc
000002d0: 31f8 fcbd d023 68bd 2985 32bd 4804 d4bc
000002e0: e40b 963d 48d3 893d 95c4 1a3c fca4 08bd
000002f0: b5bb e6bc f931 cfbb 57c2 ac3c 700d 9dbd
00000300: a65c 243d 4fb3 7cbc e368 b7bc 7f63 8abd
00000310: ca5e 19bd 7e9f d33c 405a a1bd 33f9 af3c
00000320: 6ae2 5d3d ac52 ae3d e401 1a3e b459 d23d
00000330: 9a20 0e3d 32c9 d23d 1d11 da3d 570e f93c
00000340: 3da9 9b3d eb56 1dbd 3c27 debc 3b98 7abd
00000350: ff37 1f3d c66e 64bd 6b9c 6c3c fe9d 913c
00000360: 3ba0 0cbd 69ca 12bd 40bb 80bc 1bd9 813d
00000370: bf93 b23d 9d56 a93d 6692 7d3c 22bb 6c3d
00000380: d6ad 193d 4c15 b239 abd1 8c3d b848 023e
00000390: 0ea2 ac3d cd01 e3bb e96e 773d c340 e73d
000003a0: 1e4b d73c b4f3 2fbd f996 923d 5c46 143d
000003b0: fed3 073e 4efb df3c 2145 80bd 5a25 a6bd
000003c0: ca99 c0ba 6e97 403d aa8b 87bd d691 10bd
000003d0: d95f 6bbc 94cd 0cbe ab91 c2bc ec52 133d
000003e0: be07 3e3c 4fd4 f83d 0d4e c7bd f3a1 a7bc
000003f0: 6bdf 283e 6f19 adbd dc09 89bc 2543 1c3a
-0.0150673175 -0.03270652 -0.06259385 -0.064768665 0.0660806 0.023836207 0.11600802 -0.04849128
0.027012002 0.12144127 0.06252157 -0.05677094 -0.024762677 -0.118520945 0.046043754 -0.071148306
-0.05587133 0.014199371 -0.1364789 -0.10747769 -0.11946403 0.021357076 -0.03407662 0.07917157
-0.045792595 0.12536284 0.17366979 -0.059998862 -0.012127826 -0.08892644 0.04320567 0.020269616
0.029495392 0.031748876 -0.027678492 0.045371506 0.005053657 -0.0023519155 -0.03514014 -0.016892198
-0.03080296 -0.032157477 0.004403801 -0.04544554 -0.0081483945 0.05702217 -0.024728205 0.05727068
0.08682231 -0.11021015 0.1276378 -0.03755235 -0.027479108 0.10917889 -0.0016117782 -0.04133574
0.047953438 0.0036565287 0.008366473 0.048829623 -0.018730246 0.015258466 -0.023316674 0.0131663345
-0.05828472 0.02821137 -0.06278316 -0.06341323 -0.06423071 0.05983483 1.830447e-05 0.026709095
-0.0023151317 0.08596676 0.13339622 -0.003691407 0.04516697 0.0106699625 0.08643721 0.005160348
0.030880097 0.03628033 -0.0022874307 -0.011966645 0.094840415 -0.0038123333 0.1440823 0.11435919
-0.045380387 0.030521782 0.01839628 0.034405876 -0.021913515 -0.033785176 0.080347136 0.07117497
0.13246617 -0.006424016 0.005320934 -0.020767879 -0.0310757 0.015826134 -0.025668876 0.03533281
0.02135728 0.004758363 -0.0024759977 -0.05605485 -0.06335767 -0.16508089 -0.18048407 -0.014107899
0.007393743 -0.028082365 -0.009714586 0.030715201 0.025001654 -0.025256235 -0.015589219 0.07141565
0.09992789 0.02654814 0.096340016 -0.026849313 0.009692079 -0.012488865 -0.034287006 -0.11732583
-0.0867903 -0.06912208 -0.055009097 -0.042936977 -0.16702978 -0.10569577 -0.03544507 0.075386755
-0.0070365565 -0.07704627 0.045758694 0.068496875 0.030627422 -0.0008158339 -0.036428887 -0.066526495
-0.088346146 0.06774117 0.022936244 -0.039924096 -0.049423464 -0.08584102 0.03477008 0.0091485595
0.025361126 -0.112934865 -0.058927607 -0.0014977976 0.07460647 0.07396068 0.0028443956 -0.042113617
0.0066338554 0.14451185 0.086057775 0.03206223 0.07129045 0.012282186 0.040626246 -0.014834203
0.07445984 0.09277457 0.11994681 -0.0006788238 -0.011967103 -0.04699881 0.01768696 -0.03134273
-0.043463275 0.049333815 0.05554612 -0.013488949 -0.12352026 -0.05667478 -0.043584023 -0.025880948
0.07326487 0.06729752 0.009446283 -0.033360466 -0.028165678 -0.006323096 0.021088762 -0.076685786
0.04012742 -0.01542361 -0.022388881 -0.067572586 -0.037443914 0.025832888 -0.07878542 0.021481132
0.054171003 0.08511862 0.15039784 0.10271016 0.03469906 0.10292281 0.10647795 0.030402346
0.07600639 -0.03841297 -0.027118318 -0.061180335 0.03887176 -0.055769704 0.01444159 0.017775532
-0.034332495 -0.035837565 -0.015714288 0.06340238 0.087195866 0.08268473 0.015476799 0.05779565
0.0375193 0.00033966673 0.068759285 0.12723053 0.08429347 -0.006927705 0.060408507 0.11291649
0.026280936 -0.042957023 0.07157702 0.036199912 0.13264462 0.027341511 -0.06263185 -0.08112593
-0.001469427 0.047019415 -0.06618436 -0.03529533 -0.014366114 -0.13750297 -0.0237511 0.035967752
0.011598526 0.1214987 -0.09731684 -0.020462966 0.16491477 -0.08452117 -0.016728334 0.0005960933

classifier.0.bias f4 [120]
00000000: fd3e e6bd 4790 503d b964 43be 7d41 b8bd
00000010: e04d f53c 1d67 9d3c 8a55 843b 331e 68bc
00000020: 7b17 093d 0958 b4bd 7634 26be 7363 d0bd
00000030: ec4a b7bd 4f98 f4bc 717b 00be 69b5 ad3d
00000040: 0f42 b4bd 8bf4 703d 4cc7 72bd eed4 85bd
00000050: e2f9 153d 669f 523d a373 66bd fac2 c8bd
00000060: ec65 0b3d e302 43bd c6bb 32be cca2 113e
00000070: 3e43 c5bd 528e e0bd d028 fcbd 7ce5 06be
00000080: ef35 933a 7779 903d d1ef 663d a381 d83d
00000090: db4d 993d 299d 003e 80c9 e8bd 497e 17be
000000a0: 116d 783d 917f f9bd 4a97 dcbd 4777 c3bd
000000b0: c564 b93d 1ce5 37be cda4 bdbd f01f 803d
000000c0: f52b aabd 87f0 24be dc8d f3bd 42ed f93b
000000d0: ec84 7abd 64dc 13bd 9fff f8bd c029 6bbb
000000e0: 7678 bcbd 0e9e d7bd bb1c 2dbe e057 b53c
000000f0: c5b3 97bd 4ed6 58be be86 073e e616 9f3d
00000100: cb53 12bc d5bc 2f3d 1ff5 14b9 2b21 42bc
00000110: 61cc 19be b921 d3bd 04bc 27bd 2797 91bd
00000120: d63a 51bd 8b10 11be 9e69 e83c c5f3 0fbd
00000130: f14b 2abe 4e9a a7bd 7d29 e53d 122b 4dbe
00000140: 612c 16be e932 29be e509 1b3d e7f2 a6bd
00000150: 45c2 5bbd 15e9 81bc 897b a0bc d6a8 bdbd
00000160: 16bd 36be 7ff4 883d f428 debd aeba ed3c
00000170: f6e8 1ebb 5631 e7ba 5044 d4bd dd1c 16be
00000180: 5a17 75bd de1c 04be 2c5f 39bc dd73 b1bd
00000190: 8e9d adbc 9be4 7bbd a186 11be 891d 49be
000001a0: bcb6 b43d da0a 41be b9e4 bfbd 49c8 febd
000001b0: 2617 e8bd 322d 34be a61c 3fbd 4423 82be
000001c0: 86ca ddbb a6e5 93bd 0d69 013d 5e8c 513c
000001d0: 86c4 07be 3ea1 ab3c 6cbe 8e3c 5645 c2bc
-0.11242483 0.050918844 -0.19081391 -0.08996866 0.02994436 0.019214207 0.0040385174 -0.014167356
0.03346966 -0.08805854 -0.1623095 -0.101752184 -0.08949837 -0.029857783 -0.12547089 0.08481867
-0.08801662 0.058826964 -0.059272096 -0.06534754 0.03661526 0.051421545 -0.056262624 -0.09802814
0.034032747 -0.047610175 -0.17454442 0.14222258 -0.09631966 -0.109646454 -0.12312472 -0.13173479
0.0011231283 0.070544176 0.05638105 0.10571601 0.07485553 0.12559952 -0.11366558 -0.14794268
0.06065089 -0.121825345 -0.107710436 -0.09544235 0.090524234 -0.17958492 -0.09259949 0.062560916
-0.083091654 -0.16107379 -0.11892292 0.0076271603 -0.06116192 -0.036098853 -0.12158131 -0.003588304
-0.092026636 -0.105281934 -0.16905491 0.022136629 -0.07407335 -0.21175501 0.13234994 0.077680394
-0.008931111 0.042904694 -0.00014205695 -0.011848728 -0.1501937 -0.103091665 -0.04095079 -0.07108908
-0.0510815 -0.14166467 0.028370675 -0.035144586 -0.16630532 -0.08183728 0.11189554 -0.20035961
-0.14665367 -0.16523327 0.037851233 -0.08151799 -0.053652067 -0.015858212 -0.019590156 -0.092607185
-0.17845568 0.06687259 -0.10847655 0.02901968 -0.0024247742 -0.0017638605 -0.10364592 -0.14659448
-0.059836723 -0.12901637 -0.011314195 -0.08664677 -0.021193292 -0.061497312 -0.14211513 -0.19640173
0.08823916 -0.18851796 -0.09369797 -0.12440545 -0.1133254 -0.17595366 -0.04665818 -0.2541753
-0.0067685274 -0.07221536 0.031594325 0.012789814 -0.13258561 0.02095091 0.017424785 -0.023714703

classifier.2.weight f4 [84, 120]
00000000: bc9d 263e 8066 393d 7024 0f3d 6195 323d
00000010: 9d75 a13d 4f45 7e3b 53aa 9c3a a9fe d43d
00000020: b861 743b 8488 433e 3367 e6bd 9ea2 283d
00000030: 9635 25be 7c98 c93d 9c59 18be 6d03 d2bd
00000040: 6c07 a53d 75b4 8b3d 306d 1cbd b697 313e
00000050: 1f81 3e3e b44f a03d 7e03 d13d 46f8 913c
00000060: 1f04 00bc 2938 f8bc 3b55 8e3d 43d2 933d
00000070: 577a 3c3b 2861 da3d d3eb 7c3d 73b5 973d
00000080: 90e6 29bd 11ee 4fbd 5505 dbbc 7b22 ce3d
00000090: 4f36 b93c 4058 d7bd c7ab 8fbd 0bea a83a
000000a0: bd6d 113e 7d88 f4bc e519 e2bc a863 4bbd
000000b0: 3aad f13c e828 703d 0b94 833d 414e 93bb
000000c0: 4598 c13d 140d 8b3d 936c b2bd e3f2 e9bd
000000d0: ccf3 2bbd cae1 de3c 198d 3d3d ba01 203c
000000e0: e146 46bd 8ca7 313c 4a14 e93d db42 033d
000000f0: 57a6 30bd 8e6f 8dbd a533 fd3d 901d 8b3a
00000100: 8564 0cbd 257b 37be 012f 77bc ae6c 773d
00000110: 547c bebc 1131 65bd a980 d23b 79d0 453d
00000120: 463f dfbd 92c0 c53c 0af3 0d3e 19ef 87bd
00000130: 2120 29bc aab1 9c3d 80e7 20be b428 c2bc
00000140: 0fad 02bd 6015 013e fec6 b2bd 97e9 47be
00000150: c37c 9bbc 7a13 a9bd 4f76 b2bc c0d5 bb3d
00000160: 4a63 c4bd c736 17be d68f a9bd a321 f2bd
00000170: adc7 4dbb cc04 07be 653d 8dbd e5b3 4b3d
00000180: ef6a 673d 5941 5e3d 7079 81bd 76e7 34be
00000190: 3122 aa3d 27dc 11be 1c34 08be 8582 66bd
000001a0: 5576 713d 7729 4a3e 6b06 4e3d 9a0b b1bc
000001b0: 448f 4d3e e1dd 113d 3bbd 36be 4441 273d
000001c0: 560e d03c 3fcb 103d 9333 6c3e 0a3f 2f3b
000001d0: 122c 99bd 168f 603b 4c9c 20bd 0db2 29bd
000001e0: a831 b63c b292 78bd 4a17 d3bc 7f83 3b3d
000001f0: 9967 4dbd 9caa 293e a6e8 cd3b 83f2 8cbd
00000200: 5b89 10b7 58b0 0d3d ae0a fe3d 3bf9 b1bd
00000210: cb5e 2e3d 21aa 52bd 8ca2 453d ef93 febd
00000220: 9d9c 563d 3243 b9bd 4f68 37be c7d5 febd
00000230: 1395 d4bd db95 f03d 7a5d 453d 437a 5b3d
00000240: 4079 52bd 83a8 17be b48f 223d 930b 5dbd
00000250: b5a7 a3bd 1d31 7cbb 0fa0 a03d 87d1 073d
00000260: 8620 813d 8c5f 76bd acbe 13bd ebb6 49be
00000270: 59b6 cbbd e167 e0bd 6cd2 843d 0e2c a4bd
00000280: 2ed0 593d 0453 de3d 9b05 78bd ac59 0c3e
00000290: a43e 783c aa29 243e 1d75 83bc fb4d bebc
000002a0: c331 9fbb 9a2c 15be 6abf 3b3e 9574 d63d
000002b0: 95f2 1e3d 366d 25be 263d 03be cf23 c13d
000002c0: 076d 153d 1317 b13d cd0b ec3d 2f0e 4ebd
000002d0: ee52 0f3d 9979 e33d 286e cf3d c6f0 10be
000002e0: bd19 ca3d d530 f13d 0b14 b93d e017 b2bc
000002f0: 6416 d43d ce6c 0e3e 488d d43d e8b9 21bd
00000300: c0f6 4b3e 1685 1e3d 8112 703d c554 4dbd
00000310: 7b6e 55bd 3936 d6bd a4ce 1d3d 3b44 a5bd
00000320: 1887 5ebd 9d2b 15be 36ae 9c3d 58db 3f3e
00000330: 84f8 1bbd 1465 2a3e 039f 313e 360f 6bbd
00000340: 4ad4 e73d 8363 4e3d eb50 923d 523e b13d
00000350: f57e 30bd b0e4 e23d d4b0 bfbd 8fb2 2dbd
00000360: e152 29bd 01da 363e 7212 3d3c 6b83 dabc
00000370: 308d 723d 24d2 fe3d cf37 013e 35f7 873d
00000380: a2d7 c2bd aaa0 9dbc 0401 eebd b182 acbd
00000390: b508 65bd 52f1 073b 26dd 243e 7d40 e0bc
000003a0: 45da 9e3d 51e0 a33d 67ad 893d 9319 97bd
000003b0: 1a88 cb3c bdcb 023e 24ab b3bd 7778 13bc
000003c0: ffc4 253e c014 8d3a 0a9f 74bd f5e1 223e
000003d0: 72e5 463e 0f09 f33d 4c99 813d d4df 353e
000003e0: fa3f afbd be73 263e bdb1 873d 9a3e 63bd
000003f0: 15fa 273e a368 a4bd a968 2bbe 2827 94bd
0.16271108 0.045263767 0.03494686 0.04359949 0.07883761 0.0038798635 0.0011952616 0.10400135
0.003728969 0.19095045 -0.112501524 0.04117071 -0.16133723 0.09843537 -0.14877933 -0.1025456
0.08058056 0.06821529 -0.038190067 0.1734303 0.18603943 0.07827702 0.10205744 0.017818581
-0.007813483 -0.030300217 0.0694985 0.072178386 0.0028759444 0.10663062 0.061748337 0.074076556
-0.041479647 -0.050764147 -0.026735941 0.100651704 0.022608904 -0.10514879 -0.07015186 0.0012887133
0.14202018 -0.029850239 -0.027600238 -0.049655586 0.029501546 0.05863276 0.06424721 -0.0044954126
0.09452871 0.06789604 -0.08712115 -0.1142328 -0.04198055 0.027207274 0.04627714 0.009766037
-0.04840744 0.010843169 0.11380823 0.03204618 -0.043127384 -0.06906043 0.12363366 0.0010613669
-0.03427555 -0.1791807 -0.01508689 0.06040638 -0.023252644 -0.055954996 0.006424029 0.04829452
-0.1090074 0.024139676 0.13862243 -0.06637401 -0.010322602 0.07651074 -0.1571331 -0.02370105
-0.031903323 0.1260581 -0.08729361 -0.19522701 -0.01898039 -0.08255668 -0.02178493 0.09171629
-0.095892504 -0.1476699 -0.08279388 -0.11822822 -0.0031399534 -0.13185424 -0.06896476 0.049732108
0.056498464 0.05426154 -0.063219905 -0.1766642 0.08307303 -0.14244138 -0.13301128 -0.056276817
0.05895074 0.1974238 0.05029909 -0.021611977 0.20074183 0.03561199 -0.17845623 0.040833727
0.02539746 0.03535008 0.23066549 0.0026740455 -0.07479109 0.0034264973 -0.039211556 -0.041429568
0.022240475 -0.060686775 -0.025767941 0.0457797 -0.050147627 0.16568989 0.0062838374 -0.06882193
-8.615049e-06 0.034592003 0.12404381 -0.08690115 0.04257087 -0.05143178 0.04825072 -0.1243056
0.05239545 -0.090460196 -0.17910884 -0.124431185 -0.10379996 0.11747333 0.04818485 0.053583395
-0.051385164 -0.14810376 0.039687827 -0.053966116 -0.07990972 -0.0038481422 0.07843029 0.033158805
0.063050315 -0.060149714 -0.03607051 -0.19698684 -0.099468894 -0.10957313 0.06485447 -0.08016215
0.05317705 0.10855678 -0.06055222 0.13706082 0.015151653 0.16031519 -0.016047055 -0.023230543
-0.004858227 -0.14567795 0.18334737 0.10471455 0.038805563 -0.16154942 -0.12816295 0.09430658
0.03648093 0.08646979 0.11525688 -0.050306495 0.034991197 0.11107177 0.101284325 -0.14154348
0.098681904 0.11776892 0.09037026 -0.0217399 0.10355833 0.13908693 0.1037851 -0.039483935
0.19918346 0.03870114 0.058611397 -0.05012967 -0.052107316 -0.10459561 0.038527146 -0.080696546
-0.054328054 -0.14567418 0.076504156 0.18736017 -0.0380788 0.1664012 0.17345814 -0.057387553
0.11319788 0.05038787 0.0714434 0.08654465 -0.043089826 0.11078775 -0.09359899 -0.042406615
-0.041338805 0.178566 0.011540042 -0.026673993 0.05921668 0.12442425 0.12618946 0.06638948
-0.09513785 -0.01924165 -0.116212875 -0.08423365 -0.055916507 0.0020743203 0.16099986 -0.0273745
0.07756475 0.08001769 0.06722527 -0.07377925 0.024845172 0.12773032 -0.08772877 -0.009000889
0.1618843 0.001076363 -0.059721984 0.15906508 0.19423464 0.11866962 0.06328067 0.17761165
-0.085571244 0.1625509 0.06625698 -0.055479623 0.16403992 -0.0802777 -0.16739143 -0.07234031

classifier.2.bias f4 [84]
00000000: e67f 0c3e c3aa 3ebd 2cf6 193d 9b91 ac3d
00000010: 77d5 00bd f7f2 e53d ca64 98bd a5f3 593e
00000020: ab08 9dbd a9dc da3d 078b 83bd 08ae 493d
00000030: 3bdf 98bc 7a45 58bd 5ee9 1bbd c16d 9a3d
00000040: 8496 c43d cf0d bd3d 26cf f03d 9c46 193b
00000050: 57e0 423e ba10 d8bd da16 63b9 04bc 8cbb
00000060: 4f8f 273c f428 e7bd e54a ef3b 1362 94bc
00000070: ce57 dabd 28a8 82bd 9adb a53c 116a b23d
00000080: 4410 193d 3407 6e3e 232f f0bb 0324 81bd
00000090: a14a b43c d3f0 84bd e157 33bd 0ea7 0d3e
000000a0: 132c e0bd 4864 0f3e 0f17 f1bc ddc8 e63d
000000b0: 0b51 f53d a01c 09bc 04f7 dc3d f88d ca3d
000000c0: 5a52 533e 6787 733d 54f3 283c e7ac 403d
000000d0: e296 6a3e 6f12 f8bc 6641 2c3e b8af 173e
000000e0: 4ec0 0e3e 5608 93be c35a 34bd dddb d8bd
000000f0: e727 6abd 44b6 003d 29f6 9a3c 67f2 123e
00000100: f7bf 30bd feab 4e3e 5fef 0a3d 1154 143e
00000110: 8bb5 efbd 162d ae3d 9284 fd3c 3ea5 913d
00000120: 9192 253d 5d3b 0b3e 2d5f 893e 02d5 bdbd
00000130: 7d68 b6bd bd66 6f3d c1e6 ee3d ace7 003e
00000140: aa1d 24bc 2f19 70bd 2c44 553d 35a8 c1bd
0.13720664 -0.04654957 0.037588283 0.084262095 -0.031453576 0.112279825 -0.07441099 0.2128435
-0.07667669 0.10686619 -0.06423002 0.049238235 -0.018661132 -0.052800633 -0.038064353 0.07540465
0.09599021 0.092311494 0.117582604 0.0023388034 0.19030891 -0.10550065 -0.0002165692 -0.004294874
0.0102270385 -0.11287108 0.0073026293 -0.018113172 -0.10661279 -0.063797295 0.020246316 0.08711637
0.037369028 0.23244935 -0.007329838 -0.06305697 0.022008242 -0.06491246 -0.04378498 0.13833258
-0.109459065 0.14003098 -0.02942994 0.112687804 0.11978348 -0.008368641 0.10789302 0.0989036
0.20636883 0.0594553 0.01031192 0.047039893 0.2290912 -0.030282227 0.16821823 0.14813125
0.13940546 -0.28717297 -0.04403187 -0.105888106 -0.05716696 0.031423822 0.018916206 0.14350282
-0.043151822 0.20182797 0.03391969 0.14485194 -0.117045484 0.08504693 0.030947004 0.071115956
0.04042298 0.13596864 0.26830426 -0.09269144 -0.08906648 0.05844759 0.116651066 0.12588376
-0.010016838 -0.058617767 0.052066967 -0.09455911

classifier.4.weight f4 [10, 84]
00000000: 742a d3bd cdff b03e 9139 c53e 77cd 1f3e
00000010: 9490 43be 1266 33be 7cfe f0bd d01c 97be
00000020: 3005 843e 8c89 f93c f433 9e3e e976 ff3d
00000030: 1c5e 573e 66a8 883e ed73 3f3c 976b ec3d
00000040: 57cb 21be 2155 b2be c05a 5fbe c5bc d33e
00000050: 8c14 84be 991b 613e 5856 5d3e 6c5d 1cbd
00000060: cb5d 273d 9870 583d d654 8ebe cfcf 713e
00000070: 376f 0abe b627 ad3c af46 a23c 912c a6be
00000080: c571 e5be 3e03 19bf 7f7f 2c3d dc10 053e
00000090: 0543 3d3e 22c6 c93c cdaa ac3d 1db4 2abe
000000a0: a298 503e 504a 203e f63d 08be a235 33be
000000b0: 440a afbe 3053 4f3e e4bc 80bd 55c0 373e
000000c0: a18b 05be 9cf0 81be 66d3 a0be eb54 b2bc
000000d0: 424e 32be be45 a23e e933 283e 3253 4dbe
000000e0: 6215 60be 8b03 273f a58b 4b3e 7b71 273c
000000f0: 6056 df3e c29d 6b3e 9332 7dbd 7eb6 e5ba
00000100: d5d1 c0be 903c 3f3e 2ad9 b4be a921 8a3e
00000110: 4ed8 30bc 8757 22be 3498 fd3d c390 0c3e
00000120: 6b63 823d 514d a03d 5ab9 9dbe d73b e7bd
00000130: dd17 823e 4d1c 653e 7043 1fbd 955d ad3e
00000140: afce fa3e 16bf ad3e 1283 953e 8031 4f3d
00000150: b72c 893d 2bc8 063e 77c2 74be b44d 223f
00000160: 5a59 f83e a150 453e 6ebb bebd 4f0e f13d
00000170: 403d 31bd 97f0 d9be 1f30 ad3e 9be3 15be
00000180: d5b6 ef3d d38a f3bd b75e 9c3c b8ad 71be
00000190: 8a04 a0bd cf02 94bd 3aef 38bd b8b8 d83e
000001a0: c8a2 e0bd 25e4 ac3d 862a cebe e4ad b2bd
000001b0: dc7a 0dbe b639 913e 6e80 e7bd 626f a5bd
000001c0: 9657 1f3f cee0 14bd 5102 45be 14c8 9b3e
000001d0: 8907 c0bc dcf8 ab3d d036 70bc 5154 9e3e
000001e0: 6013 9ebe dbcc 263e 613b 37be 031c cdbe
000001f0: e9bd 783c b935 853e c1c7 3fbd 2f9f 203e
00000200: ae35 9cbd 645c 983e d26a 4b3e 40bf f7be
00000210: a84e 203f 898e c83e ea22 b63e a7f9 cc3e
00000220: 356f bc3e e300 fcbc 164d 7cbe ae5d a63c
00000230: 819f e9be 3a2a 92be 6fb6 8b3c fa34 ddbd
00000240: 78fa 933e 8d4b c3be 5dc2 a2bd c1cb ad3d
00000250: 2860 08bd 1778 bcbe 53d1 28be 8c9b f73d
00000260: 93c9 e4bd d216 d43c 8952 a0bd 3ef9 8fbd
00000270: 7f8b 8c3d 9b91 883e 9e0b 7fbd 91a1 f0bc
00000280: 97f4 47be 5705 0c3e f6ab aabe 00cf 06bf
00000290: b188 85bc 238e 113e a788 1d3e f7a3 db3d
000002a0: 886d 90be 6e0a 383e c6ce 69be fc95 09bd
000002b0: 25ae 80be 3773 423e 85f3 953d c953 bcbe
000002c0: 86f1 3f3e 2388 6b3e 4755 1e3e b0fd b5bd
000002d0: a727 263e 17aa 2ebd 35da 933e 8c95 213e
000002e0: 0e52 abbe 3429 263d 1ba2 393d 7339 63be
000002f0: 929b ccbe e5a2 c53e d9f3 c43e ab92 7cbd
00000300: a8df d83e 7627 e73d 3de3 d03d 295c 7e3e
00000310: e03c 2b3f 7d31 dabd 51fc d43e 047e 2cbe
00000320: ce4e 543e 87e5 263e 4991 8dbc 816a b3bd
00000330: b19f 583c 744d 86bd 62c0 723e 4457 243c
00000340: b436 533e 0020 a2be f0ef 2a3e fa32 b5b6
00000350: f1ef 963d d0da 42be be54 503e 45d4 8d3e
00000360: 177d 1bbe 1521 593e c502 83bd ec9e 903e
00000370: 4b95 dbbe 93a1 dc3e 8899 bcbd 3728 63be
00000380: 5aad 0cbd a3cd 163f 5b22 313e 31a4 793e
00000390: 47f2 243d c669 81bc d215 c63e 332e 523e
000003a0: 3ab5 4e3d ca24 e6be 980d 9b3e b9b0 56bd
000003b0: 48df d03e be62 ee3e 183d e53d d1d8 1cbb
000003c0: 04d7 de3e 57ba 4fbe 9f0e 9bbe 82b2 ac3e
000003d0: 459b 8f3e 6b95 aebe 2f55 b63d 3663 df3d
000003e0: eab5 c8be 0e6a de3c 1e53 98be 41b4 e8bd
000003f0: e159 883c ebfe 1c3e 1207 953e 9041 1f3d
-0.10310832 0.3457016 0.38520482 0.15605722 -0.19098121 -0.17519405 -0.11767289 -0.2951417
0.25785208 0.030461095 0.30899012 0.12473852 0.21031994 0.26690978 0.011685354 0.11543959
-0.15800224 -0.34830573 -0.21811962 0.41354957 -0.25796926 0.21983184 0.21614969 -0.03817503
0.040860932 0.052841753 -0.277991 0.23614429 -0.13518988 0.0211371 0.019809095 -0.32455876
-0.44813362 -0.5977057 0.042113777 0.12994713 0.18482597 0.02463061 0.08431015 -0.1667027
0.20370725 0.15653348 -0.13304886 -0.17500928 -0.3418752 0.20246577 -0.06286028 0.17944463
-0.13041545 -0.25378883 -0.31411284 -0.021769008 -0.17412665 0.31693834 0.16426052 -0.20051268
-0.21883157 0.6523978 0.19877489 0.010219927 0.43620586 0.23009399 -0.06181581 -0.00175257
-0.3766009 0.18675447 -0.35321933 0.26978806 -0.010793759 -0.15853702 0.12382546 0.13727097
0.06366619 0.07827247 -0.30805475 -0.112907104 0.2540883 0.22374077 -0.038882673 0.3386046
0.48985812 0.3393485 0.2920156 0.050584316 0.06697982 0.13162296 -0.23902307 0.63399816
0.4850567 0.19269039 -0.09313093 0.11770307 -0.043271303 -0.42566368 0.33825776 -0.14637606
0.11704794 -0.11891713 0.019088132 -0.23601425 -0.07813366 -0.07227098 -0.04515002 0.4232843
-0.10968548 0.084419526 -0.40266818 -0.08724573 -0.13816398 0.28364342 -0.11303793 -0.08077885
0.6224302 -0.036347203 -0.19239165 0.30426085 -0.023441093 0.083970755 -0.014661506 0.30923703
-0.30874157 0.16289084 -0.17893745 -0.40060434 0.015181997 0.2601755 -0.04682136 0.15685724
-0.07627426 0.29757988 0.19864967 -0.483881 0.6262002 0.39171246 0.35573512 0.4003422
0.36803594 -0.030762142 -0.24638781 0.020308342 -0.45629504 -0.2854784 0.017054765 -0.1080112
0.2890203 -0.38143578 -0.07947228 0.084861286 -0.033294827 -0.3681037 -0.16486101 0.12090215
-0.1117126 0.025889788 -0.07828242 -0.07029961 0.06862544 0.26673588 -0.06226694 -0.029373916
-0.19526897 0.13673912 -0.3333432 -0.52659607 -0.016300531 0.14214377 0.1538416 0.10724633
-0.28208566 0.17972729 -0.22832784 -0.033590302 -0.25132862 0.18989263 0.07321838 -0.36782673
0.18744478 0.23001151 0.15462218 -0.08886278 0.16226064 -0.04264268 0.28877416 0.15779704
-0.3346104 0.040566638 0.04532061 -0.22189884 -0.3996244 0.3860084 0.3846729 -0.06166331
0.42358136 0.112868235 0.10199592 0.24839844 0.6688976 -0.106539704 0.41598752 -0.16844946
0.20733187 0.16298495 -0.017281191 -0.087605484 0.013221667 -0.06557742 0.237062 0.010030571
0.20626336 -0.3166504 0.16693091 -5.400155e-06 0.07369984 -0.19028783 0.20344827 0.2770101
-0.15184437 0.21204026 -0.063970126 0.28246248 -0.4288734 0.4309202 -0.09208971 -0.2218331
-0.03434501 0.58907527 0.17298262 0.2437904 0.040270116 -0.015797507 0.38688523 0.20525436
0.0504658 -0.44949943 0.3028381 -0.05241463 0.4079535 0.4655971 0.11193293 -0.0023932944
0.4352342 -0.20285927 -0.30284593 0.3372994 0.2804815 -0.34098372 0.08902966 0.10907595
-0.3920129 0.02715018 -0.29750913 -0.11362506 0.01664442 0.15331618 0.29106957 0.038880885

classifier.4.bias f4 [10]
00000000: d9a3 f5bd 0112 a2bc f749 acbd ffb7 233e
00000010: 5581 a43e e178 a53e 16ff 183e f458 143d
00000020: a427 373e a0a2 903e
-0.11994142 -0.019783976 -0.08412545 0.15988158 0.32129923 0.32318786 0.14941058 0.036217645
0.17886215 0.28249073
