experiments/LeNet/FashionMNIST/experiment-1/last-epoch.pt (torch, 184747 bytes, 10 tensors)

conv1.weight f4 [6, 1, 5, 5]
-0.06960234 0.35965732 0.42908633 0.35358685 0.10913269 -0.30950245 0.51455665 0.48943877
0.4935658 0.20417556 -0.20628254 0.2719572 0.5153481 0.42764518 0.272611 0.13165285
0.37245384 0.2706854 0.52509356 0.3456244 0.28216842 0.70240223 0.6281082 0.6227017
0.4385521 0.5966317 0.7278961 0.6856157 0.5012911 0.2115921 0.42452547 0.64148456
0.5188153 0.2468672 0.0011874784 0.32735837 0.27338934 0.4272367 0.06680448 -0.029498236
0.25447443 0.27141696 0.18536887 0.28044564 0.07829767 0.1170714 0.38698196 0.107413046
0.15542373 0.15265532 0.40274018 0.26950318 0.40114102 0.118379645 -0.15031444 0.2752958
0.21404542 0.07893697 0.13541833 0.05636684 0.20645422 -0.10987639 0.09876753 0.19928613
-0.13716324 -0.105223596 -0.12323169 -0.12758073 0.09802836 -0.078613535 -0.05004618 -0.2911828
-0.28588566 0.071553394 -0.014934801 -0.28712416 0.03903847 0.37760133 0.49824098 0.43181393
-0.05302643 -0.03457218 0.2296236 0.33657157 0.1570094 -0.09692875 -0.16201934 0.3115677
0.5221468 0.23883411 -0.16120036 -0.1250661 0.037895974 0.32301226 0.35812983 -0.09401356
-0.026160428 0.25805053 0.37076467 0.13008551 0.33609033 0.20843153 0.3686837 -0.013275519
0.13920166 0.26704702 0.15182182 0.16231307 0.070330895 0.10850146 0.098618194 0.25554863
0.06512231 -0.029517395 0.1886562 -0.022539604 0.15242507 -0.15698701 -0.16013236 -0.117599264
0.035510246 0.23591521 0.19347082 -0.016298074 -0.17032696 -0.029744666 -0.06299946 -0.22710483
-0.21448423 0.0801129 0.21073161 -0.026295356 0.04479307 -0.026752172 0.17321745 0.17448224
0.16599745 0.024116825 0.11961186 0.28485462 0.12282876 0.20656444 0.015974378 0.09228529
0.15052924 0.19738379 -0.03678394 0.21618173 0.055523053 0.26517054
00000000: ac8b 8ebd 0125 b83e 34b1 db3e 5609 b53e
00000010: f680 df3d 1b77 9ebe fcb9 033f b897 fa3e
00000020: a8b4 fc3e 6613 513e bb3b 53be f93d 8b3e
00000030: daed 033f 4ff4 da3e ab93 8b3e 01d0 063e
00000040: 45b2 be3e 4797 8a3e 886c 063f aef5 b03e
00000050: 6178 903e a2d0 333f b3cb 203f 6169 1f3f
00000060: e789 e03e dbbc 183f 6657 3a3f 8384 2f3f
00000070: 9d54 003f 99ab 583e 675b d93e 5538 243f
00000080: 14d1 043f c1ca 7c3e 2aa5 9b3a 849b a73e
00000090: b0f9 8b3e c5be da3e cad0 883d 49a6 f1bc
000000a0: 794a 823e 2af7 8a3e 56d1 3d3e 9296 8f3e
000000b0: 875a a03d 21c3 ef3d 8022 c63e 5ffb db3d
000000c0: 6627 1f3e ad51 1c3e f633 ce3e 52fc 893e
000000d0: 5b62 cd3e 0771 f23d 07ec 19be 92f3 8c3e
000000e0: b92e 5b3e b5a9 a13d 1aab 0a3e eae0 663d
000000f0: bc68 533e df06 e1bd a146 ca3d aa11 4c3e
00000100: 8574 0cbe 787f d7bd e560 fcbd 86a4 02be
00000110: 18c3 c83d 2200 a1bd 39fd 4cbd e915 95be
00000120: 9b5f 92be 968a 923d 18b1 74bc f001 93be
00000130: cde6 1f3d f654 c13e 7119 ff3e b716 dd3e
00000140: 3e32 59bd 8f9b 0dbd 7322 6b3e 1c53 ac3e
00000150: 12c7 203e 9582 c6bd 66e8 25be cd85 9f3e
00000160: 6aab 053f ee90 743e b511 25be 5411 00be
00000170: cf38 1b3d dd61 a53e cb5c b73e 2e8a c0bd
00000180: 654e d6bc 331f 843e ded4 bd3e 2335 053e
00000190: 0814 ac3e 136f 553e 1cc4 bc3e 9081 59bc
000001a0: e18a 0e3e 63ba 883e 2e77 1b3e 6635 263e
000001b0: a509 903d 0336 de3d 56f8 c93d 45d7 823e
000001c0: d85e 853d 77ce f1bc 172f 413e faa4 b8bc
000001d0: 5115 1c3e 34c1 20be bdf9 23be e2d7 f0bd
000001e0: 3173 113d c293 713e 371d 463e 8a83 85bc
000001f0: 316a 2ebe 16ab f3bc dc05 81bd 2b8e 68be
00000200: c1a1 5bbe 3b12 a43d 07ca 573e 5c69 d7bc
00000210: f078 373d 5f27 dbbc ea5f 313e 79ab 323e
00000220: 3cfb 293e a690 c53c 10f7 f43d 77d8 913e
00000230: a58d fb3d a185 533e b3dc 823c 1200 bd3d
00000240: 5624 1a3e fa1e 4a3e c2aa 16bd be5e 5d3e
00000250: 246c 633d 6fc4 873e

conv1.bias f4 [6]
-8.8350025e-05 -0.0006123691 0.96069974 0.12963758 -0.124523185 -0.43245563
00000000: 8f48 b9b8 6587 20ba 6bf0 753f b7bf 043e
00000010: 0306 ffbd d36a ddbe

conv2.weight f4 [16, 6, 5, 5]
-0.010394446 -0.06175403 -0.09248343 -0.07629709 -0.009373105 -0.048122153 -0.028425064 0.07699473
0.033727594 -0.041379105 0.018976426 -0.04687317 -0.01417348 0.008335727 -0.102007434 0.030530062
0.03962389 0.08235425 -0.018569775 0.020409755 -0.049195003 0.0107269585 -0.054571092 0.04291986
-0.0831062 -0.022381822 -0.022589788 -0.0028100298 0.00067633064 -0.044597253 -0.0060125333 0.030951517
-0.0750305 0.0327467 -0.020776048 -0.011382459 -0.035146702 0.026942728 0.060138613 -0.08503778
-0.09065376 -0.048573527 0.043870922 0.0696187 -0.0026766078 -0.039847355 -0.00027415986 0.04650926
0.07381381 0.06222448 -0.06983388 -0.06279894 -0.020973934 -0.0094539495 0.012587721 0.08163194
-0.05758906 0.016907053 0.043143176 -0.07968477 0.055084426 0.0599936 0.032176606 0.051567998
-0.07723923 0.050756797 -0.030436443 0.07696111 0.022997372 -0.0005988177 -0.029080067 -0.060557194
-0.02671313 0.039146814 -0.01574061 0.0012647107 0.029548265 -0.061052322 0.010532512 0.03835033
0.008025906 0.0236306 0.05419699 -0.03315467 -0.03693248 0.07065781 -0.045949362 -0.027609494
-0.01575347 0.0054868045 -0.079633266 0.052302033 -0.008727914 -0.011575013 0.019063702 0.052681033
0.0021172862 -0.061630804 0.024669563 0.05191221 0.06003947 0.05813311 -0.045983747 0.050681233
0.073541105 -0.03935435 -0.009950901 0.074544854 0.0039861673 -0.070582874 -0.042786043 0.06675918
-0.012847411 0.030780261 -0.00066291296 -0.061409533 0.06606069 0.02751745 0.07879615 -0.042751387
0.046271544 0.04564043 0.059491817 0.00702949 -0.01229175 0.01567687 -0.057725295 -0.07602872
0.020419244 0.011438515 -0.021117454 -0.0012156457 0.06796153 -0.06895523 -0.013137957 -0.0045205266
-0.046136517 0.07348076 -0.041349575 0.023386827 -0.06421028 -0.08341316 0.036090165 0.07207197
-0.06188864 -0.008078175 -0.079724334 0.0020838487 -0.060168974 0.07816636 0.14334647 0.3789679
0.13117337 0.08207585 0.24992093 0.14612873 0.11263951 0.021371428 -0.116253406 0.23428768
-0.11303891 -0.17414495 -0.27886993 -0.15907952 0.27437353 -0.21133989 -0.19156644 -0.15788399
-0.028025078 0.19754376 -0.31147337 -0.24006836 -0.29286686 -0.2897701 0.035583172 0.033359267
0.30880833 0.30755696 0.10430952 0.058540136 5.0753177e-05 0.2545807 0.14628752 0.028879093
0.15232255 -0.02381975 -0.0031141136 -0.0013316798 -0.14719458 0.18663083 -0.058007807 -0.20942484
-0.23597105 -0.11284033 0.1999805 -0.23029812 -0.24742353 -0.2553843 -0.23405765 0.048894417
0.047864426 0.10109526 0.046084356 0.05458661 0.12969314 0.12628135 0.120872386 0.12399238
0.1481767 0.14422639 0.009790653 0.024180666 0.116057575 0.018986166 0.13969934 0.013807638
-0.035828777 -0.10778726 -0.08834607 0.036107894 -0.017054109 0.092666686 -0.06287521 0.029721597
0.070589066 0.21926141 0.19781049 -0.00035394993 0.06710699 0.16790329 0.067648925 0.10588032
-0.043103855 0.06731066 0.09470078 0.0028002777 0.022102308 -0.04011251 -0.005751432 0.16834514
-0.004389394 0.02144274 -0.14306879 -0.050131332 0.2514997 -0.23400657 -0.08123485 -0.07535302
0.039556455 0.07706546 0.026830738 0.017885663 0.018197168 0.067629434 -0.11223644 -0.022480492
00000000: 774d 2abc cbf1 7cbd f467 bdbd a641 9cbd
00000010: a791 19bc bc1b 45bd aedb e8bc 6aaf 9d3d
00000020: f225 0a3d 237d 29bd 7374 9b3c 15fe 3fbd
00000030: e237 68bc 9392 083c 46e9 d0bd 2e1a fa3c
00000040: a94c 223d 58a9 a83d a41f 98bc 5c32 a73c
00000050: b380 49bd 20c0 2f3c f085 5fbd bccc 2f3d
00000060: 9533 aabd 155a b7bc 380e b9bc 7a28 38bb
00000070: c84b 313a 9cab 36bd c904 c5bb 098e fd3c
00000080: 97a9 99bd 6721 063d 8832 aabc 7e7d 3abc
00000090: fdf5 0fbd ffb6 dc3c e853 763d 4a28 aebd
000000a0: aea8 b9bd 09f5 46bd ffb1 333d 4094 8e3d
000000b0: 076a 2fbb fb36 23bd 1dbd 8fb9 7e80 3e3d
000000c0: b22b 973d 19df 7e3d 1105 8fbd bb9c 80bd
000000d0: 87d1 abbc bde4 1abc bb3c 4e3c a62e a73d
000000e0: 82e2 6bbd a980 8a3c e6b6 303d c531 a3bd
000000f0: 35a0 613d d9bb 753d 9ecb 033d f738 533d
00000100: 9a2f 9ebd 5ce6 4f3d d955 f9bc c99d 9d3d
00000110: fc64 bc3c faf9 1cba 5239 eebc d20a 78bd
00000120: 7ed5 dabc 6958 203d 74f2 80bc a6c4 a53a
00000130: 340f f23c 0012 7abd 8f90 2c3c 3c15 1d3d
00000140: 177f 033c f694 c13c aafd 5d3d 31cd 07bd
00000150: 8346 17bd 0bb5 903d 6635 3cbd 4e2d e2bc
00000160: 6c0d 81bc a7ca b33b c416 a3bd a83a 563d
00000170: 86ff 0ebc 20a5 3dbc 7b2b 9c3c 11c8 573d
00000180: 2bc2 0a3b 9570 7cbd d317 ca3c e6a1 543d
00000190: f3eb 753d fc1c 6e3d 7459 3cbd 2097 4f3d
000001a0: b89c 963d 0732 21bd 1b09 23bc f9aa 983d
000001b0: 659e 823b c18d 90bd 6b40 2fbd 09b9 883d
000001c0: f37d 52bc e326 fc3c 56c7 2dba 9088 7bbd
000001d0: d44a 873d 466c e13c e05f a13d 141c 2fbd
000001e0: 3b87 3d3d 76f1 3a3d b1ad 733d a357 e63b
000001f0: 5663 49bc c76c 803c 5c71 6cbd f2b4 9bbd
00000200: 4246 a73c 9c68 3b3c 83fe acbc 4d56 9fba
00000210: 6a2f 8b3d 6638 8dbd 9640 57bc ed20 94bb
00000220: a5f9 3cbd 157d 963d 2c5e 29bd bb95 bf3c
00000230: ae80 83bd 85d4 aabd 48d3 133d 789a 933d
00000240: f17e 7dbd 525a 04bc 8346 a3bd 2e91 083b
00000250: be73 76bd af15 a03d 6bc9 123e 1508 c23e
00000260: 5052 063e 6217 a83d 46eb 7f3e c5a2 153e
00000270: 8baf e63d 2213 af3c 4416 eebd 1ce9 6f3e
00000280: f280 e7bd 0e53 32be 0ac8 8ebe bee5 22be
00000290: b07a 8c3e 7c69 58be fe29 44be 57ac 21be
000002a0: d994 e5bc e948 4a3e 7079 9fbe 7bd4 75be
000002b0: a5f2 95be bf5c 94be a9bf 113d baa3 083d
000002c0: 201c 9e3e 1b78 9d3e 3ba0 d53d c8c7 6f3d
000002d0: cfdf 5438 6758 823e 65cc 153e d993 ec3c
000002e0: 71fa 1b3e a321 c3bc 2816 4cbb c28b aeba
000002f0: 2dba 16be 271c 3f3e 9899 6dbd 7773 56be
00000300: 65a2 71be d518 e7bd b0c7 4c3e 45d3 6bbe
00000310: 985c 7dbe bbc1 82be cfac 6fbe 8345 483d
00000320: 7d0d 443d 080b cf3d f3c2 3c3d 3696 5f3d
00000330: 47ce 043e e64f 013e f18b f73d b8ef fd3d
00000340: a2bb 173e 15b0 133e fa68 203c 8816 c63c
00000350: 98af ed3d e088 9b3c 580d 0f3e 6e39 623c
00000360: 32c1 12bd 91bf dcbd c9ee b4bd dfe5 133d
00000370: 0fb5 8bbc 08c8 bd3d b8c4 80bd b57a f33c
00000380: 0091 903d 1086 603e d58e 4a3e 5b92 b9b9
00000390: 646f 893d d7ee 2b3e 858b 8a3d c8d7 d83d
000003a0: ab8d 30bd 2cda 893d 7cf2 c13d dd84 373b
000003b0: e60f b53c 044d 24bd 8276 bcbb ab62 2c3e
000003c0: e8d4 8fbb afa8 af3c a080 12be 8356 4dbd
000003d0: 92c4 803e 6b9f 6fbe 755e a6bd af52 9abd
000003e0: f305 223d 7fd4 9d3d 23cc db3c f484 923c
000003f0: 3a12 953c 4d81 8a3d 38dc e5bd 0229 b8bc

conv2.bias f4 [16]
-0.02212692 0.28397873 0.027148064 -0.09363593 0.3641886 -0.059853874 -0.060030706 -0.07980331
0.33671933 -0.024518818 0.020425262 -0.08723136 0.19152333 -0.07391831 -0.12186522 -0.17039654
00000000: 8443 b5bc a965 913e 9e65 de3c 32c4 bfbd
00000010: ee76 ba3e 5629 75bd c2e2 75bd eb6f a3bd
00000020: 7a66 ac3e b0db c8bc e152 a73c 5ba6 b2bd
00000030: b11e 443e 7c62 97bd 7994 f9bd 6e7c 2ebe

fc1.weight f4 [120, 256]
-0.018839799 0.009729564 -0.053982828 -0.033072684 0.028204154 -0.00096024247 0.022164987 -0.030114498
0.0012385694 0.00909729 -0.031492773 0.019436143 0.026931629 0.013361323 -0.046296716 -0.03511145
-0.07501626 0.035378784 0.039761793 -0.05171191 -0.007084982 7.4536205e-05 0.01878882 -0.028780254
-0.07191718 -0.00020172483 -0.05497764 -0.008465064 -0.05990453 0.004791278 -0.009670758 0.008522302
-0.015096601 0.004220468 -0.02818298 0.0017062431 0.03126619 0.011298026 0.049608763 -0.0036303306
-0.049828134 -0.015545502 0.067613356 0.019910973 -0.05316605 0.05044186 -0.043433297 -0.041482117
0.029997116 -0.052112915 0.0024130563 -0.052415296 -0.064103164 -0.015428455 -0.04528985 -0.069500476
-0.045768756 -0.0012540767 -0.037683442 -0.0432218 0.0033493738 -0.047797523 -0.004602747 0.0008658665
-0.07235043 -0.072945975 0.017574219 -0.031662695 -0.05780177 -0.0039080097 -0.045628976 0.0036496855
-0.083042346 -0.047485918 -0.10116952 0.028626345 -0.076129004 0.019165616 -0.029505102 -0.036907304
-0.054946862 -0.0373263 0.026016712 0.051750094 -0.017716222 -0.013864897 -0.05645062 0.04696878
0.006272264 -0.010197975 0.059370287 0.013964498 0.05922389 0.022636406 -0.007956505 -0.0399533
-0.01516954 0.013385499 0.048771262 0.031235306 -0.030194592 0.039029665 0.074401155 -0.006580903
0.0072815176 -0.027535079 0.052723136 0.018309701 -0.029238269 -0.0045066467 0.00987675 0.069807865
-0.020760242 -0.030678378 0.05595013 0.041162726 -0.010192028 -0.045782357 0.042673353 -0.027937975
-0.04071146 0.04077747 0.047686476 -0.009089261 -0.027334327 -0.004548525 -0.04000886 -0.06569887
-0.009275008 -0.0041587567 0.06637506 0.00090109854 0.0075618746 -0.0025444848 0.09012686 -0.043766536
-0.071714975 0.05229115 0.0356868 -0.0050078584 0.015614538 0.07743958 0.0039643617 -0.029759737
0.062332354 -0.019939922 -0.02331546 -0.036208116 0.016408443 0.05338104 0.032336846 -0.013494268
0.028198846 0.04768505 0.018640578 0.0026446283 0.026759312 0.002955243 -0.013412178 -0.020889834
-0.054611403 -0.040547352 -0.054482393 0.0435391 -0.01370827 0.04398938 0.06417288 0.03181155
-0.019039838 -0.025534766 0.03561397 -0.048925478 -0.054922145 -0.030862724 0.016848773 -0.010453892
0.009428174 -0.061239462 -0.014423961 0.05802269 -0.013480269 0.019375537 0.010749038 0.041814554
-0.041337933 0.012766751 0.055551074 -0.04723695 -0.024641989 -0.0017699469 0.10180841 0.026479006
-0.055933278 -0.033435553 -0.01592907 -0.03238113 -0.070089824 -0.04799256 -0.079116814 -0.028490333
-0.13002415 -0.005594052 -0.02879626 -0.030337406 -0.081039 -0.03194819 -0.02373789 0.030715564
-0.031889196 0.024009671 0.027191726 0.04670488 -0.0569629 -0.010690616 0.021032602 -0.050119035
0.035221003 -0.033630714 0.0048379065 -0.00076790416 0.022334075 0.031059194 0.02258667 -0.033678774
-0.04629153 -0.017740164 -0.027189096 0.025487438 0.006177759 -0.06365774 -0.014790287 0.027010648
-0.09324906 -0.010254317 -0.023916412 0.056206558 -0.095115505 -0.038019918 0.012710878 0.113425896
-0.0017282763 -0.0034561886 0.023916105 0.07647416 -0.029639933 0.03956276 -0.0007146653 -0.04621545
-0.008974767 0.033980317 -0.026623713 -0.018843528 -0.06394795 -0.013039803 0.0609704 0.071264274
00000000: ec55 9abc c068 1f3c 191d 5dbd 3977 07bd
00000010: 660c e73c c8b8 7bba 5993 b53c aeb2 f6bc
00000020: 7e57 a23a cd0c 153c 91fe 00bd 8c38 9f3c
00000030: b89f dc3c 73e9 5a3c a0a1 3dbd 06d1 0fbd
00000040: 20a2 99bd 58e9 103d 43dd 223d decf 53bd
00000050: 2329 e8bb 5250 9c38 03eb 993c 91c4 ebbc
00000060: 5149 93bd 1986 53b9 3c30 61bd 0db1 0abc
00000070: 745e 75bd 2700 9d3b 1972 1ebc 20a1 0b3c
00000080: bc57 77bc da4b 8a3b fedf e6bc 05a4 df3a
00000090: fa10 003d 5b1b 393c 8f32 4b3d d7ea 6dbb
000000a0: 9618 4cbd 90b2 7ebc df78 8a3d 561c a33c
000000b0: a5c4 59bd 209c 4e3d 1de7 31bd 27e9 29bd
000000c0: 83bc f53c 5a74 55bd 5e24 1e3b 6cb1 56bd
000000d0: 8548 83bd a1c7 7cbc da81 39bd 4456 8ebd
000000e0: 0578 3bbd d55f a4ba f459 1abd 5809 31bd
000000f0: 2b81 5b3b 56c7 43bd a4d2 96bb 51fb 623a
00000100: 762c 94bd b364 95bd cff7 8f3c beb0 01bd
00000110: 8cc1 6cbd c30e 80bb 73e5 3abd 902f 6f3b
00000120: 1b12 aabd 9880 42bd f731 cfbd cc81 ea3c
00000130: 86e9 9bbd 3601 9d3c afb4 f1bc 1d2c 17bd
00000140: f60f 61bd 76e3 18bd 0021 d53c e8f7 533d
00000150: 9c21 91bc 9829 63bc c438 67bd 5662 403d
00000160: 9087 cd3b 6815 27bc 422e 733d 5acb 643c
00000170: c094 723d fc6f b93c 005c 02bc 12a6 23bd
00000180: aa89 78bc da4e 5b3c 60c4 473d 2fe1 ff3c
00000190: a65a f7bc 92dd 1f3d a25f 983d 9ea4 d7bb
000001a0: cc99 ee3b 3f91 e1bc 37f4 573d 3afe 953c
000001b0: 1885 efbc 7eac 93bb 18d2 213c 6df7 8e3d
000001c0: 6211 aabc 3951 fbbc f72b 653d 3f9a 283d
000001d0: 77fc 26bc 4886 3bbd 41ca 2e3d 2ede e4bc
000001e0: 0fc1 26bd 4706 273d e552 433d 20eb 14bc
000001f0: 3dec dfbc cb0b 95bb 55e0 23bd 218d 86bd
00000200: 34f6 17bc 2e46 88bb a6ef 873d b337 6c3a
00000210: 9ac9 f73b 5fc1 26bb 6e94 b83d 8a44 33bd
00000220: 4ddf 92bd 3f2f 563d 522c 123d f618 a4bb
00000230: 1fd4 7f3c a498 9e3d 7ae7 813b b1ca f3bc
00000240: 3650 7f3d 0c59 a3bc 1000 bfbc f64e 14bd
00000250: 006b 863c 14a6 5a3d a473 043d 1017 5dbc
00000260: 4401 e73c 6651 433d 20b4 983c 8051 2d3b
00000270: 5836 db3c c0ac 413b c0be 5bbc 2821 abbc
00000280: 35b0 5fbd fb14 26bd ee28 5fbd 0e56 323d
00000290: a798 60bc 352e 343d 126d 833d d44c 023d
000002a0: 6ff9 9bbc 492e d1bc f4df 113d 1566 48bd
000002b0: 0bf6 60bd d3d3 fcbc 7006 8a3c cd46 2bbc
000002c0: a178 1a3c 3bd6 7abd 7a52 6cbc 33a9 6d3d
000002d0: 59dc 5cbc 72b9 9e3c bc1c 303c bd45 2b3d
000002e0: f751 29bd a32b 513c 8689 633d 887b 41bd
000002f0: ffdd c9bc 90fd e7ba ed80 d03d 80ea d83c
00000300: 4b1a 65bd b8f3 08bd ae7d 82bc 13a2 04bd
00000310: 418b 8fbd d993 44bd ff07 a2bd 8f64 e9bc
00000320: 0d25 05be 4f4e b7bb 22e6 ebbc 2786 f8bc
00000330: c6f7 a5bd 1bdc 02bd f775 c2bc 359f fb3c
00000340: 3f9e 02bd eeaf c43c 2fc1 de3c 9e4d 3f3d
00000350: ee51 69bd b227 2fbc 904c ac3c 9e49 4dbd
00000360: e643 103d 5cc0 09bd 4d87 9e3b 2d4d 49ba
00000370: f3f5 b63c da6f fe3c ae07 b93c c1f2 09bd
00000380: 309c 3dbd d253 91bc abbb debc 08cb d03c
00000390: cc6e ca3b fd5e 82bd f652 72bc 6f45 dd3c
000003a0: 5df9 bebd b901 28bc 5aec c3bc d938 663d
000003b0: ebcb c2bd c6ba 1bbd 4941 503c d64b e83d
000003c0: 5487 e2ba 3981 62bb b5eb c33c 7c9e 9c3d
000003d0: 72cf f2bc 900c 223d 6058 3bba 694c 3dbd
000003e0: e70a 13bc f22e 0b3d f919 dabc be5d 9abc
000003f0: 25f7 82bd e6a4 55bc 19bc 793d 01f3 913d

fc1.bias f4 [120]
-0.0019736174 -0.038003888 0.093441255 0.047365814 0.0055539757 0.018799651 0.054350246 0.13020225
0.1694163 -0.029482067 0.007170139 0.0201257 0.11344198 -0.027321875 0.03926487 -0.02683895
-0.017769815 0.005864104 0.031240258 -0.043138724 -0.045070533 0.070760265 -0.0056520044 -0.030303663
-0.040776283 -0.030509187 0.08500945 0.040135045 -0.07511256 0.025586411 -0.039074305 -0.021075998
-0.032899924 0.09863222 -0.06787276 0.072763614 0.03583183 -0.1515924 0.048942547 -0.08744345
0.052369338 0.042515554 0.08646641 0.05094173 0.035821296 -0.027914051 -0.057026967 0.042844675
-0.012840269 -0.0274216 -0.028529579 0.03807283 -0.037935887 0.019422805 -0.01483203 0.0054013734
-0.05657975 0.053494263 -0.022847718 -0.12181331 -0.029918361 -0.02270909 -0.00791903 0.06388171
-0.0022892798 0.02118207 -0.054520577 -0.07373104 0.058528434 -0.026068851 0.07112928 0.08677009
0.048671328 -0.044666532 0.02008858 -0.08033973 -0.04848665 -0.039059978 0.07083518 -0.02561257
-0.020587206 0.1506386 0.010677927 0.026191458 -0.046220344 -0.032836743 -0.015305881 0.045986935
0.104519986 -0.007822735 0.0015664563 -0.034523368 0.03860483 -0.03650706 -0.018295016 -0.039608054
0.11408459 0.045817856 -0.037588578 0.029403245 -0.010558395 0.017928127 -0.015113207 0.14665167
0.03473256 0.041939054 0.0035673792 0.010925762 0.10810402 -0.08148302 0.016961658 0.007974098
0.06817398 -0.040221296 0.021153083 0.10731483 -0.04246005 0.040991727 0.006035903 -0.012903202
00000000: ce57 01bb f7a9 1bbd 215e bf3d a802 423d
00000010: 20fe b53b ba01 9a3c 5d9e 5e3d bd53 053e
00000020: 777b 2d3e 6084 f1bc 7cf3 ea3b a7de a43c
00000030: 4554 e83d 20d2 dfbc 33d4 203d 5cdd dbbc
00000040: 0192 91bc ab27 c03b 92eb ff3c 3bb2 30bd
00000050: e19b 38bd c2ea 903d 7334 b9bb 633f f8bc
00000060: 0805 27bd 67ee f9bc 6f19 ae3d a564 243d
00000070: 9dd4 99bd 989a d13c 610c 20bd 92a7 acbc
00000080: 12c2 06bd b0ff c93d e000 8bbd 1705 953d
00000090: 66c4 123d 0a3b 1bbe fb77 483d 8d15 b3bd
000000a0: 3b81 563d ca24 2e3d 4d15 b13d 47a8 503d
000000b0: 5ab9 123d 02ac e4bc 1c95 69bd e67d 2f3d
000000c0: fe5f 52bc 43a3 e0bc ddb6 e9bc 41f2 1b3d
000000d0: a962 1bbd 931c 9f3c 0b02 73bc 01fe b03b
000000e0: 2bc0 67bd cd1c 5b3d 232b bbbc 4279 f9bd
000000f0: 5a17 f5bc 6a08 babc d2be 01bc 6ad4 823d
00000100: be07 16bb 0586 ad3c f850 5fbd 4d00 97bd
00000110: 83bb 6f3d 588e d5bc 3aac 913d 84b4 b13d
00000120: 965b 473d 41f4 36bd ce90 a43c 2889 a4bd
00000130: f099 46bd 5bfd 1fbd 0912 913d 74d1 d1bc
00000140: 80a6 a8bc 0141 1a3e 79f2 2e3c 788f d63c
00000150: 8b51 3dbd d27f 06bd 85c5 7abc cc5c 3c3d
00000160: 930e d63d ee2a 00bc 8d51 cd3a 6068 0dbd
00000170: 1920 1e3d 6d88 15bd 6edf 95bc 0e3c 22bd
00000180: 2ea5 e93d 81ab 3b3d 7bf6 19bd 13df f03c
00000190: 1efd 2cbc 02de 923c 629d 77bc db2b 163e
000001a0: bb43 0e3d 49c8 2b3d b1ca 693b f801 333c
000001b0: a465 dd3d 92e0 a6bd 2df3 8a3c cba5 023c
000001c0: cd9e 8b3d 16bf 24bd 3b49 ad3c e1c7 db3d
000001d0: 97ea 2dbd f1e6 273d d3c8 c53b f467 53bc

fc2.weight f4 [84, 120]
0.06517441 -0.054583777 -0.047720693 -0.14319794 -0.08793555 0.121337384 0.06248567 0.08773809
0.026599484 0.10118624 0.06348917 -0.07560013 0.0955067 -0.012590242 0.15953901 0.073485784
-0.13211603 0.033276666 0.07009881 0.0384243 0.07512386 -0.011182844 -0.14379533 0.037235945
0.101921506 -0.08635775 0.08612768 0.031362794 -0.09724959 0.11281905 0.025974287 0.03484278
0.16493891 0.043928843 0.043957584 0.07121258 -0.052962463 0.039590936 -0.0011428364 0.05168506
-0.006249709 -0.003556631 0.07899046 -0.042145863 -0.025388116 -0.04266445 -0.024744097 0.08731893
-0.081180766 -0.08933031 -0.037355304 -0.013750767 0.030504823 -0.13918585 -0.026007876 0.030512746
-0.011951807 0.008190159 0.058235202 -0.15812103 0.053023502 0.07610694 -0.013183154 0.10627226
-0.073809005 0.0074081556 0.03575168 0.04299954 -0.019065052 0.109270714 0.08573304 0.038137507
-0.15731104 -0.11901228 -0.08195405 0.1104355 0.010397368 -0.048189938 -0.018532256 -0.1063946
-0.025996111 -0.10829187 -0.063255064 -0.034607444 -0.026629379 0.03232645 0.096907556 0.048641633
0.009996919 -0.06475988 0.07456847 0.021761693 -0.05518219 0.11090363 0.14192455 0.030098287
-0.06318464 0.063913174 -0.09893452 0.037783112 0.04915246 -0.07653877 -0.05225133 -0.043403674
-0.06420452 0.058076475 0.051404834 -0.018895872 -0.010653465 -0.099262856 -0.109714195 -0.11773876
-0.0659811 -0.06566772 -0.0635612 0.06250709 -0.13998038 -0.045928333 0.017003382 -0.069457896
0.05512423 -0.07679642 0.02492282 -0.04583656 -0.03322173 0.04329058 0.11219849 0.111594535
-0.0856417 0.09136283 0.087167226 -0.005518759 0.15812586 0.018623766 0.21017295 0.0062603247
-0.12847674 0.06346648 -0.08038324 -0.044921465 0.02882671 -0.095625915 -0.040695466 0.053128656
0.08182313 -0.062285867 -0.0007526848 0.020578852 0.027119072 -0.07703555 0.038959567 0.03106317
0.06119523 0.019431511 -0.06576607 0.09441472 -0.10279006 -0.053765148 0.0018927897 0.09498266
0.037222557 0.008106977 0.079922974 0.06516244 0.04053389 -0.04313466 0.07350203 0.023759121
-0.08878838 -0.04442064 -0.009909956 -0.0027230883 -0.015849123 -0.16358802 -0.09579693 0.04705092
0.063473105 -0.081405915 0.046671655 -0.097302124 -0.019294003 0.09937432 0.03567534 0.021914575
-0.09531098 -0.11301455 -0.037037175 -0.086273484 0.055136513 0.015457553 0.037216425 0.030234663
-0.03171332 -0.05130876 -0.08921721 -0.036261745 0.060275156 -0.0024955743 0.02822249 0.05093421
0.09360748 0.08772856 -0.08836861 0.09454839 0.071330346 0.019142782 0.10944738 0.015960101
0.11679216 0.006322956 0.049391907 -0.061740868 -0.04521602 -0.027062457 0.067753375 -0.012485938
-0.16031586 -0.049645144 -0.044144932 -0.023673397 -0.0038706143 -0.10335493 -0.15436576 0.054157346
0.066216536 -0.080257766 -0.15973827 0.04318502 -0.10338137 0.050013024 0.10758212 0.025278954
-0.0046305372 0.039830104 0.04573109 0.061105322 0.0212261 0.021051634 0.059149623 0.07655377
-0.053287093 0.041248176 0.055619307 0.029992415 -0.026577907 -0.07121294 -0.015783211 0.050515678
-0.07816705 0.013728991 -0.06632433 -0.050419834 0.04715328 -0.018291859 -0.026275 0.027084397
00000000: 297a 853d 3d93 5fbd c676 43bd 7ba2 12be
00000010: 8e17 b4bd bc7f f83d f9f0 7f3d 07b0 b33d
00000020: 29e7 d93c bb3a cf3d 9c06 823d 3ed4 9abd
00000030: 0499 c33d 4d47 4ebc 325e 233e b77f 963d
00000040: 6d49 07be 1d4d 083d f78f 8f3d cc62 1d3d
00000050: 8ada 993d 3f38 37bc 153f 13be b884 183d
00000060: 39bc d03d 55dc b0bd b663 b03d 4676 003d
00000070: cb2a c7bd ad0d e73d 07c8 d43c 4eb7 0e3d
00000080: bfe5 283e bbee 333d de0c 343d e7d7 913d
00000090: 2bef 58bd 1b2a 223d 3acb 95ba b7b3 533d
000000a0: 5cca ccbb 5e16 69bb c0c5 a13d 24a1 2cbd
000000b0: bdfa cfbc ebc0 2ebd 22b4 cabc 44d4 b23d
000000c0: 1a42 a6bd cff2 b6bd e001 19bd e64a 61bc
000000d0: 40e5 f93c bc86 0ebe 780e d5bc def5 f93c
000000e0: 83d1 43bc 0430 063c 0988 6e3d 7bea 21be
000000f0: 2c2f 593d f5dd 9b3d 28fe 57bc 45a5 d93d
00000100: 2d29 97bd 1dc0 f23b 5b70 123d 4920 303d
00000110: 502e 9cbc 53c9 df3d ce94 af3d 1336 1c3d
00000120: 2516 21be b6bc f3bd 86d7 a7bd 022c e23d
00000130: b959 2a3c d062 45bd f5d0 97bc 69e5 d9bd
00000140: ccf5 d4bc 21c8 ddbd df8b 81bd 89c0 0dbd
00000150: db25 dabc bd68 043d 7877 c63d 733c 473d
00000160: 1eca 233c d4a0 84bd 5bb7 983d 9445 b23c
00000170: b806 62bd 7121 e33d ab54 113e af90 f63c
00000180: f366 81bd e9e4 823d 2e9e cabd 77c2 1a3d
00000190: 1754 493d 5cc0 9cbd 7e05 56bd 0dc8 31bd
000001a0: a97d 83bd 99e1 6d3d e08d 523d 84cb 9abc
000001b0: df8b 2ebc 534a cbbd d6b1 e0bd 0521 f1bd
000001c0: 1921 87bd cc7c 86bd 602c 82bd b803 803d
000001d0: 0457 0fbe 591f 3cbd ad4a 8b3c f13f 8ebd
000001e0: f2c9 613d 7147 9dbd f12a cc3c 1ebf 3bbd
000001f0: 8213 08bd 7751 313d 52c8 e53d ad8b e43d
00000200: ea64 afbd 6f1c bb3d bb84 b23d b5d6 b4bb
00000210: bfeb 213e de90 983c 9437 573e 6923 cd3b
00000220: 688f 03be b7fa 813d f89f a4bd 92ff 37bd
00000230: fe25 ec3c 85d7 c3bd 4ab0 26bd 6f9d 593d
00000240: e392 a73d 771f 7fbd d24f 45ba fb94 a83c
00000250: d128 de3c d0c4 9dbd 1194 1f3d 3078 fe3c
00000260: d9a7 7a3d d52e 9f3c 5cb0 86bd 815c c13d
00000270: 9883 d2bd d838 5cbd 7c17 f83a 4586 c23d
00000280: ae76 183d 20d3 043c a8ae a33d e373 853d
00000290: dd06 263d f8ad 30bd 3b88 963d 7da2 c23c
000002a0: afd6 b5bd 6bf2 35bd 5e5d 22bc d775 32bb
000002b0: 05d6 81bc 9e83 27be 2e31 c4bd 77b8 403d
000002c0: 30fe 813d 25b8 a6bd c72a 3f3d 5646 c7bd
000002d0: 750e 9ebc c384 cb3d 4e20 123d 3286 b33c
000002e0: 6732 c3bd 2c74 e7bd 4bb4 17bd 27b0 b0bd
000002f0: d3d6 613d ad41 7d3c 4070 183d afae f73c
00000300: d4e5 01bd 2229 52bd 83b7 b6bd 3287 14bd
00000310: 15e3 763d ca8c 23bb da32 e73c 64a0 503d
00000320: 47b5 bf3d 08ab b33d 9afa b4bd 96a2 c13d
00000330: a515 923d 53d1 9c3c f325 e03d c2be 823c
00000340: ba30 ef3d cd30 cf3b 2b4f 4a3d fee3 7cbd
00000350: 6f34 39bd 16b2 ddbc 48c2 8a3d d291 4cbc
00000360: d729 24be b558 4bbd 51d1 34bd b6ee c1bc
00000370: 22aa 7dbb c0ab d3bd 0f12 1ebe 18d4 5d3d
00000380: 899c 873d 2f5e a4bd 6e92 23be c7e2 303d
00000390: 9db9 d3bd 75da 4c3d 0454 dc3d cf15 cf3c
000003a0: c3bb 97bb e424 233d 8650 3b3d 9349 7a3d
000003b0: 5ce2 ad3c 7a74 ac3c e046 723d 39c8 9c3d
000003c0: 9143 5abd d9f3 283d 12d1 633d a7b2 f53c
000003d0: e9b9 d9bc 17d8 91bd cb4b 81bc 87e9 4e3d
000003e0: 0c16 a0bd 90ef 603c 0dd5 87bd 0785 4ebd
000003f0: cc23 413d cfd8 95bc ab3e d7bc 19e0 dd3c

fc2.bias f4 [84]
-0.026836058 0.03309276 0.07412341 0.08064812 0.17957631 0.14471883 -0.041276403 -0.11070727
0.13892055 0.0005353392 0.03316125 0.11956674 0.14618987 -0.05909954 0.00026618657 0.03473837
0.035757057 -0.015762694 -0.11134033 -0.078223646 -0.07452275 -0.024738126 -0.032100286 -0.10221904
0.0054684393 0.20167328 -0.017879246 0.03306001 0.08320515 0.05958807 0.12287423 -0.049281508
-0.1255134 -0.011180191 0.1916771 -0.06059887 0.08713112 0.15142874 0.21135093 -0.00467789
0.081206016 0.01894943 0.086313464 0.016325627 -0.07184303 0.0963349 0.017146917 0.17706381
-0.012971219 0.05269534 0.09803446 0.104328185 0.11677393 -0.041522983 -0.047936086 -0.03845362
0.25624537 0.008063656 -0.046789497 0.009516544 0.18178493 0.008771912 0.14808753 0.17532136
0.114755124 0.19272868 0.16041484 -0.057437904 -0.0081863245 -0.053458367 -0.030772716 -0.0033104024
0.06999889 0.10720938 -0.06923901 0.21486911 0.031968486 0.17638062 -0.022772424 -0.10584942
0.05669482 -0.09881922 0.075394884 0.06648117
00000000: 4bd7 dbbc 468c 073d 04ce 973d d72a a53d
00000010: dae2 373e 2c31 143e 7211 29bd 7eba e2bd
00000020: 3041 0e3e 0156 0c3a 17d4 073d 68df f43d
00000030: ccb2 153e 5c12 72bd f58e 8b39 d249 0e3d
00000040: fe75 123d c420 81bc 6606 e4bd b833 a0bd
00000050: 629f 98bd 9ca7 cabc 977b 03bd 3758 d1bd
00000060: 9830 b33b 7183 4e3e 7f77 92bc ef69 073d
00000070: 7667 aa3d 9f12 743d 7ca5 fb3d 68db 49bd
00000080: 9686 00be 1f2d 37bc 0047 443e 8536 78bd
00000090: cd71 b23d 2310 1b3e 616c 583e fc48 99bb
000000a0: 574f a63d d63b 9b3c 1dc5 b03d 52bd 853c
000000b0: 7022 93bd 3b4b c53d b177 8c3c 3750 353e
000000c0: 3c85 54bc 12d7 573d 4ac6 c83d 04aa d53d
000000d0: 2c27 ef3d 0114 2abd a158 44bd 8b81 1dbd
000000e0: 9832 833e 6d1d 043c 58a6 3fbd 47eb 1b3c
000000f0: d425 3a3e 11b8 0f3c 42a4 173e 7187 333e
00000100: bc04 eb3d ab5a 453e ca43 243e 0244 6bbd
00000110: ef1f 06bc 29f7 5abd 1017 fcbc 56f3 58bb
00000120: 945b 8f3d 9790 db3d 2fcd 8dbd a606 5c3e
00000130: 63f1 023d 1f9d 343e 3c8d babc 95c7 d8bd
00000140: d438 683d bb61 cabd a268 9a3d 4827 883d

fc3.weight f4 [10, 84]
0.23534845 -0.1901494 0.17582239 0.18819028 -0.07601974 0.26342148 0.07269721 0.06902364
-0.020505158 -0.07836254 -0.02133957 -0.25301397 0.23431061 -0.03275075 0.03399608 0.119716235
-0.052409574 -0.07797022 0.10580812 -0.06906349 0.04515288 -0.11237457 0.07321256 -0.2682467
0.02599703 0.39528337 0.32849094 -0.30343488 0.18276022 0.044493057 -0.024697596 0.2510342
0.027847355 -0.0036414708 0.34396884 0.07423067 0.09464034 0.043288093 -0.0642456 -0.00025232628
-0.058793984 -0.061019078 0.13548791 -0.06651234 -0.018952249 0.09668831 0.16880403 0.21263641
-0.2682588 -0.06891309 0.01844805 -0.008254947 0.18268026 0.10331365 0.20716359 -0.08707488
0.33163488 -0.12722045 -0.12058467 0.047085155 -0.061241303 -0.099050075 0.15057223 -0.34323597
0.11243373 -0.15739654 0.13807872 -0.01040247 -0.20046377 0.014371986 0.21414144 -0.10003933
0.18864837 0.04439726 0.050848313 0.024399273 -0.13375802 0.10793124 0.1497167 0.47806954
-0.03972092 -0.17819226 -0.22212608 0.314827 0.23709765 0.3196651 -0.00024199762 0.5106653
-0.12994982 0.29675767 -0.065483265 -0.07411406 0.061864987 0.107445166 0.2695408 0.17946
0.24529533 0.07129547 0.04169 0.36359787 -0.100417614 0.23277977 -0.02269155 -0.0069923224
-0.11182223 0.0034542938 -0.17175244 -0.0078520635 0.02382007 -0.11469586 0.09266512 -0.12008279
0.091056556 -0.09884595 -0.055615515 0.1891438 -0.10121445 0.29452857 0.057737786 -0.018856766
-0.108368054 -0.16463795 -0.096404545 0.069004394 0.22359121 -0.17405854 -0.28547487 -0.14904872
0.102522925 0.101923555 0.15323886 -0.013193347 0.20398179 -0.063961565 0.27400813 0.06965398
0.11353908 0.017886188 0.37556967 -0.063766435 -0.15244271 -0.07060732 0.0375207 -0.14224447
-0.04118437 -0.19441533 -0.18157837 -0.06510798 -0.2502389 0.24458554 -0.05931493 0.10446449
0.0024112738 0.2439976 -0.13884646 0.092909314 0.18405513 -0.16738415 0.0013139033 0.056467716
0.28960866 -0.12559547 -0.03287599 -0.35443193 -0.19204362 0.0362837 -0.03325691 0.29925838
-0.355671 0.0548037 0.040999215 0.109631225 0.045981094 0.020491162 0.0816388 0.07296652
-0.10824789 0.113894865 -0.12526888 0.09059046 0.43282875 -0.24858992 0.079893105 0.10737232
-0.12584837 -0.04395157 -0.1288933 0.12776542 -0.09250649 0.1673829 0.0798354 0.08094184
0.119671464 0.39166054 0.08194679 -0.12277996 0.36036232 -0.056590628 0.04115583 -0.38767794
-0.048328582 -0.036116082 0.19594856 -0.09606403 -0.1912929 -0.038857557 0.34834233 -0.07969557
0.19717123 -0.13000114 -0.084891126 -0.12745908 -0.051822852 -0.36185357 -0.15557481 -0.18513566
-0.084768705 0.016247066 0.12114765 -0.043733224 0.42512584 0.009439231 -0.15038222 0.23034681
-0.21294774 -0.091001734 -0.020267902 0.09359118 -0.078803 -0.0800181 -0.19572629 -0.0793666
0.5121233 0.10361064 0.3027613 0.06880688 0.36577767 -0.10028956 -0.32676238 0.002763918
0.24465397 0.025197554 0.06712299 0.09808555 0.07796372 0.32656825 -0.13770737 0.30751753
0.36641794 -0.099803336 0.037989464 0.24700901 0.17616896 0.18473731 0.14088291 0.011129435
00000000: 2fff 703e 86b6 42be c90a 343e f4b4 403e
00000010: 3db0 9bbd 2edf 863e 46e2 943d 445c 8d3d
00000020: 6ffa a7bc 8a7c a0bd 52d0 aebc 0c8b 81be
00000030: 1fef 6f3e a725 06bd 793f 0b3d c92d f53d
00000040: 6cab 56bd daae 9fbd edb1 d83d 2971 8dbd
00000050: 3af2 383d a324 e6bd 77f0 953d a257 89be
00000060: b9f7 d43c 9562 ca3e f72f a83e d15b 9bbe
00000070: 7f25 3b3e 5a3e 363d 9d52 cabc 8e87 803e
00000080: 2320 e43c bea5 6ebb af1c b03e 4006 983d
00000090: cbd2 c13d db4e 313d 3293 83bd a94a 84b9
000000a0: f6d1 70bd 24ef 79bd 58bd 0a3e 9f37 88bd
000000b0: bf41 9bbc 8504 c63d f7da 2c3e 5cbd 593e
000000c0: 3859 89be 4e22 8dbd 5d20 973c c23f 07bc
000000d0: 8910 3b3e 1b96 d33d b122 543e 5154 b2bd
000000e0: 0ccc a93e 1446 02be 18f5 f6bd 5ddc 403d
000000f0: 29d8 7abd c4da cabd 9b2f 1a3e a0bc afbe
00000100: a843 e63d 8f2c 21be 8264 0d3e 1f6f 2abc
00000110: 6046 4dbe 7a78 6b3c e547 5b3e 6ce1 ccbd
00000120: 0a2d 413e e7d9 353d 5246 503d fce0 c73c
00000130: ddf7 08be 0e0b dd3d 564f 193e 88c5 f43e
00000140: 67b2 22bd 0878 36be 0575 63be 0131 a13e
00000150: bac9 723e 25ab a33e bec0 7db9 f6ba 023f
00000160: 9111 05be 9ff0 973e 171c 86bd 1dc9 97bd
00000170: 2466 7d3d 360c dc3d 4001 8a3e 5dc4 373e
00000180: b32e 7b3e 5c03 923d 22c3 2a3d 8029 ba3e
00000190: c0a7 cdbd d25d 6e3e a1e3 b9bc da1f e5bb
000001a0: 0e03 e5bd 6f61 623b dfdf 2fbe f1a5 00bc
000001b0: 4f22 c33c aae5 eabd 36c7 bd3d f7ed f5bd
000001c0: dc7b ba3d bf6f cabd 18cd 63bd eaae 413e
000001d0: 8649 cfbd 73cc 963e 757e 6c3d 8179 9abc
000001e0: 12f0 ddbd da96 28be bf6f c5bd 2d52 8d3d
000001f0: 18f5 643e 673c 32be c329 92be 3aa0 18be
00000200: 8af7 d13d 4cbd d03d a6ea 1c3e e828 58bc
00000210: 9ae0 503e 48fe 82bd cb4a 8c3e bfa6 8e3d
00000220: 2d87 e83d 0e86 923c ab4a c03e fa97 82bd
00000230: f119 1cbe 929a 90bd 4eaf 193d 89a8 11be
00000240: f1b0 28bd d014 47be aeef 39be 5557 85bd
00000250: 501f 80be a274 7a3e 36f4 72bd 7bf1 d53d
00000260: 7606 1e3b 82da 793e c42d 0ebe 3d47 be3d
00000270: f378 3c3e c066 2bbe 4737 ac3a b14a 673d
00000280: 9647 943e 199c 00be f9a8 06bd 1a78 b5be
00000290: 15a7 44be 389e 143d 6638 08bd 6538 993e
000002a0: 821a b6be d879 603d cbee 273d 5686 e03d
000002b0: ac56 3c3d 15dd a73c 3e32 a73d 796f 953d
000002c0: 12b1 ddbd b641 e93d 7c46 00be 7e87 b93d
000002d0: bb9b dd3e 5b8e 7ebe ff9e a33d 05e6 db3d
000002e0: 65de 00be 9006 34bd 9bfc 03be f0d4 023e
000002f0: 0b74 bdbd 6c66 2b3e be80 a33d d6c4 a53d
00000300: 5016 f53d bb87 c83e b8d3 a73d 0f74 fbbd
00000310: 6981 b83e 93cb 67bd 0493 283d b97d c6be
00000320: 31f4 45bd 75ee 13bd bda6 483e 38bd c4bd
00000330: 49e2 43be 1a29 1fbd ed59 b23e 6e37 a3bd
00000340: 41e7 493e 051f 05be 66db adbd a284 02be
00000350: 3344 54bd df44 b9be 014f 1fbe 3494 3dbe
00000360: 379b adbd 9118 853c 421c f83d 9c21 33bd
00000370: 18aa d93e 01a7 1a3c ccfd 19be 09e0 6b3e
00000380: f90e 5abe 1e5f babd df08 a6bc bcac bf3d
00000390: 7863 a1bd 88e0 a3bd 796c 48be f58a a2bd
000003a0: 831a 033f d131 d43d 8703 9b3e 9fea 8c3d
000003b0: 3647 bb3e 9d64 cdbd 664d a7be d922 353b
000003c0: 9286 7a3e 1a6b ce3c c777 893d 14e1 c83d
000003d0: 71ab 9f3d f433 a73e 2903 0dbe f072 9d3e
000003e0: 229b bb3e b165 ccbd d79a 1b3d eeef 7c3e
000003f0: a365 343e c72b 3d3e 9c43 103e 3c58 363c

fc3.bias f4 [10]
0.090706326 0.14580783 0.3954018 0.23529214 -0.42813838 0.7157204 0.44713882 0.015587412
0.14874507 -0.40050757
00000000: 3dc4 b93d a64e 153e 1b72 ca3e 6cf0 703e
00000010: f434 dbbe 7439 373f 61ef e43e 5862 7f3c
00000020: a150 183e 540f cdbe
