experiments/LeNet/FashionMNIST/experiment-4/last-epoch.pt (torch, 184747 bytes, 10 tensors)

conv1.weight f4 [6, 1, 5, 5]
000000 e3 f3 5e bd 65 c8 a5 3c 28 e5 24 3e 2d a3 3d 3e
       -0.054431807 0.020237157 0.16103041 0.18519278
000010 28 c0 b9 3d 87 5f da 3c b3 6a 1a be 05 17 fc bd
       0.09069854 0.02665688 -0.15079765 -0.12309078
000020 97 76 71 bd 4c c7 3c 3e 64 13 a8 3d 53 0c 3f 3e
       -0.058950987 0.184354 0.082068235 0.18657045
000030 91 9a 8e bc d4 0d ea bd 77 d6 4b be d1 64 e5 bd
       -0.017407687 -0.11428419 -0.1990603 -0.1120087
000040 e4 06 41 bc af a8 27 be 14 d8 33 bd ea dd 4a be
       -0.011781428 -0.16372941 -0.04390724 -0.19811216
000050 db c1 52 3d bb 61 d3 3d a1 33 8d bd 2b 98 55 3d
       0.051454406 0.10321375 -0.06894613 0.05214707
000060 45 c6 45 be cf 02 4f 3d bf aa f6 bd 25 ce 45 be
       -0.19313915 0.050539788 -0.12044286 -0.19316919
000070 69 58 c4 bd 96 f0 9b 3d 38 be 40 be b2 6d 86 bd
       -0.095871754 0.076142475 -0.18822563 -0.065638915
000080 5c 8f 7d 3c f6 90 29 be ec 62 80 bc 95 44 c5 bd
       0.015476074 -0.16559204 -0.01567217 -0.096322216
000090 67 db 30 bc a7 18 3f 3d cc fe e1 bc 89 a7 20 be
       -0.010794497 0.04665437 -0.027587317 -0.1568891
0000a0 6f 9c 12 bb de 53 49 bd 1f bc 1b 3e eb 26 38 bd
       -0.0022371074 -0.049152248 0.15208481 -0.04495899
0000b0 df ad c9 bd c9 6a 80 bd 3d 54 46 3c 61 e3 1e 3d
       -0.098476164 -0.06270368 0.012105045 0.038791064
0000c0 cc 08 57 bc a9 e8 d0 bd 05 e6 eb bd ef 48 35 bc
       -0.013124656 -0.102006264 -0.11518482 -0.011064752
0000d0 eb 32 55 be ac 15 2c be 78 65 66 3d 66 6a 64 3e
       -0.20820205 -0.16805142 0.056249112 0.22306213
0000e0 f8 a8 7c 3d 3a 4d 22 3d af 1f b8 3d 5e e9 19 3e
       0.06168458 0.03962443 0.08990418 0.15030429
0000f0 f8 c5 40 3d 62 f2 bd bd f4 c0 aa 3d 8c 6d 5f 3d
       0.047063798 -0.092747465 0.08337584 0.05454783
000100 97 16 5d bd a0 ad f8 bd f5 c5 5a be 6c 0b 85 be
       -0.05397662 -0.12142491 -0.21364577 -0.25985277
000110 6e db 11 3d 53 f2 5e be c7 26 00 3c e0 a7 02 be
       0.035609655 -0.21772127 0.007821745 -0.12759352
000120 9b fb 87 be 20 a0 02 3d 8e c3 6d 3d f5 9d b3 3d
       -0.26559147 0.03189099 0.058047824 0.08770362
000130 aa 8c 1e 3e eb cd 37 be 1c 75 24 3e 26 41 0e 3e
       0.15483347 -0.17949645 0.16060299 0.1389204
000140 e1 4b 6f bc a3 61 10 bd 08 c7 be 3d b2 aa c0 3c
       -0.014605493 -0.035249364 0.09315306 0.023518894
000150 06 72 33 3e 8b 57 ce bd 61 66 44 3e 89 59 c9 bd
       0.17523965 -0.10075291 0.1917968 -0.098315306
000160 c7 65 bb 3c 05 5d 47 3c 18 a1 85 bd 12 fc 91 bd
       0.02287568 0.012168174 -0.06524867 -0.07128157
000170 43 45 dc bd 78 34 34 bd ba e1 0c be 30 66 d8 3b
       -0.10755398 -0.04399535 -0.13757983 0.0066039786
000180 99 3f 26 bd 60 04 41 be 24 c8 3b bd 8e 73 4a be
       -0.040587995 -0.18849325 -0.045845166 -0.19770643
000190 45 e7 a9 3e f9 66 f1 3e ff ed 07 3f b3 e9 6f 3f
       0.33184257 0.47148874 0.5309753 0.9371597
0001a0 9a d3 37 3f f4 bb 18 3e a2 81 10 3f 8e e8 1b 3f
       0.71807253 0.14915448 0.56447804 0.60901725
0001b0 b8 bc 0e 3f 2d 0b 23 3f 77 4d 7b 3e 70 25 fd 3e
       0.5575671 0.6368893 0.24541269 0.49442625
0001c0 27 61 2a 3f f5 18 2a 3f 49 e7 12 3f a4 78 c0 3e
       0.6655449 0.6644433 0.57384163 0.37592041
0001d0 83 fc cb 3e ed 73 0a 3f bf 1e 0c 3f 39 cd ea 3e
       0.3984109 0.5408314 0.54734415 0.45859697
0001e0 d9 3f 4d 3e 59 60 16 3f ce 2a f3 3e 46 a9 e8 3e
       0.20043887 0.58740765 0.47493595 0.45441645
0001f0 ce 4d 98 3e 6b d4 c8 3d 4b 5a 33 be 5f 17 3b be
       0.2974686 0.098061405 -0.17514913 -0.18270634
000200 99 b3 12 be ca 3b 4d 3d 64 dc 0d 3e 08 3e 38 be
       -0.14326324 0.050105847 0.13853604 -0.17992413
000210 88 0c da 3c 02 93 3e be b6 af 32 bd 9f e3 87 3d
       0.026617303 -0.18610767 -0.043624602 0.06635212
000220 09 ee 23 bc 08 35 db 3c 3f a1 2e 3e 0e 7b ff bd
       -0.0100054825 0.026758686 0.17053698 -0.12474643
000230 d1 f2 a5 bd 48 a1 37 be 08 90 ac 3c 51 72 2d be
       -0.08102954 -0.17932618 0.021064773 -0.1693814
000240 99 5f 74 bd de a4 2e bd df d6 04 3e 8a f2 fe 3d
       -0.05966148 -0.0426377 0.12972592 0.124486044
000250 fe 6c a9 3c 57 6d 02 be
       0.020681854 -0.12737022

conv1.bias f4 [6]
000000 29 27 24 be 25 82 90 3d 13 18 56 3f 8b e6 19 be
       -0.16030563 0.07056073 0.83630484 -0.15029351
000010 6c 6f ad 3e a4 2e 31 be
       0.3387407 -0.17302948

conv2.weight f4 [16, 6, 5, 5]
000000 e2 c5 61 3d ae 3c b3 38 27 d5 8e bd 49 e0 a8 3c
       0.055120356 8.5466876e-05 -0.06974249 0.02061476
000010 d3 a9 2c bd 29 e1 9b bc dd f9 65 bc ec b8 46 bd
       -0.042154144 -0.019028263 -0.014036623 -0.0485162
000020 3d f7 0d 3d 5a a8 60 3d f6 06 36 bd 39 34 30 3d
       0.034659613 0.054848053 -0.044440232 0.043018553
000030 a7 b7 75 bd f1 56 8e bc e9 6d c7 3c 71 f8 c3 3c
       -0.059989598 -0.017375441 0.024344401 0.023922177
000040 f5 4d a4 3d b0 8b 21 bd 09 24 59 3c ea a8 d7 3c
       0.080226816 -0.039439857 0.01325322 0.026325662
000050 33 7d 52 3d 22 99 0a 3d b8 2c 16 bd d9 76 8c 3d
       0.05138893 0.033837445 -0.03666374 0.06858606
000060 0b 14 6e 3b 95 18 0b bd 70 9a 39 3a 6c 11 23 3d
       0.0036327865 -0.03395899 0.0007080203 0.039811537
000070 93 d9 92 bd 49 80 82 bc 1c 58 29 bd 09 31 32 bb
       -0.07170405 -0.015930312 -0.041343793 -0.0027189872
000080 7a 2d 96 bd f0 d0 a6 bd ca c9 93 3b 33 72 ac bd
       -0.07332893 -0.081453204 0.004510139 -0.08420219
000090 60 64 9f 3d 6e 14 10 bd 07 cb 15 3d 79 25 1a 3d
       0.07782817 -0.035175733 0.036570575 0.037633393
0000a0 68 5f 1e bd d2 fa 4d bd 9e 3f 07 3d 91 03 e8 3c
       -0.038665205 -0.05028803 0.033019654 0.028322013
0000b0 7c 91 09 bd 4d 24 f0 bb df 95 9e 3d 27 a3 30 bd
       -0.03358601 -0.007328546 0.077434294 -0.043124344
0000c0 ca 07 3f bd a8 c6 81 bd 5d c5 03 3d 1b a6 44 bd
       -0.046638288 -0.06336719 0.032170642 -0.048009973
0000d0 e1 f4 3f 3c 3e cf 9c 3d 5c 53 c0 3d 56 01 00 3e
       0.0117160985 0.07656716 0.093908995 0.1250051
0000e0 33 2e e8 3d db 8b 1c bd 93 01 de 3d ca 29 19 3e
       0.11336937 -0.038219314 0.10840144 0.14957348
0000f0 9f 19 81 bc 44 c9 04 bd a9 6a 82 3d f2 40 4e 3d
       -0.015759287 -0.032418504 0.06368 0.050354905
000100 1b 23 8f 3d bf b8 b3 3d 48 3f 8b 3c 37 50 c5 3d
       0.06989118 0.08775472 0.016997948 0.096344404
000110 97 d8 7a 3d 9e 65 74 3d 6d 7c b5 3d 39 43 59 bd
       0.061241712 0.059667222 0.08861623 -0.053042624
000120 99 bf 5b 3d a5 f9 1c 3d d7 47 80 3c 26 18 c6 bc
       0.05364952 0.038324017 0.015659256 -0.024181437
000130 e5 06 0e 3d 42 fe 59 3d ad 9b f1 3c 93 f0 75 3c
       0.034674544 0.053220995 0.029493177 0.015010971
000140 16 08 a5 bd 06 93 1d 3d 15 09 52 bd 60 a8 91 bd
       -0.08058183 0.03847029 -0.051278193 -0.07112193
000150 4a 4a f6 3c f2 d6 30 bd 20 36 a3 3d 63 a0 6a 3d
       0.03006472 -0.043173738 0.07969308 0.057281863
000160 fc 6d 9a 3d 27 16 64 bd 7b e0 94 bd 90 5e 16 3d
       0.07540509 -0.05568519 -0.07269379 0.036711276
000170 ab 8d aa 3c 0c 26 2c 3c a6 eb 97 bd c8 a0 18 3d
       0.020819506 0.010507118 -0.07417993 0.037262708
000180 04 fc 2d bd 0e db 82 3c 35 9b 80 3c 4b 48 41 3d
       -0.04247667 0.015973594 0.015699008 0.047188085
000190 67 5a 4d 3e 5e 4d 03 3f a0 68 62 3e 4b 0d f0 bd
       0.20054017 0.5128993 0.22110224 -0.117212854
0001a0 68 d5 b7 be 10 e0 3a bd 64 82 85 3e 89 aa 9a 3d
       -0.35905004 -0.04562384 0.26076043 0.07552058
0001b0 ad dd 51 be 86 a1 a2 be 45 6a 8f bb 50 59 4d 3e
       -0.20494719 -0.31763858 -0.004376682 0.20053601
0001c0 96 df 90 bc 7e 7a f2 bd 57 92 52 be 5d 84 56 bd
       -0.01768474 -0.1183977 -0.20563637 -0.052372325
0001d0 f5 cd 9e 3d 7a 9d dc 3d e0 97 c2 bd 51 20 3a be
       0.07754127 0.10772224 -0.09501624 -0.1817639
0001e0 7b b8 83 3e 1a e1 b2 3e 54 a8 69 3e 00 a1 20 3e
       0.25726685 0.34937364 0.22818118 0.15686417
0001f0 ab fc 88 bd 11 97 f6 3c bf 28 8d 3d 67 26 95 3c
       -0.066888176 0.030101331 0.06892537 0.018206788
000200 84 6d 20 bd db 0b 89 3c 22 4c 85 bc 68 e8 8a 3c
       -0.039166942 0.016729286 -0.016271655 0.016956523
000210 c6 18 52 3b 88 b4 48 bb 61 4c 0e 3d 9d e0 58 bd
       0.0032058223 -0.0030625183 0.03474081 -0.052948583
000220 cf 81 27 3d 39 8e 4f 3d c0 fc 13 3c ca 47 48 bd
       0.04089528 0.050672743 0.009032428 -0.04889659
000230 ed ba 39 bd be 82 37 bd c8 b6 8c 3d 3c 40 84 bd
       -0.045344282 -0.04480242 0.068708 -0.06457564
000240 0f de da 3c b1 c0 4b bd 5f 3d 84 bd 92 1f 0e 3d
       0.026717214 -0.04974431 -0.06457018 0.034698077
000250 ed d1 92 3d 7a 9c 8f 3d e1 0e 08 bd 31 83 71 3d
       0.071689464 0.070122674 -0.033217315 0.058963004
000260 09 f2 6b bd d3 11 7f 3d 8e d5 9f bd 97 99 6f bd
       -0.05760387 0.062272858 -0.07804404 -0.058496084
000270 19 86 34 bc 13 46 c8 3a 13 08 59 bc bd 74 36 3c
       -0.0110182995 0.0015279673 -0.013246554 0.011136231
000280 2e 86 60 bb ef bb 9e 3d d8 59 d6 3c e9 13 3a bd
       -0.0034259665 0.07750689 0.026165888 -0.045429144
000290 a6 4c d2 bc d1 6e 97 bd e9 ea a5 bd b1 20 9b 3d
       -0.025671314 -0.073941834 -0.08101446 0.07574595
0002a0 db 71 3b bd 49 54 d5 bc 0d c5 5f bd af 82 32 bd
       -0.045762878 -0.026041167 -0.05463128 -0.04358166
0002b0 2e 5d ab bc 5e 96 d6 bc 93 8e 6c 3b 22 13 76 3d
       -0.020918455 -0.026194748 0.0036095723 0.06007684
0002c0 2f 0a 55 3d e5 ec 09 3d 64 63 05 bd 25 cf 63 bc
       0.052011665 0.033673186 -0.03256549 -0.013904368
0002d0 2b 29 1d bd 00 15 9d 3c 30 63 d2 bc 61 bf d0 bc
       -0.03836934 0.019175053 -0.025682062 -0.025481882
0002e0 b4 c1 1b 3d 6d 3e 74 bd 45 6d 9d 3d 8f 28 c9 bb
       0.038026527 -0.059629846 0.07686857 -0.006138868
0002f0 81 a7 3d 3d 37 10 e3 3c f7 9a aa 3d fd 89 95 3d
       0.046302322 0.027717693 0.083303384 0.0730171
000300 7d b7 a7 3d c2 d4 44 bd 4a 06 49 3c 7a 51 01 bd
       0.081892945 -0.048054464 0.012269566 -0.031571843
000310 15 27 9a bc d9 81 b7 bc d7 f3 37 3d bc ed db 3b
       -0.018817464 -0.022400783 0.04491028 0.0067116898
000320 5f 44 13 3d 53 35 4c 3b 01 be e9 3c 8a c5 b9 bb
       0.035953876 0.0031159713 0.028532984 -0.0056693004
000330 5c b2 82 3c 25 81 eb 3c 56 bf 80 3d 27 f5 16 bd
       0.015954189 0.028748104 0.062864944 -0.03685489
000340 7b 51 63 3d af c4 18 3d 3e 01 01 3d 27 51 ed bc
       0.055497628 0.037296947 0.031495325 -0.02896936
000350 70 ef 58 bd a6 23 28 bd 87 e4 af 3d 1a 0d df 3c
       -0.05296272 -0.041049622 0.0858851 0.027227927
000360 88 2b 48 3c 14 22 9b bd 41 b4 2b bd 10 0d 19 3d
       0.01221741 -0.07574859 -0.04191995 0.037365973
000370 f7 19 3e 3d 70 74 58 bd f1 e2 95 3c 9c 5a 91 3d
       0.04641148 -0.05284542 0.01829669 0.070973605
000380 0d 9f 07 3b a1 ac 44 3c 3d 90 25 bb d1 cf 4c bd
       0.0020694167 0.012004049 -0.0025262975 -0.050002877
000390 dc dd 58 3d bc 55 b7 bb f5 79 9e 3d a1 bd 0e 3c
       0.052945957 -0.005594937 0.07738105 0.008712203
0003a0 4a 35 25 3d 92 e5 9a 3d db fb 57 3c b8 83 51 3d
       0.040334024 0.07563318 0.013182606 0.051151007
0003b0 95 36 92 3d 96 70 7c 3d e3 45 9f bb 2f 3f 27 bd
       0.07139317 0.061630808 -0.004860626 -0.04083174
0003c0 ee 9a 99 bd fc fe 7e bc 38 e5 04 3d e9 a7 02 3d
       -0.075002536 -0.015563723 0.032445163 0.031898413
0003d0 12 04 98 bd 11 1c 98 3d 53 c1 0e bd e6 de 95 3d
       -0.07422651 0.07427228 -0.034852337 0.07317905
0003e0 2c 74 b1 bc d9 23 7f bd ea 0f a4 bc bf c6 1d 3c
       -0.02166184 -0.062290046 -0.02002712 0.009629904
0003f0 55 a2 06 bd 82 1c c6 3d 56 d7 4e bd bb f1 89 3c
       -0.032869656 0.09673406 -0.05049833 0.016838899

conv2.bias f4 [16]
000000 c3 90 22 3e bc 77 5a bc 4d 23 2e 3c 16 72 69 3c
       0.15875535 -0.013334211 0.010628534 0.014248392
000010 1e 55 71 bd 60 e0 13 be 63 15 3e 3e c1 b9 a3 bd
       -0.058919065 -0.14441061 0.18562846 -0.07994414
000020 fc 6c 77 3e 8e 6f 96 3e eb 5f 59 bd fb 1b e2 bb
       0.24162668 0.29381984 -0.05306999 -0.006900308
000030 b6 fd fa 3c 45 e8 31 bd e2 ac 28 3e 54 71 9e 3d
       0.030638557 -0.0434344 0.164722 0.077364594

fc1.weight f4 [120, 256]
000000 f0 e7 1c bc 5c 91 25 3d 4a a8 d3 3c 1b 25 14 bd
       -0.009576783 0.04042183 0.025837082 -0.0361682
000010 d1 75 3c bc 21 9f 35 3d ce 4c 91 bc 3c 7d c6 bd
       -0.011502699 0.04434121 -0.017736819 -0.09691855
000020 ad 16 51 3d 2a 6b 3c 3d d3 92 84 ba d9 a7 47 bb
       0.051047016 0.046000637 -0.0010114558 -0.0030465035
000030 44 51 b2 bd b3 2b 4c bd c6 f7 ce bc fd 16 10 3d
       -0.087069064 -0.049846362 -0.025264632 0.035178173
000040 58 47 70 bd a2 e1 1d 3d 10 dd 7d bd 54 cd 45 bc
       -0.05866179 0.03854526 -0.0619784 -0.01207288
000050 13 76 51 bd ed da 69 bc 74 fc 5c bd 92 a9 ee bc
       -0.051137995 -0.014273387 -0.053951696 -0.029133592
000060 c2 09 14 3d 09 b6 65 bd b0 57 fc 3c 01 d7 14 3d
       0.03614212 -0.056081805 0.030803531 0.036337856
000070 31 31 26 3c 98 ab 71 bd 7b 37 2e bd 43 37 f5 3c
       0.010143564 -0.059001535 -0.04253338 0.029933577
000080 f5 02 d1 3d 04 3e 26 3d 8c 42 68 bd ae d9 f7 3c
       0.10205642 0.040586486 -0.05670409 0.030255165
000090 96 60 c0 3d d4 12 e7 3c 60 00 42 3d 8d 14 0b bb
       0.09393422 0.02820722 0.04736364 -0.0021221966
0000a0 1a ff ab 3c 65 8a b8 bd 3f 50 04 3c ee 90 07 3d
       0.020995665 -0.09010772 0.008075773 0.0330972
0000b0 72 cd 20 bc 8d e1 26 bd 5c bb b3 3c c9 2a c6 3c
       -0.009814607 -0.040742446 0.021939926 0.024190323
0000c0 4b b9 9c 3c 64 22 3f bd da 85 2d bd 65 26 b3 3c
       0.019131323 -0.046663657 -0.04236398 0.021868894
0000d0 65 11 5f bc e9 2a b7 3b ca e9 68 bd bc 53 3c bd
       -0.013614987 0.005589832 -0.056863584 -0.045978293
0000e0 e3 49 b0 3c dd 25 53 3d 70 f3 d2 bc b4 87 a1 bd
       0.021519607 0.05154978 -0.025750846 -0.078872114
0000f0 95 c0 28 bd 5d 58 5f 3d ba 12 43 bc ff 5e 7a bc
       -0.041199286 0.05452763 -0.01190632 -0.015281438
000100 5d f5 98 3d d1 32 a5 3b fb 09 00 bd 32 75 8e 3c
       0.07468674 0.005041458 -0.031259518 0.017389867
000110 60 9d 24 bd 86 1e 08 bc 06 b6 93 bd 5c 40 25 3d
       -0.040189147 -0.008308059 -0.072124526 0.04034458
000120 f6 65 7a 3b a5 96 77 3b d8 81 b3 bb 75 7f 1b 3d
       0.0038207746 0.0037779 -0.005478125 0.03796335
000130 8a 0b 44 3c 92 83 8f 3d 8d 39 e5 3c f1 e3 80 bd
       0.011965642 0.07007517 0.027981544 -0.062934764
000140 e0 3c 95 bd d6 7b 3f 3d 6a 1f 4d bc 82 97 97 bc
       -0.072870016 0.04674896 -0.012519697 -0.018504862
000150 42 e7 89 bd b0 e3 7e 3d f2 ce a9 bc 6c 1a 68 3d
       -0.06733562 0.06222886 -0.020728562 0.056665823
000160 79 e4 1e 3d 21 82 80 3b 17 47 67 bd 41 1c c1 bc
       0.038792107 0.0039217626 -0.05646428 -0.023573043
000170 63 df 30 bd d2 3a 83 bd 12 3a fb 3c 44 78 bf 3c
       -0.04318179 -0.064077035 0.030667339 0.023372777
000180 ec a7 68 bd 35 60 31 3d 1d 1c fd 3c a2 19 36 3d
       -0.056800768 0.04330464 0.030897195 0.04445804
000190 05 5a f5 bc 87 dd 66 3d fd 99 41 bd 35 39 52 bd
       -0.029950151 0.05636361 -0.047265995 -0.051324088
0001a0 3d 8f c5 bc 9f 41 18 3c 5d 30 2b 3d 7b ec b4 bc
       -0.024116153 0.009292989 0.04179417 -0.022085419
0001b0 fa e1 69 3c 1d 42 4a bb b5 37 f9 3c d4 86 97 3d
       0.014275068 -0.003086216 0.030422071 0.07398763
0001c0 90 3a 39 bd 45 51 6e bd ae 7d 41 bd bc 4c 37 bd
       -0.045221865 -0.058182973 -0.047238998 -0.044750914
0001d0 07 b1 34 bc fc 57 3c bd 54 59 10 ba 0d 29 a5 3c
       -0.011028535 -0.045982346 -0.0005506475 0.020161176
0001e0 dd a2 78 3c 03 fe 64 3d 5f 0b b7 bc cb 80 48 bc
       0.015175548 0.055906307 -0.02234429 -0.012237738
0001f0 ca a2 11 bd 9f c7 0a 3d bc 1d 6c 3d 7e 9c 11 bd
       -0.03555564 0.03388178 0.057645544 -0.035549633
000200 74 c0 2b bd ed d9 59 3d 2f 7f 99 3d 47 b8 17 3d
       -0.041931584 0.053186346 0.074949615 0.037040975
000210 1a e1 ed 3c 09 2d 0a 3d 5b 30 62 3d bc d7 d0 3c
       0.029038 0.033734355 0.055221897 0.025493495
000220 64 1d a9 3c ba d0 90 bd 8f c0 2d bd 75 e4 d5 3c
       0.020643897 -0.070710614 -0.042419966 0.026109913
000230 3b 73 61 3c 69 f1 ed 3b 57 29 c9 3b 52 52 90 bd
       0.013760383 0.0072614443 0.0061389613 -0.07046951
000240 7d 7e aa 3b 9f b5 1b bd eb d7 89 3c ad 59 a8 3d
       0.005203067 -0.038015004 0.01682659 0.08220229
000250 5a 71 b5 3d 06 0d 0f bd f4 54 64 3d fe 76 35 3c
       0.08859511 -0.03492453 0.05574508 0.011075733
000260 fd 64 f0 3c 30 e2 ad bd a7 d4 29 bb ae 74 ba 3b
       0.02934503 -0.084904075 -0.0025914104 0.005690179
000270 4d 13 61 3d 3a 7a 10 ba 26 c6 aa 3d 63 f0 8c bc
       0.054950047 -0.0005511377 0.08338575 -0.01720447
000280 b3 d7 5c 3d 06 47 d8 bc 31 d5 ca bc 77 22 81 bd
       0.053916644 -0.026401054 -0.02475986 -0.06305402
000290 96 52 83 bc f1 16 e5 bc 5d e5 66 bd 1c 31 9e 3c
       -0.016030591 -0.02796504 -0.05637108 0.019310527
0002a0 61 ff 86 3b 60 76 66 bd 35 4b b8 bc dd 5a 17 bd
       0.004119799 -0.056265235 -0.022496799 -0.03695189
0002b0 f0 9a 01 3d 0e 3c 2e 3d 84 b4 67 3d 9c b6 0e bd
       0.0316419 0.04253774 0.056568637 -0.03484212
0002c0 0a 47 cf 3c 05 05 9b 3b b5 0b 83 bd b3 74 4d 3d
       0.025302429 0.004730823 -0.06398717 0.05016012
0002d0 20 98 eb 3c 72 be 45 bd 28 89 04 bd 6e 34 5b 3b
       0.028759062 -0.048277326 -0.032357365 0.0033447999
0002e0 6a ea 3a 3d 49 83 53 3d 1c 98 c3 3b 4c b4 45 bd
       0.04563371 0.051638875 0.0059690606 -0.048267648
0002f0 41 d8 19 bc 5c f1 7b bd 55 99 86 3c 22 07 8e 3c
       -0.009389938 -0.061509475 0.016430536 0.017337386
000300 fe 71 72 3d 6c 22 32 3d cf 0e 91 3d 7d 99 8d 3b
       0.059190743 0.04348986 0.07082903 0.0043212757
000310 bf 22 da bc 30 dc 8b 3c 0d 30 93 3d eb 6e 08 3c
       -0.026627896 0.017072767 0.07186899 0.008327226
000320 fc a2 bc bb e6 01 95 3b fc a9 7a 3d 8d 46 ad ba
       -0.005756734 0.0045473455 0.061197266 -0.0013219878
000330 9e 98 b7 bd 95 04 00 3d 86 db 5f 3c 42 f3 8b bc
       -0.08964656 0.03125437 0.013663178 -0.017083768
000340 6b 0c e5 bb 19 a8 9d 3c 89 53 a4 3b 63 b3 40 3d
       -0.0069900057 0.019245194 0.005014841 0.047046077
000350 d9 7d c2 bc 2b d0 25 bd 2a b9 b4 3a 47 f9 0e 3d
       -0.02374165 -0.040481728 0.0013788093 0.0349057
000360 94 bb 17 3c ba dd 61 bd 68 b1 74 3d c6 39 80 3c
       0.009261031 -0.055143096 0.0597395 0.015652549
000370 8a f0 e1 3c f9 bd 76 3b e1 5a 24 ba 9b fb 1a bd
       0.027580518 0.0037649854 -0.00062696455 -0.037837606
000380 b5 bc 66 bd 37 31 70 bd 3a 64 aa bc 79 af c6 bc
       -0.05633231 -0.058640685 -0.020799745 -0.024253594
000390 10 c7 03 3d 7e cc 4e bd 96 a3 6c bd a1 6b 4b 3d
       0.032172263 -0.050487988 -0.057773195 0.04966319
0003a0 a2 75 18 3d 49 75 7f 3c 6d 47 a6 bb 03 2c 1f bd
       0.03722156 0.015591928 -0.0050744326 -0.038860332
0003b0 ac 46 73 3c 9a 21 3a 3d a4 f5 97 3d 06 eb d6 ba
       0.014848392 0.0454422 0.07419899 -0.0016396947
0003c0 24 c9 47 3d d3 5b 70 bc 6f ca 34 3d 50 02 7b 3d
       0.048775807 -0.01467033 0.04413837 0.061281502
0003d0 91 87 0b 3d d2 f7 93 bc b8 7b c1 bd ca 5e 2c 3d
       0.034064833 -0.018062506 -0.094474256 0.042082585
0003e0 64 89 24 3b ba 12 36 bd 1d 75 8a 3d b3 f9 ba bb
       0.0025106305 -0.044451453 0.06760619 -0.005706036
0003f0 13 e6 29 bd 5d ea cb bb c0 7d b0 3c 9c b2 3f bd
       -0.04147918 -0.0062230066 0.021544337 -0.046801195

fc1.bias f4 [120]
000000 04 0a 83 bd 5c 72 7b bc 72 6d 31 bd 79 55 1d bb
       -0.06398395 -0.01534709 -0.043317266 -0.0024007245
000010 fe aa a1 bd 43 2f 88 bc 21 00 37 3d 73 d6 0f b7
       -0.07893942 -0.016624099 0.044677857 -8.573395e-06
000020 e4 a7 0f 3d 07 02 e6 3c e9 f6 40 bd 5f a4 46 3d
       0.035072222 0.028077139 -0.047110472 0.0484966
000030 a9 4f 4b 3a ec d3 76 3c ac 10 d2 3a 0c 8f 8f bd
       0.0007755706 0.015065175 0.0016026697 -0.07009706
000040 c0 e8 44 bd 5b 6b 19 bd 6a bd 4b bc 88 f4 01 bd
       -0.04807353 -0.037455898 -0.012435297 -0.031727344
000050 3a ba d0 3d 10 1f f1 bc 0a f3 a1 3c 32 84 48 3d
       0.1019177 -0.029433757 0.01976921 0.048954196
000060 ca 27 54 bd 3e 12 96 3d 36 13 b4 3d 82 7a 86 bc
       -0.05179576 0.07327698 0.08792727 -0.016415838
000070 03 a2 3c 3c a0 20 43 3d 52 7f 23 3b 84 99 eb 3c
       0.011513236 0.047638535 0.0024947715 0.028759725
000080 ea 27 5e bd 2a 13 17 bc 43 bd 51 3d d7 81 36 bd
       -0.054237284 -0.009220878 0.051205885 -0.04455742
000090 e3 7d d3 3c 10 79 85 3d af 11 8f 3c c1 6f a4 3d
       0.025816863 0.065172315 0.017464487 0.08029128
0000a0 c6 75 ec 3d d6 38 2a bd 6a 28 87 bd f9 b7 89 3c
       0.11545901 -0.04155811 -0.06599505 0.016811358
0000b0 7a 80 e0 3d 88 b0 48 bd 07 93 b4 bc 1e 27 e6 bb
       0.10962005 -0.04899648 -0.022042764 -0.007023706
0000c0 11 b2 c8 3d 2a 5f 6c bb 25 b0 b5 bc 2c ed 04 bd
       0.097995885 -0.0036067464 -0.022178719 -0.032452747
0000d0 e7 c4 e3 bc 10 21 90 3c 0f 42 71 3c 64 72 90 3c
       -0.027803851 0.01759389 0.014725222 0.01763267
0000e0 e0 af 85 bc 1f 05 17 3d ec 28 2d 3d 02 e1 5c bd
       -0.016319215 0.03687012 0.042275354 -0.05392552
0000f0 53 be 3e bd 57 03 94 bc db 79 a9 3c 8e 53 af 3d
       -0.046568226 -0.018067999 0.020687988 0.08560859
000100 d7 b9 4a 3d 43 f5 66 3d aa 4a 8a 3c 47 8b 8f bd
       0.049493637 0.056386244 0.016881306 -0.07008987
000110 d3 44 3c bd 0b 57 ff 3a 88 eb 42 bd 9f f1 0b 3c
       -0.045964073 0.0019480897 -0.0475879 0.008541494
000120 3b ba c0 bb 11 dc 84 3d ff b0 5f 3d be 3e 1a 3d
       -0.0058815754 0.06487287 0.054612156 0.037657492
000130 0e 22 99 bc 0f 07 83 bc c9 95 5b 3b 90 36 85 3d
       -0.018692996 -0.015994577 0.0033506027 0.065045476
000140 c9 52 da 3c 45 dc fe 3c 18 32 08 bd 4b e9 25 bd
       0.026650803 0.031110892 -0.033250898 -0.04050569
000150 00 b5 d2 3c 19 4e 01 3e 00 5f 60 bd 84 32 8d 3d
       0.025721073 0.12627448 -0.0547781 0.06894401
000160 cb b1 76 3c b2 db 82 bd 9d 96 bc 3c d2 c0 39 bd
       0.015057038 -0.0638956 0.023021037 -0.045349903
000170 04 aa ab 3d d9 62 29 3c 18 2c 1b bc 97 76 57 bc
       0.08382037 0.0103385085 -0.009470962 -0.013150833
000180 47 24 5b ba a4 e9 c6 3a 27 38 03 bd 83 94 54 bd
       -0.0008359593 0.0015175832 -0.032035973 -0.051899444
000190 16 aa 88 3d 45 78 92 bc eb 6b e4 3c 01 ca ac 3d
       0.06673066 -0.017879615 0.02788349 0.08436967
0001a0 b2 1f a8 3d a0 16 98 3d 9d 97 15 3d e4 b7 1f 3d
       0.082091704 0.074261904 0.036521543 0.03899373
0001b0 15 7c 16 bd 33 79 30 bd a6 d8 01 bd f7 bd 58 bd
       -0.036739428 -0.043084335 -0.031700753 -0.05291554
0001c0 0c 64 30 3d 68 61 d6 bc 80 d4 98 3d 40 94 e8 3b
       0.043064162 -0.026169494 0.07462406 0.007097751
0001d0 93 4d 31 3d 55 ce 0c bd 79 aa c9 3c ac 15 39 3d
       0.04328687 -0.03437646 0.02461742 0.045186684

fc2.weight f4 [84, 120]
000000 65 90 24 bc e7 5a 9a 3d e3 7c 40 3d 31 f5 43 3c
       -0.010044192 0.075368695 0.0469941 0.011960314
000010 96 10 3e 3d be e5 b5 bd f1 9a 85 bd 0f 65 b2 3d
       0.046402536 -0.088817105 -0.06523693 0.08710682
000020 41 8b 56 3d b8 dc 40 3d 3b c9 78 3d 80 72 0d be
       0.052378897 0.047085494 0.060738783 -0.1381321
000030 29 1a 0f bd fb 43 11 3c 0b e9 e8 bc dd ee c6 3b
       -0.034937058 0.008866305 -0.028431436 0.006070955
000040 b4 d4 7c 3d e3 de a1 3c 84 79 0b 3d 5b 95 9b 3d
       0.061726287 0.019759601 0.034051433 0.07596847
000050 23 ff 0a 3b 54 35 81 bc 42 36 9b 3d fb cb a8 bd
       0.0021209202 -0.0157725 0.07578708 -0.08242031
000060 b3 64 82 bc fd ea b7 bd 5a cb 3b bb 9b a9 57 3d
       -0.015917158 -0.08980367 -0.0028655143 0.052651983
000070 76 df c0 3d d7 63 51 3d d9 20 5d bd ea d9 16 3d
       0.09417622 0.051120605 -0.053986404 0.036828913
000080 b8 78 6a bd 6b 03 84 bd 23 49 79 bd af 54 7a 3d
       -0.057244033 -0.064459644 -0.060860764 0.061115917
000090 fc 5e 57 3d 3c 87 ae 3d e8 b7 2e 3d ff 54 7f 3d
       0.05258082 0.08521888 0.042655855 0.062336918
0000a0 cc 73 53 bc fa 2f 86 3d d3 5c 32 bc 9d 0b c6 bc
       -0.012906026 0.065521196 -0.010886389 -0.02417546
0000b0 c8 e7 54 bd 48 57 6a 3d 9c 64 c0 3c 5e f3 75 bd
       -0.051978856 0.057212144 0.023485474 -0.060046546
0000c0 36 f1 c6 bd a5 ad bf bc 8c 51 8d bc 26 de 78 3d
       -0.09713976 -0.02339823 -0.017250799 0.060758732
0000d0 63 44 dc bc 8c 43 81 3d 99 33 29 3d c3 d2 61 3d
       -0.026888078 0.06311712 0.041308973 0.05513264
0000e0 ff 79 b5 3d d4 c8 cd 3d bb ec 88 bd 9d 42 1f bd
       0.088611595 0.100480705 -0.06685778 -0.038881887
0000f0 b2 61 ac bd 31 75 e5 bc 76 af fd ba 5d 5e e2 bc
       -0.084170714 -0.028009983 -0.001935466 -0.027632887
000100 2d c3 a5 bd d5 85 1f 3d 10 f0 c9 bd d8 7b 89 bb
       -0.080938675 0.03894599 -0.098602414 -0.0041956715
000110 e9 5c 8f bd d2 ee 27 3d 1e 10 7f 3d a2 55 1e 3c
       -0.07000143 0.04099924 0.06227123 0.009663971
000120 ab ee 6c 3d a6 35 dc 3d 9e d6 ec 3d 19 3d a7 bc
       0.0578448 0.1075242 0.115643725 -0.020414876
000130 3c cd ea bc f8 1a b5 3c 55 ea 61 bd e8 4a b5 bd
       -0.028662317 0.022107586 -0.055155117 -0.08852178
000140 7c 9f 04 3d 4b 9c 9e 3d 04 cc 81 bd e4 66 62 3d
       0.03237866 0.07744654 -0.06337741 0.055273905
000150 29 ae 55 3d 18 da 75 3d a9 e5 0a 3c 6d 0d b3 bc
       0.052168045 0.060022444 0.008477607 -0.021856988
000160 96 18 a7 bd e3 5e 03 3e f0 86 12 bd d4 0a 0a bd
       -0.08158986 0.12829165 -0.035773218 -0.033701733
000170 d4 20 be bc dd 0a 2e bc 36 5e ac 3d 33 5a b5 bd
       -0.023209013 -0.010622707 0.08416407 -0.08855095
000180 01 c6 61 bd a9 ae 6a 3c 4f c9 1d bd 41 05 44 bb
       -0.055120472 0.014323869 -0.03852206 -0.0029910358
000190 e4 22 1c 3d 82 7e 38 bd fd bc d3 3d 0a 44 6e bc
       0.03811921 -0.045042522 0.10338781 -0.014542589
0001a0 ff ac 19 be b6 b2 88 3d 26 65 3d 3d f2 18 88 3d
       -0.15007399 0.066747114 0.04623904 0.06645383
0001b0 30 57 b2 bd 88 20 53 bd 6c ea 98 bc 32 9b 93 3d
       -0.08708036 -0.051544696 -0.018666469 0.072073355
0001c0 5d 22 a0 bd 18 57 96 3d 2d 69 24 3d d7 89 ab bd
       -0.07819054 0.073408306 0.040139366 -0.083759
0001d0 16 b9 e0 3d 9a ee 10 3b 6e 25 93 3d 14 11 48 3d
       0.10972802 0.0022114874 0.071848735 0.048844412
0001e0 d3 8f 23 bd ed 6d 55 3d 0f 67 6e 3d 35 85 5e 3d
       -0.039932083 0.052106787 0.058203753 0.054326255
0001f0 2d a6 f0 bd 6b 3e cf bd c5 16 67 bd 90 0c ac bd
       -0.117504455 -0.10119327 -0.0564182 -0.084008336
000200 48 67 83 bc 8c e4 4c bd 42 0d 5e 3c 41 fb 4a bd
       -0.01604046 -0.050022647 0.013552966 -0.04955602
000210 3e d0 58 bd 2b 1d 80 bd f5 8a 79 3d ce be a9 bd
       -0.05293297 -0.06255563 0.060923535 -0.08288346
000220 20 e9 95 3d 37 2b d2 3d 00 7b 27 be 4a 19 a6 bd
       0.07319856 0.10262149 -0.16355515 -0.08110292
000230 ea 10 0b 3c bc b3 ae 3d 02 f5 8f 3d e2 e8 87 3c
       0.008487919 0.08530375 0.070291534 0.01659054
000240 ee e0 33 3c a9 18 85 3d 44 25 4b bd 01 52 68 bd
       0.01097892 0.06498844 -0.049596086 -0.05671883
000250 8f ba da bd d5 24 f0 3d 27 2f c1 3c 2a 9d 54 bd
       -0.106801145 0.11725775 0.023582054 -0.051907696
000260 d0 3f a5 bc 91 8a 95 3c 6d 00 5a 3d 64 4b 73 3d
       -0.02017203 0.01825455 0.053223062 0.05939807
000270 35 46 c5 bd a8 35 a6 bd 92 56 af 3c ac ba c4 3d
       -0.096325316 -0.08115703 0.021403585 0.09605917
000280 dd b0 ad 3d 03 c0 0a 3e 4b b7 e1 bd 81 48 ed bc
       0.084809996 0.13549809 -0.110212885 -0.028965237
000290 35 f3 e6 3c a2 fa aa 3d ed 78 ee bd 3a 60 b1 bc
       0.028192142 0.08348586 -0.116441585 -0.02165233
0002a0 55 1c aa bd 94 c2 a7 bd fa bd 80 3d 32 77 1e 3d
       -0.08306185 -0.0819141 0.06286235 0.038687892
0002b0 fe 4f db 3d 48 82 b9 bd bd b5 cb bd 8f 04 0d 3d
       0.10708617 -0.09058052 -0.09946773 0.034428176
0002c0 24 4e b6 3d 6a f3 d4 3d 03 4f a3 3d 2f 1d 11 be
       0.08901623 0.1039799 0.07974055 -0.14171289
0002d0 ba 79 8b 3d 1c be c7 3c d7 70 90 bc ed cd d0 3d
       0.06810327 0.024382643 -0.017631931 0.10195527
0002e0 d7 11 bd 3d ea df a0 3d 26 8e a0 bd f3 6f da bc
       0.09231918 0.07855208 -0.07839613 -0.02666471
0002f0 fc 4e cb 3c 5b 67 a0 bd 0c d5 13 bd 78 67 c5 bd
       0.024817936 -0.078322135 -0.03609185 -0.09638876
000300 c1 90 2d bd 58 36 f7 3d 03 c7 9d 3d 2a d5 d5 3c
       -0.042374376 0.12070912 0.07703974 0.026102621
000310 29 9c 45 bd e5 ac c6 3d f7 4f c6 3b 57 c8 08 bc
       -0.04824463 0.09700946 0.006052013 -0.008348546
000320 40 22 18 3d ea 86 49 3d 27 11 a2 3d 7a cf 02 3c
       0.03714204 0.04920093 0.07913428 0.007984037
000330 bd 58 7a 3d 37 af 12 3e 38 e8 93 3d 08 32 d5 3d
       0.061119784 0.14324652 0.072220266 0.10409933
000340 ba b9 57 bc 3b 3a 40 bd fe 4d ac 3c d5 79 e3 3c
       -0.013166839 -0.046930533 0.021033283 0.027768055
000350 15 a6 a8 3c 0b a2 08 3d 6a 24 46 3d 48 85 5e 3c
       0.020587007 0.03335766 0.04837457 0.013581581
000360 d1 d4 b9 3d 4f 3e 64 bd 5d cf 79 3c aa f1 04 3d
       0.09073795 -0.055723485 0.015247193 0.03245703
000370 f8 d5 07 3e 9d e4 4d bb b7 f8 97 3d 1f db 48 bd
       0.13265216 -0.0031416782 0.074204855 -0.049037095
000380 a4 a9 f2 bd 8c e6 b8 ba e5 15 c8 bc 8b 92 50 3d
       -0.11848763 -0.0014106794 -0.024424503 0.050921004
000390 81 55 a9 bd 8b cd fa 3b 1e 0f b1 3d b6 53 40 3c
       -0.08268262 0.007653897 0.086454615 0.011738708
0003a0 8d 1e 1a 3d 1d b0 f5 3b de 42 ca 3d 0a f0 e2 3c
       0.03762679 0.007497801 0.09876035 0.02770235
0003b0 65 10 86 3c 5e 27 b6 bd 48 2d 51 3c 81 0a 79 bc
       0.01636524 -0.088942274 0.012767144 -0.015200258
0003c0 7e 66 70 bd f3 e0 66 3d 8c 23 6e bb cd e4 9c 3d
       -0.058691494 0.056366872 -0.0036337106 0.07660828
0003d0 2b ee 9c 3d 1e b5 0c 3d cc dd 71 bd 7c 3f 87 bb
       0.076626144 0.034352414 -0.059049413 -0.004127441
0003e0 f8 24 5f 3d 33 da e5 3d c8 7f 3b bd 22 9e 85 bd
       0.054478616 0.11223259 -0.04577616 -0.06524302
0003f0 e9 63 83 bd a8 25 96 3d 56 00 fb 3b 95 a2 32 bd
       -0.06415541 0.07331401 0.007659952 -0.04361208

fc2.bias f4 [84]
000000 18 b9 0f be 50 d5 15 3e 75 e5 fc 3c b6 42 b8 3c
       -0.14035451 0.14632154 0.030871132 0.022492748
000010 23 e8 1e 3e cf de a1 bc 1d b8 99 bd 97 f4 75 3d
       0.1551824 -0.019759564 -0.0750582 0.060047712
000020 0f f0 ca 3d 6b b6 0f 3d 0c c3 5d bd ad 30 66 bb
       0.09909069 0.035086077 -0.05414109 -0.0035124228
000030 4f e1 8d 3d 97 9b 81 3b 68 05 38 3d 87 91 c1 bd
       0.0692774 0.0039553153 0.04492703 -0.09451585
000040 b5 af a3 bd d4 f0 ae 3d 32 8f 43 3d a9 7f cf 3c
       -0.07992498 0.08542028 0.047743984 0.025329428
000050 27 66 ea bc 78 90 b4 3c 33 ae ee 3d 7a d7 c2 3d
       -0.028613163 0.022041544 0.116543196 0.09513755
000060 5d db 83 bc bb be 8e 3d b7 3a c6 3d 6d 49 3c 3e
       -0.016095812 0.06969973 0.09679168 0.18387385
000070 03 cb ab bd 23 70 60 bd 6c 04 26 3b 0b d5 c1 3d
       -0.08388331 -0.054794442 0.0025332225 0.09464463
000080 d5 b2 12 bd b4 ef 6d bd c6 7e a8 bc b9 9b bb bd
       -0.03581508 -0.058089927 -0.020568263 -0.09160561
000090 b7 50 c4 bd ed 30 67 3e af c1 83 b9 73 19 07 3e
       -0.09585708 0.22577257 -0.00025130573 0.13193302
0000a0 ea 28 19 bd 1b 4f 46 bd f2 12 d9 3d bd 31 02 3e
       -0.037392534 -0.048415285 0.10599317 0.12714286
0000b0 e6 8f 20 3b 34 a3 5f bc 84 49 8f 3d 61 1e ab 3d
       0.0024499833 -0.0136497505 0.06996444 0.08355404
0000c0 71 41 0e bd e0 80 48 bd d6 47 00 3e 99 6b 44 bd
       -0.03473038 -0.04895103 0.12527403 -0.047954176
0000d0 35 6f 46 3d 75 8a 4f bd c0 53 c9 3d b4 e9 02 3e
       0.0484459 -0.050669152 0.09830427 0.12784463
0000e0 6e 94 b4 bd 38 9a 21 3e 70 ca a4 bd 8a 12 0a 3e
       -0.08817373 0.15781486 -0.080464244 0.13483635
0000f0 ac 09 88 3d d3 99 2f 3d 0d b4 b9 3d 2d fb 02 bd
       0.0664247 0.042871308 0.09067545 -0.03197782
000100 66 c7 d7 3d 54 9c 35 3d d8 c8 bb bb ff 77 a9 3d
       0.10536079 0.04433854 -0.0057307296 0.082748406
000110 ee 8d 09 3d b6 7c ee bc 88 94 fe 3c 65 25 29 3c
       0.03358262 -0.029112201 0.031076685 0.010323857
000120 a2 75 10 bd 5f 53 90 3d 88 36 6d bd 73 29 a3 bd
       -0.035268433 0.07047152 -0.057913333 -0.0796689
000130 8d 60 90 3d 48 a7 33 3e 77 d4 4b 3c 3d 3f 8a bd
       0.070496656 0.17544281 0.012440792 -0.06750343
000140 bd 2a 6d 3d d2 a5 a8 bd 12 c9 82 bd 19 42 e1 3d
       0.057902087 -0.08234753 -0.06386007 0.10998935

fc3.weight f4 [10, 84]
000000 57 92 d1 3d eb 02 05 3e 9c d0 dc bd 7d bf e2 bd
       0.1023299 0.12989394 -0.107819766 -0.1107168
000010 8f 15 cc bd 1a bc 1b 3e 9d d6 23 be 1f d4 01 3d
       -0.099650495 0.15208474 -0.15999837 0.031696435
000020 17 fb bf 3d e9 12 07 3e 5a 67 50 3e a8 10 ad 3c
       0.093740635 0.13190807 0.20351925 0.021126106
000030 e8 a5 c3 3d 80 55 4f 3d 8c b0 27 3e 70 8c eb 3d
       0.095531285 0.05061865 0.16375941 0.11501396
000040 74 7c bd bd ad 17 43 3e 94 62 a9 3d a5 72 59 bd
       -0.09252253 0.19052 0.082707554 -0.05308785
000050 b9 3f 86 3d 69 1d 57 bd 12 8b 75 bd 7a f0 5a bd
       0.06555123 -0.052518282 -0.05994708 -0.053451993
000060 f3 b9 a5 bd 0f 34 83 bd 17 d8 a6 bd ce 21 ec 3c
       -0.080921076 -0.06406414 -0.081466846 0.028824713
000070 dc 28 ef bd d9 00 27 3c e6 d3 f2 3d 34 54 a3 3d
       -0.11677715 0.010193073 0.11856823 0.07975045
000080 48 f4 11 be e2 6b b2 3d 4d 9c 92 bd 0c 39 3f 3e
       -0.14253342 0.08711983 -0.07158718 0.18674105
000090 9b d9 1c bc 37 32 0e be b4 31 2f 3d 40 7b 95 3d
       -0.009573366 -0.13886343 0.04277201 0.07298899
0000a0 af 70 1f bd c0 54 87 bd d9 a2 de 3c 37 b0 19 3e
       -0.038925823 -0.06607962 0.027177261 0.15008627
0000b0 9f a1 ce bd 2d c8 61 3d 4a b0 38 bd af 61 46 3e
       -0.100894205 0.055122543 -0.045089997 0.19373201
0000c0 7b 10 1b be 9d ea b9 bc 5a 30 c8 3c 05 c8 39 3e
       -0.15143006 -0.02269488 0.024437118 0.18142708
0000d0 f3 36 31 3e f1 19 42 bd 12 74 33 bd a8 dd 66 be
       0.17306118 -0.04738802 -0.043811865 -0.22545493
0000e0 60 9a 74 3e c3 8b 6f 3c c9 5c 84 bd f1 21 24 bd
       0.23887014 0.014620724 -0.0646301 -0.04007143
0000f0 98 e9 91 3d 3a bb 48 bd 01 15 bc 3d 45 26 3a 3d
       0.071246326 -0.04900668 0.09183694 0.045446653
000100 34 2d 00 3e 71 48 d0 3c 9f 47 df 3d 13 eb 8a 3c
       0.12517244 0.025425168 0.109023325 0.016957795
000110 70 02 61 3e 70 1c d0 bc 48 ec 77 bd 42 c7 0c 3e
       0.21973586 -0.025404185 -0.06052807 0.13747886
000120 fb 54 ef 3b 8c fe 04 be 30 c8 55 3d 4e ed 42 bd
       0.0073038316 -0.12987727 0.052192867 -0.047589593
000130 e1 b6 ca bd 2f 19 33 bd 25 75 db bb 4c 3f 96 bc
       -0.09898163 -0.04372519 -0.0066973143 -0.01834073
000140 ee ab fc 3d 97 5e 01 bd cb a9 8e 3d 40 27 31 3e
       0.123374805 -0.03158435 0.06965979 0.17300129
000150 11 99 6f bd 61 e4 95 be 77 9f 36 be fb 14 f5 3d
       -0.058495585 -0.29275802 -0.17834269 0.11966892
000160 93 9d b3 39 cc da cd bc a0 b8 f5 3b d2 a3 51 3e
       0.00034258942 -0.025128745 0.0074988157 0.20472649
000170 c7 5b 7b bd e9 7f 84 ba ee 86 65 bd 6d ee 0f 3e
       -0.061366823 -0.0010108921 -0.056036882 0.14055796
000180 f8 31 0a 3e fe 1e df 3d eb 33 44 3d 07 f4 9d 3d
       0.13495624 0.10894583 0.047901075 0.0771256
000190 b9 e4 9a 3d 9f 57 88 be 0e 75 53 3d bd 1b f2 bc
       0.07563157 -0.2662935 0.051625304 -0.029554242
0001a0 15 52 60 bd 73 1d 2a 3e ef 33 18 3d 4c ef 4b bd
       -0.05476578 0.16612796 0.037158903 -0.04978876
0001b0 c0 be 9b be b3 a1 55 3e d3 09 2d 3e fd 2b ac 3d
       -0.30418968 0.20862465 0.16898279 0.084068276
0001c0 dd 23 08 be 1c dd 98 3d 78 f7 15 3e ce 36 be 3d
       -0.13294931 0.07464048 0.14645183 0.09287797
0001d0 8c e9 32 3e 9b 6d db 3d f2 8f ce bd c8 b9 ae 3d
       0.17471904 0.10714265 -0.10086049 0.08531529
0001e0 d6 47 82 be 46 ac f6 3d 01 9c 48 be 77 30 48 3e
       -0.2544543 0.12044577 -0.19590761 0.19549738
0001f0 cc 91 15 3d c7 2d 32 bd e9 9e a5 3e e7 11 02 3e
       0.036515996 -0.043500688 0.323478 0.12702142
000200 c1 67 fc 3d 7c 02 43 3e f4 0c 2b be 6f 07 dc 3c
       0.12324477 0.19043916 -0.1670416 0.026859013
000210 59 79 cc 3c e6 38 c0 be 05 17 3e 3e 20 2b b4 3d
       0.024960207 -0.3754341 0.18563469 0.08797288
000220 9e 0d a3 3e 7d ec 88 bd d0 a3 e9 3e 07 8b 2b 3e
       0.31846327 -0.066857316 0.45632792 0.16752253
000230 29 81 08 3e 02 76 48 3d 6d 4f 16 3e d4 5a 29 3e
       0.1333052 0.048940666 0.14678736 0.16538554
000240 b1 6d 8f 3d c0 ca 10 3e 76 6c 64 3d 5e cd 61 be
       0.07003344 0.14139843 0.0557675 -0.22050998
000250 c6 7d c4 3d 0f d1 9b 3d de 93 5c bd 10 ac 93 bd
       0.09594302 0.07608234 -0.053851955 -0.07210553
000260 33 dc 06 bd c9 8c b3 bd c6 da 40 3e 7a a2 b1 bd
       -0.032924842 -0.08767087 0.18833455 -0.08673568
000270 69 b3 f4 b9 a4 9b b9 3d fd ce d1 3d 7a 68 a8 3c
       -0.00046672978 0.09062889 0.10244558 0.02055763
000280 9a 7b 78 3e 95 af bf be cb be ed b9 cc f9 33 be
       0.242659 -0.37438646 -0.00045346314 -0.17575759
000290 36 d4 0b 3e 5f 4e 09 bd bb 1f 83 3c 37 65 f2 bd
       0.13655171 -0.033522006 0.016006341 -0.118357114
0002a0 40 3a fb bd 73 02 06 3e 97 21 8d 3d bc 4c 55 bd
       -0.1226697 0.13086872 0.068911724 -0.052075133
0002b0 6e 6f f8 3b b2 a2 c2 bd 86 3f f3 3b 95 4c 97 3e
       0.007581643 -0.09503688 0.007423344 0.29550615
0002c0 89 2f 8c be 9f 2f 9c bd 08 55 df 3b b8 46 50 3d
       -0.27380016 -0.076262705 0.0068155564 0.050848693
0002d0 b5 55 08 3e 5a 89 f7 3d 81 85 62 bd 5e 7d 20 3d
       0.13313945 0.120867446 -0.0553031 0.03918206
0002e0 45 36 9c 3d 8f 2e 57 3e 89 a1 c4 3d c2 bc a4 bd
       0.076275386 0.21013854 0.09601123 -0.08043815
0002f0 77 6c 9d bc f7 54 a3 bd 59 07 2e 3e 1e 05 47 bd
       -0.01921676 -0.0797519 0.1699499 -0.048588865
000300 f2 cf ee 3d 45 77 b6 3d bd f4 f2 3d b1 30 3f 3e
       0.11660756 0.089094676 0.118630864 0.18670918
000310 a1 21 d3 bd b9 2e 3f 3d 53 c9 a0 bc f1 90 bb 3d
       -0.103091486 0.046675418 -0.019627249 0.09158505
000320 49 32 37 be 9d 9d 85 bd 80 33 3d 3d 39 d6 49 3d
       -0.17890276 -0.06524203 0.046191692 0.049276564
000330 97 13 e0 3c 02 35 50 bd 18 48 6f 3e ca 5e e5 ba
       0.027353091 -0.050831802 0.23367345 -0.0017499563
000340 eb 39 dc bc 53 b9 f8 bd cb 26 51 3e 1d 18 de bd
       -0.026883086 -0.12144723 0.20424955 -0.10844443
000350 3b f7 2e 3d 81 1b 88 bd 6d eb 5b 3c 9a f7 30 3e
       0.042716246 -0.06645871 0.013422829 0.17281953
000360 ef 66 46 3d 23 e0 81 3d 20 3f 9b 3d 19 ef b9 be
       0.04843801 0.06341579 0.075803995 -0.3631523
000370 b2 d2 3e be ca fe 00 be e9 55 25 bc e5 0b b2 3d
       -0.18635061 -0.12597194 -0.010091283 0.08693675
000380 e9 64 18 be c0 5c c3 bd 7e 37 b0 3d 6b 2a 0e be
       -0.14882244 -0.09539175 0.08604334 -0.13883369
000390 32 92 fe bd d5 25 af 3c b8 bc d3 bc 2c 92 51 be
       -0.12430228 0.021380344 -0.025846824 -0.20465916
0003a0 7d 6f 6c 3e 50 35 7f 3d 33 e4 93 bd 1d 5a 17 be
       0.23089404 0.062306702 -0.0722126 -0.14780469
0003b0 e3 e2 df 3d c6 fd 1b 3d 68 54 d2 3d 45 c3 ca bd
       0.10931947 0.038083814 0.102700055 -0.09900526
0003c0 9a c6 18 bd f0 0d 9d bd 56 98 17 3c c8 9d 94 bd
       -0.037298776 -0.07668674 0.009252628 -0.07256657
0003d0 7c 7b 88 3d bd d3 0b be 68 c9 c7 bc 37 c7 d8 3d
       0.06664178 -0.1365499 -0.02438803 0.10584872
0003e0 be 61 09 3e 47 ee b6 bd 77 5b 0e 3e 24 4a 0d 3e
       0.13416192 -0.089321665 0.13902079 0.13797814
0003f0 8f c6 e8 bd b1 f3 0d 3b 32 93 24 be 82 df 30 bd
       -0.11365997 0.0021660144 -0.16071776 -0.043181904

fc3.bias f4 [10]
000000 f1 48 de 3d 3e ae 1b bd cb 24 62 3d bf 97 db 3d
       0.10853756 -0.038007967 0.05521087 0.10722303
000010 d1 d4 93 be cc fb ea 3e 53 ef 3f 3e d5 73 0d 3e
       -0.28873304 0.4589523 0.18743639 0.13813718
000020 8d b8 ce bd f9 22 12 be
       -0.10093794 -0.14271154
