experiments/LeNet/FashionMNIST/experiment-10/last-epoch.pt (torch, 191019 bytes, 18 tensors)

features.0.weight f4 [6, 1, 5, 5]
00000000: 2fcb 7b3e 31a7 323e feea 083f 428a b63e
00000010: e300 51bd 532b 82bd 219b b8be fece 97bc
00000020: 1d2f ee3e 07a7 113e 7abd 02bf 9899 12bf
00000030: e7ac 5ebe 5526 1b3f 225f d73e 5994 b0be
00000040: 20bb 05bf dbb6 1c3e d771 9c3e a0a2 a73e
00000050: f00e 12bf d2c7 e2be 711a ff3d 792f cd3e
00000060: e12f c93e 362c 81be 9636 0d3e 0d38 583e
00000070: 75f9 5b3e 411b f2be 659c 08bf b88c 993e
00000080: a194 133f ac35 14be 6ac3 f0bd 988a 2cbd
00000090: 0ea3 473b 5b18 d53e a746 b6bd 87aa 17be
000000a0: 6421 403f 1dc8 a0bf e2c2 b7be 4443 753e
000000b0: 2598 303f 0912 643e b4bf 8cbf 6ed9 0dc0
000000c0: 248c e9be 19b8 b43d c275 643b b564 363d
000000d0: 3e3f 363e bae6 7e3e 885f 0dbf 83f9 9ebe
000000e0: 2734 033f 794c db3e c850 d33e d7c0 a3bf
000000f0: a704 243e d83a 833c 5a6b 623f 88aa 8b3f
00000100: db6e 01c0 665e 103d 37db 42be 277d 883e
00000110: d291 e53f 77c7 eabf d4a0 7dbd 48db 4bbe
00000120: 28de f53e 5dcd 903f 01ca abbf 275d 03be
00000130: f94f 833e cca5 a4bd 7400 ce3d 0830 f1be
00000140: c0d2 613e 98ae d83e 1a61 2a3e cd02 0f3f
00000150: 1c70 cbbe e914 9fbd 2dfa 953e 62eb d83e
00000160: e49b 9a3e 5a26 23be 4db0 d43e 1c7b a63e
00000170: f89d f93a 4ef3 cfbe 92ef 06bf f902 bebe
00000180: 2dab babe a6f7 49bf a504 90bf de4a d4be
00000190: 92b0 503f 396a 7b3d 570f 97bf 31ba a3bf
000001a0: fb7d 92bf f612 9f3e 6441 b93e 0ac9 0fbf
000001b0: 3dd4 d0be 8048 a1be 70f2 5c3e e9c1 083e
000001c0: bf11 913d ae2d e03e c5a9 043f 138f 1c3e
000001d0: 6485 bb3e 17c2 a63d cca7 fa3e 27b3 a73e
000001e0: 3a2a 57be 27de e23c a631 37be 426a 743f
000001f0: 2672 e73d b356 61bf f872 17bf 7263 60bf
00000200: eb38 3dbf 5802 aabe 250d 8abf fde1 8bbf
00000210: c204 69bf b79c 97be f793 f83e b6bd 5abf
00000220: fb76 37bf e1ad 183d b257 0a3f 6ff7 073e
00000230: 8227 c53e a7ad b6bd d04e bcbd 0c2e 3b3e
00000240: 485b c0bd 82d9 a43d cb85 cfbe b556 843d
00000250: 8b7c 3e3e e8e4 80bd
0.24589227 0.17446591 0.5348357 0.35652357 -0.051026236 -0.0635592 -0.36055854 -0.018531319
0.4652032 0.14223872 -0.5107037 -0.57265615 -0.21745645 0.60605365 0.42064768 -0.3448818
-0.52238655 0.15304129 0.30555603 0.3274126 -0.5705404 -0.44293076 0.12456215 0.4007528
0.3929434 -0.25229043 0.13790354 0.21115132 0.21481879 -0.47286418 -0.5336364 0.29990172
0.57648665 -0.14473599 -0.11756022 -0.04212436 0.0030462178 0.41620144 -0.089001946 -0.14811145
0.7505095 -1.256107 -0.3589087 0.23951441 0.68982154 0.22272505 -1.0996003 -2.2163959
-0.4561473 0.08824176 0.0034860228 0.044529635 0.17797562 0.24892703 -0.55223894 -0.31049737
0.51251453 0.42831782 0.4127257 -1.2793225 0.160174 0.01601927 0.88445055 1.0911417
-2.022391 0.035246275 -0.19028936 0.26657984 1.7935126 -1.8342122 -0.061920956 -0.19907868
0.48021054 1.1312672 -1.3421022 -0.12828504 0.25646952 -0.08039436 0.1005868 -0.47106957
0.22053051 0.42320704 0.16638604 0.5586365 -0.3973397 -0.0776766 0.2929243 0.42367083
0.3019706 -0.15932599 0.41540757 0.325158 0.0019044271 -0.40615314 -0.52709305 -0.37111643
-0.36458722 -0.78893507 -1.1251417 -0.4146337 0.81519425 0.0613806 -1.1801556 -1.2791196
-1.1444696 0.31069154 0.36182702 -0.56166136 -0.40786925 -0.31500626 0.21576858 0.13355221
0.07083463 0.4378485 0.5182155 0.15288953 0.36625206 0.081424884 0.48956144 0.3275387
-0.21012202 0.027693821 -0.17890033 0.95474637 0.11301069 -0.8802292 -0.59159803 -0.8765174
-0.73914975 -0.33204913 -1.0785261 -1.0928341 -0.91022885 -0.2961175 0.48550388 -0.85445726
-0.71665925 0.0372752 0.5404006 0.13277982 0.38506705 -0.0891984 -0.0919472 0.18279284
-0.093924105 0.08049299 -0.40531763 0.064618506 0.18602197 -0.062936604

features.0.bias f4 [6]
00000000: 6486 853e 9c4c 3fbd b298 62bc b58c 233e
00000010: 9a66 6a3e c777 653e
0.26079094 -0.04670392 -0.013830351 0.15971644 0.22890702 0.22408973

features.2.weight f4 [6]
00000000: b974 4c3f e66f b33f bc15 a73f 07d4 903f
00000010: ac51 973f 95c3 a83f
0.79865605 1.4018524 1.3053508 1.1314706 1.1821799 1.3184687

features.2.bias f4 [6]
00000000: 306d 22bd c1ae 243e 070f 913e b27a e73e
00000010: 64c2 443e a821 153f
-0.03965491 0.16082288 0.28331777 0.45210797 0.19214779 0.5825448

features.2.running_mean f4 [6]
00000000: 9905 393f ecee 933c 196b ad3e 0f5d 113e
00000010: 2be1 ee3e e4cc ac3d
0.72274166 0.018058263 0.33870772 0.14195655 0.46656165 0.08437517

features.2.running_var f4 [6]
00000000: 9286 023f a369 013c e5e7 553f 6c4e a23d
00000010: e7fd a83e 7272 a63c
0.5098659 0.007898721 0.8355697 0.07925114 0.33006212 0.020318244

features.4.weight f4 [16, 6, 5, 5]
00000000: 4834 273d 7cc7 a53e 22c9 ae3e f8dd 9d3e
00000010: 6863 a33e 3348 7d3e 61f9 8d3d a1f7 5f3e
00000020: 007d 973d 0253 813e e478 80be b594 53be
00000030: f0f7 6b39 2380 28be dc40 c43d 69e2 1cbe
00000040: b5c6 22be ccdc 47be 1681 cebd 6b92 0fbe
00000050: d824 abbd 8de9 81be f36a f3be 3feb e6be
00000060: bf9b c9be 4904 5fbd d59d b3bd cd4a 9b3d
00000070: e18a b6bb 3d11 1ebc fae3 03be 901b c13c
00000080: e0f0 173d 3e93 cc3b b9a4 233e f4cd 343e
00000090: 218f 923d ae55 d63d d53d 403d 8dfa 3c3d
000000a0: e8a2 0fbe 16a5 343e 1e1b ddbd 8d36 e53d
000000b0: 09f8 f9bd 1f38 40be 373d 1f3d 9b3c 12be
000000c0: bd1e 13be 01aa 84bd aee1 9dbe 231e 55be
000000d0: 03a4 a83d a651 abbe b048 cbbd 47ab 533d
000000e0: 7f24 dabd fbd0 c23d c58c b7bd 1af1 c3be
000000f0: 795d 2a3d 480b 3c3e a3c1 d4bc 3749 aa3d
00000100: 216b efbe 47f9 db3d e8e1 7f3e f706 753c
00000110: ffb8 9fbd f871 ccbe 5c57 943d 2171 d33d
00000120: 51d1 10be a7d0 07be e129 5fbe b44a 1b3e
00000130: bcd4 663e 6459 6cbc a4f9 5dbe 0154 713d
00000140: 7491 123e a4cf 863d ef26 e3bc 4726 19be
00000150: ddbf 10bd cc1a 97bd 460b ecbd 9496 a1bd
00000160: a60f abbd a894 233e f797 133e 9caf ecbd
00000170: 2a82 febd 0e65 16bd 64d1 b13c e20c d0be
00000180: 6328 3bbc 98a2 d0bd ecf8 e33e 9194 c43e
00000190: b810 12be 1d27 40be 819b 113e 107a e5bd
000001a0: 0e31 713e e115 833d 1044 973e f7a1 eb3d
000001b0: 44f1 69bd 3148 03be c25e 683b 7d38 09be
000001c0: d5e4 97bd 1eca ba3d 6d0b 203e fe74 6ebe
000001d0: 7e90 c1b9 2848 e9bd 5e57 f7bc 708a 7fbd
000001e0: be01 1e3e a4c3 333d 392a 26bd 6eec a4be
000001f0: 072d bc3d 18b3 f7bc 0133 fbbd cdcc 01bc
00000200: f208 b2bd 0776 0e3e dbbf ecbd 3c45 4a3d
00000210: 0a00 f6bd 5d35 29be abdd bf3d 88a2 8cbe
00000220: c7fc ddbe 7abd 74be a23b dabd 80a8 71bc
00000230: b65c 06be ffdb a2be c168 bbbd 6165 2dbe
00000240: 23d1 ddbd a22a 983c fd49 2abe ef85 83bd
00000250: 5478 05be cd25 e0bd b1e6 843e a519 573e
00000260: 7796 e7bb 0c24 39be ef1f f8bd fdd8 7c3d
00000270: cac0 943d 6b6e 7d3d 472c cabd 2770 9fbd
00000280: 618d 733d 25a2 29bd a701 f73b f170 21be
00000290: f3a8 8a3d 080d bbb9 aa23 2bbe d0de b9bc
000002a0: e45a febb 53b2 dfbc 4a29 47be 96ba a7be
000002b0: 22e7 183c f0c9 e8bd 61f1 82be dce0 0e3e
000002c0: 2680 8abc d6dc dabd dd1c 96bd 94ce 083e
000002d0: dd3c e938 e00b 70bd 6e62 2b3e 33a0 12bc
000002e0: 6b10 71be ed64 5f3d 773d 4a3e 9c52 a8bd
000002f0: 234e 5cbe 8fde 213c 3b88 203e 110e 083e
00000300: 4c1b e7bd 8a3c 00bc f1fe ecbd dc29 ff3e
00000310: ca78 2b3d ba65 b93d 80e3 233e 90e2 303d
00000320: 4ef0 ef3d 4943 873e cb0f 843e a7b7 893e
00000330: 6bdc ab3d 65cf 783c df88 0f3d 4d49 963d
00000340: d5a3 23be 33dc bf3d 891a 21be 7628 66bd
00000350: 5042 303d 398b 8cbd 91a6 173d 19db d1bd
00000360: 5690 e0bd 4ec1 133e f7ef e0bd a351 493d
00000370: 586c 11be d5e2 90be 75c7 5dbe 7431 8cbe
00000380: c728 05be b5da 62bd 3d44 e03d b077 1ebe
00000390: 3366 4ebe a6dc 3f3e e6ac e3bc c9b5 8abc
000003a0: 0f71 823d 8e23 dcbd a4e2 a73d ef74 3e3d
000003b0: adb6 063d 549d e7bd 2d9c 8fbe b3fd 48be
000003c0: b3af 4a3e 5c4f 6d3d f460 59bd e666 ca3d
000003d0: f005 01bd 5267 7a3d eefc eabd 9aac e8bd
000003e0: 73c6 063e 8700 6ebe 20a4 893d 570f 1f3e
000003f0: bf18 a4be 3c68 77be 3c3a 1a3f 1c47 96bc
0.040821344 0.32378757 0.34137827 0.3083341 0.31911778 0.24734573 0.06932331 0.21871807
0.07396889 0.25258642 -0.25092232 -0.20662196 0.0002250371 -0.1645513 0.095826834 -0.15320744
-0.15896113 -0.19517821 -0.10083215 -0.14020698 -0.08356637 -0.25373498 -0.47542533 -0.45101354
-0.39376637 -0.054447446 -0.087703384 0.075826265 -0.005570755 -0.009647665 -0.12879935 0.023572713
0.03709495 0.0062431386 0.15980805 0.1765669 0.07156206 0.10465561 0.046933968 0.04613738
-0.14026988 0.176411 -0.10796188 0.11192045 -0.12205512 -0.18771408 0.03887674 -0.14280932
-0.14367194 -0.06477738 -0.30836242 -0.20812277 0.08234408 -0.3346073 -0.099259734 0.051677015
-0.10651492 0.09512516 -0.089623965 -0.38269883 0.04159305 0.18363678 -0.02597124 0.08314746
-0.4676142 0.10740905 0.2498852 0.014955274 -0.07798957 -0.399307 0.07243225 0.10324312
-0.14142348 -0.13263188 -0.2179332 0.15165216 0.22542089 -0.014425609 -0.21677262 0.058918003
0.14313298 0.06582573 -0.027728526 -0.14956008 -0.035339225 -0.07378158 -0.11525588 -0.078900486
-0.08352594 0.15974677 0.14413439 -0.11556932 -0.124271706 -0.036717467 0.02170629 -0.4063483
-0.011423203 -0.10187262 0.4452585 0.38394597 -0.1426419 -0.1876492 0.14219476 -0.11204922
0.23553869 0.064006574 0.29544115 0.11505502 -0.057114854 -0.12820508 0.003545687 -0.13400455
-0.07416693 0.09120582 0.15629359 -0.23286816 -0.00036919484 -0.11390716 -0.030193027 -0.062387884
0.15430352 0.04388775 -0.04056761 -0.32211632 0.09188276 -0.030236766 -0.122655876 -0.0079223635
-0.086931124 0.13912211 -0.11560031 0.049382433 -0.12011726 -0.16524263 0.09368452 -0.27467752
-0.43356916 -0.23900405 -0.10655905 -0.014749646 -0.13121304 -0.3180847 -0.091508396 -0.16933204
-0.10830905 0.018575016 -0.16629787 -0.0642203 -0.13034183 -0.1094471 0.25957254 0.21005876
-0.0070674974 -0.18080157 -0.12115466 0.061730374 0.07263334 0.06187288 -0.098717265 -0.07785063
0.059461 -0.0414144 0.007538039 -0.1576574 0.06770506 -0.00035677128 -0.16712824 -0.022689253
-0.0077623 -0.027306711 -0.19449344 -0.3275954 0.00933245 -0.113666415 -0.25574782 0.13952965
-0.016906809 -0.10686652 -0.07329724 0.13360053 0.000111216425 -0.058605075 0.16736767 -0.008949327
-0.23541419 0.05453961 0.1975001 -0.082188815 -0.21514182 0.009879722 0.15676968 0.13286616
-0.11284503 -0.007826934 -0.11572064 0.49836624 0.04186324 0.09052606 0.16004753 0.043184817
0.11715756 0.26418522 0.257933 0.26897928 0.08391651 0.015186165 0.03504264 0.073382
-0.15980466 0.093681715 -0.15732779 -0.05619093 0.04303199 -0.06862492 0.037024084 -0.10246868
-0.1096503 0.14429209 -0.1098327 0.04915012 -0.14201486 -0.2829806 -0.21658118 -0.2738148
-0.13003837 -0.055384357 0.109505154 -0.15475345 -0.20156173 0.18736514 -0.027792405 -0.016932385
0.063692205 -0.10748969 0.08197525 0.046498235 0.032889057 -0.11309305 -0.2804884 -0.19628029
0.19793586 0.05793701 -0.053070977 0.098829076 -0.031499803 0.06113369 -0.11474024 -0.11361046
0.1316164 -0.23242389 0.067207575 0.15533195 -0.3205013 -0.24160856 0.6024511 -0.018344454

features.4.bias f4 [16]
00000000: d5fd 2bbd 2ca3 21be db8b 6ebe c320 ea3b
00000010: 8a13 0c3e 12c7 a1bd 9470 9cbe 4db7 393e
00000020: 0de8 863e dccf 28bd 6221 9abd a31f 503e
00000030: 7268 f83d 79b5 d13d 0794 39be 52be afbd
-0.04199012 -0.15784901 -0.23295538 0.007145019 0.13679329 -0.07899298 -0.3055464 0.1813633
0.26348916 -0.041213855 -0.075258985 0.20324568 0.12129296 0.10239691 -0.18122874 -0.085812226

features.6.weight f4 [16]
00000000: 4c16 943f fb91 993f 7647 b53f 3982 973f
00000010: e23f ad3f c27e a83f c0d5 a63f 610c c33f
00000020: 69dd 9c3f c811 a13f dbbb b13f e5fd a43f
00000030: f59d ae3f 370c a63f d32b ae3f eb54 a33f
1.1569304 1.1997675 1.4162433 1.1836616 1.353512 1.3163683 1.3033981 1.5238153
1.2255069 1.2583551 1.3885454 1.2889982 1.3641955 1.2972478 1.3607124 1.276029

features.6.bias f4 [16]
00000000: 0ac1 dfbd 715d 7bbd 1651 603d 018c c43d
00000010: 72e4 8b3e 9a50 503d 516b 263e 4a7c 3b3e
00000020: 2a5a ab3a d86e d4bc 9f3b ac3d 68be 223c
00000030: b4a3 733d dbbb a7bc b3b0 e33d 9e8b 593d
-0.10925491 -0.06136841 0.05476483 0.09597016 0.27322727 0.050858118 0.16251875 0.18309131
0.0013073136 -0.02593176 0.08409809 0.009933092 0.05948229 -0.020475319 0.11117687 0.053111665

features.6.running_mean f4 [16]
00000000: 4845 933e 9401 d53e 080b ca3e 8bee 1b3f
00000010: cfa8 023f 319a a63e 9b3f ef3e 32e0 2a3f
00000020: 264d 123f 97e7 d93e 0575 f53e c37e dd3e
00000030: b334 2d3f 2149 1d3f ef82 033f 0ed4 b13e
0.28763795 0.41602767 0.3946154 0.6091086 0.5103883 0.32539514 0.46728215 0.66748345
0.5714897 0.42559502 0.4794084 0.43260774 0.6765854 0.6143971 0.51371664 0.34732097

features.6.running_var f4 [16]
00000000: aa5e b83e ab68 2e3f bdf8 1f3f 8ff7 523f
00000010: bf36 663f 9271 073f fd48 343f 5192 9a3f
00000020: 2b9c 543f e17f 313f 2956 573f bad6 2c3f
00000030: 27ac 683f 3216 483f 2123 6c3f 01bb f33e
0.36009723 0.6812846 0.6248892 0.82408994 0.89927286 0.5290767 0.7042387 1.2075902
0.83050793 0.6933575 0.84115845 0.67515147 0.90887684 0.7815887 0.922411 0.4760361

classifier.0.weight f4 [120, 256]
00000000: 87ae bebd fc25 b13d 4b6c f23d ed08 cb3c
00000010: 54ac 7cbc 9b23 b13c 4bc3 c3bd 4728 493c
00000020: be3f 9d3d 169d 013d a90a 01bd 5c20 80bd
00000030: 0058 96bc 7f1e 093d ce42 47bd c486 2cbd
00000040: 9ca5 95bd aedc 823c d084 f5bd c939 bfbb
00000050: 870c 9bbd aee7 dd3b 6154 9fbc 541a b4bd
00000060: e3c0 87bd 5db4 0abe 81c1 073d 8b70 05bd
00000070: 3d82 8abe e611 d1bd 5a52 2d3d 405a dcbd
00000080: b09d 05bd 017f f4bd f9c3 253d 9a1d 533c
00000090: ec43 16bc 6ca1 6ebd 5e75 9abc d388 1abe
000000a0: eeba 75bd 790a 023d 5ab0 893b 6090 bbbd
000000b0: 3865 0dbe 121e 37be 880c 1c3d ee2a 56be
000000c0: 8099 d93d 39fa c5bc 8d6b 343d 1529 c6bc
000000d0: c538 733d afc3 43bc 0632 d4bc 2e63 90bd
000000e0: 181d 483e 874b 093e ba6a 3cbc c1d5 90bc
000000f0: 010b a5bc 70ba eebb ae86 ee3b a5d8 d03c
00000100: 4f97 b9bd 722f fcbd 08d5 903b 992b 3ebd
00000110: b158 b33c c455 42bd 4601 e43c ed1f ffbd
00000120: 8298 293d 4630 5b3d 6c22 62bc 9f3d 91be
00000130: 179f 8dbd 869f dbbc b42d 02be 0189 bbbe
00000140: c592 1e3d 8102 ae3b e53e 813c f0c3 043d
00000150: 43d0 98bd 9536 a9bd f301 883d a988 723c
00000160: 9c2f 5a3d c7a6 1c3d f5a1 fe3d d45f ad3c
00000170: cae1 8d3c f959 5b3d 13bf 683d b588 da3d
00000180: d7a7 48bc 7d21 fabd ba8a 16be c7c2 cabd
00000190: 7c18 b2bc 54ab e33d c9c0 bb3d a0f5 5ebd
000001a0: 7678 c8bd cd49 203a 185c 1f3d 5f96 71bd
000001b0: a7eb b23c a56a 02bd b5b3 e73c 9209 d53d
000001c0: d9eb 0fbd 31ef 28bd 73a7 df3d 249c 073d
000001d0: 3bed b23d 2375 4cbe 7b20 66bd 6cda a4bc
000001e0: 4e31 b43b d879 ec3c 56f3 8c3d 0ed4 01be
000001f0: a43b 42bd 45c8 03be 5b98 e83c 183a bc3c
00000200: 1bca 5ebc d38a 32be 1eca fcbc 8e32 dcbc
00000210: d9a2 343d a25a c4bd fe65 6b3d fcaa ddbc
00000220: 8c6d a2bd 80ea ffbc fd39 9fbb cc08 cc3c
00000230: 9ce8 dfbc f3ad bd3b 3355 5d3c abaf 32bd
00000240: f787 ecbc b297 12be 6f4a 9c3d 05a3 ec3c
00000250: 0faf cb3c 1fb8 5cbb 9169 0fbe 85aa b23b
00000260: 889b 70bd 3149 8c3d 57ee 9abb 320e a83c
00000270: 0e4b 33be 04ed bdbd dcd9 4abd 3764 5c3d
00000280: 2f67 a9bb deec 063d 8d80 2ebe 3a7a 55bd
00000290: a957 273e e040 a03d fb34 c8bd 4128 fcbd
000002a0: ca0b 27bd db7c 9bbc 2b35 1cbd 7fd9 37be
000002b0: cecb 94bd 2749 713d 8753 02be edf1 85be
000002c0: 9504 bf3d a30d c63c ff0e d33d 9569 3b3d
000002d0: 1904 833c bdf2 3abd c070 583a 3fe0 6b3d
000002e0: f955 483d f12a 303d 6f23 99bc 440e 4cbd
000002f0: 5067 263d 6c15 9cbd 40ec cd3c b6bd 89bd
00000300: 0cab 2bbd dbb9 22bc d9de da3d 7eab 0fbd
00000310: 1198 663c 841d 3cbb 44d9 bdbd e251 90bd
00000320: 8f93 af3d 0f23 6e3d 1b9e 04be fdaa 9cbd
00000330: 7a43 933c 4d4f 34bc ab9b 83bd fc71 bf3d
00000340: a2f5 3e3c 46ea 0bbd 72c1 923c 0d66 12bd
00000350: 095c 803d c7dd 393d e1bb d53d a459 7a3d
00000360: 8e9a cbbc 9cf9 1f3e fd17 c13d f0f6 673d
00000370: a535 62ba 3142 af3d 422c fcbd c100 c9bd
00000380: f268 873a 396f acbd cbb7 cebd 70bf 483d
00000390: 1e49 5d3d 8c6e 843d 5896 063d 3d8e 5cbd
000003a0: 3e23 4b3d 186c 8a3d 8b8a 1cbc 123f b2ba
000003b0: 2781 583c 74ab 8cbd 8e56 053e a52b 1cbc
000003c0: 2f79 77b9 735f ca3b f9cd 96bd 9c37 4f3c
000003d0: 2b01 75bd 4da7 2e3e 200d 08be bfb1 05bd
000003e0: 1b43 b5bd 3103 c43d 1377 5abd 86ad 6fbc
000003f0: 7e10 27bd 8bab 763e 94a2 38bc 161a 61bd
-0.09310632 0.08649823 0.118370615 0.02478453 -0.015421946 0.021623423 -0.095587336 0.012277669
0.076781735 0.03164395 -0.031504307 -0.06256172 -0.018352509 0.03347635 -0.048647694 -0.04212071
-0.07306978 0.015974369 -0.119882226 -0.005835746 -0.07570749 0.006772003 -0.019449415 -0.08794084
-0.06628587 -0.13545366 0.033143524 -0.032578032 -0.2705249 -0.10208492 0.042314865 -0.10759401
-0.032621086 -0.119382866 0.040470097 0.0128854755 -0.009171467 -0.058259413 -0.018854793 -0.15091257
-0.059992723 0.03174827 0.004201931 -0.09158397 -0.13808143 -0.17882565 0.03809789 -0.20914814
0.10624981 -0.024167167 0.04404788 -0.024189511 0.05938031 -0.01194851 -0.02590276 -0.07050167
0.19542348 0.13407718 -0.011500055 -0.01768005 -0.020146849 -0.0072854087 0.0072792387 0.02549393
-0.09062063 -0.12313737 0.0044199266 -0.046428297 0.021892877 -0.047445074 0.027832638 -0.12457261
0.04140521 0.053512834 -0.013802152 -0.28367326 -0.069151096 -0.026809465 -0.12712747 -0.36627963
0.03871419 0.005310357 0.01577706 0.032413423 -0.07461598 -0.08262364 0.06640997 0.01480309
0.05326806 0.03824499 0.124332346 0.021163858 0.017319579 0.0535526 0.056822848 0.10670606
-0.012247047 -0.12213419 -0.14701357 -0.09900432 -0.02174019 0.111166626 0.0916763 -0.054433465
-0.09788601 0.0006114513 0.038906187 -0.058981296 0.021840883 -0.031839985 0.028283933 0.10402216
-0.03513703 -0.041243736 0.1092061 0.03310789 0.08736654 -0.19966559 -0.05618332 -0.020123683
0.0054990416 0.028866693 0.0688235 -0.12678549 -0.04742016 -0.12869366 0.028392961 0.02297692
-0.01359799 -0.1743577 -0.030858096 -0.026879575 0.044100616 -0.09587599 0.057470314 -0.02705907
-0.07931051 -0.031239748 -0.0048592077 0.024906538 -0.027332596 0.0057885586 0.013509083 -0.04362456
-0.028873427 -0.1431568 0.076313846 0.028886328 0.024863748 -0.003367908 -0.14005114 0.0054524564
-0.058742076 0.06849898 -0.0047281194 0.020514581 -0.175091 -0.09273723 -0.049524173 0.05380651
-0.005169771 0.032940738 -0.17041226 -0.052118517 0.16342033 0.07824874 -0.0977573 -0.12312365
-0.040782727 -0.018980434 -0.038136642 -0.17954062 -0.07265435 0.058907654 -0.12727176 -0.26161137
0.09327046 0.024176424 0.10305595 0.045754988 0.015993165 -0.04564165 0.0008256547 0.057586905
0.048910115 0.043009702 -0.018693654 -0.049818292 0.04062587 -0.076212734 0.025137067 -0.067256376
-0.04191117 -0.009932007 0.10687036 -0.035075657 0.014074341 -0.0028704116 -0.09269956 -0.07046868
0.085730664 0.058138903 -0.12950937 -0.07649801 0.017976511 -0.011005235 -0.06426176 0.09347913
0.011655243 -0.034158967 0.017914508 -0.035741854 0.06267554 0.04537752 0.10436226 0.061120644
-0.02485397 0.15622562 0.094284035 0.056631982 -0.00086292095 0.08557547 -0.12313129 -0.09814597
0.0010330959 -0.084196515 -0.100936495 0.049010694 0.054024808 0.06466398 0.032858223 -0.053846586
0.049594156 0.067588985 -0.009554516 -0.0013599119 0.013214386 -0.068686396 0.13021299 -0.00953189
-0.000236009 0.006175929 -0.07363505 0.012647536 -0.059815567 0.17056008 -0.13286257 -0.032640215
-0.0885069 0.09570921 -0.053336214 -0.014628774 -0.040787213 0.24088876 -0.01126923 -0.054956518

classifier.0.bias f4 [120]
00000000: c202 833c a2e2 92bd f1dd 18bd 1e7c 453d
00000010: 2311 0bbd 35a3 97bd 6379 42bd 3e34 d5bc
00000020: 05d7 193d df9d dabc c15a 04be ddf9 01be
00000030: 8cbe 0bbd f410 ddbd c98a b7bc 3181 a53d
00000040: 8ae9 e63c e2af e7bc efbf 2bbd 1fad 9ebd
00000050: 0932 de3b 4a84 91bd 16d6 a7bd 48a1 d33c
00000060: 5ec1 37bc f050 36bd f1a2 16be d9b0 963c
00000070: 19dd 05be bb43 b3bd b85c 853d 8f99 cfbc
00000080: 842b 91bd d260 53bd cfa6 b7bd 70f6 cf3c
00000090: 1670 8fbc ec6f 963c b586 58bd 151c f13b
000000a0: 0762 08be 1152 63bd 4da1 0fbd 0a1e 03be
000000b0: d91c 92bc 224b b93c 2f9b 063d a6e2 a3bc
000000c0: 9056 58bd fa49 b3bd 5ab6 c9bc 07cb 6dbc
000000d0: b6ee 9a3d 56aa 0c3b e753 0c3d 1500 943d
000000e0: 11ab d63b ca48 693a 6d98 8bbe f341 8f3d
000000f0: 2f60 1cbd e4d8 7e3b 7ba3 22bd 669c 9dbc
00000100: d907 f63b da30 b03d d1da 9abd e702 8c3c
00000110: 1a1d 09bd 6d25 003d 1321 58bd 1085 25bd
00000120: 1b38 08bd 6111 623c 783e a83b 2f07 c7bc
00000130: 0d43 1bbd 98ac e4bd 70cb 733d 552c e73c
00000140: f8d4 1abd 8193 83bd a834 e3bd fd94 3ebd
00000150: 4aab 5cbd 0614 473d d100 eebd 3b29 403d
00000160: 71a1 10bd e1c7 6ebe 2c0a 5fbc ea73 c6bb
00000170: 5a54 3bbd 47d5 eabc 5fef fd3c 6e16 da3c
00000180: 1901 d3bc 824c 0ebd 6748 b0bd 5757 85bb
00000190: 53ea 0d3c ae36 aabd 696a 4dbd 7e70 d33d
000001a0: 2f63 7f3d 7e05 a3bd 9db1 493d 486f d8bd
000001b0: 5afc 803c 4f22 a7bd 65b6 36bd 7f88 79bd
000001c0: b54e 15bd 2878 fe3c f942 ddbd d883 19be
000001d0: 2b14 b8bd bf1d d7bd c932 f33c 80fa b3bd
0.015992526 -0.07172133 -0.037321035 0.04821407 -0.03395189 -0.07404176 -0.047479045 -0.026025888
0.037558574 -0.026686607 -0.12925245 -0.12692972 -0.034117267 -0.10794249 -0.022405045 0.08081282
0.028187532 -0.02828211 -0.04193109 -0.07747864 0.006780867 -0.0710531 -0.081951305 0.02583374
-0.011215536 -0.04451078 -0.14710595 0.018394874 -0.13072623 -0.08753153 0.06511825 -0.025341777
-0.07088378 -0.051606007 -0.08967363 0.025386065 -0.017509501 0.018363915 -0.05286284 0.007358084
-0.13318644 -0.055498186 -0.035065938 -0.12804428 -0.017836021 0.022618834 0.03286284 -0.020005535
-0.052816927 -0.08754344 -0.024623085 -0.0145137375 0.07565062 0.0021463833 0.034259703 0.07226578
0.0065511544 0.0008899091 -0.2726473 0.06995001 -0.038177665 0.00388866 -0.03970669 -0.019239616
0.0075082597 0.08603068 -0.07561267 0.017091228 -0.03347502 0.031285692 -0.052765917 -0.0404101
-0.03325663 0.013798089 0.0051344 -0.024295418 -0.03790574 -0.11165732 0.059520185 0.028219381
-0.03780076 -0.064246185 -0.11094028 -0.046528805 -0.05387429 0.04860308 -0.116212495 0.04691432
-0.035310213 -0.23318435 -0.013613265 -0.0060562985 -0.04573474 -0.028666152 0.03099793 0.026622023
-0.02575736 -0.034740932 -0.0860756 -0.0040692496 0.008661824 -0.083112106 -0.05015031 0.103241906
0.06235045 -0.07960032 0.04924165 -0.105681 0.01574533 -0.08160841 -0.04460754 -0.06092119
-0.036452014 0.031063154 -0.1080379 -0.149917 -0.08988222 -0.105037205 0.029687302 -0.087880135

classifier.2.weight f4 [84, 120]
00000000: 04b0 ae3d 4da8 ecbc d409 063d 2ffe 103d
00000010: 5eea 9ebd fe88 b7bc 45d4 a6bd 9bcd 4bbc
00000020: 5928 0f3d b9c7 943c 32e3 da3c 4f12 ebbd
00000030: b992 dabd 29ad ad3b c98b 47bd d233 96bc
00000040: df69 31be 35b2 b0bb a519 85bd 7b74 c4bd
00000050: 02ac e23c 0a68 13bd 9419 a33d cc24 193e
00000060: 49a4 2b3e 42b4 23bd 1133 94bd da85 96bd
00000070: 06cc a6bd f395 6b3b bf9d 853a acb9 f53c
00000080: 28af 8a3d 2d56 82bd 309d 073e 023e cfbd
00000090: f242 eebc 7007 033d 85da 55bc a933 8c3d
000000a0: 3ff2 b0bd 6555 173d 3817 443e b5a6 40bc
000000b0: 722f 3d3c ff4a e3bd 6bb5 9abd 84c3 203d
000000c0: 4014 5cbc e399 49bd c8f0 dfbd 6ee5 89bd
000000d0: 9eac 7e3c 4407 90bc c782 d8bc 7d8c 133e
000000e0: 7c58 2d3c c56c 443d 9529 8bbd bff8 943d
000000f0: c3c5 29bd a0bc 38bd 90af 083e d14c be3c
00000100: 465d 1a3d 3a73 973d 360a 01bd ea20 ce3c
00000110: b2c5 783c d5e1 fc3d bfcb c53d cd01 61bb
00000120: f4dd c1b9 6aee 133b 9246 87bc b9de debb
00000130: 68a3 34bc 2129 3ebd 45b2 72bd 9011 9d3c
00000140: 5e7f 15bd 88b8 8e3d c2ba cbbd 7ad2 07bd
00000150: 8fe8 1c3c 351b 993d b711 da3c 9595 c5bd
00000160: f139 20bc d00c 6e3c 6553 393d 1a24 663d
00000170: 5a62 16bb 6198 98bd cfdf d63b a1a9 373c
00000180: 6c21 093d 98e8 8d3d 5ee7 21bd c446 e8bd
00000190: b450 e5bc 5212 ae3d 7ee4 01be b054 393d
000001a0: fcca 1dbc 4504 f0bd 36ae 02be 3d0e a3bd
000001b0: a595 c83d ab5c 73bd 565e 0f3d beba 3bbd
000001c0: d678 643c d024 b13c a333 343d 1e63 223e
000001d0: 1327 b0bc 7811 ecbd d5a0 f0bc 84d4 3a3a
000001e0: 2463 153d 5002 7f3d fe4d 613d 67a1 113d
000001f0: 4790 c73d 7db3 52be 5f7f fbbd d1da edbc
00000200: 2b49 ab3d b907 f33d 432c ce3d e0c5 2ebd
00000210: 19a5 ab3d e2a0 96bd 185d ae3d 452c 30bd
00000220: 69e6 aabd 3d91 74bc 2257 b0bc f72f 333d
00000230: d861 aabd 8a72 cdbd 71e0 6c3d efa0 63bd
00000240: 6c83 dbbd aa22 26bd 9ac2 b7bd dc57 acbc
00000250: 7626 3abc d9be 00be c384 7a3d 16c3 e7bb
00000260: ae4d 563d b6d3 a9bd 30ce e63b 97b2 603d
00000270: 5c01 3b3d bee1 cf3d 6595 6b3d a84c 1c3d
00000280: a77e f13c 5d59 c2bc ec87 283d b09d 07bd
00000290: a832 61bc 11be 153e 1dbc 133c 5d10 2ebd
000002a0: 06aa 143d d275 713c 0677 c33c b2b2 2cbd
000002b0: 0cbc 183e ffb4 1f3e ca1b a23d 8636 8dbd
000002c0: 0267 3f3c eefa dd3d 7f0a 223e 059d 573b
000002d0: d67e c03c e504 33bd 90ad 33bd 2901 b23c
000002e0: 898b 9abb b43d 1c3d a789 0fbe 870b ce3d
000002f0: f757 133d 39ba 2b3e 69b5 3e3d 20e5 873d
00000300: e73f 3b3e de20 edbd cfb0 9dbd eed0 18bd
00000310: c455 adbd c6ce e2bd 5093 6cbc a8f4 0ebe
00000320: 0d17 f4bc 3ab3 1e3e 8441 d43d 68d5 07be
00000330: 72cb a93d dffc 943d 7b46 91bd 7517 bbbc
00000340: ceca 0f3d 1cee 0cbe cbfa 44bd 96aa e8bd
00000350: 5f5f 43bd c5dc 66bd 68f4 83bd 94f0 733d
00000360: 693e 92bd 0933 833d ef35 df3b 33e1 c33d
00000370: 106a 5e3c 317b acbd ed9b 0d3c 00e2 c8bd
00000380: a11c 7c3e fb55 34bd 3561 793d 749c 8fbd
00000390: 6ac9 0dbd 661c 38bd 10b0 263e dc67 a8bd
000003a0: 4730 0d3d 4ed0 273e eac7 223d 6b17 48be
000003b0: b2a9 2dbd 92bc d0bd 74ea b33c 9e31 83bd
000003c0: 4511 a83a e121 523d 1041 02bd 1fe6 9b3b
000003d0: 52fd 7c3c 73bf 7bbe 1d08 2fbc 7a51 6bbd
000003e0: 1361 b6ba f42f ccbd 0d75 843d dba3 943d
000003f0: 1047 bcbd df80 23bd 57be 2cbd daf7 b33c
0.08529666 -0.028888846 0.032724217 0.03539866 -0.07759546 -0.02240419 -0.08145956 -0.012439157
0.034950588 0.018161641 0.026719663 -0.114781015 -0.106725164 0.0053001833 -0.048717294 -0.018335257
-0.17325543 -0.0053923377 -0.06499032 -0.095925294 0.02766991 -0.03598789 0.07963863 0.14955443
0.16761889 -0.03996683 -0.07236303 -0.07349749 -0.08144383 0.003594753 0.0010194107 0.029995762
0.0677169 -0.06364093 0.13243556 -0.10119249 -0.029084656 0.031989515 -0.013052587 0.06845791
-0.08639955 0.036946673 0.19149482 -0.011758496 0.011546956 -0.11098289 -0.07554134 0.03924896
-0.013432562 -0.049219023 -0.10934597 -0.06733213 0.015544085 -0.01758159 -0.026429547 0.14409061
0.010580178 0.047955293 -0.067950405 0.07274007 -0.041448366 -0.04510176 0.13348222 0.023229988
0.03768661 0.073950246 -0.03150388 0.025162179 0.015183853 0.123477615 0.09658002 -0.0034333349
-0.00036977197 0.0022572526 -0.016513143 -0.006801453 -0.011025287 -0.046425942 -0.059252042 0.019173414
-0.03649842 0.0696879 -0.099477306 -0.03315971 0.009576931 0.074758925 0.026619775 -0.09647671
-0.009779439 0.014529422 0.045245547 0.056186773 -0.0022946806 -0.07450939 0.006557442 0.011209876
0.03347914 0.06929129 -0.03952729 -0.113416225 -0.027992584 0.08499588 -0.12684819 0.04524678
-0.009630915 -0.11719564 -0.12761769 -0.079617 0.097941674 -0.059414547 0.035002075 -0.045832388
0.013944825 0.021623999 0.043994557 0.15858123 -0.021503007 -0.115267694 -0.029373566 0.0007127004
0.0364715 0.062258065 0.05500602 0.035554316 0.097443156 -0.20576282 -0.122801535 -0.029035004
0.08363565 0.11866707 0.10067036 -0.042669177 0.08381099 -0.07354905 0.0851385 -0.04301097
-0.083447285 -0.014927206 -0.021525923 0.043746915 -0.083194435 -0.10031612 0.05783123 -0.0555734
-0.10718426 -0.040560402 -0.08972664 -0.021037988 -0.011361709 -0.12572803 0.061161768 -0.0070728166
0.052320175 -0.08292334 0.0070436224 0.054857817 0.045655593 0.10150479 0.05751552 0.038159043
0.029479338 -0.023724252 0.04114525 -0.033109367 -0.013744988 0.14623286 0.009017018 -0.042496074
0.03629496 0.014737563 0.023860466 -0.042162605 0.14915484 0.15596388 0.079154566 -0.06895165
0.011682274 0.10838877 0.15824316 0.0032899987 0.02349798 -0.04370584 -0.043866694 0.021729069
-0.004716341 0.038144782 -0.14017354 0.100607924 0.03597256 0.16770257 0.046559725 0.06635499
0.18286096 -0.115785345 -0.07699739 -0.037308626 -0.08463624 -0.11074595 -0.014439419 -0.13960516
-0.029796148 0.15498057 0.103640586 -0.13265002 0.08290757 0.07274794 -0.07093521 -0.022838334
0.03510552 -0.13762707 -0.048090737 -0.11360662 -0.047698375 -0.056362886 -0.06443101 0.059555605
-0.0714081 0.064062186 0.0068118493 0.09564438 0.013575092 -0.084219344 0.008643133 -0.09808731
0.24620296 -0.04402731 0.06088372 -0.07012263 -0.03461591 -0.044948958 0.162781 -0.082229346
0.03446987 0.16388056 0.039741434 -0.19540183 -0.042398162 -0.10192217 0.021962382 -0.06405948
0.001282253 0.05130184 -0.03180033 0.004757657 0.015441256 -0.24584751 -0.010683087 -0.05745075
-0.0013914428 -0.09970084 0.06467638 0.072578155 -0.091932416 -0.039917823 -0.04217371 0.02196877

classifier.2.bias f4 [84]
00000000: 60ef 833d 5c2e c73c 2124 a93d 4fc8 cebd
00000010: 576f b83c 2a0a e93d 85ec 0dbc 31b6 b73d
00000020: e117 cdbb 9056 233e 7583 3c3d 3086 ba3c
00000030: 06fc 5f3c 2e1d 3b3d 0430 d43c 4b69 053e
00000040: c43d 663c 1a78 a4bc d1fa 663d 7d09 ab3d
00000050: c30e 103e 6ddc 7e3d acf6 1b3e 63fe ba3d
00000060: c31f 9e3b 9ef1 1b3e 5ed3 1c3c 25d1 b43d
00000070: 96a6 a43d 473d 2f3d 39ff 3e3e 90d3 9d3d
00000080: 95a9 413d 59f6 663e aff6 603d 5669 c83d
00000090: 7045 7ebd ed09 673d 13e6 133d 0a70 033e
000000a0: 6852 6a3c 3217 3ebd 3254 373d 05f3 0c3e
000000b0: 8462 b63d df8b 51bc d687 c73c fae1 883d
000000c0: c789 c33d 4e55 cfbc 55e7 34bd d90d aebd
000000d0: 8f13 ff3d 75b8 cf3d 3bc1 333e fe22 ac3d
000000e0: 13ea 0fbb 4c22 163e bef0 df3d 89ed 753c
000000f0: c698 233e b8d6 2a3e 02aa a9bd 5fdd abbc
00000100: dcc1 f83d 80ec f23c 3671 b43d 2d13 463d
00000110: dc1a 1f3e c630 003e d5a3 ea3d 0b7e f13d
00000120: 8d7a 563c bf4b 8d3c 257a 483d 7e15 873d
00000130: 36c7 ab3b 418d 7f3d 82a9 d43d 637d f73c
00000140: b97d 163d ff6f 553e 19b6 073e b197 96bd
0.064421415 0.024314098 0.08258844 -0.100967996 0.022514028 0.11378892 -0.008662348 0.08970297
-0.00625895 0.1595099 0.046023805 0.022769064 0.013670927 0.045682125 0.025901802 0.13028447
0.014052812 -0.0200768 0.05639154 0.08351419 0.14068131 0.062221933 0.15230817 0.09130552
0.0048255636 0.15228888 0.009571878 0.08828954 0.08039586 0.042783048 0.18652047 0.07706368
0.047280867 0.22554912 0.054922756 0.09785716 -0.06207794 0.05640595 0.036108088 0.12835708
0.014301874 -0.04640884 0.04475803 0.1376458 0.08905509 -0.0127896955 0.024356764 0.066837266
0.09547763 -0.025309231 -0.044165928 -0.08498735 0.124549024 0.10142604 0.1755418 0.08405112
-0.0021959587 0.1466152 0.1093459 0.015010246 0.15976247 0.16683471 -0.082843795 -0.020979581
0.12146351 0.029653788 0.08810656 0.04835813 0.1553759 0.12518606 0.1145703 0.11791619
0.013090742 0.017248033 0.04894461 0.06595896 0.0052422537 0.06239057 0.103838935 0.030211156
0.036740992 0.20843504 0.13253058 -0.073531516

classifier.4.weight f4 [10, 84]
00000000: 13cf 95bd 6709 963d d9c8 99be 4d82 1f3a
00000010: 507c bdbd 2488 30be 11ed 123e 8e18 e1bd
00000020: eaa0 32be 6ed1 0fbe d76d 78bd 800f 56bd
00000030: 9338 84be 8650 e63d 3eb7 52be f1cb 263e
00000040: fc7c 3dbd 7cd6 de3d 5321 e63e ca6e 833d
00000050: fcff 2dbe 5463 febd dea3 013f ed66 d6bd
00000060: 5c08 823e 0239 db3e 4f3c dbbd 481e 6c3e
00000070: 93e3 9ebc 843e a23e 590c 563e 2622 2c3e
00000080: 11fa b9be e057 c83c 590d c1bd 7d20 8cbd
00000090: 47ab 2abe 8511 ed3d 68f7 a33e 36da bb3e
000000a0: 5082 ca3e 6eee 983e 60f0 c13d b37e 063e
000000b0: 97bd 1c3f b843 19be d8c2 b23d ac57 afbb
000000c0: 5e2b 3abe 3534 2fbc 4a03 dc3e ffab 213e
000000d0: aca2 4abd 134e 453e a8ab 13be eebf 28be
000000e0: ee08 f73e c648 863e f3e4 27be 6a69 853b
000000f0: 3bae ba3e 0cfa 5c3e 0d38 5abd fb9a c03e
00000100: de4c fd3d 43b6 9fbd 9d8e 583d 58d0 13be
00000110: a061 e93d d344 4a3c 2490 6cbe 3f51 023f
00000120: 0b9f 303e 3825 383e 1b9a a93e 1ae7 293d
00000130: e6d4 c03e c805 d03d bf55 d3be eb44 e9bd
00000140: f59f cb3e e2c2 933d 3b58 7fbe f486 50bd
00000150: 0adc ffbd 4542 263e 068c a4bd edf2 11bd
00000160: 3a87 4fbd 8704 06be 9264 06be e68e 3f3f
00000170: 8a1c b73e 01ae 06be edf1 cebc ca98 b9bd
00000180: cec5 d43d a90f 8d3d 68c2 673d 1472 8a3d
00000190: 3cd6 f63c 7383 eb3e 2a48 fb3d 0e6c 2e3e
000001a0: d454 003d f66e ccbc 2ce2 0dbe c609 09be
000001b0: 1307 0fbe eae9 bebd 8969 ccbd db17 86bc
000001c0: d974 35be 9cd1 22be ebdd 0cbe 3aef 583b
000001d0: 9759 31be 3c12 0c3e 94ab 2bbe 7387 e03e
000001e0: 91a3 9dbc 5fed 86bd 2f15 103e 3f83 ba3e
000001f0: 2b97 503d 59e4 fc3e 632a 92be ce47 003e
00000200: 8641 85bd 3e0a fabd 7aa1 15bd 6186 6dbe
00000210: a0f0 c0bd db03 d1bd 9dce 0bbe 82f1 503e
00000220: a367 86bd 6fb9 cdbd 8175 933d add8 813d
00000230: 52a0 053d 4668 dc39 a2ed 3cbd a8a9 a83d
00000240: fb2e 7bbd 6828 a03d f981 e13d f8a1 32bd
00000250: e3bc b53e 9c16 1b3e 473e 50bd 3eb9 c2bd
00000260: 316d 33be 1340 293e c384 ad3e 83a3 7abe
00000270: 8a8a f8bd 8f79 ac3e 4d12 3ebe 201d 8cbe
00000280: 57f1 b3bd b351 c9bd 6da5 033b 1d7f 3d3d
00000290: 4324 c13e d0e3 133c ff7e f83d 017c 8fbd
000002a0: 9695 c4bc b64d ac3e 86c1 be3e 9e97 17be
000002b0: 0928 d53d aad1 8dbd 55f5 d1bc 9e2a 66be
000002c0: dccb fb3d 394d 40bd 9491 61be 0201 32be
000002d0: d2ec 14be 8185 b8be 403d 113c a82e 453c
000002e0: e046 e63d b5b9 56be 9af1 e8bd dfe7 bebd
000002f0: 92ff 84bd fd7e bcbc 6af9 243f 42b0 95bd
00000300: 7975 0e3e 9bf3 063f 8f48 fc3d 97de 95be
00000310: b782 0f3d 1a20 783e a50f 933e 39eb 0c3e
00000320: 375b da3e 7ed6 c73e 3e99 29be b246 463e
00000330: c927 353d d402 4fbd 4537 9c3e 77ff 913e
00000340: 64cb 01bd d86f c4bd 1760 d73d 0f4b 74be
00000350: 936e 033f f213 053d 5fb4 29be 87a9 b0bd
00000360: c85b b5be 0b68 203e 2def 8dbd 0e4d 4e3e
00000370: 7253 d03e 90a5 823e 99cd e6bd 526e ccbd
00000380: 999b c5bd a469 b03e 0fcc 13bc 684b e43e
00000390: e4f2 f23e 84e5 c63e 668b 36be 4f28 ecbe
000003a0: dd56 fe3e 5cc5 75be 02c3 5ebe 8714 12bb
000003b0: 8a03 b7bd b1a8 13be 25fa 8c3e cf02 5c3e
000003c0: 6f54 e43e c098 8cbe 7c18 bcbd 0c5a fe3d
000003d0: 4139 ea3d a049 2e3e 79ec bebc 1efc 30bd
000003e0: 08be 92bd 8530 a0be 4589 0d3f c779 033d
000003f0: b25d 4cbd 6bf5 b43d ec68 3abe 4439 1fbc
-0.07314887 0.07326012 -0.30036047 0.0006084785 -0.09252226 -0.17239434 0.14348246 -0.109910116
-0.17444196 -0.14044735 -0.060651626 -0.052260876 -0.25824413 0.112458274 -0.20577714 0.16288735
-0.046261773 0.108807534 0.449473 0.06417616 -0.16992182 -0.12421289 0.50640666 -0.1046885
0.25397003 0.4281693 -0.10704862 0.23058426 -0.019395625 0.3168832 0.20903148 0.16809902
-0.36323598 0.024455965 -0.09426374 -0.06842134 -0.166669 0.11575607 0.32024693 0.3668992
0.39552546 0.29869407 0.09469676 0.1313427 0.6122679 -0.14967239 0.0872857 -0.0053510275
-0.18180606 -0.0106935995 0.4297126 0.15788268 -0.049471542 0.19268064 -0.1442095 -0.16479465
0.48249 0.26227397 -0.16395931 0.004071404 0.36461052 0.2157976 -0.05327611 0.3761824
0.12368177 -0.077984355 0.05287038 -0.14434946 0.113955736 0.012345511 -0.2310186 0.5090522
0.1724817 0.17982948 0.33125386 0.04148016 0.3766243 0.10157353 -0.41276357 -0.11390098
0.39770475 0.07214905 -0.24936001 -0.05090995 -0.12493141 0.16236217 -0.0803452 -0.035632063
-0.05066607 -0.13087665 -0.13124302 0.7482742 0.3576396 -0.13152315 -0.025261844 -0.09062345
0.10389291 0.068877526 0.056581885 0.0676004 0.030131452 0.45998725 0.122696236 0.17033407
0.0313309 -0.024955254 -0.13855809 -0.13382635 -0.13967542 -0.09321959 -0.09981067 -0.016368797
-0.17720355 -0.15900272 -0.1375653 0.0033101575 -0.17319332 0.13678831 -0.1676467 0.4385334
-0.019243034 -0.06588244 0.14070581 0.36428258 0.050925415 0.49392965 -0.28547964 0.12527391
-0.06506638 -0.12208985 -0.03653095 -0.23195793 -0.094208956 -0.102058135 -0.13653035 0.20404628
-0.06562736 -0.10045134 0.072001465 0.06340156 0.032623596 0.0004203936 -0.04612506 0.08235484
-0.0613241 0.07820207 0.110111184 -0.043611497 0.35495672 0.15145344 -0.050840642 -0.095079884
-0.17522122 0.16528349 0.33890352 -0.24476437 -0.12135799 0.33686492 -0.18561669 -0.2736597
-0.08786266 -0.09830036 0.0020087615 0.046263803 0.37722978 0.009026483 0.121335976 -0.07006074
-0.02399711 0.3365304 0.37257022 -0.14803931 0.10408027 -0.06924756 -0.025629679 -0.22477195
0.122947425 -0.046948645 -0.2202819 -0.17383197 -0.14543465 -0.36039355 0.008864701 0.0120350495
0.11243987 -0.20969279 -0.11374207 -0.0932157 -0.06494059 -0.023009771 0.64443076 -0.07309009
0.13912 0.5271546 0.12318527 -0.29271385 0.03503677 0.24230996 0.28722873 0.13761605
0.42647716 0.39030832 -0.16562364 0.19362906 0.044227395 -0.050539806 0.30510917 0.28515217
-0.03168811 -0.09591645 0.105163746 -0.23856758 0.513406 0.032489724 -0.16572712 -0.08626085
-0.35421586 0.15664689 -0.06930385 0.20146582 0.40688664 0.2551694 -0.112696834 -0.099819794
-0.096488185 0.34455597 -0.009020819 0.4458878 0.47450936 0.38846982 -0.17826614 -0.46124503
0.49675646 -0.24001068 -0.21754077 -0.0022290067 -0.08936222 -0.1441982 0.27534595 0.21485446
0.44595668 -0.2746029 -0.091843575 0.12419519 0.114367016 0.17020273 -0.023306118 -0.043209188
-0.07165152 -0.31287017 0.5528758 0.032098558 -0.049894042 0.08835872 -0.18204087 -0.009718243

classifier.4.bias f4 [10]
00000000: c087 9f3d 8743 943d 573c 5c3e b00e 8a3e
00000010: 6ab9 0c3e c4bc d43d 8024 6a3e 9893 3cbd
00000020: b129 933e 6437 88bc
0.07789564 0.07239442 0.21507393 0.2696433 0.13742605 0.10387567 0.22865486 -0.046039194
0.28742746 -0.016627975
