experiments/LeNet/FashionMNIST/experiment-10/last-epoch.pt (torch, 189739 bytes, 18 tensors)

features.0.weight f4 [6, 1, 5, 5]
0.55228627 0.66332644 -0.6003318 -0.7230569 -0.6750603 0.4579167 0.67681783 0.008868845
-0.56021404 -0.23209083 -0.37342277 0.34948206 -0.12768048 -0.08187001 0.35053807 -0.57594365
-0.16512534 0.14826141 0.036098927 0.6010604 -0.84267443 0.24221614 0.75257605 0.40246105
0.5660046 0.079263285 -0.38203606 0.6586546 -0.2870984 -0.08967814 -0.045211755 -0.5948004
0.9799002 -0.44664302 0.066482715 0.7454332 -1.3661637 0.3492161 0.23314838 0.16433173
1.7860065 -2.1216838 -0.55597633 1.0553323 0.048122913 1.44055 -2.0766413 0.14850713
0.6599903 -0.32206786 -0.07989456 -0.13094422 0.2111049 -0.14854844 -0.019378556 -0.06426396
-0.058181193 -0.25304806 -0.025955725 -0.12834403 -0.13287896 0.06770797 0.1596049 -0.2586037
-0.41305313 -0.024752952 -0.26857117 -0.4071534 0.44827625 0.2495453 0.18035685 -0.42394432
0.17809655 -0.0422027 -0.2208569 0.974507 0.4271233 0.06320803 -0.17639634 -0.22447221
-0.40838945 -0.021418137 0.25516048 -0.1015386 0.1301162 -0.48290113 0.1596067 0.10907363
-0.26064494 -0.19006386 0.19241576 0.36722594 -0.14746785 -0.81811976 -0.40149796 1.0087693
0.8172722 0.333599 -0.7577662 -0.70215505 0.5768112 -0.3918549 -0.23473868 -0.1809254
0.42013395 0.01024054 0.355791 -0.90485585 -1.234781 -0.8822578 -0.32036102 0.069293305
-0.5595969 -1.2381712 -1.1956736 -0.047753435 0.24982451 0.30122423 -0.31034428 -0.29626578
-0.0057444735 0.12058687 0.5028269 0.08279545 -0.11469379 0.3531919 0.8108652 0.6795435
-0.041778263 -0.27028242 -0.012231791 0.4390216 0.46608496 0.4019789 0.5952935 -0.28284436
0.42250887 0.08250554 -0.35494426 -0.103887305 -0.16905127 0.4773318 0.08605705 -0.18515235
-0.25469056 -0.7867154 -0.43800548 -0.8278917 -0.42890635 0.04455385
00000000: a262 0d3f c3cf 293f 58af 19bf 421a 39bf
00000010: c0d0 2cbf 0f74 ea3e ef43 2d3f a24e 113c
00000020: 306a 0fbf 38a9 6dbe 4531 bfbe 50ef b23e
00000030: acbe 02be 77ab a7bd ba79 b33e 0b71 13bf
00000040: 9e16 29be d7d1 173e 78dc 133d 18df 193f
00000050: 83b9 57bf 8207 783e d3a8 403f 600f ce3e
00000060: ade5 103f ca54 a23d 3b9a c3be 969d 283f
00000070: 90fe 92be 2ca9 b7bd f62f 39bd d744 18bf
00000080: bdda 7a3f 65ae e4be 1728 883d b6d4 3e3f
00000090: 74de aebf 74cc b23e 73be 6e3e 9446 283e
000000a0: dc9b e43f abc9 07c0 7754 0ebf 2115 873f
000000b0: 881c 453d f163 b83f b1e7 04c0 4112 183e
000000c0: 20f5 283f 14e6 a4be c29f a3bd 3e16 06be
000000d0: e22b 583e 151d 18be c7bf 9ebc d39c 83bd
000000e0: 674f 6ebd 848f 81be 1aa1 d4bc 9e6c 03be
000000f0: 6c11 08be 7aaa 8a3d 786f 233e b467 84be
00000100: b37b d3be b4c6 cabc 2982 89be 6976 d0be
00000110: 7784 e53e ce88 7f3e 77af 383e 3b0f d9be
00000120: f15e 363e bddc 2cbd 5028 62be 4a79 793f
00000130: e8af da3e 3673 813d 3ea1 34be 0bdc 65be
00000140: 6c18 d1be 1775 afbc 65a4 823e 78f3 cfbd
00000150: 2e3d 053e d13e f7be f06f 233e ff61 df3d
00000160: 4173 85be 1aa0 42be a308 453e 0a05 bc3e
00000170: d001 17be 4c70 51bf 2491 cdbe 5a1f 813f
00000180: c038 513f 7dcd aa3e f7fc 41bf 6fc0 33bf
00000190: e6a9 133f 35a1 c8be 565f 70be 8244 39be
000001a0: cc1b d73e f0c7 273c 3d2a b63e a2a4 67bf
000001b0: 4e0d 9ebf a6db 61bf 5c06 a4be a6e9 8d3d
000001c0: be41 0fbf 657c 9ebf d50b 99bf 1b99 43bd
000001d0: ffd1 7f3e 103a 9a3e 72e5 9ebe 26b0 97be
000001e0: 233c bcbb 40f6 f63d 44b9 003f a990 a93d
000001f0: 94e4 eabd 92d5 b43e dd94 4f3f 90f6 2d3f
00000200: af1f 2bbd 7562 8abe da67 48bc 70c7 e03e
00000210: b0a2 ee3e 2ed0 cd3e 2865 183f fad0 90be
00000220: 1553 d83e aaf8 a83d 41bb b5be dec2 d4bd
00000230: c71b 2dbe d564 f43e ae3e b03d 9498 3dbe
00000240: cd66 82be 2e66 49bf 4142 e0be b6f0 53bf
00000250: 9d99 dbbe 197e 363d

features.0.bias f4 [6]
0.27911296 0.013187205 -0.19571865 0.52685964 0.22747803 0.54800624
00000000: e5e7 8e3e 260f 583c 786a 48be 46e0 063f
00000010: 00f0 683e 234a 0c3f

features.2.weight f4 [6]
1.0027981 1.3432055 1.0859534 1.1289366 1.3422596 0.99852455
00000000: b05b 803f 28ee ab3f 8500 8b3f ff80 903f
00000010: 2acf ab3f 4e9f 7f3f

features.2.bias f4 [6]
0.25015205 0.28476653 -0.13927008 0.40044275 0.44160172 0.18796547
00000000: ee13 803e ebcc 913e d19c 0ebe d506 cd3e
00000010: 9f19 e23e 057a 403e

features.2.running_mean f4 [6]
0.5343877 0.24383333 0.00012841291 0.75582016 0.11654666 0.8451733
00000000: a2cd 083f 72af 793e 94a6 0639 6e7d 413f
00000010: 04b0 ee3d 475d 583f

features.2.running_var f4 [6]
0.21796684 0.3407509 1.8795534e-05 0.48376906 0.03771116 0.42620885
00000000: b332 5f3e e776 ae3e 1aab 9d37 94b0 f73e
00000010: 0477 1a3d 0c38 da3e

features.4.weight f4 [16, 6, 5, 5]
0.2328342 0.034646854 -0.17141561 0.25380054 -0.068752736 -0.10780542 0.040907893 -0.10943194
-0.059376586 0.06499944 -0.3258452 -0.0010354894 0.06341068 -0.09168191 0.15442538 -0.23212832
0.27475858 0.17554896 -0.01570479 0.14961489 -0.15548629 0.13387503 0.0073960302 -0.21431433
-0.096110165 0.024169246 0.3478499 0.5071969 0.25296703 0.3885948 -0.16738 -0.30631983
-0.15594785 -0.17070504 -0.26488006 -0.29224637 -0.040546007 -0.23993517 -0.3586059 -0.06583819
-0.24686958 0.29656434 -0.110929035 -0.16509034 0.009694617 0.16603112 0.095915854 0.69081825
0.0534398 -0.11990422 -0.15151547 -0.047544427 0.0385889 0.034042757 -0.03483494 0.07576387
-0.030630434 0.013827914 0.003414321 -0.016601847 0.039184786 -0.051493917 -0.028298002 0.006399649
0.048414905 -0.0036646256 -0.030360138 0.020051228 -0.08142568 0.049741037 0.031712882 -0.028717292
0.07285702 0.04167874 0.064775564 0.06699445 0.21162777 0.43247518 0.40576404 0.28262842
0.05601876 0.26779398 0.03190254 -0.16470234 0.16279648 -0.012553474 0.094220676 0.06090045
-0.14068303 0.084748626 -0.18330207 -0.29094988 0.08972202 -0.19092591 -0.20063399 0.01587686
0.1625455 -0.104983196 -0.4273489 -0.33025286 -0.2730436 -0.065204956 0.119959384 0.48285684
0.40257472 -0.09595136 -0.21565452 0.012963846 0.20803401 0.025960667 0.13000743 -0.23914362
-0.3971038 -0.008418783 0.044341385 -0.23648573 -0.25859025 -0.33393282 0.040367942 -0.13961107
0.005669604 -0.26964265 -0.5249434 -0.26029423 -0.5776104 0.092701815 0.012193182 0.24717972
-0.127986 -0.2825983 -0.07472552 0.23085779 0.16021831 -0.10144149 -0.161057 -0.028890071
0.18468286 0.18159412 -0.26537597 -0.0075081936 0.39976153 0.08542844 -0.07802162 -0.45523646
-0.07865638 -0.24111944 -0.118586555 0.16486473 0.017694086 0.15633027 -0.49487892 0.14035313
0.38904575 0.27563304 -0.6360604 0.21776313 -0.20438746 -0.17082424 0.26768622 -0.025159188
0.11650194 -0.009153527 0.07069466 -0.07138041 -0.05669012 -0.23165606 -0.10761955 0.05697527
-0.11403691 -0.13438971 -0.15944561 0.23958 -0.038860224 -0.1445073 0.026591774 0.052248083
0.09678623 -0.075076856 -0.03318361 -0.1324862 0.012185285 0.1494822 -0.039868526 -0.13847616
0.08132941 -0.087325886 0.035401218 -0.0149559155 -0.05343236 -0.19543345 -0.051857468 -0.004318106
-0.006684687 -0.010343539 -0.035810187 0.13782935 0.17243624 -0.09196624 -0.013154527 0.11101043
0.03422677 0.08853944 -0.025912741 0.16399854 -0.065229274 -0.010297482 -0.045847964 -0.08432765
-0.083956085 -0.07331993 0.0581739 0.044522 0.094409786 0.007877136 -0.07116743 -0.02810013
0.0019508892 -0.060155638 0.0058704563 0.037795376 0.018617269 0.086162105 0.12822378 0.03665813
-0.048405122 -0.6253222 -0.30050597 0.7737522 -0.37598372 -1.0426421 0.34926054 0.07351695
0.19029266 0.3879393 0.39854023 -0.12601407 0.15690996 0.17387688 0.1289307 -0.054971717
0.106722586 -0.038498525 -0.11451683 -0.22514795 0.05973943 0.10591206 -0.5379991 -0.12664117
-0.117237225 -0.32405087 -0.18284996 0.29500192 -0.39595643 -0.21182889 0.14516036 -0.1749011
00000000: 176c 6e3e dce9 0d3d 9387 2fbe 25f2 813e
00000010: 3cce 8cbd 17c9 dcbd 098f 273d da1d e0bd
00000020: dd34 73bd 6d1e 853d 2fd5 a6be 42b9 87ba
00000030: 75dd 813d bac3 bbbd b021 1e3e 0cb3 6dbe
00000040: 28ad 8c3e 1bc3 333e 55a7 80bc a534 193e
00000050: cc37 1fbe 8916 093e 665a f23b 3775 5bbe
00000060: 68d5 c4bd 95fe c53c 6219 b23e a8d7 013f
00000070: e584 813e e6f5 c63e aa65 2bbe f4d5 9cbe
00000080: cbb0 1fbe 4dcd 2ebe 5c9e 87be 51a1 95be
00000090: 9213 26bd 91b1 75be 319b b7be 2cd6 86bd
000000a0: 61cb 7cbe 48d7 973e c32e e3bd 710d 29be
000000b0: 2cd6 1e3c 1004 2a3e 886f c43d 77d9 303f
000000c0: b1e3 5a3d 5890 f5bd df26 1bbe f2bd 42bd
000000d0: 650f 1e3d 6b70 0b3d 15af 0ebd 162a 9b3d
000000e0: adec fabc 7a8e 623c cdc2 5f3b 9900 88bc
000000f0: 3a80 203d 49eb 52bd 36d1 e7bc 26b4 d13b
00000100: b54e 463d 372a 70bb d3b5 f8bc 7942 a43c
00000110: 82c2 a6bd 42bd 4b3d 5ee5 013d 8740 ebbc
00000120: 1036 953d 54b7 2a3d 0da9 843d 6334 893d
00000130: f3b4 583e 636d dd3e 4ec0 cf3e acb4 903e
00000140: ed73 653d 4b1c 893e 3dac 023d bba7 28be
00000150: 1fb4 263e 16ad 4dbc c5f6 c03d c072 793d
00000160: 360f 10be b090 ad3d 8ab3 3bbe 62f7 94be
00000170: 2ec0 b73d 1582 43be ff72 4dbe 3010 823c
00000180: 5472 263e 6e01 d7bd 7acd dabe e716 a9be
00000190: 5fcc 8bbe 2d8a 85bd 44ad f53d 0339 f73e
000001a0: 461e ce3e 2682 c4bd 8ad4 5cbe 5066 543c
000001b0: de06 553e 77ab d43c ab20 053e 11e2 74be
000001c0: 3051 cbbe efee 09bc 509f 353d 5129 72be
000001d0: f165 84be 3ef9 aabe db58 253d 34f6 0ebe
000001e0: 16c8 b93b 9a0e 8abe b162 06bf 4945 85be
000001f0: 46de 13bf 73da bd3d e9c5 473c ae1c 7d3e
00000200: c30e 03be b9b0 90be b209 99bd fc65 6c3e
00000210: 4510 243e 8ec0 cfbd 20ec 24be dfaa ecbc
00000220: 811d 3d3e cff3 393e 5cdf 87be 4b07 f6bb
00000230: 8bad cc3e 1bf5 ae3d cdc9 9fbd c114 e9be
00000240: 9916 a1bd 04e8 76be 82dd f2bd 4dd2 283e
00000250: 30f3 903c 0b15 203e c560 fdbe bbb8 0f3e
00000260: 0131 c73e c61f 8d3e dbd4 22bf 4cfd 5e3e
00000270: f24a 51be 8dec 2ebe 2b0e 893e a41a cebc
00000280: 9298 ee3d adf8 15bc 5dc8 903d e42f 92bd
00000290: e633 68bd 3f37 6dbe a367 dcbd e75e 693d
000002a0: 2f8c e9bd 759d 09be b645 23be 7654 753e
000002b0: e62b 1fbd b9f9 13be fed6 d93c 1602 563d
000002c0: dc37 c63d e5c1 99bd 89eb 07bd 76aa 07be
000002d0: caa4 473c dd11 193e 2e4d 23bd b2cc 0dbe
000002e0: 0990 a63d ead7 b2bd de00 113d a809 75bc
000002f0: e4db 5abd b51f 48be 7f68 54bd e67e 8dbb
00000300: 380b dbbb f277 29bc b4ad 12bd 2323 0d3e
00000310: 2093 303e cc58 bcbd 1686 57bc 7059 e33d
00000320: 5f31 0c3d 2a54 b53d f546 d4bc 3cef 273e
00000330: ed96 85bd c5b6 28bc 13cb 3bbd fab3 acbd
00000340: 2bf1 abbd c228 96bd c147 6e3d b35c 363d
00000350: eb59 c13d 1a0f 013c 3bc0 91bd 3e32 e6bc
00000360: fbb4 ff3a c265 76bd f55c c03b 53cf 1a3d
00000370: 3e83 983c c275 b03d 184d 033e d626 163d
00000380: 7344 46bd 1e15 20bf ebdb 99be a014 463f
00000390: f080 c0be 4c75 85bf 47d2 b23e 0e90 963d
000003a0: 14dc 423e fb9f c63e 770d cc3e d509 01be
000003b0: 01ad 203e c80c 323e 6906 043e 062a 61bd
000003c0: 5f91 da3d a1b0 1dbd cd87 eabd 2f8d 66be
000003d0: 55b1 743d 6ce8 d83d 4fba 09bf 39ae 01be
000003e0: 121a f0bd ffe9 a5be 053d 3bbe 7e0a 973e
000003f0: cdba cabe ace9 58be eba4 143e 4619 33be

features.4.bias f4 [16]
0.11672153 -0.32812673 0.07132444 -0.07511903 0.037541904 -0.25797856 -0.07458707 -0.34492627
-0.05512952 -0.36035123 -0.3142253 -0.27815902 -0.09909716 -0.48419884 -0.11084753 -0.016109923
00000000: b30b ef3d 3a00 a8be 8c12 923d 02d8 99bd
00000010: 8ac5 193d c415 84be 1bc1 98bd 2d9a b0be
00000020: 7ecf 61bd f57f b8be 23e2 a0be dc6a 8ebe
00000030: 74f3 cabd e9e8 f7be 0804 e3bd f5f8 83bc

features.6.weight f4 [16]
1.9185942 2.424991 1.8785731 2.011896 1.8362108 1.8720213 2.1542723 2.104779
2.3843887 1.6422001 1.7884043 1.8793949 2.147699 2.0735419 2.3674495 2.1399589
00000000: 7f94 f53f 0d33 1b40 1575 f03f e7c2 0040
00000010: f508 eb3f 659e ef3f 99df 0940 b3b4 0640
00000020: d399 1840 9d33 d23f 6fea e43f 0390 f03f
00000030: e773 0940 e9b4 0440 4b84 1740 16f5 0840

features.6.bias f4 [16]
-0.20982319 0.20776653 -0.08197018 0.02057442 -0.11242045 0.10984532 0.30701062 0.07887531
0.12002903 0.14887318 0.296 0.37038457 0.13470551 0.21244282 0.08941147 0.09469194
00000000: e4db 56be c0c0 543e fbdf a7bd b08b a83c
00000010: b13c e6bd 95f6 e03d 7f30 9d3e 6189 a13d
00000020: c8d1 f53d 3672 183e 508d 973e 0ca3 bd3e
00000030: 3ef0 093e 9c8a 593e 5c1d b73d d9ed c13d

features.6.running_mean f4 [16]
1.027974 0.28376475 0.5261157 0.37107393 0.536895 0.28870118 0.24545372 0.7764399
0.5533389 0.5116069 0.1946709 0.45688775 0.71209925 0.23683254 0.4892796 0.81111425
00000000: a794 833f 9d49 913e 85af 063f 67fd bd3e
00000010: f371 093f a4d0 933e 3858 7b3e c4c4 463f
00000020: 9ea7 0d3f abf8 023f cf57 473e 31ed e93e
00000030: 234c 363f 3b84 723e db82 fa3e 2fa5 4f3f

features.6.running_var f4 [16]
1.9174829 0.52970576 0.9422491 0.53559196 0.8028702 0.42171046 0.37138137 1.4992787
1.0964853 1.161288 0.2499767 0.7512882 1.526536 0.38496983 0.95085436 1.6730865
00000000: 1470 f53f cc9a 073f 3d37 713f 8e1c 093f
00000010: e788 4d3f 6fea d73e b325 be3e 5de8 bf3f
00000020: a159 8c3f 16a5 943f e4f9 7f3e 6c54 403f
00000030: 8865 c33f c41a c53e 316b 733f b327 d63f

classifier.0.weight f4 [120, 256]
0.017080225 -0.29788083 -0.022752363 -0.16204213 -0.07900153 -0.15211943 -0.017441887 0.0312725
-0.032477688 -0.033428725 -0.0004042741 0.043951344 -0.059939887 0.031015532 0.13886198 -0.021322977
0.0971826 0.053739674 0.17093636 0.12128029 -0.050139844 -0.17298384 0.015175819 -0.088685356
-0.0966731 0.066411234 -0.07841876 0.020174561 -0.14970578 -0.019836849 0.05164527 -0.036846653
-0.061892267 -0.025409857 -0.16828574 -0.03565617 -0.03924904 -0.0021484806 -0.057454687 0.18758279
0.10037808 -0.044539098 0.16330498 0.15570062 0.05471128 0.083588935 0.0017782354 0.13874309
-0.007021154 0.21084248 -0.06262999 0.050593898 0.053981937 -0.003899811 0.043522675 0.03950679
-0.13586205 0.21386331 -0.09410227 0.02159262 0.11457441 -0.084846236 -0.09324135 -0.067845955
0.07117562 0.1604587 0.07134447 0.10227956 -0.020893563 -0.022954619 -0.02189289 0.04563526
0.024284221 -0.13802527 -0.015912903 -0.010930686 0.066888444 -0.0882749 -0.060749374 0.14819036
0.030817894 -0.025515724 -0.055905443 -0.020082187 -0.0034657945 0.082229234 -0.04949108 -0.04612135
-0.051573455 0.017613593 0.037083305 0.06685852 0.0074780127 -0.0064714598 -0.0034927158 0.038003705
0.014528711 0.00746046 0.18475923 0.047253948 -0.06521025 0.09680046 0.071910195 0.028650533
0.06975167 0.09656216 0.07803953 0.09408332 0.060579285 0.050677657 -0.13251162 0.015109304
0.035411038 0.021669228 0.06778758 -0.07780851 0.053069945 0.016260803 0.049754225 0.06387568
-0.0689908 0.18161033 0.014590005 0.06487038 -0.18130507 -0.041816916 0.110086426 -0.22005062
-0.0669267 0.11254022 0.19631492 -0.08797551 -0.24453399 -0.0048349006 0.07277742 -0.22325963
0.059510306 -0.038951047 0.0552734 -0.0719481 -0.01815731 0.15586533 -0.017962579 0.10833879
0.026010398 -0.03582168 0.08484068 0.07566676 0.11339184 0.07391555 0.047839873 -0.13050644
0.09361637 -0.025486847 -0.05467925 0.08965997 0.08907006 -0.011569033 -0.091581285 0.0911856
0.07789304 -0.06832989 -0.051710144 -0.10437298 0.06693653 -0.0673047 0.12015699 0.10975942
0.13062516 0.010360182 -0.06428423 0.08950423 -0.040920965 -0.027650733 -0.055847533 -0.02011656
-0.11419212 -0.1310626 0.05044202 0.023420252 -0.061825193 0.047081802 -0.07696419 0.106817976
-0.012940249 0.09093563 -0.028488725 -0.03862372 -0.08286981 0.053660773 0.09130065 -0.10423142
-0.23018025 -0.023189459 0.05405146 0.031841833 -0.04537185 0.122747086 0.049965285 -0.05113057
0.08767699 0.12757272 -0.20242077 0.07396675 -0.20943645 -0.011406226 -0.21147975 -0.12330719
0.014526985 0.12223581 0.050740626 0.04128555 -0.10825019 0.0054536615 -0.07845828 -0.022269575
-0.04368588 -0.037730962 0.00072160695 -0.051052585 -0.027204363 -0.031695373 -0.16982685 0.027962826
-0.025662772 -0.12757756 -0.14861847 -0.09937469 0.008990914 0.03912184 -0.0791869 -0.018208522
-0.13654763 -0.017339446 0.13730519 -0.1157235 0.10763223 0.04950348 0.1415815 0.044465415
0.030714797 0.1269783 -0.07469218 -0.091651395 0.04840132 0.058304403 -0.1993718 0.04273607
0.04724876 0.15722029 -0.12084738 -0.046403356 -0.027413635 -0.021904243 -0.021032915 -0.020185485
00000000: d4eb 8b3c d683 98be 2a63 babc 5fee 25be
00000010: 8ecb a1bd 32c5 1bbe 4ae2 8ebc 9817 003d
00000020: 5307 05bd 8fec 08bd c0f4 d3b9 5306 343d
00000030: 8783 75bd 4914 fe3c d631 0e3e 86ad aebc
00000040: ac07 c73d 221e 5c3d f109 2f3e cd61 f83d
00000050: 705f 4dbd ad22 31be 00a4 783c aba0 b5bd
00000060: 8cfc c5bd 9d02 883d 049a a0bd 1f45 a53c
00000070: 794c 19be e380 a2bc fe89 533d 84ec 16bd
00000080: bf82 7dbd 5528 d0bc 1953 2cbe 340c 12bd
00000090: 9ac3 20bd 86cd 0cbb 9b55 6bbd b415 403e
000000a0: 0693 cd3d a16e 36bd 6c39 273e fc6f 1f3e
000000b0: ef18 603d ad30 ab3d ae13 e93a ab12 0e3e
000000c0: b511 e6bb 17e7 573e 2744 80bd 8c3b 4f3d
000000d0: 2a1c 5d3d f993 7fbb d544 323d dfd1 213d
000000e0: 6c1f 0bbe fcfe 5a3e b1b8 c0bd 02e3 b03c
000000f0: fda5 ea3d ddc3 adbd 52f5 bebd d2f2 8abd
00000100: 86c4 913d 494f 243e 0d1d 923d f277 d13d
00000110: fa28 abbc 530b bcbc b858 b3bc 0aec 3a3d
00000120: b4ef c63c 7f56 0dbe c75b 82bc 9f16 33bc
00000130: cffc 883d 79c9 b4bd 56d4 78bd 37bf 173e
00000140: cf75 fc3c 5a06 d1bc 1bfd 64bd 6683 a4bc
00000150: 6222 63bb cd67 a83d 29b7 4abd bee9 3cbd
00000160: b03e 53bd 624a 903c aae4 173d 1fed 883d
00000170: 1e0a f53b 8a0e d4bb 0ce6 64bb c6a9 1b3d
00000180: d509 6e3c e076 f43b 8631 3d3e 5b8d 413d
00000190: f48c 85bd 523f c63d a745 933d 86b4 ea3c
000001a0: f7d9 8e3d 62c2 c53d 30d3 9f3d c1ae c03d
000001b0: fc21 783d 6093 4f3d 20b1 07be 048d 773c
000001c0: 2a0b 113d aa83 b13c 37d4 8a3d 115a 9fbd
000001d0: df5f 593d 6035 853c 16cb 4b3d 41d1 823d
000001e0: 0c4b 8dbd 0ff8 393e eb0a 6f3c c3da 843d
000001f0: 09a8 39be 3748 2bbd fe74 e13d f354 61be
00000200: de10 89bd 7d7b e63d c706 493e 812c b4bd
00000210: 1e67 7abe 166e 9ebb 540c 953d 2c9e 64be
00000220: 14c1 733d 228b 1fbd 5c66 623d 8759 93bd
00000230: a4be 94bc 299b 1f3e 4226 93bc bae0 dd3d
00000240: c213 d53c c1b9 12bd f3c0 ad3d 2df7 9a3d
00000250: fb39 e83d 0961 973d bef3 433d 7ba3 05be
00000260: f0b9 bf3d cbc9 d0bc 59f7 5fbd a59f b73d
00000270: 5d6a b63d 0b8c 3dbc f88e bbbd 84bf ba3d
00000280: 6386 9f3d 8bf0 8bbd 04ce 53bd 80c1 d5bd
00000290: 0516 893d 0cd7 89bd de14 f63d 8cc9 e03d
000002a0: 9ac2 053e c1bd 293c 73a7 83bd fe4d b73d
000002b0: be9c 27bd ca83 e2bc 62c0 64bd 7ccb a4bc
000002c0: 8fdd e9bd 4635 06be 4b9c 4e3d d4db bf3c
000002d0: 6a3c 7dbd d9d8 403d 679f 9dbd 62c3 da3d
000002e0: 5703 54bc 763c ba3d 3061 e9bc e833 1ebd
000002f0: a6b7 a9bd 66cb 5b3d d6fb ba3d 4877 d5bd
00000300: 5fb4 6bbe d2f7 bdbc 1065 5d3d 956c 023d
00000310: d5d7 39bd d362 fb3d 66a8 4c3d 4a6e 51bd
00000320: fe8f b33d 6ca2 023e 6447 4fbe e17b 973d
00000330: 8276 56be 2ee1 3abc 268e 58be 7b88 fcbd
00000340: 9702 6e3c c556 fa3d 67d5 4f3d 091b 293d
00000350: 47b2 ddbd a1b4 b23b bcae a0bd af6e b6bc
00000360: f7ef 32bd c88b 1abd 392a 3d3a 841c 51bd
00000370: afdb debc 02d3 01bd 17e7 2dbe 4c12 e53c
00000380: bc3a d2bc b1a3 02be 712f 18be f584 cbbd
00000390: a04e 133c 393e 203d be2c a2bd 0a2a 95bc
000003a0: 24d3 0bbe 740b 8ebc bb99 0c3e 7100 edbd
000003b0: 496e dc3d 29c4 4a3d befa 103e 5e21 363d
000003c0: 999d fb3c 9906 023e 37f8 98bd bab3 bbbd
000003d0: 7640 463d 99d0 6e3d 1f28 4cbe 040c 2f3d
000003e0: ea87 413d 5bfe 203e d57e f7bd 7211 3ebd
000003f0: 8f92 e0bc 8770 b3bc 384d acbc 085c a5bc

classifier.0.bias f4 [120]
0.060064305 0.06518484 0.028952293 -0.09290216 -0.041573092 0.039841946 -0.08319082 0.02932105
-0.053197682 -0.09044802 0.016888956 0.022937443 0.061626915 0.0017515834 -0.026991952 0.021320352
-0.010825519 -0.060056124 -0.055181038 -0.026923155 0.0011595574 -0.051612377 0.035079334 -0.025325673
-0.023461165 -0.056386497 0.06975156 0.054703955 -0.019823907 0.032531768 -0.13863657 -0.043998692
-0.0049383487 0.021694744 -0.009005191 -0.0024242946 0.07182303 -0.009076175 0.00079606177 -0.03684925
-0.09424873 -0.06702299 -0.037335034 -0.11453472 0.032604385 -0.08860009 -0.014482859 -0.030347008
0.034621444 -0.084673524 -0.092664324 0.023046436 0.0037650422 -0.063183315 -0.030511629 1.6998638e-05
-0.057857145 0.03071427 0.051646102 -0.075403646 0.041389447 -0.003985393 -0.07458084 0.038010605
0.06869016 -0.0010872774 0.07192645 -0.07604898 -0.06699557 -0.12021834 0.023920609 -0.030256627
0.039884467 -0.021156758 -0.031817887 -0.015344239 0.024718545 -0.032530088 0.029984506 -0.034175787
-0.051483326 -0.012400039 -0.026468724 -0.121443905 0.02276389 -0.011076197 0.039481208 0.012087506
0.086836435 -0.046950378 -0.03216184 0.03130077 -0.0123064425 0.046867844 0.008587264 0.01693879
-0.09357019 -0.0072789374 0.040950537 -0.042852104 -0.035762463 0.018654522 0.012535794 0.0007277491
-0.0032976293 -0.018529363 -0.018824812 -0.025280029 0.009814625 -0.016350565 0.021003485 -0.07576913
0.056102414 -0.04320954 -0.13369308 0.10803273 -0.10808076 -0.056194387 -0.045511495 -0.070963465
00000000: fd05 763d a17f 853d 5c2d ed3c 7d43 bebd
00000010: 8c48 2abd 4f31 233d f35f aabd b332 f03c
00000020: d0e5 59bd d03c b9bd b55a 8a3c 4ee7 bb3c
00000030: 816c 7c3d 6395 e53a 3a1e ddbc 05a8 ae3c
00000040: 855d 31bc 69fd 75bd 8305 62bd f38d dcbc
00000050: 4afc 973a 8067 53bd 59af 0f3d c977 cfbc
00000060: a131 c0bc 87f5 66bd e8d9 8e3d 4111 603d
00000070: bf65 a2bc 0840 053d bff6 0dbe f937 34bd
00000080: dfd1 a1bb 2db9 b13c 828a 13bc eae0 1ebb
00000090: f417 933d 3db4 14bc cdae 503a 3def 16bd
000000a0: 7a05 c1bd 5943 89bd 9fec 18bd 2e91 eabd
000000b0: 2d8c 053d f773 b5bd 8349 6dbc 4a9a f8bc
000000c0: 37cf 0d3d 5069 adbd cbc6 bdbd e1cb bc3c
000000d0: edbe 763b 4166 81bd 86f3 f9bc 4c98 8e37
000000e0: 9dfb 6cbd 7e9c fb3c dd8a 533d 3a6d 9abd
000000f0: fb87 293d e697 82bb d7bd 98bd 02b1 1b3d
00000100: 6dad 8c3d fa82 8eba 2d4e 933d 91bf 9bbd
00000110: f934 89bd 0835 f6bd 27f5 c33c bfdc f7bc
00000120: e55d 233d f050 adbc 7953 02bd 6766 7bbc
00000130: 8c7e ca3c 453e 05bd 11a2 f53c e9fb 0bbd
00000140: 2ee0 52bd 8829 4bbc f0d4 d8bc 95b7 f8bd
00000150: 567b ba3c f078 35bc 0cb7 213d ad0a 463c
00000160: 4dd7 b13d 0a4f 40bd 22bc 03bd 3c35 003d
00000170: f6a0 49bc 7ff8 3f3d 99b1 0c3c 38c3 8a3c
00000180: baa1 bfbd 2784 eebb c0bb 273d b085 2fbd
00000190: a97b 12bd 5ed1 983c ee62 4d3c 6ac6 3e3a
000001a0: 0a1d 58bb e4ca 97bc 7e36 9abc 1018 cfbc
000001b0: 85cd 203c 9ff1 85bc 800f ac3c d82c 9bbd
000001c0: a5cb 653d 7dfc 30bd d7e6 08be 4440 dd3d
000001d0: 7259 ddbd 162c 66bd 436a 3abd 4b55 91bd

classifier.2.weight f4 [84, 120]
-0.16490604 0.17736976 -0.18895364 0.14394851 0.010320276 0.2284969 0.017143352 0.15903683
-0.14032863 0.1746472 -0.13372622 0.2292491 0.2995801 0.096823774 0.09665671 -0.07681863
0.0031131387 0.08590247 -0.11673839 -0.15207754 -0.32162723 0.17834051 -0.19073766 0.14372055
-0.042022463 0.10083256 0.032917034 0.020978566 0.03146681 0.084150836 -0.018816885 0.19083768
0.15718143 -0.091991045 -0.03111149 0.005440707 0.07459686 0.09703302 -0.09164107 0.23506805
-0.18442272 0.061499484 -0.14773521 -0.20029576 0.16201644 -0.04167685 0.018903825 -0.021058565
-0.19752067 -0.08343376 0.096971855 0.1942234 -0.24846861 0.037523236 0.108637325 0.06760921
-0.039083015 -0.00887588 0.04018526 -0.010728093 0.041278828 0.0781133 -0.12805016 -0.13987324
-0.004635764 -0.112953 0.030711452 -0.05697449 -0.11867635 0.052303478 -0.013914421 0.1934591
-0.06355904 -0.1648191 -0.18947144 0.012825948 -0.088467024 0.055860102 0.03270699 0.15992251
-0.16479982 0.07921033 0.11208225 -0.17148764 0.0757997 0.112399794 0.15658449 0.018220073
-0.17249563 0.19048236 0.056128208 0.04549045 -0.110255994 0.19350497 0.06574636 -0.405994
-0.017402472 -0.047032926 0.054900285 0.20660752 0.14068769 0.14854631 -0.073664926 -0.12046805
-0.12930791 0.011106466 -0.19606905 0.20959508 0.019941026 0.08282294 0.032695606 -0.16762128
-0.018910594 -0.2188924 0.2406021 -0.18030612 -0.1002982 -0.12039481 0.15930696 0.12608428
0.033941325 -0.077575885 0.07023432 -0.012057357 0.08873586 -0.09693036 -0.03803356 -0.065738894
0.054749258 -0.07461377 -0.061907675 -0.0632497 -0.05058901 0.11941734 0.057868853 0.045848463
0.008002868 -0.04891737 0.058835015 0.06769414 0.038869865 0.018649777 0.117395535 0.06600907
0.083902046 0.06418857 0.0011916066 0.05883961 0.12225451 0.019590061 0.094167285 -0.08691828
0.022811214 -0.028239442 -0.015652096 0.04463489 -0.0075940317 0.08812019 0.009656553 0.011003273
0.02199028 0.07618484 0.12289742 0.016552748 -0.18796746 -0.05709265 -0.1297576 -0.047095712
-0.0128712645 0.046991974 -0.06213525 -0.085058786 -0.115057044 -0.074095204 0.047720652 0.051887613
0.021491887 -0.12223181 -0.021794181 0.03334507 0.040308766 0.061004326 0.13582759 -0.06363617
0.036664683 -0.05947135 -0.10192166 0.05286854 0.02882381 0.11848066 -0.0198852 0.04310308
-0.006460351 0.015827613 -0.09190332 -0.12928303 -0.09925333 -0.07084739 0.06346198 -0.058172572
-0.047464605 -0.032693334 -0.011586963 0.012970236 0.03409725 -0.050122913 0.09777006 0.07277755
0.112723134 -0.022046464 0.07592763 -0.055124562 0.05034354 -0.06352479 -0.14239965 0.04008503
-0.05736968 0.018906178 0.016595917 -0.088920556 0.007494771 0.11182099 0.10563765 0.04374677
0.034858294 0.012938462 0.0035517649 -0.015234265 -0.0034264154 0.11320971 -0.09121222 -0.040692408
0.09107179 0.09598874 -0.03735122 -0.045612015 0.06653397 -0.06332924 -0.060789354 -0.07714088
-0.020266652 0.059909325 -0.034638498 -0.022814898 -0.059845854 0.046186376 -0.04232014 0.04625822
-0.05886686 0.0285618 0.03990491 0.11649092 -0.087086506 0.01503196 -0.023530029 0.004973522
00000000: 21dd 28be 6ba0 353e 107d 41be 3d67 133e
00000010: 6016 293c 17fb 693e 3770 8c3c 8dda 223e
00000020: 4fb2 0fbe b7d6 323e 87ef 08be 47c0 6a3e
00000030: 9062 993e 8b4b c63d f4f3 c53d 1653 9dbd
00000040: cd05 4c3b a2ed af3d 8914 efbd 37ba 1bbe
00000050: 53ac a4be e59e 363e bc50 43be 7b2b 133e
00000060: bf1f 2cbd 4d81 ce3d 03d4 063d 3edb ab3c
00000070: 57e3 003d 4657 ac3d de25 9abc f46a 433e
00000080: 2bf4 203e cd65 bcbd 86dd febc f547 b23b
00000090: 3dc6 983d 3fb9 c63d 50ae bbbd aeb5 703e
000000a0: 4fd9 3cbe e2e6 7b3d e647 17be 551a 4dbe
000000b0: a3e7 253e 58b5 2abd 32dc 9a3c 0383 acbc
000000c0: dc42 4abe 52df aabd 2e99 c63d 80e2 463e
000000d0: 8e6e 7ebe f7b1 193d 3f7d de3d b376 8a3d
000000e0: 8315 20bd 246c 11bc 4d99 243d e2c4 2fbc
000000f0: fd13 293d def9 9f3d 951f 03be ee3a 0fbe
00000100: 9be7 97bb e753 e7bd 9596 fb3c 155e 69bd
00000110: 960c f3bd 2c3c 563d 50f9 63bc 241a 463e
00000120: 3e2b 82bd 57c6 28be cd04 42be ed23 523c
00000130: 332e b5bd 90cd 643d c4f7 053d bac2 233e
00000140: 49c1 28be 0739 a23d 618b e53d 759a 2fbe
00000150: e03c 9b3d dd31 e63d af57 203e 4342 953c
00000160: b2a2 30be cf0d 433e b1e6 653d 3254 3a3d
00000170: e5cd e1bd 2b26 463e 07a6 863d 72de cfbe
00000180: a18f 8ebc 99a5 40bd 1fdf 603d ec90 533e
00000190: 6f10 103e 861c 183e a3dd 96bd f4b7 f6bd
000001a0: 4b69 04be e5f7 353c 53c6 48be 18a0 563e
000001b0: 5d5b a33c 139f a93d d4eb 053d eaa4 2bbe
000001c0: 64ea 9abc 5425 60be 6660 763e 2ba2 38be
000001d0: 2569 cdbd 8e91 f6bd 5d21 233e 3d1c 013e
000001e0: 0f06 0b3d 1be0 9ebd 03d7 8f3d 388c 45bc
000001f0: 26bb b53d 6d83 c6bd 14c9 1bbd 1da2 86bd
00000200: c240 603d 1bcf 98bd e792 7dbd 0f89 81bd
00000210: 6c36 4fbd 1491 f43d e407 6d3d 99cb 3b3d
00000220: 761e 033c 955d 48bd fcfc 703d 3aa3 8a3d
00000230: 0236 1f3d 6bc7 983c 126d f03d c32f 873d
00000240: d6d4 ab3d 4c75 833d af2f 9c3a ce01 713d
00000250: 9360 fa3d 567b a03c c7da c03d 3602 b2bd
00000260: 95de ba3c 6756 e7bc d338 80bc 13d3 363d
00000270: 5bd7 f8bb 5c78 b43d 8536 1e3c 1247 343c
00000280: f624 b43c cc06 9c3d a4b1 fb3d a199 873c
00000290: 8b7a 40be fcd9 69bd 2ddf 04be 6fe7 40bd
000002a0: ffe1 52bc a87a 403d 8881 7ebd 4d33 aebd
000002b0: 07a3 ebbd 3abf 97bd bb76 433d 1b88 543d
000002c0: c10f b03c ac54 fabd b689 b2bc d794 083d
000002d0: ce1a 253d acdf 793d 6316 0b3e ae53 82bd
000002e0: b52d 163d 3b98 73bd 4ebc d0bd af8c 583d
000002f0: e91f ec3c fda5 f23d 49e6 a2bc db8c 303d
00000300: 5ab1 d3bb e9a8 813c cf37 bcbd c562 04be
00000310: 5445 cbbd 7018 91bd 5bf8 813d 5d46 6ebd
00000320: 3f6a 42bd 72e9 05bd 3fd7 3dbc 1d81 543c
00000330: 8fa9 0b3d af4d 4dbd ab3b c83d 650c 953d
00000340: 63db e63d c99a b4bc f27f 9b3d 4bca 61bd
00000350: 0735 4e3d 4919 82bd 37d1 11be 3330 243d
00000360: 78fc 6abd 21e1 9a3c 29f4 873c fb1b b6bd
00000370: b296 f53b 6702 e53d 8d58 d83d d02f 333d
00000380: 92c7 0e3d d8fb 533c bac4 683b 2399 79bc
00000390: b68d 60bb 7eda e73d 79cd babd 15ad 26bd
000003a0: d983 ba3d bf95 c43d 98fd 18bd aad3 3abd
000003b0: f642 883d c3b2 81bd 42fe 78bd 0afc 9dbd
000003c0: 4006 a6bc 7b63 753d 19e1 0dbd 4fe6 babc
000003d0: ed20 75bd ed2d 3d3d e257 2dbd 4279 3d3d
000003e0: 601e 71bd 70fa e93c 5573 233d cb92 ee3d
000003f0: 695a b2bd 9c48 763c 0cc2 c0bc edf8 a23b

classifier.2.bias f4 [84]
-0.08043829 -0.017609013 -0.042470858 0.08298977 0.07059045 0.021117022 0.037290692 -0.03316576
0.07403615 0.025713524 0.13276789 0.09689229 0.07532186 -2.695822e-05 0.090905406 0.1379723
0.1318479 -0.066975415 -0.01741588 0.03244999 0.029410547 -0.023540517 0.12925705 0.0074953106
0.002675563 -0.008944144 0.062895544 -0.049345713 -0.026155207 -0.06689147 -0.09171771 0.1333689
0.0501418 0.08039273 -0.0029873557 0.033365402 0.009984706 0.0402508 0.054323647 0.020297665
0.014295321 -0.03245004 0.006380331 -0.0149181 0.16820882 0.017723428 -0.046462875 0.04930574
0.10506221 0.0039445427 0.08156535 -0.0027678958 0.05383294 -0.101801835 -0.034509394 0.12456966
-0.105880804 -0.003750699 0.0471215 0.0060998704 0.08912861 0.013096543 0.03423751 0.059905026
-0.077968106 -0.07988556 0.039900936 0.051768936 0.031391397 0.08118436 -0.07181407 -0.09856254
-0.04151767 0.044713773 -0.025632167 -0.042052817 -0.014571591 0.059347097 -0.029462427 -0.08187795
-0.0884937 -0.025407752 0.109376185 0.054597307
00000000: d5bc a4bd c740 90bc ecf5 2dbd 8af6 a93d
00000010: ba91 903d 9bfd ac3c 20be 183d d2d8 07bd
00000020: 44a0 973d 2ba5 d23c 4ef4 073e 776f c63d
00000030: 5942 9a3d 5624 e2b7 9d2c ba3d 9c48 0d3e
00000040: 2303 073e 682a 89bd bfab 8ebc 48ea 043d
00000050: 63ee f03c 0bd8 c0bc f65b 043e 399b f53b
00000060: 8058 2f3b 758a 12bc 61cf 803d bb1e 4abd
00000070: 7243 d6bc 65fe 88bd 7fd6 bbbd db91 083e
00000080: 7d61 4d3d f2a4 a43d 83c7 43bb 29aa 083d
00000090: e496 233c 06de 243d 7982 5e3d 4a47 a63c
000000a0: ec36 6a3c 55ea 04bd 1812 d13b 0c6b 74bc
000000b0: ef3e 2c3e b930 913c db4f 3ebd d1f4 493d
000000c0: db2a d73d 3941 813b bc0b a73d 9665 35bb
000000d0: ee7f 5c3d 7b7d d0bd b959 0dbd 611e ff3d
000000e0: 09d8 d8bd 4ace 75bb 7902 413d 6ce1 c73b
000000f0: 1089 b63d e292 563c a23c 0c3d f95e 753d
00000100: bead 9fbd 0a9b a3bd 2a6f 233d aa0b 543d
00000110: 4494 003d fc43 a63d 4113 93bd 28db c9bd
00000120: 6f0e 2abd ca25 373d 8dfa d1bc 933f 2cbd
00000130: afbd 6ebc f115 733d 305b f1bc a0af a7bd
00000140: 2f3c b5bd eb23 d0bc 9f00 e03d 6da1 5f3d

classifier.4.weight f4 [10, 84]
0.23758967 0.13015607 -0.18185854 -0.08749227 0.17750168 0.0190018 0.023134878 -0.098428935
-0.050871067 0.013725026 0.12570491 -0.017295044 0.36891526 0.033395264 -0.07463084 -0.0066338144
-0.100275554 -0.001986973 -0.04625182 0.08837962 -0.30412108 0.20156819 0.019443648 -0.04799595
-0.10280381 0.33073723 0.12850147 0.03265022 -0.14957881 -0.32154244 -0.06341177 -0.12408226
-0.0744508 0.05956296 -0.20162481 0.31220353 0.016367825 0.30275238 0.17039095 0.060165316
0.06431872 -0.10563806 0.30875754 -0.012816408 0.13651152 -0.23126872 -0.17494603 0.015546458
0.12678485 0.17976023 -0.11387385 0.017347837 0.31894878 0.028030021 0.26922014 0.15237106
-0.1434453 0.42924687 -0.07398945 -0.026343245 0.10313458 -0.18460974 -0.11846056 -0.0026350564
-0.29385552 -0.09558373 0.19337636 -0.1319784 0.19443989 0.15226725 -0.25702336 -0.21248354
0.037868895 -0.059986364 -0.07526382 -0.088389196 0.24716257 0.0131327035 0.20014355 -0.24168149
-0.050452355 0.19946586 -0.28091702 0.05595213 0.14145572 -0.15304556 -0.059519872 -0.11592642
-0.18436337 0.31313077 0.14171308 -0.029203914 -0.27858764 0.4268371 0.25661322 0.1824556
-0.06889251 -0.0013548841 0.31699795 -0.4220048 0.22399946 -0.20457233 -0.07278131 -0.30475855
0.4837541 0.047980756 -0.14947976 0.29850876 -0.335194 -0.3668422 -0.05561064 -0.10736214
-0.05426734 0.5918647 -0.042429868 -0.034440137 0.1483511 -0.16623345 -0.37353498 -0.4382955
-0.17222369 -0.08802287 0.41345066 -0.3043825 -0.16502254 -0.17477342 -0.18491738 0.12168826
-0.34620845 -0.034082703 -0.16012138 0.0010567551 0.13606131 -0.14501314 -0.12645312 0.4018911
-0.17198078 -0.0032951422 -0.13042153 0.29458338 0.2327032 -0.20593944 -0.04867133 -0.17271835
0.31037042 0.026044555 0.32825822 -0.27442798 -0.13282779 0.3449539 -0.007585787 0.19113679
-0.4881371 -0.049237415 0.08849069 0.22853734 -0.02717022 0.15339121 0.033683047 0.07402015
-0.08287044 0.20796123 0.06982165 0.22708762 0.05325505 -0.19292842 0.044598702 -0.22773056
-0.37898108 0.03174706 -0.02283368 0.49479276 -0.04200496 0.29175222 0.27294034 -0.13222747
-0.13617119 -0.20444933 0.30565122 -0.09021865 -0.09617816 0.3476712 0.06995552 -0.59258336
0.101926304 -0.21725163 0.5654549 0.30918488 0.10709089 0.17926101 -0.035505172 -0.12486605
-0.1416785 -0.19881545 -0.20702122 0.69895 0.098199375 0.015721897 -0.05841105 0.4394194
0.4365291 -0.716305 0.8914275 -0.6645649 -0.06768927 0.07936277 0.32629275 0.024924204
-0.19663809 0.28718632 0.56700426 -0.5947434 0.43253857 -0.12178319 -0.25637648 -0.56799394
-0.49590924 -0.036391202 0.2994866 -0.37796718 -0.34725392 -0.17396694 0.20827416 -0.5168525
0.14390047 0.041986577 0.17755428 0.14419143 -0.25370347 0.006547748 0.31431365 0.04979997
-0.11532675 0.3710503 0.7750007 -0.26774862 -0.26118335 0.2511792 -0.0985858 -0.38175064
0.33696902 0.0662287 0.08558955 -0.02497084 -0.032973986 0.529135 0.26748002 -0.27822238
-0.044564065 0.07083664 -0.31503943 0.10416701 -0.31303167 0.23330747 0.08122802 0.021741606
00000000: b54a 733e a247 053e 2039 3abe 262f b3bd
00000010: 00c3 353e aaa9 9b3c 5b85 bd3c 1c95 c9bd
00000020: 2e5e 50bd eede 603c cab8 003e 56ae 8dbc
00000030: 76e2 bc3e 79c9 083d 0ed8 98bd 7860 d9bb
00000040: 455d cdbd e037 02bb 8c72 3dbd 6000 b53d
00000050: c2b5 9bbe e467 4e3e 4948 9f3c 6797 44bd
00000060: ce8a d2bd 6456 a93e e495 033e 3dbc 053d
00000070: 302b 19be 36a1 a4be 08de 81bd d71e febd
00000080: a979 98bd 4af8 733d bc76 4ebe 24d9 9f3e
00000090: d115 863c 5c02 9b3e f77a 2e3e e86f 763d
000000a0: 88b9 833d c458 d8bd 7815 9e3e e9fb 51bc
000000b0: adc9 0b3e b5d1 6cbe 0d25 33be 92b6 7e3c
000000c0: e3d3 013e 1113 383e b136 e9bd 0d1d 8e3c
000000d0: 414d a33e 379f e53c 39d7 893e 2907 1c3e
000000e0: 53e3 12be 3fc6 db3e c887 97bd cacd d7bc
000000f0: 3938 d33d 560a 3dbe 739b f2bd e9b0 2cbb
00000100: 3b74 96be 67c1 c3bd 7404 463e 5825 07be
00000110: 401b 473e f2eb 1b3e 9198 83be 4995 59be
00000120: 6a1c 1b3d 43b4 75bd eb23 9abd 6505 b5bd
00000130: 2f18 7d3e 8d2a 573c 6ef2 4c3e 5a7b 77be
00000140: 21a7 4ebd c740 4c3e 5bd4 8fbe 102e 653d
00000150: c5d9 103e fab7 1cbe 1ccb 73bd d56a edbd
00000160: c0c9 3cbe ad52 a03e 3c1d 113e 0c3d efbc
00000170: 0aa3 8ebe 648a da3e cf62 833e a4d5 3a3e
00000180: 8417 8dbd 5e96 b1ba 8e4d a23e 0311 d8be
00000190: 1d60 653e 697b 51be 5e0e 95bd 5009 9cbe
000001a0: 9eae f73e 7887 443d 3911 19be 24d6 983e
000001b0: 8c9e abbe bed2 bbbe fcc7 63bd afe0 dbbd
000001c0: 6e47 5ebd 7284 173f f1ca 2dbd 1a11 0dbd
000001d0: 5ae9 173e 1a39 2abe fa3f bfbe 4568 e0be
000001e0: 685b 30be 5645 b4bd ceaf d33e 06d8 9bbe
000001f0: abfb 28be cef7 32be fb5a 3dbe b237 f93d
00000200: 3c42 b1be 4e9a 0bbd dcf6 23be d182 8a3a
00000210: a853 0b3e 537e 14be ed7c 01be acc4 cd3e
00000220: bb1b 30be 50f3 57bb 398d 05be a2d3 963e
00000230: bf49 6e3e cae1 52be 975b 47bd 14dd 30be
00000240: dfe8 9e3e 645b d53c 7611 a83e d381 8cbe
00000250: 0204 08be cc9d b03e 3292 f8bb 5db9 433e
00000260: 1bed f9be 2cad 49bd 9b3a b53d b105 6a3e
00000270: 1594 debc 9612 1d3e 3cf7 093d e097 973d
00000280: fab7 a9bd caf3 543e a7fe 8e3d a889 683e
00000290: f821 5a3d 078f 45be 21ad 363d 3332 69be
000002a0: cf09 c2be 3509 023d b30d bbbc 7a55 fd3e
000002b0: 650d 2cbd 8c60 953e d6be 8b3e a366 07be
000002c0: 7670 0bbe 2a5b 51be 517e 9c3e 8ec4 b8bd
000002d0: 0ef9 c4bd f601 b23e d744 8f3d 8bb3 17bf
000002e0: bdbe d03d 3677 5ebe a7c1 103f 7b4d 9e3e
000002f0: 7852 db3d 3390 373e df6d 11bd c6b9 ffbd
00000300: 2b14 11be 4796 4bbe 5ffd 53be 63ee 323f
00000310: c11c c93d 35cb 803c 6d40 6fbd 94fb e03e
00000320: be80 df3e c45f 37bf 9834 643f ed20 2abf
00000330: aca0 8abd f388 a23d d80f a73e d82d cc3c
00000340: 7f5b 49be 160a 933e 3127 113f 1a41 18bf
00000350: b275 dd3e 7769 f9bd c743 83be 0d68 11bf
00000360: d1e7 fdbe f10e 15bd 4f56 993e ea84 c1be
00000370: 44cb b1be 6424 32be d245 553e 7250 04bf
00000380: a55a 133e 1efa 2b3d cad0 353e eba6 133e
00000390: 6ce5 81be 7e8e d63b b8ed a03e 0efb 4b3d
000003a0: 6e30 ecbd 4efa bd3e 7266 463f 5916 89be
000003b0: d3b9 85be 8f9a 803e 5ae7 c9bd d274 c3be
000003c0: 3487 ac3e eaa2 873d 9349 af3d a68f ccbc
000003d0: bb0f 07bd 6475 073f 24f3 883e 2a73 8ebe
000003e0: cf88 36bd cd12 913d d94c a1be 8355 d53d
000003f0: b045 a0be 27e8 6e3e e05a a63d 741b b23c

classifier.4.bias f4 [10]
0.20583029 -0.1289706 0.1479608 -0.11577467 -0.2308609 -0.13351616 0.17202903 -0.20001644
0.1252652 -0.17108029
00000000: 2dc5 523e de10 04be 0983 173e 451b edbd
00000010: cd66 6cbe 76b8 08be 6128 303e 1cd1 4cbe
00000020: 8545 003e ac2f 2fbe
