experiments/LeNet/CIFAR10/experiment-5/last-epoch.pt (torch, 258859 bytes, 18 tensors)

features.0.weight f4 [6, 3, 5, 5]
0.18523097 0.20813218 -0.26019204 -0.13168073 -0.04393138 -0.042943858 0.26027635 0.33053938
0.3666506 0.03314637 -0.21104355 0.10630759 0.5181662 0.68615687 0.02938941 -0.1593491
-0.27468798 -0.6155143 -0.6669982 -0.25724357 0.077020906 -0.033859663 -0.32279435 -0.20503922
0.23513028 -0.0040761638 0.061040416 -0.4100854 -0.3690056 -0.08162645 -0.2893986 0.16714104
0.14077201 0.24221392 0.19915593 -0.1940917 0.09203277 0.69362193 0.64717615 -0.024903161
0.105636306 -0.29464987 -0.5397183 -0.44677213 -0.3021627 0.3466626 0.23248534 -0.2635338
-0.19175546 0.3285058 -0.00088723877 -0.1648978 -0.57884616 -0.52225447 -0.013421406 -0.31117806
0.2085345 0.23104863 0.2603516 0.020505253 -0.13035476 0.09126366 0.7432351 0.7298825
0.16346307 -0.023318863 -0.13170107 -0.41980127 -0.31794864 -0.27092817 0.2732726 0.24233046
-0.16898689 -0.07362674 0.091575325 -0.008188917 0.0038969154 -0.10823697 -0.013364223 -0.0429387
0.11523647 0.19006854 0.13935123 0.089248754 0.09375996 0.07839112 0.04986053 0.16844139
0.123474315 0.19288318 -0.01936439 0.14808343 0.04142341 0.18488038 0.15909314 -0.007745738
0.15717784 0.04575344 0.10671575 0.14925584 -0.2051881 -0.2634413 -0.07031193 -0.24898604
-0.13497068 -0.20392212 -0.19654536 -0.12576501 -0.07697638 0.03529393 -0.16815235 -0.089274734
-0.1138164 -0.017943798 -0.135483 -0.22550067 -0.08552173 -0.17315513 -0.11765571 -0.022812113
-0.16743612 -0.16835651 -0.3223473 -0.14100337 -0.070575 -0.020732079 0.106998056 -0.0727694
0.04859706 -0.05261583 0.17812705 0.06369679 0.046240505 0.041547347 0.21681456 0.15486157
0.0495805 0.14632168 0.0850196 0.21887432 0.11871153 0.15922166 0.23668584 0.17175575
0.13791981 0.018791566 -0.061918724 0.14052376 -0.05353951 0.045599226 -0.0812139 -0.025494238
-0.03171002 -0.02725966 0.0029545603 0.11684975 0.1898348 0.030405963 0.15807146 -0.03454529
0.27904788 0.17482443 0.16155648 0.18920508 0.0022313343 0.23646137 0.044194017 0.04285083
0.02190393 0.09627599 0.15289518 -0.04699476 0.079875894 -0.029291524 -0.039767623 0.063716866
-0.05293299 -0.013413799 0.10142834 -0.049935617 0.26624835 0.21452664 0.064392105 -0.03384616
0.09739686 0.12421443 0.10641544 -0.05812144 0.12894505 0.028481307 0.21917553 0.09274374
-0.07474702 -0.033501953 -0.16332512 0.15479094 0.04717076 -0.1090963 -0.047893316 -0.072133
-0.07949481 -0.10053803 -0.055495042 -0.15767267 -0.14403696 -0.0062697283 -0.1292776 -0.09835349
0.037071254 -0.1820586 -0.18895112 -0.039579365 -0.1276875 -0.06356839 -0.038197618 -0.07438896
-0.11205558 -0.039223578 -0.08608252 -0.01940702 -0.086486004 -0.06727973 -0.042971663 -0.21139349
-0.2247904 -0.015541266 -0.035571434 -0.13179319 -0.06168946 -0.04164137 -0.0012797078 -0.01495683
-0.08330257 -0.18374194 -0.06382429 -0.032293223 0.059212375 -0.07342651 0.006195499 -0.04342748
0.019758552 0.042157177 0.04926877 0.0046661007 -0.055035267 0.0778668 0.09596053 0.17306654
0.09671907 0.19541134 0.11933701 0.10207796 -0.035676036 0.16643481 0.08649463 0.054952066
00000000: 30ad 3d3e 9a20 553e e437 85be 50d7 06be
00000010: 64f1 33bd e6e5 2fbd f142 853e 753c a93e
00000020: a1b9 bb3e 7dc4 073d cd1b 58be cbb7 d93d
00000030: 8aa6 043f faa7 2f3f 0fc2 f03c 692c 23be
00000040: e7a3 8cbe 5892 1dbf 65c0 2abf 6eb5 83be
00000050: 23bd 9d3d 6eb0 0abd 4d45 a5be cdf5 51be
00000060: fec5 703e 5791 85bb 8405 7a3d b7f6 d1be
00000070: 4dee bcbe c52b a7bd 0e2c 94be 0527 2b3e
00000080: 8a26 103e ed06 783e 88ef 4b3e f9bf 46be
00000090: ad7b bc3d 3591 313f 56ad 253f b701 ccbc
000000a0: d957 d83d 59dc 96be fa2a 0abf 51bf e4be
000000b0: 12b5 9abe c37d b13e a310 6e3e e7ed 86be
000000c0: 8b5b 44be ea31 a83e 9695 68ba f8da 28be
000000d0: 432f 14bf 78b2 05bf 75e5 5bbc bb52 9fbe
000000e0: 118a 553e 0398 6c3e ce4c 853e a2fa a73c
000000f0: b87b 05be 71e8 ba3d a844 3e3f 94d9 3a3f
00000100: dd62 273e 3307 bfbc a5dc 06be 31f0 d6be
00000110: 2aca a2be 19b7 8abe 63ea 8b3e 7a25 783e
00000120: e60a 2dbe 9ec9 96bd d88b bb3d cf2a 06bc
00000130: 6463 7f3b 58ab ddbd 9df5 5abc 7ee0 2fbd
00000140: 1901 ec3d 54a1 423e 17b2 0e3e 0dc8 b63d
00000150: 3905 c03d 868b a03d 8e3a 4c3d e67b 2c3e
00000160: 1ae0 fc3d 2b83 453e 12a2 9ebc 2fa3 173e
00000170: 98ab 293d 4851 3d3e 50e9 223e f6cf fdbb
00000180: 3af3 203e f667 3b3d ca8d da3d 86d6 183e
00000190: d41c 52be c7e1 86be b3ff 8fbd 32f6 7ebe
000001a0: c135 0abe f6d0 50be 3043 49be 8bc8 00be
000001b0: cba5 9dbd 5e90 103d 2130 2cbe acd5 b6bd
000001c0: 9318 e9bd dffe 92bc 0ebc 0abe a6e9 66be
000001d0: 0426 afbd 944f 31be 7af5 f0bd 78e0 babc
000001e0: 6074 2bbe a665 2cbe b50a a5be 3063 10be
000001f0: a089 90bd 52d6 a9bc cc21 db3d 2008 95bd
00000200: b60d 473d b283 57bd f066 363e 7673 823d
00000210: af66 3d3d 8d2d 2a3d a304 5e3e 0894 1e3e
00000220: ec14 4b3d 5ad5 153e c21e ae3d 9720 603e
00000230: 081f f33d 010b 233e c65d 723e bde0 2f3e
00000240: da3a 0d3e c5f0 993c 7d9e 7dbd 76e5 0f3e
00000250: 3f4c 5bbd 41c6 3a3d 7953 a6bd 4bd9 d0bc
00000260: 5ee2 01bd a74f dfbc 4ca1 413b ec4e ef3d
00000270: 0e64 423e ed15 f93c 7cdd 213e 5d7f 0dbd
00000280: 5ddf 8e3e 2d05 333e 106f 253e fabe 413e
00000290: 943b 123b ee22 723e c904 353d 5a84 2f3d
000002a0: df6f b33c 592c c53d 8e90 1c3e 947d 40bd
000002b0: f995 a33d c7f4 efbc 60e3 22bd fd7d 823d
000002c0: 43d0 58bd 8dc5 5bbc a9b9 cf3d 4a89 4cbd
000002d0: b451 883e dfac 5b3e 02e0 833d 45a2 0abd
000002e0: 0178 c73d 2364 fe3d 57f0 d93d bf10 6ebd
000002f0: 2c0a 043e a151 e93c 8d6f 603e 6ef0 bd3d
00000300: f714 99bd 5839 09bd b33e 27be 8481 1e3e
00000310: 2036 413d e26d dfbd c82b 44bd 77ba 93bd
00000320: 2dce a2bd e2e6 cdbd c54e 63bd f274 21be
00000330: 6d7e 13be 4b72 cdbb 5961 04be 8e6d c9bd
00000340: 07d8 173d 926d 3abe 677c 41be f91d 22bd
00000350: 83c0 02be 2530 82bd 1b75 1cbd 3d59 98bd
00000360: 657d e5bd e7a8 20bd 084c b0bd 79fb 9ebc
00000370: 931f b1bd f5c9 89bd 0e03 30bd 8977 58be
00000380: 742f 66be cba0 7ebc 5ab3 11bd cbf4 06be
00000390: 16ae 7cbd 2490 2abd debb a7ba 7e0d 75bc
000003a0: 8a9a aabd d926 3cbe 4fb6 82bd e645 04bd
000003b0: ad88 723d a360 96bd 9d03 cb3b 03e1 31bd
000003c0: b0dc a13c 01ad 2c3d 0dce 493d 17e6 983b
000003d0: a96c 61bd a178 9f3d f486 c43d 5b38 313e
000003e0: a614 c63d e919 483e f666 f43d 400e d13d
000003f0: 0921 12bd e36d 2a3e 1924 b13d 6b15 613d

features.0.bias f4 [6]
0.10065263 0.16345482 0.14750902 0.06749448 0.18409291 0.10899546
00000000: f722 ce3d b360 273e 9b0c 173e 8c3a 8a3d
00000010: da82 3c3e 0339 df3d

features.2.weight f4 [6]
1.2774642 0.74500036 0.7471796 0.741651 0.6812599 1.3618737
00000000: f283 a33f 58b8 3e3f 2a47 3f3f d7dc 3d3f
00000010: 0c67 2e3f e151 ae3f

features.2.bias f4 [6]
-0.05687959 -0.11340652 0.037046473 0.12216141 0.049481824 0.0846604
00000000: 93fa 68bd ad41 e8bd 0bbe 173d c32f fa3d
00000010: 74ad 4a3d 6f62 ad3d

features.2.running_mean f4 [6]
0.09325616 0.47812563 0.4627811 0.7983612 0.4457495 0.102409996
00000000: 16fd be3d e2cc f43e a5f1 ec3e 6661 4c3f
00000010: 4739 e43e 55bc d13d

features.2.running_var f4 [6]
0.053554658 0.08852163 0.11269622 0.1021412 0.23190725 0.07468416
00000000: 215c 5b3d d44a b53d 47cd e63d 682f d13d
00000010: 1879 6d3e 02f4 983d

features.4.weight f4 [16, 6, 5, 5]
0.068454124 0.006880308 -0.098870546 -0.037134495 -0.015955782 0.06121289 -0.085651256 0.0037628096
0.04389156 -0.07461416 0.024492627 -0.04118569 -0.085539 0.023030791 -0.031127878 -0.12154026
-0.14767087 -0.17071107 -0.048542473 -0.1718958 -0.12999366 -0.08333345 -0.13718155 -0.11445436
-0.08312134 0.08206234 -0.058753602 -0.055896793 0.12826797 0.14095302 -0.087391354 0.02226462
-0.041789398 0.018325487 -0.011495658 -0.008159872 0.103944674 0.10865604 0.005635149 -0.013221325
0.022205433 0.05602539 -0.058069136 0.07005915 -0.050874576 0.14459963 0.08481599 0.011657733
-0.10652383 -0.023787254 0.011261623 0.09691007 0.043328255 0.023015711 0.039586376 -0.0057005608
-0.0386022 0.07842528 0.0426304 0.015287023 0.01564678 -0.058177575 -0.046731602 0.13971467
0.040016204 0.007314699 -0.10595972 -0.0497817 0.07206172 0.06941957 -0.017231226 -0.028646454
0.06948372 0.06557041 0.044203807 -0.021895679 -0.04271793 0.0042726016 0.10240803 0.19550002
-0.17815425 -0.11152895 0.10010412 0.13295144 0.022664366 -0.13378543 -0.091485456 0.06865603
0.09176744 0.13689063 -0.143588 -0.09186922 0.021825697 0.13623647 0.12769938 -0.05255677
-0.023010397 0.012151271 -0.0007426831 0.017941212 0.13296884 -0.0702727 0.029674744 -0.047010034
0.103758216 0.07932829 -0.06317997 -0.103715435 0.01939092 0.0058922875 0.03592116 0.0039503165
-0.10848515 -0.06864838 0.02413743 0.13952173 0.011140138 -0.039802708 0.03454955 0.04077256
0.1398328 0.042464055 0.07266542 0.14183292 0.10590221 0.035526954 0.048380084 0.062729485
-0.004019933 -0.027840074 0.08021597 0.014270769 0.07196706 0.00041070604 0.0072113886 0.07594542
-0.014345521 0.0071165347 0.10047387 0.041231856 0.08584434 0.04206626 0.090034336 0.084887296
-0.018346714 0.009925022 -0.053960975 0.02580752 -0.020891642 -0.022348285 -0.07845948 -0.06443652
-0.016639419 -0.034304135 -0.024177711 -0.15573776 -0.017134663 -0.016089067 -0.0297949 0.018979212
-0.022946704 -0.03244667 -0.016008291 -0.015736006 0.040097073 0.0105774505 -0.09313513 -0.036584504
-0.013756791 0.022655258 -0.0059672277 -0.015722891 -0.109909154 -0.031304438 0.029316003 0.04688975
0.11959509 0.10057607 -0.04726924 -0.100062974 0.010231659 0.13090442 -0.009256698 -0.09324811
0.0009765386 0.04619517 0.030246604 -0.07603679 -0.011083617 -0.13182949 0.0701959 -0.033771798
-0.046760798 -0.0037011686 -0.1057313 0.06109831 0.08387407 0.0025358757 0.05049332 -0.09456585
-0.064112715 -0.11888198 -0.11074686 0.0019758076 0.03763198 0.05366073 -0.12652652 -0.013577479
-0.042874143 0.09930173 -0.044667024 -0.0040669134 -0.007454253 -0.0034055142 0.06416909 0.088386975
-0.07228722 0.042304285 0.029419115 0.060993124 -0.05893013 -0.021673037 -0.060061224 -0.06832113
-0.03891404 -0.19910526 -0.09891076 -0.04210775 -0.068294354 -0.09371007 -0.18775606 -0.12680028
0.014490273 0.05556234 0.02426209 -0.13338876 -0.16710535 0.025439007 0.022475008 0.12650263
-0.14052053 -0.115257815 -0.021989617 0.09646614 0.08294169 0.0029872754 -0.015094627 0.1754667
0.16726527 0.22846416 -0.055486627 -0.10477094 -0.095379844 0.009968716 -0.07712879 -0.04067054
00000000: ad31 8c3d 3574 e13b a47c cabd 571a 18bd
00000010: b3b5 82bc 5eba 7a3d ed69 afbd 7899 763b
00000020: a3c7 333d 4fcf 98bd c3a4 c83c 53b2 28bd
00000030: 122f afbd 12ab bc3c e4ff febc 1aea f8bd
00000040: 0837 17be e2ce 2ebe 79d4 46bd 7405 30be
00000050: 0f1d 05be baaa aabd 5279 0cbe 0c67 eabd
00000060: 853b aabd 4d10 a83d 9ea7 70bd 09f4 64bd
00000070: ae58 033e fd55 103e 3dfa b2bd 4b64 b63c
00000080: 5c2b 2bbd 551f 963c 4958 3cbc fcb0 05bc
00000090: f2e0 d43d 0f87 de3d 0ea7 b83b 429e 58bc
000000a0: 2be8 b53c e17a 653d e7d9 6dbd 2c7b 8f3d
000000b0: dc61 50bd ed11 143e 01b4 ad3d 1300 3f3c
000000c0: 2a29 dabd 7ddd c2bc ac82 383c c978 c63d
000000d0: f878 313d 728b bc3c 5325 223d c5cb babb
000000e0: 571d 1ebd 6f9d a03d 379d 2e3d 6c76 7a3c
000000f0: ad2d 803c 9c4b 6ebd a369 3fbd 5d11 0f3e
00000100: 08e8 233d 24b0 ef3b 6901 d9bd e5e7 4bbd
00000110: 1895 933d d92b 8e3d 8028 8dbc f8ab eabc
00000120: 7b4d 8e3d c749 863d 0d0f 353d 915e b3bc
00000130: fff8 2ebd 2e01 8c3b 4dbb d13d 2831 483e
00000140: 116e 36be 4a69 e4bd 6403 cd3d 6c24 083e
00000150: 9faa b93c 0cff 08be ba5c bbbd 889b 8c3d
00000160: 91f0 bb3d 0f2d 0c3e bc08 13be ee25 bcbd
00000170: cecb b23c 9381 0b3e a0c3 023e c545 57bd
00000180: 4d80 bcbc 2016 473c 9fb0 42ba 73f9 923c
00000190: fc28 083e 22eb 8fbd 7318 f33c 988d 40bd
000001a0: 307f d43d df76 a23d 8064 81bd c268 d4bd
000001b0: b5d9 9e3c 1714 c13b 1122 133d a871 813b
000001c0: 762d debd 8697 8cbd dcbb c53c c9de 0e3e
000001d0: 2085 363c 2a08 23bd d483 0d3d 2101 273d
000001e0: 5430 0f3e caee 2d3d 9cd1 943d a63c 113e
000001f0: 42e3 d83d b684 113d 322a 463d 5178 803d
00000200: a4b9 83bb de10 e4bc 4548 a43d f2cf 693c
00000210: 7763 933d 0854 d739 834d ec3b 4689 9b3d
00000220: 7a09 6bbc d231 e93b 3fc5 cd3d bce2 283d
00000230: 28cf af3d ac4d 2c3d ec63 b83d 64d9 ad3d
00000240: d94b 96bc 8f9c 223c 2f06 5dbd 4b6a d33c
00000250: f324 abbc c013 b7bc 5daf a0bd 4bf7 83bd
00000260: 644f 88bc 7e82 0cbd 5610 c6bc b879 1fbe
00000270: fe5d 8cbc 38cd 83bc 6f14 f4bc 4b7a 9b3c
00000280: bafa bbbc cde6 04bd d223 83bc cce8 80bc
00000290: d43c 243d 0b4d 2d3c a2bd bebd a2d9 15bd
000002a0: 2a64 61bc 8597 b93c bc88 c3bb 4bcd 80bc
000002b0: 0d18 e1bd 1539 00bd 1d28 f03c 770f 403d
000002c0: 45ee f43d d4fa cd3d 649d 41bd d1ed ccbd
000002d0: b0a2 273c cf0b 063e 68a9 17bc ddf8 bebd
000002e0: 65fe 7f3a 2637 3d3d bac7 f73c 2db9 9bbd
000002f0: 0f98 35bc 4ffe 06be dec2 8f3d 4c54 0abd
00000300: 4088 3fbd 4e8f 72bb a789 d8bd 3942 7a3d
00000310: 2bc6 ab3d ef30 263b 15d2 4e3d beab c1bd
00000320: 874d 83bd 6578 f3bd 40cf e2bd 8d7c 013b
00000330: fe23 1a3d 5bcb 5b3d 2b90 01be 1374 5ebc
00000340: cc9c 2fbd b55e cb3d c5f4 36bd be43 85bb
00000350: ce42 f4bb 0c2f 5fbb 156b 833d 3b04 b53d
00000360: 520b 94bd 4247 2d3d 5b00 f13c edd3 793d
00000370: b860 71bd a78b b1bc c202 76bd f3eb 8bbd
00000380: 5464 1fbd 40e2 4bbe b991 cabd 2d79 2cbd
00000390: e9dd 8bbd 11eb bfbd 2043 40be efd7 01be
000003a0: 9c68 6d3c 5695 633d 4ac1 c63c 1097 08be
000003b0: aa1d 2bbe 7765 d03c 821d b83c e889 013e
000003c0: 9de4 0fbe 4a0c ecbd 9223 b4bc 0a90 c53d
000003d0: 55dd a93d 2ac6 433b 744f 77bc 8bad 333e
000003e0: 9647 2b3e 82f2 693e f245 63bd 2692 d6bd
000003f0: 8256 c3bd d353 233c b3f5 9dbd 2796 26bd

features.4.bias f4 [16]
-0.07610415 0.14390124 -0.16982682 -0.27126694 -0.14962323 -0.18650025 -0.028808452 -0.10487383
0.07345018 -0.43154562 0.004683743 -0.015803518 0.25612646 0.15274924 -0.21610449 -0.124445006
00000000: 7edc 9bbd d95a 133e 15e7 2dbe 80e3 8abe
00000010: d536 19be ecf9 3ebe b4ff ebbc 17c8 d6bd
00000020: 0c6d 963d 8cf3 dcbe 167a 993b 6176 81bc
00000030: 0223 833e 4c6a 1c3e 7f4a 5dbe 06dd febd

features.6.weight f4 [16]
1.2477247 1.2860417 1.2490753 1.3136448 1.1111503 1.2213657 1.3247248 1.3582573
1.1190813 1.32948 1.2985548 1.229506 1.2348071 1.2209275 1.252644 1.2400365
00000000: 71b5 9f3f 049d a43f b3e1 9f3f 8325 a83f
00000010: 2c3a 8e3f b655 9c3f 9590 a93f 60db ad3f
00000020: 0e3e 8f3f 672c aa3f 0b37 a63f 7460 9d3f
00000030: 290e 9e3f 5a47 9c3f a356 a03f 84b9 9e3f

features.6.bias f4 [16]
0.11985225 0.12572755 0.016808735 0.12051227 -0.044127543 0.07631637 0.11730185 0.15576053
0.007861026 0.1042528 0.05987967 -0.0109121995 0.10063256 0.04323304 0.059043862 -0.012101332
00000000: 1975 f53d b9be 003e 79b2 893c 23cf f63d
00000010: 15bf 34bd c24b 9c3d f43b f03d b07f 1f3e
00000020: 88cb 003c 7e82 d53d 6344 753d 15c9 32bc
00000030: 7218 ce3d 2115 313d fad7 713d aa44 46bc

features.6.running_mean f4 [16]
0.40319738 0.42148343 0.21218087 0.17483597 0.21392818 0.22505602 0.5723588 0.38720885
0.49257994 0.1361085 0.3602153 0.3663244 0.45063686 0.64305156 0.14985338 0.28138214
00000000: e36f ce3e adcc d73e f145 593e 3308 333e
00000010: fd0f 5b3e 1675 663e 1b86 123f 3d40 c63e
00000020: 7033 fc3e 0760 0b3e 246e b83e df8e bb3e
00000030: e0b9 e63e 079f 243f 2a73 193e 5211 903e

features.6.running_var f4 [16]
0.3451386 0.33847594 0.15574701 0.15620826 0.12315306 0.17863767 0.5182775 0.43423527
0.35776502 0.12316306 0.30431616 0.2848736 0.33138296 0.46651348 0.10984293 0.20763677
00000000: 02b6 b03e b84c ad3e 257c 1f3e 0ff5 1f3e
00000010: ac37 fc3d cbec 363e d6ad 043f 1654 de3e
00000020: fa2c b73e ea3c fc3d 54cf 9b3e f4da 913e
00000030: 07ab a93e dbda ee3e 55f5 e03d bc9e 543e

classifier.0.weight f4 [120, 400]
-0.0086835 -0.0033133454 -0.046463326 -0.009886052 -0.008788175 -0.046193365 -0.08458919 -0.08624341
-0.027764263 -0.0012257841 -0.036041927 -0.011871411 -0.08144729 -0.01816737 -0.017830642 -0.02272603
-0.0027016236 0.042512912 -0.014965794 -0.03845446 0.029107654 0.033081334 -0.022310449 -0.008719876
-0.048553385 0.020944053 -0.012935682 0.021828722 0.020852597 0.0011049139 0.022502083 0.01699216
0.03220333 0.023953738 0.021657674 -0.01859506 -0.013568415 -0.015229696 -0.08147715 -0.089022264
-0.039924156 -0.04375732 -0.022008967 -0.07295259 -0.11599967 -0.009887531 -0.0074404064 -0.056623995
-0.011070077 -0.08880133 0.01988172 0.011149368 0.037008576 -0.03688007 0.013012835 0.015663128
0.055224102 0.032226868 0.02571053 0.017028553 -0.02204285 0.06791927 0.06881338 0.016109329
0.006614206 -0.033120744 -0.078216486 0.001549796 -0.030388834 0.0010168541 0.02060502 -0.005161271
-0.0024162368 -0.027508141 0.04596427 0.020966858 -0.057240766 0.02493474 -0.0011100714 -0.04846133
-0.020905342 -0.02628652 0.041542526 -0.025604913 -0.0049527334 -0.015487492 0.001582407 0.012998924
-0.012506338 -0.043717574 0.020144064 0.05219766 0.0052068518 -0.022484696 -0.022714492 0.010058014
0.015999088 -0.04010655 -0.08993721 -0.047899522 0.022670113 -0.011126757 0.004991453 0.017804435
0.015556078 0.015443706 -0.03866081 -0.064322375 0.033335242 -0.021620158 0.040820625 -0.045533355
-0.068696275 -0.028425654 -0.048905358 -0.049940348 0.027569415 -0.032181848 -0.06294047 -0.062028322
-0.032235224 -0.03650568 -0.017295374 -0.033378575 -0.037372045 -0.038262583 0.015237036 0.024900272
-0.031660855 -0.0631641 -0.038202852 -0.07210478 -0.050494865 -0.029542178 -0.06332557 -0.06741186
-0.10282474 0.000637473 -0.07110962 -0.06935186 -0.0072161458 0.0025499274 -0.04089837 -0.055269793
0.008057908 -0.035362232 -0.009763994 -0.06520305 0.029148808 -0.0051012286 0.015311663 -0.006502399
0.06778234 -0.00032457773 0.040983863 6.1111314e-05 -0.054672655 -0.08125254 -0.01774027 -0.06899993
-0.033679835 0.0005503296 -0.072424255 -0.060869306 -0.06507156 0.0025560756 0.025451075 0.036486454
0.00092894316 -0.0953435 0.04376487 0.038481593 -0.0027495201 -0.009119801 -0.016999131 0.011660541
0.027837155 0.042506196 0.049940027 -0.0049345437 -0.02921005 -0.005135718 0.008391705 0.026675655
0.0055069234 -0.01143413 -0.028703986 -0.0031871144 0.008348917 0.057630945 -0.011482873 0.019882856
-0.03865168 0.03997959 0.030211613 0.011118711 -0.0043094666 0.0536529 0.07177367 -0.0057726465
0.02600335 0.012214122 0.029077468 0.001524799 -0.025257664 -0.01847094 -0.013974068 -0.003596687
-0.026875388 -0.027743787 0.012176906 -0.04164364 0.0039994097 -0.05378028 -0.028840415 -0.04436528
-0.05659818 -0.02424376 -0.048208218 -0.018705038 -0.08555699 -0.047949456 -0.030965645 -0.06963757
-0.04193521 0.032553397 0.059699733 0.014100961 0.026706558 0.023521397 0.019120492 0.041542735
0.06739961 0.059883375 0.05176989 0.04885949 0.048793033 0.045499362 0.058521327 0.0076163155
0.07556602 0.023620602 0.045428827 0.06074362 -0.009990945 0.004067808 -0.015127792 0.024424057
0.0068759797 0.06181622 0.039305434 0.021350164 -0.000150123 0.031504653 0.03625118 -0.049162615
00000000: 3d45 0ebc b624 59bb 5450 3ebd 1cf9 21bc
00000010: 47fc 0fbc 4135 3dbd 193d adbd 63a0 b0bd
00000020: e171 e3bc 7daa a0ba b3a0 13bd 4f80 42bc
00000030: d6cd a6bd bdd3 94bc 9111 92bc f02b babc
00000040: b90d 31bb 0522 2e3d 1733 75bc 6d82 1dbd
00000050: 2d73 ee3c 4b80 073d 67c4 b6bc d0dd 0ebc
00000060: eadf 46bd dd92 ab3c 2ff0 53bc 26d2 b23c
00000070: 11d3 aa3c c2d2 903a 4a56 b83c 2433 8b3c
00000080: a4e7 033d a13a c43c 6f6b b13c ab54 98bc
00000090: 0f4e 5ebc fa85 79bc 7edd a6bd 4e51 b6bd
000000a0: 8387 23bd e03a 33bd 264c b4bc 2b68 95bd
000000b0: 3c91 edbd 50ff 21bc a7ce f3bb 90ee 67bd
000000c0: 455f 35bc 79dd b5bd fdde a23c d7ab 363c
000000d0: 4e96 173d 8e0f 17bd c933 553c f64f 803c
000000e0: ab32 623d 5200 043d e49e d23c 777f 8b3c
000000f0: 3593 b4bc 4219 8b3d 08ee 8c3d b6f7 833c
00000100: fbbb d83b 9ea9 07bd f72f a0bd 8622 cb3a
00000110: 01f2 f8bc f647 853a dccb a83c e11f a9bb
00000120: ba59 1ebb c158 e1bc 0845 3c3d b0c2 ab3c
00000130: 4b75 6abd f143 cc3c d17f 91ba 637f 46bd
00000140: ae41 abbc d456 d7bc 7f28 2a3d 65c1 d1bc
00000150: 8a4a a2bb 40bf 7dbc c568 cf3a 70f9 543c
00000160: 62e7 4cbc 3311 33bd 2a05 a53c 37cd 553d
00000170: 3d9e aa3b d331 b8bc be13 babc 5eca 243c
00000180: 8510 833c c446 24bd 0031 b8bd 4a32 44bd
00000190: acb6 b93c 004d 36bc 588f a33b 9bda 913c
000001a0: ecde 7e3c 9907 7d3c cc5a 1ebd 73bb 83bd
000001b0: 898a 083d c21c b1bc 8733 273d 2f81 3abd
000001c0: a2b0 8cbd ebdc e8bc fc50 48bd 408e 4cbd
000001d0: 41d9 e13c 1dd1 03bd efe6 80bd 6911 7ebd
000001e0: 1509 04bd fb86 15bd 07af 8dbc f9b7 08bd
000001f0: 6e13 19bd 3ab9 1cbd c3a4 793c a8fb cb3c
00000200: d0ae 01bd 2e5c 81bd 987a 1cbd acab 93bd
00000210: b4d3 4ebd 7002 f2bc d6b0 81bd 3b0f 8abd
00000220: c795 d2bd 171c 273a eca1 91bd 5908 8ebd
00000230: 6b75 ecbb af1c 273b 0d85 27bd 9462 62bd
00000240: 5105 043c fdd7 10bd 29f9 1fbc 2d89 85bd
00000250: 7bc9 ee3c 3528 a7bb c5dd 7a3c 1412 d5bb
00000260: 78d1 8a3d 162c aab9 b2de 273d e328 8038
00000270: 6ff0 5fbd bb67 a6bd 0b54 91bc d64f 8dbd
00000280: def3 09bd ff43 103a 2b53 94bd 1852 79bd
00000290: 3d44 85bd d583 273b c67e d03c d272 153d
000002a0: 5284 733a 7443 c3bd cb42 333d e09e 1d3d
000002b0: 4b31 34bb 386b 15bc c341 8bbc db0b 3f3c
000002c0: bf0a e43c fa1a 2e3d ea8d 4c3d f4b1 a1bb
000002d0: ea49 efbc 8649 a8bb 5d7d 093c e786 da3c
000002e0: 6c73 b43b 3856 3bbc 9f24 ebbc e8de 50bb
000002f0: e5c9 083c 6d0e 6c3d a922 3cbc 5fe1 a23c
00000300: 3951 1ebd a3c1 233d 587e f73c 412b 363c
00000310: 6d36 8dbb 25c3 5b3d 13fe 923d 7828 bdbb
00000320: fa04 d53c be1d 483c df33 ee3c c4db c73a
00000330: 29e9 cebc 5e50 97bc 7df3 64bc 65b6 6bbb
00000340: c629 dcbc f046 e3bc a581 473c 8592 2abd
00000350: 7b0d 833b b648 5cbd bc42 ecbc 5eb8 35bd
00000360: 7ed3 67bd da9a c6bc fb75 45bd 4f3b 99bc
00000370: 8138 afbd a666 44bd aaab fdbc 249e 8ebd
00000380: 41c4 2bbd b656 053d b587 743d b807 673c
00000390: b6c7 da3c f2af c03c 94a2 9c3c b728 2a3d
000003a0: cf08 8a3d 4548 753d aa0c 543d e320 483d
000003b0: 34db 473d 8a5d 3a3d 0fb4 6f3d 4992 f93b
000003c0: 5cc2 9a3d fe7f c13c 9413 3a3d 4dce 783d
000003d0: 10b1 23bc 3f4b 853b 8fda 77bc f614 c83c
000003e0: e64f e13b 0133 7d3d bcfe 203d 8ae6 ae3c
000003f0: 566a 1db9 060b 013d 1e7c 143d bd5e 49bd

classifier.0.bias f4 [120]
-0.003831056 0.04171999 -0.03500548 0.06501544 0.06959056 0.014766117 0.007908452 0.064787
0.008146611 0.05356772 0.050044548 0.050903097 -0.0148415165 0.0036729258 0.0759016 -0.017195646
-0.01883096 -0.016266804 0.008973936 0.062052004 -0.058768526 -0.052481443 0.036964584 -0.087819695
0.0068076267 0.06754752 0.03726942 -0.0009634319 0.0421063 0.02276481 -0.035156835 0.00634374
-0.038052954 0.047270183 -0.036744293 -0.021908209 -0.02792621 0.009524352 -0.041298516 0.03599237
0.04243367 0.04000549 -0.00585731 0.0030504141 0.019084953 0.0005705443 0.012250692 -0.055224452
-0.04063086 0.00047275692 0.0042270664 0.07080395 -0.016247256 -0.02037072 0.01688442 -0.040579524
-0.038568486 -0.0045876848 0.03108199 -0.035992734 0.073009975 -0.030871956 -0.02914895 0.021184199
0.041850526 -0.0049313097 -0.0016320319 0.0033083092 0.04884404 -0.010779617 -0.03962426 0.03273891
0.069636166 0.056029156 -0.02183746 0.058883537 -0.025718294 -0.0026897248 -0.05067875 -0.0541999
0.0031197136 -0.0010349153 -0.052278683 0.010156499 -0.018202558 -0.056747325 -0.01839823 -0.016113944
-0.013880053 0.054536726 0.0420907 0.00031716406 0.052069966 -0.0005423743 -0.057714734 0.046504077
0.04742308 0.0375837 -0.050513927 0.033636626 0.0708136 0.016376713 0.018685933 0.027191343
0.04643478 0.07274702 0.029614119 0.027626127 0.04652964 0.033201326 -0.019475324 0.069086984
0.07818442 -0.015536014 0.053108018 0.07659817 0.012149639 0.079229355 -0.016434819 -0.010307397
00000000: 7412 7bbb 95e2 2a3d e861 0fbd d126 853d
00000010: 7f85 8e3d 95ed 713c 7492 013c 0caf 843d
00000020: 5d79 053c d369 5b3d 83fb 4c3d c47f 503d
00000030: d529 73bc 78b5 703b 4c72 9b3d e2dd 8cbc
00000040: 6343 9abc f641 85bc 6a07 133c 3e2a 7e3d
00000050: 44b7 70bd c8f6 56bd 2d68 173d d0da b3bd
00000060: 8312 df3b 5b56 8a3d d2a7 183d d28e 7cba
00000070: a877 2c3d 447d ba3c 9d00 10bd 26df cf3b
00000080: 6add 1bbd 619e 413d 2f81 16bd d878 b3bc
00000090: 82c5 e4bc 070c 1c3c a228 29bd bc6c 133d
000000a0: eece 2d3d ccdc 233d adee bfbb 75e9 473b
000000b0: 0c58 9c3c 9490 153a 20b7 483c 0933 62bd
000000c0: 8b6c 26bd 5cdc f739 3483 8a3b a901 913d
000000d0: f718 85bc 7fe0 a6bc 3251 8a3c b736 26bd
000000e0: fdf9 1dbd 4a54 96bb a89f fe3c 1e6d 13bd
000000f0: 4186 953d 2fe7 fcbc c7c9 eebc 7c8a ad3c
00000100: 756b 2b3d d396 a1bb e7e9 d5ba 38d0 583b
00000110: b010 483d fe9c 30bc 0c4d 22bd 3c19 063d
00000120: 689d 8e3d d47e 653d 79e4 b2bc dd2f 713d
00000130: 2caf d2bc 1846 30bb 8594 4fbd b700 5ebd
00000140: 1c74 4c3b ffa5 87ba 2c22 56bd 7267 263c
00000150: 881d 95bc e26f 68bd e3b7 96bc 6401 84bc
00000160: 2969 63bc e761 5f3d 4c67 2c3d 0a49 a639
00000170: 5147 553d 202e 0eba 4966 6cbd 0f7b 3e3d
00000180: b43e 423d 5ef1 193d b1e7 4ebd 8fc6 093d
00000190: b906 913d 7528 863c 3e13 993c 61c0 de3c
000001a0: 6532 3e3d 64fc 943d 4f99 f23c 3050 e23c
000001b0: dd95 3e3d 1dfe 073d b78a 9fbc 7a7d 8d3d
000001c0: 271f a03d c48a 7ebc cb87 593d 80df 9c3d
000001d0: 480f 473c 0043 a23d 50a2 86bc 5be0 28bc

classifier.2.weight f4 [84, 120]
0.092618525 -0.0685664 0.02118069 0.049827654 0.015979758 0.07654999 0.09616589 -0.007976765
0.089339234 -0.013200186 0.010617778 -0.0048609916 -0.025911171 -0.014970177 -0.022897 0.01734328
-0.013582813 -0.02767984 -0.024513334 -0.0018320527 -0.094642095 -0.02143442 0.06434873 0.073096
0.07884592 -0.06101777 0.0352528 -0.069515176 -0.06609035 -0.0994795 -0.10355937 -0.0026762013
0.049165163 -0.008863544 0.028944563 -0.076286726 0.13102596 -0.0033423458 0.0478069 0.054631524
-0.07423714 0.036248088 0.09100535 -0.101553 -0.03479924 -0.12115464 0.08211596 -0.11680109
-0.0004667455 0.15204561 0.06405531 0.015990743 0.074770026 0.13605763 0.05025189 0.03263433
-0.10923261 -0.053751364 0.01252836 -0.05906881 0.07075341 0.05502939 -0.03617599 0.004174347
-0.071313046 -0.043608543 0.035196837 0.014141735 0.043114025 0.05936967 0.06455721 -0.13100754
0.03527629 0.019210016 -0.10524789 -0.07514168 -0.10201234 -0.021120183 0.026220005 -0.038733073
-0.016491497 -0.119839124 0.05187704 -0.09897861 -0.034514375 0.048318546 -0.0986619 0.048175752
-0.02821126 0.09195824 -0.0738256 0.054555546 0.051540054 0.09862982 -0.01879285 0.006910659
-0.009999087 -0.058323216 -0.0038263553 0.061629273 0.07577037 -0.027090093 -0.056635 0.036919404
-0.025344517 -0.015954465 -0.024671758 0.07167701 -0.0341384 0.020272106 -0.05866523 0.041272044
0.06143564 0.05645877 -0.031724263 -0.019977333 0.02574688 0.049521632 -0.07732965 -0.078583784
0.054360714 0.00372696 0.045639344 0.029716685 -0.056149535 0.08181971 0.031766187 -0.07914446
0.12653986 0.09912098 -0.057740822 0.025976492 0.100029536 -0.042176224 -0.0716779 -0.06665337
0.038932793 -0.017946286 -0.08604113 0.0262321 0.10062872 0.0031152624 -0.00018698865 0.0667208
-0.0123270545 -0.001258578 -0.0070881774 0.06678729 0.034470845 0.048944816 0.085283965 0.04203867
0.0937076 0.09950452 0.036004297 -0.05565794 0.07496396 -0.006956834 0.023909776 0.08830703
0.034940887 0.037042066 0.052639704 -0.031202076 -0.037881542 0.07880449 0.110482305 0.07025036
0.048507668 -0.035437044 0.006393754 -0.050198082 0.08078586 0.079545036 0.046396658 -0.026765792
0.039224636 -0.010318717 -0.0909798 -0.043139637 0.009263872 0.12647057 -0.070903756 0.09359125
-0.06526696 -0.026446836 -0.0046666926 -0.044461716 0.0051492066 -0.05096295 0.07331 -0.013862369
0.014779654 -0.0031573554 -0.034362752 0.016936103 -0.07230234 -0.0029788928 -0.05934257 0.06829023
-0.060712785 -0.06945554 0.025719332 0.050916027 -0.06537667 0.07880919 0.031076964 0.007971954
-0.15361315 0.009532038 -0.017378302 -0.08702922 -0.10851293 0.011191429 0.06544152 -0.07701352
-0.063404836 0.002443574 -0.025990292 -0.07292648 0.059701204 -0.04646957 0.12322093 -0.07244321
0.07732404 0.010377394 0.0058807577 0.053066723 -0.08489451 -0.06117178 0.018339248 0.019559117
0.06597128 0.05338717 0.043623663 -0.033536747 -0.029753206 -0.016166724 0.15113163 0.104002394
0.07710803 -0.09784887 0.03432521 -0.03163145 0.10782415 0.050104693 0.061920952 -0.13189131
-0.089716434 -0.040157184 0.019845348 -0.10014125 0.048107523 0.06493614 0.064375505 0.15065132
00000000: c8ae bd3d 8a6c 8cbd 2083 ad3c 1518 4c3d
00000010: fbe7 823c 3ec6 9c3d 9ff2 c43d fab0 02bc
00000020: 7df7 b63d 9845 58bc 30f6 2d3c f448 9fbb
00000030: aa43 d4bc 7945 75bc 7d92 bbbc 7f13 8e3c
00000040: 728a 5ebc d5c0 e2bc 30d0 c8bc 7d21 f0ba
00000050: b7d3 c1bd 3d97 afbc 44c9 833d 5bb3 953d
00000060: f879 a13d c5ed 79bd 3d65 103d f95d 8ebd
00000070: 615a 87bd e8bb cbbd ef16 d4bd 3563 2fbb
00000080: 6961 493d 6638 11bc 261d ed3c 373c 9cbd
00000090: ab2b 063e 420b 5bbb 2bd1 433d 4ec5 5f3d
000000a0: a409 98bd e078 143d 0361 ba3d 05fb cfbd
000000b0: a689 0ebd ed1f f8bd 6a2c a83d 6935 efbd
000000c0: 85b5 f4b9 d8b1 1b3e 6e2f 833d 05ff 823c
000000d0: 0721 993d b152 0b3e edd4 4d3d 93ab 053d
000000e0: 59b5 dfbd 642a 5cbd c043 4d3c 23f2 71bd
000000f0: 2ae7 903d 7f66 613d 462d 14bd f6c8 883b
00000100: 930c 92bd df9e 32bd 8f2a 103d bcb2 673c
00000110: 5598 303d 9c2d 733d 9236 843d d726 06be
00000120: df7d 103d 535e 9d3c 358c d7bd e2e3 99bd
00000130: d9eb d0bd 3c04 adbc 56cb d63c 92a6 1ebd
00000140: 2d19 87bc 376e f5bd 057d 543d 4cb5 cabd
00000150: f25e 0dbd abe9 453d 400f cabd f053 453d
00000160: 4d1b e7bc 9a54 bc3d e031 97bd a375 5f3d
00000170: aa1b 533d 6efe c93d 77f3 99bc cf72 e23b
00000180: 36d3 23bc 53e4 6ebd 97c3 7abb fa6e 7c3d
00000190: 7f2d 9b3d 0bec ddbc 1afa 67bd cd38 173d
000001a0: 4e9f cfbc f0b2 82bc 6d1c cabc 65cb 923d
000001b0: b5d4 0bbd b011 a63c f44a 70bd e00c 293d
000001c0: f0a3 7b3d 5041 673d 4df1 01bd 81a7 a3bc
000001d0: 1feb d23c 32d7 4a3d 025f 9ebd 89f0 a0bd
000001e0: 57a9 5e3d 0340 743b 52f0 3a3d 6870 f33c
000001f0: 0efd 65bd 1891 a73d 431d 023d 7e16 a2bd
00000200: aa93 013e f1ff ca3d a481 6cbd a7cc d43c
00000210: 49dc cc3d fac0 2cbd ddcb 92bd 9081 88bd
00000220: fe77 1f3d 1704 93bc 5536 b0bd b3e4 d63c
00000230: 6e16 ce3d 6e29 4c3b 6212 44b9 eaa4 883d
00000240: 6af7 49bc dff6 a4ba f143 e8bb c6c7 883d
00000250: 4d31 0d3d 5c7a 483d 5ca9 ae3d be30 2c3d
00000260: c5e9 bf3d 07c9 cb3d 3e79 133d 95f9 63bd
00000270: b486 993d 27f6 e3bb 6fde c33c 51da b43d
00000280: 2d1e 0f3d 6cb9 173d bb9c 573d 7f9b ffbc
00000290: ad29 1bbd 4064 a13d 8c44 e23d 6cdf 8f3d
000002a0: faaf 463d 6f26 11bd b282 d13b 819c 4dbd
000002b0: 0f73 a53d 82e8 a23d 6c0a 3e3d ef43 dbbc
000002c0: 03aa 203d d60f 29bc 9e53 babd 30b3 30bd
000002d0: 7fc7 173c 8081 013e fd35 91bd c5ac bf3d
000002e0: afaa 85bd 09a7 d8bc 0eeb 98bb 7d1d 36bd
000002f0: adba a83b 87be 50bd 8e23 963d fd1e 63bc
00000300: 5d26 723c a2eb 4ebb f5bf 0cbd 95bd 8a3c
00000310: 4013 94bd 8739 43bb 3211 73bd c0db 8b3d
00000320: f8ad 78bd b53e 8ebd 59b1 d23c 538d 503d
00000330: 34e4 85bd b666 a13d 1e95 fe3c cc9c 023c
00000340: c44c 1dbe 442c 1c3c f15c 8ebc 603c b2bd
00000350: 073c debd 415c 373c 3406 863d 44b9 9dbd
00000360: 65da 81bd 5e24 203b 98e9 d4bc 7a5a 95bd
00000370: 4089 743d e056 3ebd 415b fc3d 1b5d 94bd
00000380: 115c 9e3d f205 2a3c 5fb3 c03b 7e5c 593d
00000390: 2cdd adbd 438f 7abd 313c 963c 713a a03c
000003a0: f31b 873d 81ac 5a3d baae 323d d45d 09bd
000003b0: ffbc f3bc 1470 84bc 40c2 1a3e 35ff d43d
000003c0: d1ea 9d3d fd64 c8bd 9798 0c3d fb8f 01bd
000003d0: e8d2 dc3d 943a 4d3d d3a0 7d3d 840e 07be
000003e0: 40bd b7bd dc7b 24bd b692 a23c db16 cdbd
000003f0: 650c 453d 3dfd 843d 4ed7 833d 5744 1a3e

classifier.2.bias f4 [84]
0.06050797 -0.117800705 -0.032165956 0.042640995 0.08969222 0.076111265 0.025028061 -0.0462247
0.037015077 0.04068399 0.10246929 -0.074427105 -0.07788103 0.11275181 -0.053204473 0.005143603
-0.08620321 0.014518845 0.045646943 0.035404433 0.07536555 0.038121894 -0.055834364 0.14265527
0.05530947 0.030111983 0.07377399 0.09452851 -0.0041054627 0.08503717 -0.0060016937 -0.08097218
0.06929038 -0.09990604 0.05538078 -0.07780761 0.08642855 0.07860274 0.0028636572 0.0029340032
0.061631963 -0.027786206 0.01628179 -0.061771568 0.10162916 0.007992067 0.04540497 0.15894501
-0.003009574 0.055856597 0.05279286 0.058628254 0.039252494 -0.07636513 0.042798836 0.08581683
0.037129566 0.15838039 0.15045074 0.038758505 -0.07220068 -0.06766053 0.10099175 -0.05526019
-0.054727737 -0.08123855 0.09743893 -0.029635133 0.050075114 -0.016724229 -0.06165281 0.06351153
0.036021516 0.046960615 -0.050628852 0.22487825 -0.0068250853 0.07278972 0.03504042 0.113847665
0.09928979 0.042972475 0.043716554 0.09206549
00000000: 35d7 773d 7f41 f1bd 73c0 03bd 53a8 2e3d
00000010: 8eb0 b73d 39e0 9b3d a607 cd3c 1c56 3dbd
00000020: 1f9d 173d 41a4 263d 6bdb d13d 3d6d 98bd
00000030: 1780 9fbd 6cea e63d efec 59bd ab8b a83b
00000040: 4f8b b0bd 73e0 6d3c 4af8 3a3d 3d04 113d
00000050: 4159 9a3d b425 1c3d 93b2 64bd 3914 123e
00000060: 2f8c 623d 68ad f63c d116 973d 2a98 c13d
00000070: 1e87 86bb f827 ae3d dba9 c4bb bed4 a5bd
00000080: 1de8 8d3d 8a9b ccbd f5d6 623d 9959 9fbd
00000090: 7401 b13d 79fa a03d 32ac 3b3b 6848 403b
000000a0: cc71 7c3d e69f e3bc 6361 853c 2f04 7dbd
000000b0: f322 d03d 29f1 023c 90fa 393d 7bc2 223e
000000c0: 463c 45bb e3c9 643d 533d 583d 2e24 703d
000000d0: 39c7 203d 5265 9cbd d54d 2f3d bcc0 af3d
000000e0: 2c15 183d 782e 223e c20f 1a3e 3dc1 1e3d
000000f0: f3dd 93bd 9b91 8abd c3d4 ce3d 8258 62bd
00000100: 312a 60bd 6660 a6bd 108e c73d 61c5 f2bc
00000110: 901b 4d3d 4001 89bc a887 7cbd 5512 823d
00000120: 4c8b 133d c659 403d 3360 4fbd 7c46 663e
00000130: f7a4 dfbb c712 953d 8b86 0f3d f728 e93d
00000140: 7258 cb3d e803 303d 2110 333d d58c bc3d

classifier.4.weight f4 [10, 84]
-0.18107583 0.045426738 -0.067717284 -0.05802966 0.028124658 0.15031065 -0.118311346 -0.05791191
-0.106446855 -0.22278099 -0.14260462 0.078112036 -0.18394062 0.025540419 0.06817743 0.2803677
-0.023022326 0.088139474 0.019545466 -0.026690327 0.23707852 -0.11280289 0.3021852 0.0013774397
0.24105278 0.109017424 0.026930481 0.053903304 -0.24714008 0.112625584 -0.00961196 -0.14050214
-0.16384806 -0.12616102 0.058722727 -0.0010468521 0.039934557 -0.14878523 -0.023973158 0.26875508
0.063334525 -0.015096414 0.0640291 0.10113374 0.31107125 0.2897346 -0.14863199 -0.018436795
-0.10554652 0.27931833 0.036202155 -0.0084926775 0.03894145 -0.0034315109 0.18660663 0.08455489
-0.08683214 -0.04623027 0.018310122 0.09321865 0.024905289 -0.1471897 -0.14905798 0.18512328
0.25250208 0.33178782 -0.12218023 -0.087500885 -0.0673279 -0.024456808 -0.16471063 0.1624255
-0.013454242 0.0617966 -0.18155916 -0.11106774 0.11195949 0.26901007 0.05274795 -0.02856251
-0.06368053 0.11727144 0.2501437 -0.040591996 -0.09054007 -0.008476983 0.14787376 0.155325
0.36277595 -0.08542436 0.023186069 -0.032730073 0.02844829 -0.026298858 0.22263482 0.042321578
0.37440333 0.043609925 0.10042435 -0.03647007 -0.03221709 0.24017182 -0.14531963 0.15828317
-0.009213418 -0.019996287 -0.026372207 0.039962485 -0.23545063 0.0061025512 0.1441458 -0.055669803
-0.11934443 0.009710795 0.1744719 0.050035864 0.010401132 -0.10667971 0.110990435 -0.14183626
0.17127968 -0.21298222 -0.17054175 -0.13149588 0.121869646 0.21430704 -0.12645929 -0.04909788
0.04722334 -0.07859169 0.00855712 -0.23827416 0.021149311 -0.018405754 -0.10999284 -0.08909569
-0.14168002 -0.0610702 0.33770528 -0.06511131 -0.026699668 0.13920361 0.2354935 0.22219887
-0.10106949 -0.00969211 -0.12711507 0.17255393 -0.27282837 0.1982723 0.27205184 -0.04069558
0.0750258 -0.16241449 0.06608788 0.45578 -0.123772115 -0.032370925 -0.105150364 -0.15611854
-0.035393987 0.2042777 -0.07471645 -0.31846514 0.02885937 -0.0069487216 -0.06848372 0.011947377
-0.14644197 0.18282984 0.009623511 -0.23973598 0.072809026 0.030414049 0.10401085 -0.09600698
0.084174514 0.08981196 -0.17511497 0.0902944 0.014837099 -0.0732234 0.04726239 -0.011090236
0.03978939 0.026662912 0.05287596 0.042967502 -0.046246912 -0.020074673 0.32287094 -0.08737796
0.14783691 -0.013277776 0.209368 -0.11743019 0.06768301 -0.232881 -0.0040444983 -0.027669588
-0.19890861 -0.13908869 -0.09806569 -0.029591296 -0.03299107 -0.15415406 -0.086685255 0.08664497
-0.1853744 -0.1745686 0.16819574 0.14050019 0.0519573 0.23016854 -0.015316622 -0.057511706
0.19667272 -0.09041768 0.14405182 0.15024208 -0.16126867 0.047950704 -0.10819921 0.13700894
-0.022834802 0.04852745 0.293971 -0.11233167 -0.018260805 -0.085505836 0.18370762 0.17656231
0.37987146 0.25068942 -0.014124533 -0.092975914 0.346955 0.37307173 0.012885228 -0.063390836
-0.08788739 0.079643734 -0.1657795 0.13564633 0.19118673 -0.2824978 0.16735496 0.1918084
0.19081017 -0.16387597 0.17071642 0.16458805 -0.060529556 0.041025244 -0.14420584 -0.034129888
00000000: f16b 39be 6311 3a3d 5caf 8abd 82b0 6dbd
00000010: af65 e63c 09eb 193e 384d f2bd 0a35 6dbd
00000020: cf00 dabd b320 64be f206 12be 34f9 9f3d
00000030: ee5a 3cbe 243a d13c 9ca0 8b3d 5b8c 8f3e
00000040: 5199 bcbc 7882 b43d d01d a03c aca5 dabc
00000050: b6c4 723e 3405 e7bd 05b8 9a3e 358b b43a
00000060: 8ad6 763e 8744 df3d 509d dc3c b6c9 5c3d
00000070: 4a12 7dbe 3ea8 e63d 7b7b 1dbc cbdf 0fbe
00000080: c9c7 27be 5b30 01be 3e87 703d 8736 89ba
00000090: 6b92 233d 285b 18be 5b63 c4bc 449a 893e
000000a0: 88b5 813d f356 77bc b021 833d 351f cf3d
000000b0: bb44 9f3e 1858 943e fc32 18be c308 97bc
000000c0: c628 d8bd d002 8f3e b648 143d df24 0bbc
000000d0: 1281 1f3d 33e3 60bb cf15 3f3e 1d2b ad3d
000000e0: 0dd5 b1bd f45b 3dbd 1cff 953c 6be9 be3d
000000f0: 2d06 cc3c e6b8 16be a8a2 18be f590 3d3e
00000100: f447 813e 18e0 a93e a139 fabd aa33 b3bd
00000110: 36e3 89bd a559 c8bc e7a9 28be df52 263e
00000120: 2e6f 5cbc 6f1e 7d3d a5ea 39be 7c77 e3bd
00000130: 044b e53d b0bb 893e 3c0e 583d edfb e9bc
00000140: f06a 82bd 022c f03d d612 803e cb43 26bd
00000150: 126d b9bd 0be3 0abc 386c 173e 840d 1f3e
00000160: c5bd b93e f8f2 aebd b6f0 bd3c f80f 06bd
00000170: 630c e93c b470 d7bc 62fa 633e 6459 2d3d
00000180: cbb1 bf3e 52a0 323d 48ab cd3d a461 15bd
00000190: 11f6 03bd 9aef 753e abce 14be fc14 223e
000001a0: e0f3 16bc 41cf a3bc 870a d8bc b4af 233d
000001b0: f819 71be e9f7 c73b f59a 133e 0506 64bd
000001c0: da6a f4bd 071a 1f3c c3a8 323e 68f2 4c3d
000001d0: 8269 2a3c e47a dabd f44e e33d 863d 11be
000001e0: f163 2f3e 0318 5abe 7fa2 2ebe dba6 06be
000001f0: cb96 f93d 4e73 5b3e 8b7e 01be dc1a 49bd
00000200: 436d 413d aef4 a0bd 2a33 0c3c 24fe 73be
00000210: 5241 ad3c aac7 96bc ed43 e1bd cd77 b6bd
00000220: 9114 11be bf24 7abd b5e7 ac3e 1459 85bd
00000230: 43b9 dabc 648b 0e3e 3525 713e 1a88 633e
00000240: 85fd cebd a8cb 1ebc 742a 02be fab1 303e
00000250: 29b0 8bbe e507 4b3e 614a 8b3e 69b0 26bd
00000260: 20a7 993d fc4f 26be 1559 873d ff5b e93e
00000270: 3c7c fdbd 6097 04bd 1359 d7bd 8add 1fbe
00000280: 49f9 10bd 2c2e 513e f004 99bd dd0d a3be
00000290: 7c6a ec3c 1ab2 e3bb 3141 8cbd eebe 433c
000002a0: e2f4 15be bf37 3b3e eeab 1d3c 597d 75be
000002b0: e61c 953d e226 f93c a403 d53d 4f9f c4bd
000002c0: b063 ac3d 55ef b73d 5751 33be 45ec b83d
000002d0: 4e17 733c 26f6 95bd 3596 413d d2b3 35bc
000002e0: 33fa 223d 2e6c da3c 7694 583d b1fe 2f3d
000002f0: 676d 3dbd a473 a4bc 574f a53e 37f3 b2bd
00000300: 8f62 173e 078b 59bc 9164 563e 3d7f f0bd
00000310: 649d 8a3d 5b78 6ebe b687 84bb 55ab e2bc
00000320: b3ae 4bbe 446d 0ebe aad6 c8bd 7269 f2bc
00000330: a521 07bd 90da 1dbe 0a88 b1bd eb72 b13d
00000340: c9d2 3dbe 1cc2 32be 813b 2c3e 48df 0f3e
00000350: 2ed1 543d 4db1 6b3e 92f2 7abc 6591 6bbd
00000360: 9364 493e e82c b9bd 5282 133e 0fd9 193e
00000370: 9d23 25be f567 443d 8c97 ddbd 124c 0c3e
00000380: 0d10 bbbc b8c4 463d 5e83 963e 260e e6bd
00000390: af97 95bc af1d afbd da1d 3c3e c0cc 343e
000003a0: 837e c23e 5d5a 803e 966a 67bc 286a bebd
000003b0: 16a4 b13e 4203 bf3e 901c 533c 0ed3 81bd
000003c0: 4efe b3bd 411c a33d 1ac2 29be dfe6 0a3e
000003d0: 74c6 433e 8da3 90be 195f 2b3e 6c69 443e
000003e0: be63 433e 1acf 27be 49d0 2e3e c589 283e
000003f0: d7ed 77bd 160a 283d b2aa 13be c8cb 0bbd

classifier.4.bias f4 [10]
-0.04519086 0.07416368 0.022808194 0.18870999 0.1739974 0.26996604 -0.08045043 0.09824562
0.02399116 0.14124845
00000000: 0d1a 39bd 21e3 973d 40d8 ba3c 313d 413e
00000010: 602c 323e fd38 8a3e 32c3 a4bd 0035 c93d
00000020: 1c89 c43c 6fa3 103e
