experiments/LeNet/FashionMNIST/experiment-6/last-epoch.pt (torch, 184811 bytes, 10 tensors)

conv1.weight f4 [6, 1, 5, 5]
0	0xbf822a1e	-1.0169103
1	0xbf8d0c95	-1.1019465
2	0x3e061f5a	0.13097897
3	0x3f2a62d6	0.6655706
4	0x3dd1e1c0	0.102481365
5	0xbf747452	-0.9548999
6	0xbf635371	-0.88799196
7	0x3eff6c77	0.4988744
8	0x3f89eb4e	1.0774934
9	0xbe135813	-0.14389066
10	0xbf1491b9	-0.58034855
11	0xbf29f284	-0.66385674
12	0x3f60f58b	0.8787467
13	0x3fa98b31	1.3245603
14	0xbd54bb7b	-0.051936608
15	0xbee9024a	-0.4550956
16	0xbf24a633	-0.643161
17	0x3ed1fce1	0.41013244
18	0x3f956389	1.1671001
19	0xbdbfd118	-0.09366053
20	0xbdbfb543	-0.09360745
21	0xbeec3971	-0.46137574
22	0x3ee0cf9f	0.43908402
23	0x3f575555	0.8411458
24	0xbe9452d1	-0.28969434
25	0x3d7bc544	0.061467424
26	0x3f2c1123	0.6721365
27	0x3f5c0d4a	0.8595778
28	0x3f141aec	0.5785358
29	0x3d367035	0.044540603
30	0xbe5c0cf3	-0.21489315
31	0x3e9f1df8	0.31077552
32	0x3e481c3a	0.19542018
33	0xbd32d088	-0.043655902
34	0x3d7440ab	0.059631985
35	0xbb981ec3	-0.004642339
36	0x3dd40208	0.1035195
37	0xbe08fcfc	-0.13377756
38	0xbdc1b14b	-0.09457644
39	0x3c4d712f	0.012539192
40	0xbd574085	-0.052551765
41	0x3e181f00	0.14855576
42	0xbe2cb1db	-0.16864721
43	0x3d05ac9f	0.032635327
44	0xbd3e82a7	-0.04651132
45	0xbd72c220	-0.059267163
46	0x3e42a728	0.19009078
47	0xbdc4594a	-0.09587343
48	0xbb8cb69b	-0.004294229
49	0x3c234ede	0.009967534
50	0xbea6de9a	-0.32591707
51	0x3dcdc93b	0.10048147
52	0x3f127494	0.57209134
53	0x3ed77da8	0.42088056
54	0xbcfb9497	-0.030710502
55	0xbe6f3119	-0.23358573
56	0xbdbd3289	-0.092381544
57	0x3eacfec7	0.3378813
58	0x3e44b0ab	0.19208018
59	0xbe75ba10	-0.23996758
60	0xbeca7ac3	-0.39546785
61	0xbe89aa18	-0.26887584
62	0xbe74dfc4	-0.23913485
63	0xbd797e51	-0.06091148
64	0xbeaded43	-0.3397008
65	0x3d450c64	0.04810752
66	0x3e307e0f	0.17235588
67	0x3e7f3931	0.2492416
68	0x3e20e1c3	0.15711121
69	0x3c197a3f	0.009367525
70	0xbb91dcde	-0.0044513782
71	0x3ed2b968	0.4115708
72	0x3f1f1e7d	0.62155896
73	0x3f16835a	0.58794177
74	0x3ed02f90	0.40661287
75	0x3e4d16bb	0.20028202
76	0x3f0a52b4	0.54032445
77	0x3f665ee5	0.8998855
78	0x3e621dd3	0.2208169
79	0xbe89fa30	-0.2694869
80	0xbe061a4f	-0.13095973
81	0x3e622421	0.22084095
82	0x3e31bd14	0.17357284
83	0x3e69b90a	0.22824493
84	0xbe0c724c	-0.13715476
85	0xbe7dfe30	-0.24803996
86	0xbd8b8f04	-0.068143874
87	0x3dad8f47	0.084745936
88	0xbde3c3e5	-0.11121348
89	0xbe4e8ed0	-0.20171666
90	0xbde2fa72	-0.11082925
91	0x3dd766d2	0.10517658
92	0x3d70df2b	0.05880658
93	0x3d6e65b9	0.05820248
94	0xbe847322	-0.2586909
95	0xbe8c6ac7	-0.27425215
96	0x3e443d83	0.1916409
97	0x3e1be39e	0.15223548
98	0xbd759152	-0.05995304
99	0xbdec6d07	-0.11544233
100	0x3f1dc3c1	0.6162682
101	0x3f2a19f6	0.66445863
102	0x3f82943d	1.0201489
103	0x3ead870f	0.33892104
104	0x3f0f3424	0.55938935
105	0xbc897934	-0.016781427
106	0x3e369366	0.17829666
107	0x3f3fe656	0.7496084
108	0xbd6efcb4	-0.058346465
109	0x3eb4b1cf	0.35291907
110	0xbd8c865b	-0.06861564
111	0xbcb86d36	-0.022513013
112	0xbb44c700	-0.003002584
113	0xbf4023af	-0.7505445
114	0x3e868933	0.2627655
115	0xbe0bd543	-0.13655572
116	0xbeb045b1	-0.3442817
117	0xbf284965	-0.6573699
118	0xbfac19db	-1.344539
119	0xbbc7d617	-0.0060985195
120	0xbe76b673	-0.24093036
121	0xbe7440c4	-0.23852831
122	0xbf7fc952	-0.99916565
123	0xbf8f7528	-1.1207628
124	0x3e7e0a25	0.24808557
125	0xbd419e30	-0.04727
126	0xbcdd4b95	-0.02701358
127	0x3ee95ce4	0.45578682
128	0xbe31f382	-0.17378047
129	0xbdbbddef	-0.0917319
130	0xbe787022	-0.24261525
131	0xbe29c2dd	-0.1657824
132	0x3e9a80a0	0.30176258
133	0x3da9dc4c	0.082939714
134	0xbebb7106	-0.36609668
135	0x3d2b6adb	0.041849952
136	0xbe89f36c	-0.2694353
137	0x3ea319f3	0.31855735
138	0x3e2c6558	0.16835535
139	0x3c877dae	0.016539421
140	0x3e87c51b	0.26517567
141	0xbef408fe	-0.4766311
142	0x3da285ae	0.079356536
143	0x3ec1d0c7	0.37854597
144	0xbe21fa22	-0.15818074
145	0x3e937c49	0.2880576
146	0xbeb02e48	-0.3441031
147	0xbdf2979c	-0.118453234
148	0x3e306d29	0.17229141
149	0xbd64c8f9	-0.055855725

conv1.bias f4 [6]
0	0x3ccf08e9	0.025272803
1	0xbbc8e196	-0.0061304076
2	0xbc0ff1aa	-0.008785645
3	0x3ea41f15	0.32054964
4	0x3ec4a58b	0.3840755
5	0xba877953	-0.001033584

conv2.weight f4 [16, 6, 5, 5]
0	0x3e0db85c	0.13839859
1	0xbe6bcf30	-0.23028255
2	0xbe263f8e	-0.16235182
3	0xbe70c2b2	-0.2351177
4	0xbe7c83f4	-0.24659711
5	0x3d8d1c47	0.06890159
6	0xbe5f6b49	-0.2181827
7	0x3ce7b508	0.028284565
8	0xbe0fe8bf	-0.1405363
9	0x3dd7cc77	0.105370454
10	0xbe64a782	-0.22329524
11	0xbe5e5b30	-0.21714473
12	0xbd51c9a4	-0.05121769
13	0x3d0a3677	0.033743348
14	0xbca277e0	-0.019832551
15	0xbeb5b4ae	-0.3548941
16	0x3c65583f	0.01399809
17	0xbdf13f43	-0.11779644
18	0xbda3498c	-0.07973012
19	0xbc22dfbc	-0.009941038
20	0xbe86a90c	-0.26300848
21	0x3ebd7b9f	0.37008378
22	0xbd23ba05	-0.039972324
23	0xbd9db64d	-0.07700787
24	0xbd1be04b	-0.0380557
25	0x3e09f57e	0.13472554
26	0x3e559116	0.20856127
27	0x3dde867f	0.10865497
28	0x3e23e6f4	0.1600607
29	0xbe6e7860	-0.23288107
30	0xbe024949	-0.12723269
31	0xbc671cbf	-0.014105975
32	0xbde4b3b5	-0.11167089
33	0xbd67b850	-0.05657226
34	0xbdd38890	-0.103287816
35	0xbd4f8baf	-0.050670322
36	0xbdc3e94d	-0.09565983
37	0x3d23921a	0.039934255
38	0x3e8539e6	0.26020736
39	0x3e6f2ee7	0.23357736
40	0xbe1c2200	-0.15247345
41	0xbed58d1d	-0.41709223
42	0xbdfbbb40	-0.122915745
43	0x3e89ecc0	0.26938438
44	0x3e82d684	0.25554287
45	0xbe9d9f2d	-0.30785504
46	0xbec02de0	-0.37535
47	0xbde6f72a	-0.112776116
48	0x3d874a53	0.06605973
49	0x3e0c55f8	0.1370467
50	0x3ebab588	0.36466622
51	0x3e6921f6	0.22766861
52	0x3e013ebc	0.12621588
53	0x3da7a63a	0.08186002
54	0xbc91500e	-0.017738368
55	0xbcd11425	-0.025522301
56	0xbe2b3cd9	-0.1672243
57	0xbd9b7b81	-0.07591916
58	0x3c16f6cb	0.0092141135
59	0x3d9d0894	0.07667652
60	0xbe451fac	-0.19250363
61	0xbeb65f47	-0.35619566
62	0xbcfb0062	-0.030639831
63	0x3eab71f1	0.33485368
64	0x3eaa021d	0.33204737
65	0xbeba8ed8	-0.36437106
66	0xbed08a47	-0.40730497
67	0xbe81a55e	-0.25321478
68	0x3d3277f7	0.04357144
69	0x3d19fcc1	0.03759456
70	0xbec4423b	-0.3833178
71	0xbe206b0d	-0.15665837
72	0x3dfb06da	0.12257166
73	0x3e653111	0.22381999
74	0x3de38b4f	0.111105554
75	0x3e4e5ecd	0.20153351
76	0x3e856c3c	0.2605914
77	0x3df1b4b0	0.118020415
78	0x3d4fb1fe	0.050706856
79	0xbc6479c6	-0.013945049
80	0xbd55be0d	-0.0521832
81	0xbda485ba	-0.08033319
82	0xbd8f1e5c	-0.069882125
83	0xbd406f83	-0.046981346
84	0xbe07230f	-0.13196968
85	0x3d9b540c	0.0758439
86	0xbbc85703	-0.006113888
87	0xbc9580d8	-0.018249914
88	0x3db14f3b	0.0865769
89	0x3e1ce24f	0.15320705
90	0xbdb2d150	-0.087313294
91	0xbe9487db	-0.290099
92	0xbe4cd8ba	-0.2000455
93	0x3e4a6280	0.19764137
94	0x3e44d0fc	0.19220346
95	0xbe87e975	-0.265453
96	0xbeb2f0c5	-0.34949318
97	0xbe15d06f	-0.14630292
98	0x3daae875	0.08345119
99	0x3e107442	0.14106849
100	0x3d8c26ba	0.06843324
101	0x3e8bf689	0.2733653
102	0x3d492ec9	0.049116883
103	0xbd09843a	-0.033573367
104	0x3c8179f9	0.015805231
105	0x3e219f78	0.15783489
106	0x3ea61270	0.32435942
107	0x399ab79c	0.0002950997
108	0xbe8a2a70	-0.26985502
109	0xbe50e119	-0.20398368
110	0x3e877710	0.26458025
111	0x3ec525cf	0.38505408
112	0xbd87a74f	-0.066237085
113	0xbea9f248	-0.33192658
114	0xbed7c155	-0.42139688
115	0x3e9ec8ac	0.31012475
116	0x3eb254a7	0.3483021
117	0xbd959bef	-0.073051326
118	0x3de30398	0.1108467
119	0xbd5536d9	-0.05205426
120	0x3e229272	0.15876177
121	0xbd957242	-0.072971836
122	0xbe06a026	-0.1314703
123	0xbd5dfd80	-0.054196835
124	0xbe27bc54	-0.16380435
125	0xbde1f565	-0.110331334
126	0x3cbdeb19	0.023183392
127	0x3d0cd512	0.034382887
128	0xbde2cd61	-0.11074329
129	0xbbe3c516	-0.0069509847
130	0xbd802014	-0.062561184
131	0xbd5b3b26	-0.053523205
132	0xbd26dea3	-0.040739667
133	0xbd217464	-0.03941764
134	0xbd284acc	-0.041086957
135	0xbd43a9ec	-0.047769472
136	0xbd13e0df	-0.036103126
137	0xba8108d9	-0.0009844556
138	0xbcc15098	-0.023598
139	0x3d8b8ac3	0.06813576
140	0x3c5c69a8	0.013452925
141	0xbdf58226	-0.119877145
142	0xbcd91626	-0.026499819
143	0x3d24e4ad	0.040257145
144	0xbdaf589f	-0.08561825
145	0xbda7c95c	-0.08192703
146	0xbcf778ef	-0.030209033
147	0xbdfae00a	-0.12249763
148	0xbd88badf	-0.06676268
149	0x3cd55a8c	0.026044153
150	0x3ecbebbc	0.3982829
151	0xbe41d6c6	-0.18929586
152	0xbee60971	-0.44929078
153	0xbe724788	-0.236601
154	0x3e6da64b	0.23207967
155	0x3d7fcea2	0.06245292
156	0x3dac81e0	0.08423209
157	0xbe9964d3	-0.29959735
158	0x3dce6aad	0.100789405
159	0x3e6ad754	0.22933704
160	0x3e9a5dd5	0.30149713
161	0x3de0da3b	0.10979124
162	0xbf0f371b	-0.5594346
163	0xba85696e	-0.0010178515
164	0x3e8c9295	0.27455583
165	0x3d1da1a4	0.03848423
166	0xbd243114	-0.040085867
167	0xbf0f4703	-0.5596773
168	0xbe3812f9	-0.17975987
169	0x3e10080b	0.14065568
170	0x3da4d486	0.08048348
171	0xbd988d4b	-0.074488245
172	0xbec63500	-0.3871231
173	0xbe8c0f73	-0.27355537
174	0xbe194fc9	-0.14971842
175	0x3e197b8b	0.14988534
176	0x3ea16056	0.3151881
177	0xbd223de2	-0.039609797
178	0xbf414fc4	-0.7551234
179	0xbf0161bf	-0.50539774
180	0x3e699aec	0.22813004
181	0xbd21ded3	-0.039519142
182	0xbd0be0aa	-0.034149803
183	0xbdd08c67	-0.101830296
184	0x3e1937da	0.14962712
185	0x3e171414	0.14753753
186	0x3d41ef0f	0.047347125
187	0xbde250c7	-0.11050563
188	0xbe3d37a2	-0.18478253
189	0x3e06393e	0.13107774
190	0x3dc967e5	0.098342694
191	0x3c8a2368	0.016862586
192	0xbe3472b0	-0.17621875
193	0xbe35e423	-0.17762809
194	0x3e2f5522	0.1712232
195	0x3cee0956	0.029057186
196	0xbd1b674a	-0.0379403
197	0xbd68aedf	-0.056807395
198	0xbd868302	-0.065679565
199	0x3e8fb5ed	0.28068486
200	0x3dac9f04	0.08428767
201	0x3d8eb432	0.06967963
202	0xbecbb708	-0.3978808
203	0xbf230199	-0.6367431
204	0x3cf73e19	0.030180978
205	0xbd118499	-0.035526846
206	0xbd8cbfe7	-0.0687254
207	0xbe3faafd	-0.1871757
208	0xbda16957	-0.0788142
209	0x3d596ac3	0.05308033
210	0x3be2af44	0.006917866
211	0x3b9d8b9a	0.0048079016
212	0xbe91ee7d	-0.28502265
213	0xbe886a63	-0.26643667
214	0x3e0c45fc	0.13698572
215	0x3e4253f9	0.18977346
216	0x3e3f9d50	0.18712354
217	0xbcee67a2	-0.02910215
218	0x3e53a6fa	0.20669165
219	0x3e9c9394	0.30581343
220	0x3ccd10ca	0.02503242
221	0x3a9f7a84	0.001216725
222	0xbe0c3ff9	-0.13696279
223	0x3dd313c5	0.10306505
224	0x3e74dbe7	0.23912011
225	0x3e056632	0.13027266
226	0x3e8abc84	0.2709695
227	0x3d2cac53	0.04215653
228	0xbf100586	-0.5625843
229	0xbf0d6091	-0.55225474
230	0x3e6601bd	0.224616
231	0x3d976af0	0.073934436
232	0x3c5fcec6	0.0136601385
233	0x3d182f8c	0.03715472
234	0x3e1c9b08	0.15293515
235	0x3e0c8b7d	0.13725086
236	0x3e5d1913	0.21591596
237	0xbc165752	-0.009176092
238	0xbe0c57e8	-0.13705409
239	0xbd2c18a3	-0.042015683
240	0x3d61cca4	0.0551268
241	0x3dd9c012	0.10632338
242	0xbdfefe73	-0.12450876
243	0x3c3375ec	0.010953408
244	0xbd19cbe3	-0.037547957
245	0x3d0ce900	0.034401894
246	0x3d1e2df0	0.03861803
247	0xbdae0ec7	-0.08498912
248	0xbde5dab5	-0.11223356
249	0x3dcc2797	0.09968489
250	0xbecddb44	-0.4020635
251	0xbe8d6518	-0.2761619
252	0xbce31bec	-0.027723275
253	0x3e4b5eeb	0.19860427
254	0x3cac27d8	0.021015093
255	0xbe3ff77c	-0.18746752

conv2.bias f4 [16]
0	0x3cee7d61	0.02911252
1	0x3e98f7ad	0.29876462
2	0x3d1876ef	0.0372228
3	0x3ed40cdf	0.4141607
4	0x3ead4cd1	0.3384767
5	0x3e760444	0.24025065
6	0x3e99e338	0.30056167
7	0x3dc0bcc1	0.09411002
8	0x3e10da1f	0.14145707
9	0x3eced988	0.40400338
10	0x3ea47153	0.3211771
11	0x3e2578a2	0.16159299
12	0x3a8b3dfa	0.0010623329
13	0x3de61b8f	0.11235725
14	0x3f3995d5	0.7249425
15	0x3d0d9737	0.034568038

fc1.weight f4 [120, 256]
0	0x3dacd279	0.08438582
1	0xbb6b54b1	-0.0035908634
2	0x3de5d1db	0.112216674
3	0xbd53224f	-0.05154639
4	0xbdd6ec74	-0.104943186
5	0xbd564bb0	-0.052318275
6	0xbd8eca54	-0.06972185
7	0xbdb2b92a	-0.087267235
8	0xbd087434	-0.033313945
9	0x3dddfb75	0.10838977
10	0x3b837e3e	0.004012852
11	0xbd6b15c9	-0.057393823
12	0xbe106181	-0.14099695
13	0x3d14045d	0.036136974
14	0xbcd31018	-0.02576451
15	0xbda9fdad	-0.08300338
16	0xbd911563	-0.07084157
17	0xbd969e83	-0.073544525
18	0x3c5aa8a9	0.013345876
19	0xbc9f9e41	-0.019484641
20	0xbd11ad21	-0.0355655
21	0x3dc4173e	0.095747456
22	0xbd9a33bf	-0.07529401
23	0xbd71958d	-0.058980513
24	0xbdb8c74f	-0.0902239
25	0x3c8e3b62	0.0173623
26	0xbd25cdae	-0.040479355
27	0x3bd8066e	0.0065925634
28	0xbd85a1fa	-0.06525035
29	0xbd594f7a	-0.05305431
30	0xbd37d09a	-0.044876672
31	0x3df3e5af	0.11909043
32	0xbc606fa2	-0.01369849
33	0x3c5a3326	0.013317859
34	0x3d060aea	0.032725252
35	0xbd3f6121	-0.04672349
36	0xbcc5da89	-0.024152057
37	0x3b4d2e65	0.003130817
38	0xbd72c0b9	-0.059265826
39	0xbcb2dea4	-0.021834679
40	0x3c9ccc75	0.019140461
41	0xbc926bf2	-0.017873738
42	0xb9a0dd0d	-0.00030682274
43	0xbd25986e	-0.04042857
44	0xbd2ebb08	-0.042658836
45	0xbd01af34	-0.031661227
46	0x3d74cba1	0.05976451
47	0x3c583814	0.013196964
48	0xbd5047fd	-0.050849903
49	0x3da4b722	0.08042742
50	0x3da9b8ca	0.08287199
51	0xbe2d3008	-0.16912854
52	0x3d20e730	0.039282978
53	0x3d87c1a9	0.066287346
54	0xbe06286f	-0.13101362
55	0xbd59d8b8	-0.053185195
56	0xbcf21476	-0.029550772
57	0x3d5daae2	0.054118045
58	0xbd4607a6	-0.048347138
59	0x3d33f8aa	0.043938316
60	0xbdb64311	-0.08899511
61	0x3e14daef	0.14536642
62	0xbd9a8e21	-0.0754664
63	0xbcdb0fbc	-0.026740901
64	0x3e02c1c9	0.12769236
65	0xbd95d5cf	-0.073161714
66	0xbd00a015	-0.031402666
67	0xbbf65501	-0.0075174575
68	0x3ce7a844	0.028278477
69	0xbd84cc5e	-0.064842924
70	0x3c13c87d	0.009019968
71	0xbd965c0a	-0.07341774
72	0x3c4a8d00	0.012362719
73	0xbbed74d9	-0.0072465953
74	0x3d0b178e	0.03395801
75	0x3d07cc63	0.033153903
76	0xbdacc337	-0.08435672
77	0xbcf7f5d2	-0.030268583
78	0xbd66c70d	-0.056342173
79	0x3d018f12	0.031630583
80	0xbcada162	-0.021195117
81	0x3c2f0507	0.010682351
82	0xbcd177ca	-0.025569815
83	0xbde7c696	-0.11317174
84	0x3dc7a35e	0.09747957
85	0xbdb7bd20	-0.089716196
86	0xbd76617c	-0.060151562
87	0xbd5e16ec	-0.05422108
88	0x3e2c833e	0.1684694
89	0xbdf7fde8	-0.12108976
90	0x3d523f79	0.051330063
91	0xbd879b6c	-0.06621441
92	0xbd82e55a	-0.063914016
93	0x3ce7f4f1	0.02831504
94	0x3b1e6eb4	0.002417487
95	0xbd1b4c0e	-0.03791433
96	0xbbe5df86	-0.0070151715
97	0xbc94bb63	-0.01815576
98	0xbc7e94e5	-0.015538429
99	0x3bbefe06	0.005828622
100	0x3d4330ff	0.04765415
101	0xbc1e4558	-0.0096600875
102	0xbd3d279f	-0.046180364
103	0x3d08429f	0.03326666
104	0xbd9c0506	-0.07618146
105	0xbcd150be	-0.025551196
106	0xbd80d43e	-0.06290482
107	0x3e2c40b5	0.16821559
108	0x3d810195	0.0629913
109	0xbdf212d5	-0.11819998
110	0x3a45954a	0.00075371994
111	0xbd63394b	-0.05547456
112	0x3ddcb326	0.10776357
113	0xbdb9b82a	-0.0906833
114	0x3ca2661f	0.019824086
115	0xbe29d13a	-0.1658372
116	0xbcccf8ff	-0.025021074
117	0xbe184d0f	-0.14873146
118	0x3d6d3b20	0.057917714
119	0xbdca7093	-0.09884753
120	0x3d01bcbb	0.031674128
121	0xbc2a3b91	-0.010390178
122	0x3d234005	0.039855976
123	0xbccb3619	-0.02480607
124	0xbe0f824c	-0.14014548
125	0x3dde0cbd	0.108422734
126	0x3cf7060c	0.03015425
127	0x3cdc6d67	0.026907636
128	0x3d63bb2b	0.05559842
129	0x3bc34417	0.0059590447
130	0x3dd7aa78	0.10530561
131	0xbdb33f4e	-0.08752309
132	0xbd220d4e	-0.03956347
133	0x3d3986cf	0.04529458
134	0x3cc81900	0.024425983
135	0xbd2c3207	-0.042039897
136	0x3cd52fc5	0.026023755
137	0xbc1fdebc	-0.009757694
138	0xbca84bd7	-0.020543976
139	0x3ba86031	0.00513842
140	0xbc82227e	-0.015885588
141	0x3d564703	0.052313816
142	0xbdbeab34	-0.09309998
143	0xbe0465c5	-0.12929447
144	0xbc10b219	-0.008831524
145	0xbe3c7fc9	-0.18408121
146	0xbd4e7331	-0.050402824
147	0x3d912a66	0.07088165
148	0xbdd328c3	-0.10310509
149	0xbd4c182b	-0.049827736
150	0xbd247fff	-0.04016113
151	0x3d864285	0.06555656
152	0xbd63dc73	-0.05563016
153	0xbda31bde	-0.079642996
154	0xbd001930	-0.03127402
155	0x3cc1be4e	0.023650315
156	0xbdf24e44	-0.11831334
157	0xbdab1bcc	-0.08354911
158	0xbdcf1e69	-0.10113222
159	0xbd9c3c37	-0.076286726
160	0xbc651958	-0.013983093
161	0x3dfa3cc8	0.12218624
162	0x3dd366df	0.103223555
163	0xbdfe4094	-0.12414661
164	0x3b3ac9b4	0.0028501572
165	0xbd99364d	-0.0748106
166	0xbc2024f0	-0.009774432
167	0x3ce35338	0.027749643
168	0xbc33dea1	-0.010978372
169	0x3b78978c	0.0037932126
170	0x3d76bb0e	0.060236983
171	0xbdd8e979	-0.105914064
172	0xbe6816e2	-0.22664979
173	0xbe5bf3cd	-0.21479721
174	0x3e4f22f9	0.20228185
175	0xbd2229bd	-0.039590586
176	0x3e276736	0.16347966
177	0xbdb63a6f	-0.08897864
178	0x3c7067f3	0.014673221
179	0xbdcc6f15	-0.09982125
180	0xbbe863c1	-0.0070919697
181	0xbbf9c786	-0.007622662
182	0xbccfe3d1	-0.025377186
183	0x3d015499	0.03157482
184	0xbd4a32c0	-0.049364805
185	0xbe06b10f	-0.1315348
186	0xbd52d00c	-0.05146794
187	0x3da5400a	0.08068855
188	0x3cebe1c4	0.028794177
189	0x3dfbc3a2	0.122931734
190	0xbd2f13e4	-0.04274358
191	0xbcdb8649	-0.02679743
192	0xbd24262c	-0.040075466
193	0x3ca4a00e	0.020095851
194	0x3c8bd464	0.01706905
195	0xbd97b44e	-0.07407437
196	0xbd86a209	-0.065738745
197	0x3d98480a	0.07435615
198	0x3ceca40d	0.02888682
199	0x3cecc711	0.028903516
200	0xbd6599fe	-0.05605506
201	0xbd349926	-0.044091366
202	0x3cc5df90	0.024154454
203	0x3d93be76	0.07214062
204	0xbdb09a22	-0.086231485
205	0xbdb99df1	-0.09063328
206	0xbdd3e125	-0.10345677
207	0xbd612f73	-0.05497689
208	0x3ad8ed17	0.001655015
209	0x3c2deabe	0.010615049
210	0xbbb307bf	-0.00546357
211	0xbe2a6663	-0.1664062
212	0xbe141209	-0.14460005
213	0x3d807dd5	0.062740006
214	0xbe024b10	-0.12723947
215	0xbe3fa3de	-0.18714854
216	0xbda42319	-0.08014507
217	0xbcc02508	-0.023455158
218	0xbd259162	-0.04042185
219	0xbd9df70c	-0.07713136
220	0xbdab4db8	-0.08364433
221	0xbda1a159	-0.07892103
222	0xbca77ab8	-0.020444259
223	0xbd4bb315	-0.049731333
224	0xbca93a1e	-0.020657595
225	0xbd19deb4	-0.037565902
226	0xbe1fbc26	-0.15599117
227	0x3e0caf47	0.13738738
228	0xbd600bb3	-0.054698657
229	0x3ca911c1	0.020638349
230	0xbdbfd99f	-0.0936768
231	0x3dc885e4	0.097911626
232	0xbc05a23a	-0.008156354
233	0xbcbe4b66	-0.023229312
234	0x3bdd3859	0.006751102
235	0x3bf827ce	0.0075731045
236	0x3d465f69	0.048430834
237	0x3d350432	0.044193454
238	0x3d77f2fd	0.060534466
239	0xbe0f9106	-0.14020166
240	0x3d2d1edc	0.042265758
241	0x3bc01fbf	0.0058631594
242	0x3ca70700	0.02038908
243	0x3d02e192	0.031953402
244	0xbd231c7b	-0.039822083
245	0x3d0c08c4	0.034188047
246	0x3b5e14d9	0.0033886938
247	0x3d046691	0.032324377
248	0x3d49148f	0.04909187
249	0xbd41d4e2	-0.04732216
250	0x3d2ae8f2	0.04172606
251	0xbd2fce62	-0.04292143
252	0x3d0dd9d2	0.034631558
253	0x3c40a18d	0.011757267
254	0x3bed2190	0.007236667
255	0x3ca82d34	0.020529367

fc1.bias f4 [120]
0	0x3e3c3e8e	0.18383238
1	0x3cc36ada	0.023854662
2	0x3e372000	0.17883301
3	0x3e25cb63	0.16190867
4	0x3d22e9ba	0.03977368
5	0x3dbc9984	0.09208968
6	0x3dfef34f	0.12448751
7	0xbe52ee03	-0.20598607
8	0x3df9b727	0.12193137
9	0xbd3c346f	-0.045948442
10	0x3dccd978	0.10002416
11	0xbd605cb1	-0.054775897
12	0x3dbeb11e	0.09311126
13	0x3d89a240	0.067204
14	0x3d3ba351	0.045810048
15	0x3def12e0	0.11673522
16	0x3e35c7fb	0.17752068
17	0x3da6662a	0.08124955
18	0x3e3346f2	0.17507532
19	0x3d3fe8e5	0.046852965
20	0xbc2ffb5c	-0.010741081
21	0xbbb7117f	-0.0055868025
22	0x3e3bc24a	0.18335834
23	0x3e2b8ce7	0.16752969
24	0x3c314338	0.010819249
25	0x3da2078d	0.079115964
26	0x3d9d6892	0.07685961
27	0x3e20f33e	0.1571779
28	0x3e2277a1	0.15865947
29	0x3c06e72f	0.008233829
30	0x3d1f2cef	0.03886121
31	0x3d1da3ed	0.03848641
32	0xbbc1ac96	-0.0059104664
33	0x3dc3ba2d	0.095569946
34	0x3c5c4736	0.013444712
35	0x3dd32917	0.10310572
36	0x3d8625ce	0.065501794
37	0x3db710b6	0.08938734
38	0x3de0113c	0.10940787
39	0x3d61088d	0.054939795
40	0x3d08952c	0.033345386
41	0x3d1a2b5e	0.037639014
42	0x3da38e3f	0.07986116
43	0xbcd55ded	-0.026045764
44	0x3abb4426	0.0014287278
45	0x3ccf23da	0.02528565
46	0x3e8d9afe	0.27657312
47	0x3c07f2f5	0.008297672
48	0xbc856865	-0.01628513
49	0x3d261489	0.040546928
50	0x3e37a83e	0.17935273
51	0xbe36a7b4	-0.17837411
52	0x3e69d3ba	0.22834674
53	0x3d991e60	0.07476497
54	0xbdbfbdf5	-0.09362403
55	0xbb6538c4	-0.0034976462
56	0x3e497aa5	0.19675691
57	0x3db3c17c	0.087771386
58	0x3e4fbdea	0.2028729
59	0x3d7a493c	0.061104998
60	0x3bd1f090	0.006406851
61	0x3e8a5604	0.2701875
62	0x3d92cf53	0.0716845
63	0x3ddc770c	0.10764894
64	0x3d837adf	0.0641992
65	0x3d9ffcf2	0.07811917
66	0x3db6121f	0.08890175
67	0x3e347331	0.17622067
68	0x3de019a5	0.10942391
69	0x3d7951f1	0.06086916
70	0x3d7ce969	0.061746035
71	0x3d25fb0e	0.040522628
72	0x3e1c23ad	0.15247984
73	0x3dd72dbe	0.105067715
74	0x3df6c774	0.120497614
75	0x3e24ac1f	0.16081284
76	0x3c3a487d	0.011369822
77	0x3d49da64	0.04928054
78	0x3e121f7b	0.14269821
79	0x3cc87eaa	0.02447446
80	0x3d0d201a	0.034454443
81	0x3e22d3ce	0.1590111
82	0x3cd24f9e	0.02567273
83	0x3c16d4b3	0.009205985
84	0x3e102021	0.14074756
85	0xbd0a3933	-0.033745956
86	0x3d0e6df4	0.03477283
87	0xbd2ba2b3	-0.04190321
88	0x3deaef19	0.114713855
89	0x3b6b432c	0.0035898192
90	0x3dedb77d	0.11607263
91	0x3e1d4675	0.15358908
92	0x3d8c92c8	0.06863934
93	0xbd6296c0	-0.055319548
94	0x3c840ba2	0.016118828
95	0x3e0d2221	0.1378255
96	0x3dd1831d	0.10230086
97	0x3e570884	0.20999342
98	0x3dbbe7d9	0.09175081
99	0x3d04c5af	0.03241509
100	0x3d63fd4d	0.05566149
101	0x3e026c25	0.12736566
102	0x3d21dffc	0.03952025
103	0x3da8b4bd	0.08237598
104	0xbbb7d99d	-0.0056106583
105	0x3d1a7151	0.037705723
106	0x3e2b9155	0.16754659
107	0x3e3a5d90	0.18199754
108	0xbbeb3991	-0.0071784933
109	0x3ca0bf1d	0.01962238
110	0x3d833e21	0.064083345
111	0x3b760d6e	0.0037544626
112	0xbde807b0	-0.11329591
113	0xba411ab4	-0.0007366345
114	0x3e0824ba	0.1329526
115	0xbd1a3ec8	-0.03765753
116	0x3e197d22	0.1498914
117	0x3d71d27c	0.059038624
118	0xbe3488fb	-0.17630379
119	0x3cad7198	0.02117233

fc2.weight f4 [84, 120]
0	0x3d6e266e	0.05814212
1	0x3e470429	0.1943518
2	0x391de992	0.00015059698
3	0xbd085671	-0.033285562
4	0x3cb6781c	0.02227407
5	0x3d66784a	0.05626706
6	0xbdd7639d	-0.105170466
7	0xbe2f004c	-0.17089957
8	0xbdd273fe	-0.1027603
9	0x3c714c9c	0.014727738
10	0x3d07f2ed	0.033190656
11	0xbc46fe27	-0.012145556
12	0x3d4b85c3	0.049688112
13	0xbd9da01e	-0.076965556
14	0xbe20f6d6	-0.1571916
15	0xbd5e79a3	-0.05431522
16	0x3db2f9bb	0.087390386
17	0x3ca5e3cd	0.020250225
18	0x3c482e68	0.012218095
19	0xbdcb0fbb	-0.0991511
20	0x3e174ed6	0.14776167
21	0xbe12e909	-0.14346708
22	0x3d0e0fac	0.034682915
23	0x3d9c742a	0.07639344
24	0xbd5d9ad4	-0.054102734
25	0x3e1d5501	0.15364458
26	0xbd6ddefb	-0.05807398
27	0xbd919fd7	-0.07110565
28	0x3b74a4b1	0.003732961
29	0x3d3f29da	0.046670772
30	0xbd9f7044	-0.07785085
31	0x3e1687bc	0.14700216
32	0xbc8fa0f9	-0.017532812
33	0x3d5be154	0.053681687
34	0xbdbe53a5	-0.09293298
35	0x3d7b8712	0.06140811
36	0x3ce5ee77	0.02806781
37	0xbd83c594	-0.064341694
38	0x3e82428d	0.254414
39	0xbd713dc5	-0.0588968
40	0xbdc4a040	-0.09600878
41	0xbde61890	-0.11235154
42	0xbcb3098e	-0.021855142
43	0x3e063097	0.13104473
44	0x3bfdd9f5	0.00774693
45	0xbd92b098	-0.07162589
46	0x3da3b212	0.079929486
47	0xbe214d16	-0.15752062
48	0xba2adce8	-0.0006517903
49	0x3d843337	0.06455081
50	0x3d97a700	0.074048996
51	0xbc8ee9ce	-0.017445471
52	0xbe211647	-0.15731154
53	0xbdd8881b	-0.10572835
54	0xbd0e7ff1	-0.034789983
55	0x3c18d253	0.009327489
56	0xbde0b7b1	-0.10972536
57	0x3d21a8aa	0.03946749
58	0x3dcec228	0.10095626
59	0x3d51613f	0.05111813
60	0x3d7bb4c3	0.061451685
61	0xbb632f0a	-0.0034665489
62	0xbdc4a4bd	-0.09601734
63	0x3d138ba6	0.03602185
64	0xbd0124ba	-0.031529166
65	0xbdb1f6f9	-0.086896844
66	0x3ddf81e9	0.1091345
67	0xbbb5142f	-0.0055260877
68	0xbd1b5e4c	-0.037931725
69	0x3dc7de21	0.097591646
70	0x3c16ea13	0.009211081
71	0xbe0b5cd3	-0.13609628
72	0xbd6d0e09	-0.057874713
73	0x3d14da5c	0.036341056
74	0xbd5d1c43	-0.05398203
75	0x3ce7a0a8	0.028274849
76	0xbd1c0923	-0.03809465
77	0xbd9732fa	-0.0738277
78	0xbe325c13	-0.17417936
79	0xbd7dd2db	-0.061968666
80	0xbd47256e	-0.04861968
81	0xbe0627c9	-0.13101114
82	0xbd903f57	-0.07043331
83	0x3d39fee1	0.045409087
84	0x3d95fed1	0.07323993
85	0x3db1df7a	0.08685203
86	0xbdfecec5	-0.12441782
87	0x3dab4de4	0.08364466
88	0x3d880934	0.0664238
89	0x3d3776b7	0.04479095
90	0x3d387517	0.04503354
91	0xbcc453a7	-0.02396567
92	0xbcd46780	-0.025928259
93	0x3a3055aa	0.0006726632
94	0xbcc40e83	-0.023932701
95	0xbda4774b	-0.08030566
96	0x3d7fff80	0.062499523
97	0x3e0172b3	0.1264141
98	0x3c1e0258	0.0096441135
99	0xbd1583bf	-0.036502596
100	0xbd683817	-0.056694116
101	0x3e2b079c	0.16702121
102	0xbd3556c9	-0.044272218
103	0x3db6289b	0.08894464
104	0x3d9c4cae	0.07631813
105	0xbd732bd2	-0.059367962
106	0xbdd2973a	-0.102827504
107	0xbe11a2ce	-0.14222261
108	0xbdbd492e	-0.092424735
109	0x3d9dc67b	0.07703873
110	0x3e3dfd6f	0.18553708
111	0xbccf487a	-0.025303114
112	0x3d0bd9f2	0.034143396
113	0x3d8bdcb1	0.06829203
114	0xbceee6ff	-0.029162882
115	0x3ca2287f	0.0197947
116	0xbd063dad	-0.032773662
117	0xbda2cddb	-0.0794942
118	0xbe1545c2	-0.14577392
119	0x3dcc5fc4	0.09979203
120	0xbe234705	-0.1594506
121	0x3d6e33fa	0.058155037
122	0x3dbb4863	0.09144666
123	0x3db774fa	0.089578584
124	0x3d9aad9d	0.07552645
125	0x3b71e2ae	0.0036908793
126	0x3d35854a	0.044316567
127	0x3c79e3ef	0.0152520975
128	0xbdd8992c	-0.1057609
129	0x3d8869ff	0.06660842
130	0xbe2dd45f	-0.16975544
131	0xbd936404	-0.07196811
132	0xbe09e95c	-0.13467926
133	0xbcb930ab	-0.022606215
134	0xbda15d5f	-0.07879137
135	0x3c82c11d	0.015961224
136	0x3d0c5833	0.0342638
137	0x3c347545	0.011014287
138	0xbd46d58f	-0.04854351
139	0x3dea8a90	0.1145221
140	0x3c07fece	0.008300496
141	0xbb9a4f60	-0.0047091693
142	0x3e0b1515	0.13582261
143	0xbe396b91	-0.1810744
144	0x3dc0b846	0.09410147
145	0x3b85f0d2	0.004087546
146	0xbd53926b	-0.051653307
147	0xbe6b6bb6	-0.22990307
148	0xbd153b86	-0.03643372
149	0xbd5dab43	-0.054118406
150	0x3ce1fe57	0.027587099
151	0xbe42ff32	-0.19042662
152	0xbb0c9de3	-0.0021456413
153	0xbddc4eef	-0.10757243
154	0xbd0d128f	-0.034441527
155	0x3e3b48eb	0.18289535
156	0xbdb5f646	-0.088848636
157	0xbd176dde	-0.036970012
158	0x3d2f7a78	0.042841405
159	0x3d5e00fd	0.05420016
160	0xbcb4fcf2	-0.02209327
161	0x3dad32e6	0.08456974
162	0x3dda6722	0.10664202
163	0xbd0964b4	-0.033543304
164	0xbdf1d25b	-0.118077
165	0x3d9af253	0.07565751
166	0xbd0f8620	-0.03504002
167	0x3d46f1ea	0.04857055
168	0x3dd46154	0.10370126
169	0x3e162e19	0.14666022
170	0x3caad143	0.020851737
171	0x3d34ce8b	0.044142287
172	0x3c4748d1	0.012163357
173	0x3d617322	0.05504144
174	0x3adae2c1	0.0016699658
175	0x3cf47fcd	0.029846096
176	0xbe04e236	-0.12976918
177	0x3de07eb6	0.10961668
178	0xbdc3f259	-0.095677085
179	0xbb8c5525	-0.004282611
180	0xbdc8f6fe	-0.09812735
181	0xbc084a8c	-0.008318555
182	0x3cb34448	0.021883145
183	0x3e75e580	0.24013329
184	0xbd9cbc20	-0.076530695
185	0xbd0b0565	-0.03394069
186	0x3daf6a67	0.085652165
187	0x3d14a539	0.03629038
188	0xbb672146	-0.0035267635
189	0x3ce0ee1b	0.027457288
190	0xbe1aeab1	-0.1512859
191	0xbd0ae7e0	-0.03391254
192	0x3cec372c	0.028834902
193	0x3e784f5b	0.24249022
194	0xbdebc744	-0.11512616
195	0x3e1a7436	0.15083393
196	0x3e016d98	0.12639463
197	0x3d2eb8e9	0.042656813
198	0x3db5c0f0	0.088746905
199	0xbdfbeb76	-0.1230077
200	0xbdd151eb	-0.10220703
201	0xbdda972a	-0.106733635
202	0xbdd12108	-0.10211378
203	0x3da111b9	0.078647085
204	0x3d0ab43b	0.033863287
205	0x3d21e24b	0.03952245
206	0xbdcaabac	-0.09896025
207	0x3d102ca4	0.035198823
208	0x3da1199e	0.07866214
209	0xbe2f0015	-0.17089875
210	0xbd040ada	-0.03223691
211	0xbccb4ae7	-0.02481599
212	0x3c9621a1	0.018326582
213	0xbd8ec2b0	-0.069707274
214	0x3d77c40b	0.060489696
215	0xbde87714	-0.11350837
216	0x3e781cad	0.24229689
217	0xbc97c132	-0.01852474
218	0xbeb1ea58	-0.34749103
219	0xbe61acb8	-0.22038543
220	0xbd6da445	-0.058017988
221	0x3c95b2a9	0.018273668
222	0x3d8768fd	0.06611822
223	0xbe02fa4e	-0.12790796
224	0x3e13ae85	0.14422043
225	0xbdd007a7	-0.101577096
226	0x3cd91712	0.026500259
227	0xbe399598	-0.18123472
228	0xbd71f7cd	-0.059074212
229	0x3d728cec	0.059216425
230	0xbdc5e694	-0.0966312
231	0xbd8c9cb6	-0.06865828
232	0xbc0a25ce	-0.008431865
233	0x3b4ce51c	0.003126449
234	0x3dd3bd02	0.10338785
235	0x3ad647e4	0.0016348329
236	0xbcff5f38	-0.031173334
237	0xbe4afc50	-0.19822812
238	0x3d5ee613	0.054418635
239	0xbdcebedf	-0.100949995
240	0xbe24abbe	-0.1608114
241	0x3e0a57fe	0.13510129
242	0x3cb918ac	0.022594772
243	0xbcb3bc66	-0.021940421
244	0x3e426905	0.18985374
245	0xbd7f43cd	-0.06232052
246	0x3c19bfdd	0.009384123
247	0x3dfe82de	0.12427305
248	0xbd2f1c93	-0.04275186
249	0x3ce0470a	0.027377624
250	0xbe1de62a	-0.15419832
251	0xbcda43c8	-0.026643649
252	0xbe2ec8a8	-0.17068732
253	0x3cfc27f1	0.030780764
254	0xbde868a2	-0.11348082
255	0xbcaf2827	-0.02138145

fc2.bias f4 [84]
0	0x3e15b0a4	0.14618164
1	0x3e9dadd2	0.30796677
2	0x3e56f71d	0.20992704
3	0x3d4ba3f1	0.049716894
4	0x3e0dc945	0.1384631
5	0x3c6f5860	0.014608473
6	0x3e551fe0	0.2081294
7	0x3cbac61f	0.02279955
8	0x3e02e16a	0.12781301
9	0x3e9f642c	0.31131113
10	0xbd3b64b9	-0.045750353
11	0x3ea47935	0.32123724
12	0xbdf91119	-0.12161464
13	0x3e93fe50	0.28904963
14	0x3eeb2ceb	0.45932707
15	0x3d09bd10	0.03362757
16	0x3e860024	0.26171982
17	0xbc3cc5b7	-0.011521748
18	0xbcb21909	-0.021740453
19	0x3e0173ea	0.12641874
20	0x3ea9addf	0.33140466
21	0x3ec5c4e1	0.3862677
22	0x3e33b2e7	0.17548715
23	0x3e957efb	0.2919844
24	0xbd2e1f6f	-0.042510446
25	0xbc50b9d3	-0.012739616
26	0x3c1b7105	0.009487395
27	0x3ea2fa07	0.3183138
28	0x3f1cbbd9	0.6122413
29	0x3ec3bf12	0.38231713
30	0x3e4db03d	0.20086761
31	0x3e1f69ea	0.15567747
32	0xbc02d42f	-0.007985159
33	0x3c3a9ca4	0.011389885
34	0x3ea3f8f9	0.3202589
35	0x3b13c9d2	0.0022550714
36	0x3ee0cda0	0.4390688
37	0x3d83c298	0.064336
38	0x3e86e010	0.2634282
39	0xbd79ddf8	-0.0610027
40	0x3ef758aa	0.48309833
41	0x3e465c97	0.19371258
42	0x3e1c7f74	0.15282995
43	0x3e195fdd	0.14977975
44	0xbd8abca8	-0.067742646
45	0x3e49d28c	0.19709224
46	0x3dad2c6b	0.08455738
47	0x3ea8ce7f	0.32970044
48	0x3ea00145	0.3125097
49	0x3f08296a	0.5318819
50	0x3d463834	0.048393443
51	0x3dfebcd3	0.12438359
52	0x3ef715fb	0.48258957
53	0x3e217d32	0.15770414
54	0x3cbf0675	0.023318509
55	0x3dba942f	0.09110295
56	0x3e3b7727	0.18307172
57	0x3d4a6679	0.04941413
58	0x3e560044	0.20898539
59	0x3cf26380	0.02958846
60	0x3e115402	0.14192203
61	0x3b114b8e	0.0022170278
62	0x3dc68779	0.09693808
63	0x3e59f342	0.21284202
64	0x3f553fbe	0.8330039
65	0x3d70efa0	0.058822274
66	0x3e238db7	0.15972029
67	0x3e9b9da9	0.30393723
68	0x3e95a790	0.29229403
69	0xbd85208b	-0.06500348
70	0x3db0d5cf	0.08634531
71	0xbcec46af	-0.028842298
72	0x3c81275e	0.015765842
73	0x3ef24d83	0.47324762
74	0x3dd750b8	0.10513443
75	0xbd910dc6	-0.07082705
76	0x3cbe6175	0.02323983
77	0x3dab55e3	0.08365991
78	0x3e354a65	0.1770416
79	0x3e96a502	0.29422766
80	0x3e9a41de	0.30128378
81	0x3e9c4152	0.30518585
82	0xbda00d77	-0.07815068
83	0x3e83570c	0.2565235

fc3.weight f4 [10, 84]
0	0x3e9fcb6d	0.3120989
1	0x3f3061f3	0.6889946
2	0x3f04f954	0.51942945
3	0x3d900a94	0.070332676
4	0x3eac033a	0.33596212
5	0xbdafef10	-0.085905194
6	0x3f144ba9	0.5792795
7	0x3da09b46	0.07842116
8	0x3e9534c6	0.29141825
9	0x3ed0ff40	0.4081974
10	0x3d709db7	0.05874416
11	0x3ef31b0b	0.4748157
12	0x3df696f9	0.120405145
13	0xbe63f3c9	-0.22260965
14	0x3e05ae9c	0.1305489
15	0x3d20f529	0.039296303
16	0xbdb37333	-0.08762207
17	0xbb9a7c1a	-0.004714501
18	0x3e48b521	0.19600345
19	0xbe47c53b	-0.19508831
20	0x3e8974fc	0.26847064
21	0x3b0b4108	0.0021248478
22	0xbd2664c1	-0.04062343
23	0x3ec19aaf	0.37813327
24	0xbdfbf346	-0.1230226
25	0xbcc066d1	-0.023486527
26	0xbe2415b1	-0.160239
27	0xbd0109a5	-0.03150334
28	0xbf280323	-0.65629786
29	0xbe9e34b4	-0.30899584
30	0x3ea2fb43	0.31832322
31	0xbce60d5d	-0.028082544
32	0xbe21729b	-0.15766375
33	0x3ded5fce	0.11590539
34	0x3ea59b09	0.32344845
35	0xbe20b513	-0.15694074
36	0x3ed1116f	0.40833613
37	0x3dadce17	0.08486574
38	0xbeeb922c	-0.46009958
39	0x3d7f5de6	0.062345408
40	0x3eadb4a9	0.33926895
41	0x3b22452a	0.0024760463
42	0x3dce0ad4	0.10060659
43	0xbcd6b70f	-0.026210336
44	0xbe5b0b2b	-0.21390979
45	0xbc3b77ef	-0.011442169
46	0xbda7cfa4	-0.08193901
47	0x3cc90031	0.024536224
48	0xbe5b5d14	-0.21422225
49	0x3f400d6b	0.75020474
50	0x3dc205b4	0.09473744
51	0xbaca1dcb	-0.0015420256
52	0x3e3e02b3	0.18555717
53	0x3e3cd020	0.18438768
54	0xbdde50d9	-0.10855264
55	0x3e03b9a9	0.12863792
56	0x3db5140c	0.08841714
57	0x3e9f0b64	0.31063378
58	0x3dcd8ff5	0.10037223
59	0xbd991901	-0.07475472
60	0x3dc1e513	0.094675206
61	0xbdfe2c52	-0.12410797
62	0xbe5d7bb3	-0.21629219
63	0xbec73d76	-0.38914078
64	0x3e1eacb3	0.15495567
65	0x3ea76232	0.32692105
66	0x3e1c5c77	0.15269648
67	0x3e8554d4	0.2604128
68	0xbe63ad2e	-0.22234032
69	0x3d9fbd4d	0.07799778
70	0xbe1be841	-0.15225317
71	0x3c28fd72	0.010314332
72	0xbded45be	-0.11585568
73	0x3f55a1df	0.8345012
74	0x3e262cae	0.16227981
75	0x3ddef58e	0.108866796
76	0x3d4fca19	0.050729845
77	0x3de5aad3	0.11214223
78	0xbcc360b3	-0.02384982
79	0xbea5b3a4	-0.32363617
80	0x3e32ac87	0.17448626
81	0xbe350edc	-0.1768145
82	0x3c4596e7	0.012059904
83	0xbe4090c2	-0.1880522
84	0xbe36a606	-0.1783677
85	0x3db53df6	0.08849709
86	0x3db3a83f	0.08772325
87	0x3ecdbf71	0.4018512
88	0xbd97d4c5	-0.074136294
89	0xbde93cd8	-0.11388558
90	0xbe04cb15	-0.12968095
91	0xbd54ee3d	-0.051985014
92	0xbdb629fa	-0.08894725
93	0xbd01bb3e	-0.03167271
94	0xbcec083b	-0.028812518
95	0x3ed51b00	0.41622162
96	0x3ddd94b9	0.10819382
97	0xbd8af761	-0.06785465
98	0x3f846a6e	1.034498
99	0xbe194835	-0.14968951
100	0xbdac7fcf	-0.08422815
101	0xbd4fc947	-0.050729062
102	0x3e1acf41	0.15118124
103	0x3d89d789	0.06730563
104	0xbed27d11	-0.41111043
105	0xbe00fcba	-0.12596408
106	0x3e48dac5	0.19614704
107	0x3f07d4e9	0.5305925
108	0xba5c1da2	-0.00083967496
109	0xbca04812	-0.019565616
110	0xbdcb4952	-0.09926094
111	0xbe32bd62	-0.17455056
112	0xbedc8fe4	-0.4307853
113	0xbeb1a056	-0.3469264
114	0xbe342ad1	-0.17594458
115	0xbda989b3	-0.08278217
116	0xbdf6ac0f	-0.12044536
117	0xbe1a33c5	-0.15058811
118	0x3f0fe43e	0.56207645
119	0x3d649906	0.055809997
120	0x3db4296a	0.087969616
121	0x3e14cee7	0.14532052
122	0xbdf88d94	-0.12136379
123	0xbdb16b28	-0.086630166
124	0xbe915ebd	-0.28392592
125	0x3db2bbfc	0.087272614
126	0x3de68ac6	0.11256938
127	0xbddfbc91	-0.10924638
128	0xbde16ac2	-0.110066906
129	0xbdcb1bec	-0.09917435
130	0xbd462ad2	-0.04838068
131	0xbd62429d	-0.05523931
132	0xbe09f848	-0.13473618
133	0x3d8f960a	0.070110396
134	0xbd8bffd2	-0.06835903
135	0xbd4c1faf	-0.049834903
136	0x3efe71c6	0.49696177
137	0xbe9946c0	-0.2993679
138	0xbdc00418	-0.09375781
139	0xbd220d83	-0.039563667
140	0xbd7eb5c8	-0.06218508
141	0x3e83c226	0.2573406
142	0xbd5a0f0b	-0.053237002
143	0x3e80fc6d	0.25192586
144	0xbdeee589	-0.11664874
145	0x3ebceb60	0.36898327
146	0xbd8f4f9f	-0.069976084
147	0xbe781556	-0.24226889
148	0x3e2f23f6	0.17103562
149	0xbe2e1a86	-0.17002305
150	0x3c85195a	0.01624744
151	0x3d097f79	0.033568833
152	0xbc1352c6	-0.008991903
153	0xbd806e55	-0.06271044
154	0x3d9c8f00	0.076444626
155	0x3bc8f1d1	0.0061323424
156	0x3f2ff6fc	0.68736243
157	0xbe5f0796	-0.21780238
158	0x3dcb88b1	0.09938181
159	0xbd994d66	-0.07485466
160	0x3eb330cb	0.34998164
161	0xbd8401ad	-0.06445632
162	0xbe7caf49	-0.24676241
163	0x3f17797e	0.5916976
164	0xbeba8b1f	-0.36434266
165	0x3e757644	0.23970896
166	0xbd519da8	-0.051175743
167	0x3c824ff1	0.01590726
168	0xbc7ad634	-0.015309859
169	0xbb220d01	-0.002472699
170	0xbe6fd42a	-0.23420778
171	0xbd4dfa33	-0.050287437
172	0x3e980eb7	0.29698727
173	0xbe108ff6	-0.14117417
174	0x3eef02be	0.4668178
175	0xbcceaf15	-0.02522997
176	0xbde12ebb	-0.10995241
177	0x3bd44c0c	0.006478792
178	0xbddf0f1a	-0.10891552
179	0xbe0c007c	-0.1367206
180	0xbd068777	-0.032844033
181	0xbe0f02a6	-0.13965854
182	0xbdd52337	-0.10407107
183	0xbd99b087	-0.07504373
184	0xbefcd62e	-0.49382156
185	0x3e47bc03	0.19505315
186	0x3dc54ff5	0.09634391
187	0x3dafe26a	0.08588107
188	0x3e8891f8	0.26673865
189	0xbeb8f379	-0.36123255
190	0x3e0ee6aa	0.13955179
191	0x3f06d0e2	0.5266248
192	0xbc7a1feb	-0.015266399
193	0xbdd32148	-0.10309082
194	0xbe080bd8	-0.13285768
195	0x3ef3d1be	0.47620958
196	0x3f4083c3	0.7520105
197	0xbb851b32	-0.00406208
198	0x3e72ab56	0.23698172
199	0x3d1060c2	0.035248525
200	0xbddbe2bb	-0.10736605
201	0xbe323035	-0.17401202
202	0xbe46d296	-0.1941627
203	0x3e231427	0.15925656
204	0xbe24d0cc	-0.16095275
205	0xbd579f44	-0.052642122
206	0xbedf9660	-0.43669415
207	0xbcdfbe4d	-0.027312422
208	0x3e681d10	0.22667336
209	0xbde088c9	-0.1096359
210	0xbeb13df1	-0.3461757
211	0xbd3f92e9	-0.046770964
212	0xbe2e5cf0	-0.1702764
213	0x3ebc0e8f	0.36729857
214	0xbc30d806	-0.0107936915
215	0xbd05e3fd	-0.03268813
216	0x3ea49234	0.32142794
217	0x3f58a753	0.84630316
218	0x3dc4c441	0.09607745
219	0x3e096711	0.13418223
220	0xbdae9a21	-0.085254915
221	0xbd98578f	-0.074385755
222	0x3e185788	0.1487714
223	0x3e01d73f	0.12679766
224	0x3f001bdb	0.50042504
225	0xbe72a8c1	-0.23697187
226	0xbdc5b739	-0.096540876
227	0x3e8da7e6	0.2766716
228	0x3dc32a9a	0.0952961
229	0x3e7475a2	0.23872998
230	0xbd2a2e6d	-0.04154818
231	0xbeea9822	-0.45819193
232	0x3f499785	0.78746825
233	0xbea46e8b	-0.32115588
234	0xbd8b8b66	-0.068136975
235	0x3e2ccd00	0.16875076
236	0xbde47d9f	-0.11156773
237	0xbd6cb59a	-0.057790376
238	0x3e1061e3	0.14099841
239	0xbb6a93cd	-0.0035793663
240	0xbe28b616	-0.1647571
241	0x3f6b65e9	0.9195238
242	0xbdc34434	-0.09534493
243	0x3d7413c8	0.059589177
244	0x3b56d2cf	0.003277946
245	0x3d91b904	0.07115367
246	0xbdfb2ae7	-0.12264042
247	0xbd78141a	-0.060566045
248	0xbc8d11ba	-0.017220367
249	0xbd80faff	-0.06297874
250	0xbd26c874	-0.04071851
251	0xbd382d73	-0.04496522
252	0xbd556a8a	-0.052103557
253	0x3ecaef07	0.39635488
254	0xbd866f30	-0.06564176
255	0x3dc06918	0.09395045

fc3.bias f4 [10]
0	0xbe191633	-0.14949875
1	0x3e61e6c1	0.22060682
2	0x3e8c7267	0.27431032
3	0x3eaac086	0.3335001
4	0xbe04c94d	-0.12967415
5	0xbdcf99eb	-0.101367794
6	0x3efe8b01	0.49715427
7	0x3eb80676	0.3594243
8	0x3e8395df	0.2570028
9	0xbe9ecc10	-0.31015062
