experiments/LeNet/CIFAR10/experiment-8/last-epoch.pt (torch, 258859 bytes, 18 tensors)

features.0.weight f4 [6, 3, 5, 5]
0	0xbc4bf7d1	-0.012449221
1	0xbd718695	-0.058966238
2	0x3dee2594	0.11628261
3	0x3c8015ef	0.015635459
4	0x3df95d94	0.12176052
5	0xbe0b334b	-0.13593785
6	0x3b93f881	0.004515708
7	0xbd2855e0	-0.04109752
8	0xbce51823	-0.02796561
9	0xbe671a2a	-0.22568575
10	0xbe0ebc5d	-0.13939042
11	0x3dfbbdac	0.122920364
12	0x3d27296c	0.040810987
13	0xbe1e9fa9	-0.15490593
14	0xbe5774c2	-0.21040633
15	0xbddc7b06	-0.10765652
16	0x3dd9fe62	0.10644223
17	0xbcda8a1a	-0.02667718
18	0xbde27b87	-0.11058717
19	0xbe6e1749	-0.2325107
20	0x3ac7456f	0.0015203188
21	0x3ddf4e85	0.10903648
22	0x3df20d8c	0.1181899
23	0xbcb7a7e1	-0.022418918
24	0xbe6e9f34	-0.23302919
25	0x3d451efe	0.04812526
26	0x3e05ac6b	0.13054053
27	0x3c8ce3bb	0.017198434
28	0x3c71d924	0.014761243
29	0x3d8e2066	0.06939773
30	0xbe2fcfea	-0.17169157
31	0x3c893c45	0.016752372
32	0x3e5fa617	0.21840702
33	0xbcf1b1b9	-0.02950369
34	0xbd8b1278	-0.06790632
35	0xbe158bb4	-0.14604074
36	0x3dd2aac6	0.10286479
37	0x3e8d87af	0.2764258
38	0x3d86b81e	0.06578086
39	0xbe4e0ef8	-0.20122898
40	0xbd3f6fdb	-0.046737533
41	0x3df3eb10	0.11910069
42	0x3e3ec0d1	0.18628241
43	0x3d81b81b	0.063339435
44	0xbe76ca46	-0.24100599
45	0x3ca46939	0.020069705
46	0x3e2a5ffb	0.16638176
47	0xbd7b9cc2	-0.061428793
48	0xbdc44432	-0.0958332
49	0xbdebd5d9	-0.115153976
50	0xbda19679	-0.078900285
51	0xbcbffa00	-0.023434639
52	0x3e2721a4	0.16321427
53	0x3dc86b15	0.09786049
54	0x3e2bdd6a	0.16783682
55	0xbe690fb2	-0.22759894
56	0xbd08b701	-0.03337765
57	0x3d9975a0	0.07493138
58	0x3dc1ad88	0.094569266
59	0xbd47d8fa	-0.04879091
60	0xbe4a568d	-0.19759579
61	0x3e245db5	0.16051371
62	0x3e7c6fc5	0.24652012
63	0xbbb169f3	-0.0054142415
64	0xbe13b0c0	-0.14422894
65	0x3d765d5d	0.060147632
66	0x3e71d132	0.23614958
67	0x3e3950e4	0.18097264
68	0xbca78693	-0.020449912
69	0xbd00ad3a	-0.0314152
70	0xbd73b5da	-0.0594996
71	0x3de95096	0.11392324
72	0x3dd4274c	0.10359058
73	0xbd44a147	-0.04800537
74	0xbcbc08c1	-0.022953393
75	0xbd90a7fb	-0.0706329
76	0xbe0b3de3	-0.13597827
77	0x3ce97005	0.028495798
78	0xbd423ac4	-0.047419325
79	0xbe12fdbf	-0.14354609
80	0xbe2e543b	-0.17024319
81	0xbe18f89c	-0.14938587
82	0xbdcbc311	-0.09949315
83	0xbe110cf0	-0.14165092
84	0xbe20fe50	-0.15722013
85	0xbe1ae18a	-0.15125099
86	0xbbd85698	-0.0066021197
87	0xbe2633a6	-0.1623064
88	0x3bdb6c5f	0.0066962685
89	0x3d4b04cd	0.049565125
90	0xbb890785	-0.0041818046
91	0xbdd3a252	-0.103336945
92	0xbde15fb1	-0.1100458
93	0xbc50618b	-0.012718569
94	0x3bb99777	0.005663808
95	0x3e014e14	0.1262744
96	0x3ddde5d8	0.10834855
97	0x3d22b7ad	0.039725948
98	0x3d6832dd	0.056689132
99	0x3e5e6dc6	0.21721563
100	0xbdf9a2ed	-0.12189279
101	0xbd2208c8	-0.039559156
102	0x3dca1dc5	0.09868959
103	0x3c9ef568	0.019404128
104	0x3cf311e2	0.029671613
105	0xbcc498fb	-0.023998728
106	0x3e2001f2	0.15625742
107	0x3e2d3d3c	0.1691789
108	0x3e12967b	0.14315216
109	0x3d2e296b	0.042519968
110	0x3d25dd74	0.040494397
111	0x3d998d05	0.074976005
112	0x3e31b98d	0.17355938
113	0x3d7beb87	0.061503913
114	0x3d7aaae6	0.061198138
115	0x3d12d61a	0.035848714
116	0x3e34030e	0.1757929
117	0x3e423965	0.18967207
118	0x3e38d98c	0.18051738
119	0x3e56cca0	0.20976496
120	0x3e06d539	0.13167275
121	0x3e41e73d	0.18935867
122	0x3ea13d63	0.31492147
123	0x3e91920b	0.28431734
124	0x3e786088	0.24255574
125	0xbd9e718c	-0.07736501
126	0xbda26b43	-0.07930615
127	0xbb58d2fb	-0.0033084739
128	0xbdc586e8	-0.09644872
129	0xbd6ad361	-0.057330493
130	0x3ce11600	0.02747631
131	0xbdaeb2db	-0.08530208
132	0x3d8be9bf	0.06831693
133	0xbd1aded6	-0.03781017
134	0x3d8ab2e8	0.06772405
135	0xbc9c75d9	-0.019099163
136	0xbd98aaa1	-0.0745442
137	0x3dc70bf0	0.09719074
138	0x3de5bd91	0.112177975
139	0xbd19f4d4	-0.037587002
140	0xbe2f93fa	-0.17146292
141	0x3baf383b	0.0053472794
142	0xbdb0a772	-0.08625688
143	0x3d34e4cd	0.044163514
144	0x3c232a0a	0.009958753
145	0xbde36e98	-0.111050785
146	0xbd5dc630	-0.054144084
147	0xbe16c507	-0.14723597
148	0xbe06e663	-0.13173823
149	0xbd1cdae5	-0.03829469
150	0x3de96a6d	0.11397252
151	0xbcde00ff	-0.027100084
152	0xbd536ffe	-0.051620476
153	0xbdf39bf9	-0.11894984
154	0x3d6086bb	0.05481599
155	0x3ced2ea0	0.028952897
156	0xbd3a38ee	-0.04546445
157	0x3a8034e3	0.0009781386
158	0xbd02aca3	-0.03190292
159	0xbe00c673	-0.12575702
160	0xbd05bdb3	-0.032651614
161	0x3e2128b9	0.1573819
162	0x3dc383b9	0.095466085
163	0xbd0dd9bf	-0.034631487
164	0xbe0ba358	-0.1363653
165	0x3d294d38	0.041333407
166	0x3d19e871	0.03757519
167	0x3d10df06	0.03536894
168	0x3d4b5bad	0.049647976
169	0x3cfb3d6e	0.03066894
170	0x3da3581e	0.079757914
171	0x3dcf5b23	0.10124805
172	0x3c30e999	0.0107978815
173	0x3d7f5e00	0.062345505
174	0xbe0daeb0	-0.13836169
175	0x3da7968e	0.08183013
176	0x3df24f00	0.11831474
177	0xbe011c42	-0.12608436
178	0xbd8875c7	-0.06663089
179	0x3d8b68dc	0.0680711
180	0x3e2a5e85	0.16637619
181	0x3e0fcc70	0.1404283
182	0x3dbbe845	0.09175161
183	0xbe018fb4	-0.12652475
184	0x3db9e9e3	0.090778135
185	0x3d3ece47	0.04658344
186	0x3e681b9b	0.2266678
187	0x3d50ab92	0.050944872
188	0xbe123f64	-0.14281994
189	0xbc87030c	-0.016480945
190	0x3bb1ba44	0.005423816
191	0x3de8ddca	0.11370428
192	0x3e3d19de	0.18466899
193	0xbd8bc487	-0.06824594
194	0x3d0f41f8	0.034975022
195	0x3d816e5f	0.0631988
196	0x3e16571d	0.14681669
197	0xbcc77538	-0.024347886
198	0x3bdc1491	0.006716319
199	0xbe0c6301	-0.13709642
200	0x3e8d8829	0.27642944
201	0x3e96982f	0.29412982
202	0x3dfff503	0.12497904
203	0xbd0cf87f	-0.03441667
204	0x3c597bf1	0.013274179
205	0x3e5acba1	0.21366741
206	0x3e859881	0.26092914
207	0x3ddff447	0.10935264
208	0x3bf678ec	0.007521739
209	0x3d4c4c49	0.04987744
210	0x3e033bb6	0.12815747
211	0x3d05b423	0.032642495
212	0xbdb95038	-0.09048504
213	0xbe2e31f5	-0.17011245
214	0xbd685252	-0.05671913
215	0x3d14546b	0.03621332
216	0xbd8d12c9	-0.068883486
217	0xbdd7e261	-0.10541225
218	0xbe615c4b	-0.22007863
219	0xbdc9ba29	-0.0984996
220	0xbd473f14	-0.04864414
221	0xbdbeba4e	-0.093128785
222	0xbdd39473	-0.10331049
223	0xbe511cb9	-0.20421113
224	0xbe816d3e	-0.25278658
225	0xbe31dcde	-0.1736941
226	0xbd4f886a	-0.050667204
227	0xbd9ab4df	-0.0755403
228	0xbde4b940	-0.11168146
229	0xbda2ee57	-0.07955616
230	0xbe6f1b9d	-0.23350377
231	0xbe99cb25	-0.300378
232	0xbe5c2840	-0.21499729
233	0xbd278893	-0.04090173
234	0xbd8f8854	-0.070084244
235	0xbe13874e	-0.14407083
236	0xbe443644	-0.19161326
237	0xbe454e47	-0.19268142
238	0xbe6a571a	-0.22884789
239	0xbdd45c3f	-0.10369157
240	0xbe112fd0	-0.14178395
241	0xbea0e48d	-0.3142437
242	0xbe3ededd	-0.18639703
243	0xbe800d47	-0.2501013
244	0xbcbd0fb4	-0.023078777
245	0xbdcee36b	-0.1010197
246	0xbd4431b3	-0.04789896
247	0xbdfcb49b	-0.12339135
248	0xbc6f928c	-0.014622342
249	0xbe1013d2	-0.14070061
250	0xbd925af6	-0.07146256
251	0xbd48befa	-0.049010254
252	0x3d136669	0.035986338
253	0xbd9ef58e	-0.077616796
254	0x3d9cae3c	0.0765042
255	0xbcb6577e	-0.022258516

features.0.bias f4 [6]
0	0x3f1a1da7	0.60201496
1	0x3dc0837d	0.094000794
2	0x3e45b492	0.19307163
3	0x3ec9cd72	0.39414555
4	0x3df1ac1d	0.11800406
5	0x3d8c19d4	0.06840864

features.2.weight f4 [6]
0	0x3f715048	0.94263124
1	0x3f4a6024	0.7905295
2	0x3f4cc935	0.7999452
3	0x3f2eba93	0.6825344
4	0x3f3bad04	0.73310876
5	0x3f9ee7c9	1.2414485

features.2.bias f4 [6]
0	0xbdc9322c	-0.09824023
1	0x3d016856	0.031593643
2	0x3eaac75a	0.33355218
3	0x3e04ca02	0.12967685
4	0xbd13c24a	-0.03607396
5	0xbc917e68	-0.01776047

features.2.running_mean f4 [6]
0	0x3f18b4e2	0.59651005
1	0x3f01ecde	0.50752056
2	0x3f3beced	0.73408395
3	0x3f0d5d99	0.55220944
4	0x3ec9c9ac	0.39411676
5	0x3de33438	0.11093944

features.2.running_var f4 [6]
0	0x3d966b47	0.0734468
1	0x3dc49ceb	0.09600242
2	0x3e13bee1	0.14428283
3	0x3e8b567a	0.27214414
4	0x3da785ef	0.08179843
5	0x3da05fb9	0.07830758

features.4.weight f4 [16, 6, 5, 5]
0	0xbd2611c9	-0.040544305
1	0xbe12d2cd	-0.14338227
2	0xbda9b14c	-0.0828577
3	0xbd859d3d	-0.065241314
4	0xbd14e45e	-0.0363506
5	0x3d2645f0	0.04059404
6	0xbdb5ff02	-0.088865295
7	0xbb937f0a	-0.004501228
8	0x3b5e3cd0	0.0033910759
9	0x3ddd5d2e	0.10808788
10	0x3d95be5b	0.07311698
11	0x3cdfb0ca	0.02730598
12	0x3d722773	0.059119653
13	0x3cf7c45e	0.030245002
14	0x3c31b459	0.010846221
15	0x3db12864	0.08650282
16	0x3d64cb2a	0.055857815
17	0xba03ad78	-0.0005023102
18	0x3c0cf1ff	0.008602618
19	0x3db13d1b	0.08654233
20	0x3d21aff0	0.039474428
21	0x3e0dbfa0	0.1384263
22	0xbd3c07a8	-0.04590574
23	0x3c9219ce	0.01783457
24	0xbb221aa0	-0.0024735108
25	0x3e3409d1	0.1758187
26	0xba9b281f	-0.0011837519
27	0x3c594ea7	0.013263381
28	0x3e07eb9f	0.13273476
29	0x3dbb7756	0.09153621
30	0xbde50c85	-0.111840285
31	0xbe4e1176	-0.20123848
32	0xbe5e209f	-0.21692131
33	0xbe0cd1a3	-0.13751845
34	0xbd8fcf55	-0.07021967
35	0xbd57d905	-0.0526972
36	0xbdcd6380	-0.10028744
37	0xbdfd6115	-0.123720326
38	0xbe4cfb02	-0.20017627
39	0xbd9646c8	-0.07337719
40	0x3dd29020	0.10281396
41	0xbb1ec157	-0.0024224126
42	0xbd5a0067	-0.05322304
43	0x3c242a91	0.010019914
44	0xbd2c6c52	-0.04209549
45	0x3e6c9e0c	0.23107165
46	0x3e65e4f7	0.22450624
47	0x3df47ee0	0.11938262
48	0x3e29de4a	0.16588703
49	0x3e031015	0.12799104
50	0xbbbd5de4	-0.005779015
51	0xbdb609a9	-0.08888561
52	0x3c35f907	0.011106736
53	0x3d74cc1e	0.059764974
54	0x3c5855cb	0.013204048
55	0x3dc346db	0.09534999
56	0xbd1ed033	-0.038772773
57	0x3d804322	0.062628046
58	0xba035c36	-0.0005010994
59	0xbd639a9b	-0.055567365
60	0xbb391ecf	-0.0028247123
61	0xbd82c3ed	-0.06385026
62	0xbcfc7679	-0.03081821
63	0x3c96784a	0.018367905
64	0xbd606e3e	-0.054792635
65	0x3d17ece9	0.03709117
66	0xbdc8fa41	-0.09813357
67	0xbdb8b5e3	-0.09019067
68	0xbd0ae23a	-0.033907153
69	0xbc9b68f7	-0.01897095
70	0x3dea1ea1	0.11431623
71	0xbce3441b	-0.027742436
72	0xbd11a3c9	-0.03555659
73	0x3dc7ae23	0.09750011
74	0xbdb637a6	-0.08897333
75	0x3c570f06	0.01312614
76	0x3ca21d4a	0.019789357
77	0xbd2ef453	-0.042713474
78	0xbd521175	-0.05128618
79	0x3d2509f2	0.040292688
80	0xbd845872	-0.06462182
81	0x3d90b03f	0.07064866
82	0xbda5c4bd	-0.080941655
83	0x3d5200a7	0.051270153
84	0xbc83efb0	-0.016105503
85	0x3d2b8e71	0.04188389
86	0xbd1fef1f	-0.039046403
87	0x3d0c14bf	0.034199473
88	0xbc96e054	-0.018417515
89	0x3c1306d0	0.008973792
90	0x3d48150f	0.048848208
91	0xbd3ba016	-0.045806967
92	0x3cf5a0db	0.029983928
93	0xbcdf03a2	-0.027223412
94	0xbb82a5f0	-0.0039870664
95	0xbdabce98	-0.08389014
96	0x3d69bf69	0.05706731
97	0xbda614e0	-0.0810945
98	0xbc4b4543	-0.01240665
99	0xbc82b394	-0.01595477
100	0x3cf9ea19	0.030507134
101	0x3dcad523	0.09903934
102	0x3df5a12f	0.11993634
103	0x3c0a3dd2	0.008437591
104	0x3d10a789	0.035316024
105	0x3caf862c	0.021426283
106	0x3dd55b4b	0.104178034
107	0x3e31d432	0.17366102
108	0x3e3df68a	0.18551078
109	0x3c3f7f3f	0.011688053
110	0xbd8190c8	-0.06326443
111	0xbdeb71d8	-0.11496323
112	0xbc80e022	-0.015731875
113	0xbd17a659	-0.037023876
114	0xbd7dd0e6	-0.0619668
115	0xbe4d568f	-0.2005255
116	0xbdc46aec	-0.09590706
117	0xbe0b29c5	-0.13590153
118	0xbdafbf49	-0.085814066
119	0xbe139cc7	-0.14415275
120	0x3d2a1904	0.041527763
121	0x3b6c1623	0.0036023937
122	0x3de25c9f	0.11052822
123	0x3cd7c64d	0.026339674
124	0xbbcffaf1	-0.006347053
125	0x3ccfefc3	0.025382882
126	0x3c9d8438	0.019228086
127	0xbc280651	-0.010255412
128	0xbc93a139	-0.018021213
129	0x3bab2c16	0.0052237613
130	0xbd3ac922	-0.04560197
131	0xbe2e02a7	-0.169932
132	0xbe296dd2	-0.165458
133	0xbe4ca175	-0.19983466
134	0xbe25a99f	-0.16177987
135	0xbc6cc94f	-0.014452293
136	0xbda2abd1	-0.07942928
137	0xbd219be2	-0.039455302
138	0xbdc1afdc	-0.09457371
139	0xbd735724	-0.059409276
140	0x3d866d4e	0.06563817
141	0x3d850e29	0.064968415
142	0x3be21579	0.0068995324
143	0x3d92b879	0.071640916
144	0x3c7f7ba2	0.015593441
145	0x3d3ef62c	0.046621487
146	0x3d3a9f45	0.045562048
147	0x3d592527	0.053013947
148	0x3d01bd7e	0.031674854
149	0xbb1eeebb	-0.0024251181
150	0xbd775892	-0.0603872
151	0x3c492f14	0.012279291
152	0x3ddbaf5a	0.10726805
153	0xbd5a9d96	-0.053372942
154	0x3c71ba74	0.014753927
155	0xbca2c5ef	-0.019869773
156	0xbb98b996	-0.0046607954
157	0x3d6f7b15	0.05846699
158	0x3d7d5f32	0.061858363
159	0x3d710ce4	0.058850184
160	0x3d950312	0.07275976
161	0xbd525738	-0.05135271
162	0xbda76d08	-0.08175093
163	0xbc80e58e	-0.01573446
164	0xbd7eae4f	-0.062177952
165	0x3d483c46	0.048885606
166	0x3d2ed77a	0.042685963
167	0x3d20dab3	0.039271068
168	0x3c9ce6b3	0.019152975
169	0x3dbd35d2	0.09238781
170	0x3c554fe3	0.013019535
171	0x3d8c159a	0.06840058
172	0xbd854516	-0.06507318
173	0xbd26e574	-0.040746167
174	0x3d84b213	0.064792775
175	0x3c913e6a	0.017729957
176	0x3d3924b6	0.045201026
177	0xbdd82346	-0.10553603
178	0xbd9b5470	-0.075844646
179	0x3d8a0434	0.06739083
180	0xbdef3e7e	-0.11681841
181	0x3d1d89ad	0.038461376
182	0xbdb20445	-0.086922206
183	0x3cbd9be0	0.023145616
184	0xbd4f8894	-0.05066736
185	0xbd653ab8	-0.0559642
186	0xbc88151f	-0.016611634
187	0xbd7fc3cc	-0.062442586
188	0x3c513f94	0.012771506
189	0xbd74faa4	-0.059809342
190	0xbdae480d	-0.08509836
191	0xbe0c85c0	-0.13722897
192	0xbd4f2b70	-0.050578535
193	0x3d276b5d	0.040873874
194	0xbd007bb8	-0.031367987
195	0xbd994bb7	-0.074851446
196	0xbc987ef1	-0.018615218
197	0x3d23f1ab	0.040025394
198	0xbc48c990	-0.0122550875
199	0x3e081388	0.132887
200	0xbcd5dfb0	-0.02610764
201	0xbdb09087	-0.086213164
202	0xbdb45d80	-0.08806896
203	0xbda9d020	-0.0829165
204	0xbc5d276a	-0.013498167
205	0x3e24e7d3	0.16104059
206	0xbd8aebae	-0.067832336
207	0xbd128856	-0.03577455
208	0xbc01c7d5	-0.007921179
209	0x3ceb740b	0.028741857
210	0x3c9491f3	0.018136
211	0xbc805129	-0.0156637
212	0x3d481d94	0.048856333
213	0xbd8f2376	-0.069891855
214	0x3d6c34e7	0.05766764
215	0x3dc36756	0.09541194
216	0x3d802ae8	0.06258184
217	0xbb0175c0	-0.0019754022
218	0x3cc745fa	0.02432536
219	0xbcf64100	-0.030060291
220	0xbc09c1aa	-0.0084079895
221	0x3ced5952	0.028973255
222	0x3d875f1f	0.0660994
223	0x3d6b70ef	0.05748075
224	0x3df39d06	0.11895184
225	0x3da6eccf	0.081506364
226	0xbd543cfa	-0.051815964
227	0xbd681d2f	-0.056668457
228	0x3c85556c	0.016276084
229	0xbd009699	-0.03139362
230	0x3dbe57bd	0.092940785
231	0x3d17603b	0.036957007
232	0xbdd26e2b	-0.10274919
233	0xbdb8caa8	-0.090230286
234	0xbdda5abe	-0.10661839
235	0x3e0134e0	0.12617826
236	0xbd57a06c	-0.052643225
237	0xbe2737f5	-0.1632994
238	0xbdbeb361	-0.093115576
239	0xbdab4ce2	-0.083642736
240	0x3e3ec2b8	0.18628967
241	0x3ba6645b	0.0050778813
242	0xbc1c5eb1	-0.009544061
243	0xbe21f344	-0.15815455
244	0xbe14540e	-0.1448519
245	0x3e499e84	0.19689375
246	0x3ddbd11e	0.10733245
247	0xbdf5fcde	-0.12011121
248	0xbe2df897	-0.16989361
249	0xbe73ce5f	-0.23809193
250	0x3d8d2f9a	0.06893845
251	0x37ad7102	2.067583e-05
252	0xbca7bc5c	-0.020475559
253	0xbdbab45d	-0.09116433
254	0xbd2a7e2a	-0.041624226
255	0xbbb6b97c	-0.0055763107

features.4.bias f4 [16]
0	0xbea53ad2	-0.3227144
1	0x3e97e56a	0.29667217
2	0xbe73248e	-0.23744413
3	0xbec6a337	-0.38796398
4	0x3d2c5cfc	0.042080864
5	0xbea3b5a9	-0.31974533
6	0xbdf62712	-0.12019171
7	0x3e5056f8	0.20345676
8	0xbecc53ae	-0.39907593
9	0x3e2e0155	0.16992696
10	0xbe934f41	-0.28771403
11	0xbe08cbe8	-0.13359034
12	0x3ca8afcf	0.020591645
13	0x3e3ff429	0.18745483
14	0x3e8916d3	0.26775226
15	0xbe6303bf	-0.22169398

features.6.weight f4 [16]
0	0x3fa4bae6	1.2869537
1	0x3f8f2695	1.1183649
2	0x3fa2dd34	1.2723756
3	0x3fb7e018	1.4365263
4	0x3f8e3c10	1.111208
5	0x3fa0a056	1.2548931
6	0x3f8bb27d	1.0913845
7	0x3f9376c0	1.1520615
8	0x3fc4431c	1.533298
9	0x3f99c360	1.2012749
10	0x3f9cda0a	1.225404
11	0x3fa67d03	1.30069
12	0x3f8cc384	1.0997167
13	0x3f9ac373	1.2090896
14	0x3fa1e186	1.2646949
15	0x3fc71c43	1.55555

features.6.bias f4 [16]
0	0x3dd40d47	0.10354095
1	0x3dd4d6b6	0.10392515
2	0x3da9fd88	0.083003104
3	0x3e21995d	0.1578116
4	0x3d9df303	0.077123664
5	0x3d838eb9	0.064237066
6	0x3de22df4	0.11043921
7	0x3dcd5b11	0.10027135
8	0x3def4d51	0.11684669
9	0x3daec11d	0.08532927
10	0x3d0279c3	0.031854402
11	0x3d9d0327	0.07666617
12	0x3d1f0e9c	0.038832292
13	0x3dabcc68	0.08388597
14	0x3d8cd441	0.06876422
15	0x3e3bce88	0.18340504

features.6.running_mean f4 [16]
0	0x3e3ae10a	0.18249908
1	0x3ef6eff7	0.48229954
2	0x3ec25cd4	0.37961447
3	0x3e5cd950	0.21567273
4	0x3ef74c9d	0.4830064
5	0x3e414c41	0.18876745
6	0x3e55b732	0.20870665
7	0x3f3d67b7	0.7398638
8	0x3e19b2a8	0.15009558
9	0x3ea63cd1	0.32468274
10	0x3e9d26cf	0.3069367
11	0x3e42f79a	0.19039765
12	0x3f045606	0.5169376
13	0x3ed62546	0.41825312
14	0x3ede5765	0.43426052
15	0x3e95e382	0.29275137

features.6.running_var f4 [16]
0	0x3e2b15f3	0.16707592
1	0x3e88f342	0.2674809
2	0x3ed32ca4	0.41244996
3	0x3e8b8a1b	0.27253804
4	0x3ed46839	0.41485766
5	0x3e1d841d	0.15382428
6	0x3e30740b	0.17231767
7	0x3f11c290	0.56937504
8	0x3e1a066b	0.15041511
9	0x3e664948	0.22488892
10	0x3e4db0a0	0.20086908
11	0x3e23e547	0.16005431
12	0x3eb935b9	0.361738
13	0x3e8a7c1d	0.27047816
14	0x3e8e23b4	0.27761614
15	0x3ec12971	0.3772693

classifier.0.weight f4 [120, 400]
0	0x3c7d23d7	0.015450439
1	0xbba5a038	-0.0050545
2	0xbd141074	-0.036148503
3	0x3cd5a4b2	0.02607951
4	0x3bd2fa9c	0.0064385664
5	0x3cbad173	0.022804951
6	0x3ce5c9bc	0.028050296
7	0xbcf9bfe3	-0.030487007
8	0x3c0ff695	0.008786817
9	0x3cda7d87	0.026671184
10	0x3d69985c	0.057030067
11	0x3d1a8d76	0.037732564
12	0x3c8663f3	0.016405081
13	0xbbb11c75	-0.0054050037
14	0x3c50f64e	0.012754036
15	0x3c463896	0.012098452
16	0x3d43d6e8	0.047812372
17	0x3d2a9a70	0.04165119
18	0x3d1bc42a	0.038028874
19	0x3cac6abc	0.021046989
20	0xbcb3d4c2	-0.021952037
21	0xbc5ddc6a	-0.01354132
22	0x3cc3ad97	0.023886485
23	0xbc0ada1c	-0.008474853
24	0xbd050c9f	-0.03248274
25	0x3d4eb500	0.050465584
26	0xbbe13ba1	-0.0068735634
27	0x3d5106f9	0.05103204
28	0xbcb75660	-0.022380054
29	0xbd209843	-0.039207708
30	0x3c032734	0.008004952
31	0x3d1896e5	0.03725328
32	0xbc3fed53	-0.011714297
33	0x3d71e41d	0.059055436
34	0x3ba75943	0.0051070764
35	0x3d55d63a	0.052206255
36	0xbbfc1383	-0.0076927557
37	0xbcb01754	-0.021495499
38	0xbc9abb5d	-0.01888817
39	0xbc5cd5ca	-0.013478706
40	0x3c18506d	0.009296519
41	0x3c9c27e6	0.019061994
42	0x3bbc7153	0.005750814
43	0xbc68a909	-0.014200457
44	0xbcf382a5	-0.029725382
45	0xbbf08391	-0.0073399027
46	0xbd25b6b0	-0.040457428
47	0x3d0e2c70	0.034710348
48	0xbc447cb0	-0.011992618
49	0xbb51875c	-0.003197155
50	0x3d3dd450	0.046345055
51	0x3bca4c28	0.0061736293
52	0x39647d0f	0.00021790362
53	0xbcc38e4b	-0.023871562
54	0x3c6654a5	0.014058267
55	0xbd3e1d1b	-0.046414476
56	0xbd66daf6	-0.05636116
57	0xbccc709f	-0.024956046
58	0xbcca6881	-0.024708034
59	0xbbe62582	-0.0070235142
60	0xbd020dad	-0.031751323
61	0xbd4cb88d	-0.04998069
62	0xbd45cbe8	-0.048290163
63	0xbd1923a4	-0.037387505
64	0xba838aa1	-0.0010035821
65	0xbd6402a2	-0.055666573
66	0x3c82976e	0.015941348
67	0x3abe1b0e	0.0014503913
68	0xbc812886	-0.015766393
69	0x3ce77be8	0.028257325
70	0xbcdd8fab	-0.027046045
71	0xbce12f4b	-0.027488371
72	0x3c343986	0.011000043
73	0x3cdc8b59	0.026921915
74	0x3ce0796f	0.027401654
75	0x3c5febc1	0.013667048
76	0x3b6de644	0.003630058
77	0x3beef582	0.0072924504
78	0x3d808cd9	0.062768646
79	0x3d0fc0e3	0.03509606
80	0x3c845688	0.016154543
81	0x3b39f934	0.0028377296
82	0x3ae24830	0.0017263945
83	0x3d2563c4	0.040378347
84	0x3cf12d73	0.029440617
85	0xbccb4d5f	-0.024817167
86	0xb99884c0	-0.00029090606
87	0x3c8cb2c4	0.017175086
88	0x3c9083d5	0.017640987
89	0x3d3f925f	0.04677045
90	0xbcacc2a7	-0.021088911
91	0xbc5786ec	-0.0131547265
92	0xbc5adc8b	-0.013358246
93	0x3c5d71c1	0.013515891
94	0x3ad97bd9	0.0016592696
95	0x3c161be3	0.009161922
96	0xbc92b0f8	-0.01790665
97	0x3af1bcef	0.0018443147
98	0x3d064568	0.032781035
99	0x3b0003a1	0.0019533413
100	0xbd64bf73	-0.055846643
101	0xbd53bc60	-0.05169332
102	0xbb2bab50	-0.002619464
103	0xbd982a47	-0.07429939
104	0xbd8d8d87	-0.0691176
105	0xbc9463c8	-0.018113986
106	0x3cfd4641	0.030917289
107	0x384132c7	4.6062076e-05
108	0xbd7954e9	-0.060871992
109	0xbd8c5fcc	-0.06854209
110	0x3c66c059	0.014083945
111	0x3c89a720	0.016803324
112	0xbc778651	-0.015107707
113	0x3b3fb022	0.002924927
114	0xbb1be694	-0.0023788558
115	0xbc57e423	-0.013176951
116	0x3d43edb9	0.047834132
117	0xbc3bd0bc	-0.01146334
118	0x3cf5de15	0.030013124
119	0x3c29e682	0.010369899
120	0x3d15bbfb	0.036556225
121	0x3daa17ed	0.08305345
122	0x3bb0d32d	0.005396268
123	0x3d05e07e	0.032684796
124	0x3b97b8d8	0.0046301894
125	0x3d10f2d8	0.035387844
126	0xbc9b710f	-0.018974809
127	0x3d03dc7a	0.032192685
128	0xbd37223a	-0.044710375
129	0xbd0c2268	-0.0342125
130	0x3c047ad1	0.008085922
131	0x3cf90caa	0.030401547
132	0xbc6e2f8b	-0.014537702
133	0x3ca9f708	0.020747676
134	0xbd796e6b	-0.06089632
135	0x3c1e27aa	0.009653011
136	0xbd58af4f	-0.052901562
137	0x3d1f46b3	0.038885783
138	0x3b98db74	0.0046648327
139	0xbbd91174	-0.006624395
140	0x3bfd80fa	0.0077363225
141	0x3c84a754	0.01619307
142	0xbce28e26	-0.027655672
143	0x3cd6e5ea	0.026232678
144	0xbd021ef5	-0.031767804
145	0x3d6a6aa4	0.057230607
146	0x3d53e4b2	0.051731773
147	0x3b68fb34	0.003555012
148	0xbc87820e	-0.016541507
149	0x3ce131c4	0.02748955
150	0x3d275188	0.04084924
151	0xbcad5c73	-0.021162247
152	0xbc1a53a1	-0.009419353
153	0xbd65ad32	-0.056073375
154	0xbd2b9155	-0.041886646
155	0xbcf5712d	-0.029961193
156	0xbd4144d9	-0.0471848
157	0xbcd33804	-0.025783546
158	0xbd329367	-0.043597605
159	0xbcb0e1b0	-0.021591991
160	0x3cf17426	0.02947433
161	0xbd858c55	-0.06520907
162	0xbcb19cee	-0.021681275
163	0xbcffd752	-0.031230602
164	0xbd0b1169	-0.03395215
165	0x3cc96c01	0.024587633
166	0xbd02b287	-0.03190854
167	0xbd2aa9ff	-0.041666027
168	0xbbf1b3a3	-0.0073761507
169	0x3cb4d771	0.022075387
170	0xbb2aba3d	-0.0026050948
171	0xbb72c062	-0.0037040939
172	0xbcddcb6c	-0.027074538
173	0x3c34c4f6	0.011033287
174	0x3d6b29c2	0.05741287
175	0xbd92d583	-0.071696304
176	0xbd71b318	-0.059008688
177	0xbdb5928e	-0.08865844
178	0xbd315878	-0.04329726
179	0x3c29b104	0.010357145
180	0xbcec60b0	-0.028854698
181	0xbc23c512	-0.009995716
182	0xbd45e957	-0.048318233
183	0x3c03766b	0.0080238385
184	0xbbcb4527	-0.006203312
185	0x3ce8f8a0	0.028438866
186	0xbce6dbde	-0.028181013
187	0xbbd56a57	-0.006512921
188	0xbc9e6f91	-0.019340308
189	0x3cc2af77	0.023765309
190	0x3c74bb8a	0.014937291
191	0x3c493c86	0.012282496
192	0xb9f593f5	-0.00046840278
193	0x3c762a6a	0.015024761
194	0x3d1183d3	0.035526108
195	0x3d00ec97	0.03147563
196	0xbba37a0c	-0.0049889144
197	0xbd0b597e	-0.034020893
198	0xbbe85a4a	-0.0070908414
199	0x3d3f7ac6	0.046747945
200	0x3d4c0f6c	0.049819395
201	0x3c7e0f7b	0.0155066205
202	0x3d5e0058	0.054199547
203	0x3d04e723	0.03244699
204	0x3d039bf7	0.03213116
205	0xbc4bfba3	-0.012450132
206	0x3d47cf99	0.048781965
207	0x3d3f6732	0.046729274
208	0xbb6e3c28	-0.0036351774
209	0xbcb2bedf	-0.02181953
210	0xbbee6225	-0.0072748833
211	0x3d215bd3	0.03939421
212	0xbb999639	-0.0046870974
213	0x3b7c8701	0.0038532617
214	0x3bd28126	0.006424087
215	0xbb5ddeee	-0.00338548
216	0xbc8178b2	-0.015804622
217	0xbc27e0c5	-0.01024646
218	0x3c553092	0.013012068
219	0x3cb3ac0d	0.021932626
220	0xbc8380f5	-0.016052702
221	0xbbdffa2e	-0.0068352437
222	0xbd00a285	-0.03140499
223	0x3b72131e	0.0036937664
224	0x3c865946	0.01639999
225	0xbbb4bd0a	-0.0055156993
226	0xbcd9f4de	-0.02660602
227	0xbda69c09	-0.0813523
228	0xbcafeeec	-0.021476232
229	0x3d9daa49	0.07698495
230	0xbca02f95	-0.019553939
231	0xbcbc4ee4	-0.022986837
232	0xbd7734f8	-0.06035325
233	0xbc24fb80	-0.010069728
234	0xbb40e1ef	-0.0029431542
235	0xbcf4417e	-0.029816385
236	0xbb46a4dd	-0.0030310669
237	0x3c9c3926	0.01907022
238	0xbd91b249	-0.07114083
239	0xbc6b6741	-0.014367879
240	0xbd0f8d39	-0.03504679
241	0xbce3806d	-0.0277712
242	0xbcc2896a	-0.023747165
243	0xbd048cec	-0.032360956
244	0xbc6e1a73	-0.014532673
245	0x3d82121f	0.063511126
246	0x3c811544	0.01575721
247	0xbcbd255e	-0.023089107
248	0x3b06c2eb	0.0020562958
249	0x3d419f22	0.0472709
250	0xbd1c714d	-0.03819399
251	0xbd70035a	-0.058596946
252	0xbbc33499	-0.005957198
253	0xbc3f9ad9	-0.011694633
254	0x3dbc5ecc	0.091977686
255	0xbd1a34dd	-0.03764807

classifier.0.bias f4 [120]
0	0xbb8dfd38	-0.0043331645
1	0x3c11351a	0.008862758
2	0x3cc2e596	0.023791116
3	0x3cfa6213	0.030564344
4	0x3d6e4b4e	0.058177285
5	0xbc0978f9	-0.008390659
6	0x3d808008	0.0627442
7	0x3d3edc9e	0.046597116
8	0x3c0d5244	0.008625571
9	0x3cf29ebf	0.029616712
10	0x3d17042d	0.036869217
11	0xbd2a0049	-0.04150418
12	0x3d55b34c	0.052172944
13	0x3cceae76	0.025229674
14	0xbd7d164a	-0.061788835
15	0xbcb78122	-0.022400443
16	0x3da021b5	0.07818929
17	0xbd6b935d	-0.057513583
18	0xbc8f5cfd	-0.017500395
19	0x3d8b13a8	0.067908585
20	0xbcdede07	-0.02720548
21	0xbc3b2f36	-0.01142483
22	0x3d287098	0.041123003
23	0x3d506c5b	0.050884586
24	0x3d888269	0.06665499
25	0x3c6bfe12	0.014403837
26	0x3bd5da47	0.006526265
27	0x3cf57de0	0.029967248
28	0x3ba4d04f	0.005029715
29	0xbd4b5489	-0.049641166
30	0xbda68d71	-0.081324466
31	0x3c5d1b34	0.013495255
32	0x3d10987e	0.035301678
33	0x3db59c00	0.08867645
34	0xbc15c726	-0.009141719
35	0xbb48cc2f	-0.003063928
36	0x3da6233a	0.08112188
37	0xbb854dae	-0.004068098
38	0x3d39cc1e	0.045360677
39	0xbd2f1c70	-0.04275173
40	0xbc51baca	-0.012800882
41	0xbdd963ce	-0.10614739
42	0x3cd2a73c	0.02571451
43	0x3d999aff	0.07500266
44	0xbacc9665	-0.0015608786
45	0x3d9720ac	0.073792785
46	0x3d9ba952	0.07600655
47	0x3bba6a69	0.0056889546
48	0x3d637bec	0.055538103
49	0x3c748bf7	0.014925948
50	0x3d1b7a6b	0.037958544
51	0x3ce3432e	0.027741995
52	0x3d5a8a67	0.053354647
53	0x3c72827e	0.01480162
54	0x3d06dba7	0.03292432
55	0xbdada953	-0.08479562
56	0xbcaa573a	-0.020793546
57	0xbca2e1cd	-0.01988306
58	0xbd42acaa	-0.047527947
59	0x3d4a3112	0.049363203
60	0x3d2d58be	0.04232096
61	0x3ca488bb	0.02008473
62	0x3da461ff	0.08026504
63	0xbc1f7137	-0.009731582
64	0x3cead77f	0.02866721
65	0xbc2ff786	-0.0107401665
66	0xbd39c4df	-0.045353767
67	0xba81e053	-0.0009908773
68	0x3d155cf8	0.036465615
69	0xbbf0d7f3	-0.007349962
70	0x3955ea92	0.00020400647
71	0xbbd396ba	-0.006457177
72	0x3d6b155e	0.057393424
73	0x3c98ee34	0.018668272
74	0x3c37b096	0.011211535
75	0xbc2b2bec	-0.0104474835
76	0xbca86f72	-0.020560954
77	0x3c5ca6f3	0.013467538
78	0xbd80c271	-0.06287087
79	0xbd9103c5	-0.07080797
80	0xbc6426b6	-0.013925245
81	0xbcaf4d99	-0.021399306
82	0xbb97b6e5	-0.004629957
83	0x3b1e0261	0.0024110305
84	0x3d016c4b	0.031597417
85	0x3d7b7eb7	0.06140014
86	0xbc88aaae	-0.016682949
87	0xbc98675a	-0.01860397
88	0xbc53db34	-0.01293068
89	0x3cc59c58	0.024122402
90	0x3d004b55	0.031321842
91	0x3aea13bb	0.0017858663
92	0xbc61e8c1	-0.013788403
93	0x3ca7c0a8	0.020477608
94	0xbc80b268	-0.01571007
95	0x3d517bf0	0.051143587
96	0x3c93bb61	0.018033685
97	0x3d45140c	0.04811482
98	0xbd1c7d99	-0.038205717
99	0x3caae65d	0.020861799
100	0x3d96bfc6	0.07360797
101	0x3cdbee47	0.026847018
102	0xbbccf4ea	-0.006254782
103	0xbd83bdde	-0.06432699
104	0xbc631313	-0.013859528
105	0xbc045f8c	-0.008079421
106	0xbcc6fe79	-0.024291264
107	0x3d5353be	0.051593535
108	0xbb07e96c	-0.0020738496
109	0x3b585cb6	0.0033014244
110	0xbccdf2c5	-0.025140176
111	0xbcb4c9b0	-0.022068828
112	0x3d4253f4	0.047443345
113	0xbc82cb3c	-0.01596605
114	0x3d69e0d3	0.057099175
115	0xbcafd2fd	-0.021462912
116	0xbc46ecf9	-0.01214146
117	0x3d8ac9cb	0.0677677
118	0xbbde73ff	-0.00678873
119	0x3da609cd	0.08107338

classifier.2.weight f4 [84, 120]
0	0xbda04740	-0.0782609
1	0xbd0fca22	-0.03510488
2	0xbcbc564e	-0.022990372
3	0x3de1022b	0.10986742
4	0x3da381de	0.079837546
5	0xbd341523	-0.04396547
6	0x3dbf3383	0.09335997
7	0xbd982949	-0.074297495
8	0x3d8ba57e	0.068186745
9	0xbb45320f	-0.0030089652
10	0x3cd2d0ab	0.025734266
11	0xbdcd6a1a	-0.10030003
12	0xbd06ae7b	-0.03288124
13	0x3d94e78b	0.07270726
14	0x3c2688a9	0.010164418
15	0xbdca5b53	-0.098807
16	0xbae10f08	-0.0017170617
17	0x3d5f7cfb	0.05456255
18	0xbcc2a12c	-0.023758493
19	0x3d5e5e29	0.054289017
20	0x3cc583b9	0.024110662
21	0x3dad8624	0.08472851
22	0xbd175504	-0.03694631
23	0x3be3730a	0.006941204
24	0xbda2c7b9	-0.0794825
25	0xbe0144e0	-0.1262393
26	0xbc0872ba	-0.008328134
27	0xbd8930a9	-0.06698734
28	0xbbe91662	-0.007113264
29	0x3deff657	0.117169075
30	0x3cf8486e	0.030307975
31	0xbc7ecd23	-0.015551838
32	0xbd4341bf	-0.047670122
33	0x3dc65cd8	0.09685677
34	0x3da639df	0.08116507
35	0xbc1f7907	-0.009733445
36	0xbda20900	-0.07911873
37	0x3ce32753	0.027728712
38	0x3dcbb914	0.0994741
39	0x3dc06499	0.093941875
40	0x3d9f42dc	0.07776424
41	0x3df00757	0.1172015
42	0xbd786a16	-0.060648046
43	0x3dab7cbc	0.083734006
44	0x3d5d2846	0.053993486
45	0x3e11d062	0.14239648
46	0xbda5b1ec	-0.080905765
47	0x3ddd3bc6	0.108024165
48	0x3d421438	0.047382563
49	0x3d75ede1	0.060041312
50	0x3df0d57c	0.11759469
51	0xbd33f028	-0.043930203
52	0x3cb145bf	0.021639703
53	0xbc8c9655	-0.017161528
54	0xbd9b336f	-0.075781696
55	0xbc01d252	-0.007923679
56	0x3cae4185	0.021271477
57	0x3d0e0b21	0.034678582
58	0x3d8b6627	0.068065934
59	0x3dfa6715	0.122266926
60	0xbd4ddc12	-0.050258704
61	0xbdf6d047	-0.120514445
62	0xbdeee416	-0.11664598
63	0xbd81093c	-0.063005894
64	0xbd602cf5	-0.054730374
65	0x3d84f58b	0.06492146
66	0xbdb9e975	-0.090777315
67	0xbd225c14	-0.039638594
68	0xbda7889c	-0.08180353
69	0x3c60cdf7	0.013720981
70	0xbd2f3837	-0.04277822
71	0xbc8918d1	-0.016735466
72	0x3cf1ed05	0.029531965
73	0x3d8ab27f	0.06772327
74	0xbd5f700c	-0.054550216
75	0xbd82ad11	-0.06380666
76	0xbd868bf7	-0.06569665
77	0x3d0dcb86	0.034617923
78	0x3d4df412	0.05028159
79	0x3ceb5f66	0.028732013
80	0xbd14012c	-0.03613393
81	0xbdd0a821	-0.10188318
82	0x3c4a6ae5	0.012354587
83	0xbd56cabf	-0.052439447
84	0xbd3c2c95	-0.045940954
85	0xbd3edc80	-0.046597004
86	0x3b968b03	0.004594208
87	0x3d631d12	0.055447645
88	0x3c894267	0.016755296
89	0x3d3bec92	0.045879908
90	0x3d9da41a	0.076973155
91	0x3a5fb6d3	0.0008534018
92	0xbcc90f88	-0.024543539
93	0x3dc51cd3	0.096246384
94	0x3cb7d221	0.022439064
95	0x3d82fd2f	0.06395947
96	0xbd806cf2	-0.0627078
97	0xbdc1ad9e	-0.09456943
98	0x3d813d45	0.06310514
99	0x3dd92f08	0.106046736
100	0x3caeac34	0.021322347
101	0x3dba0223	0.09082439
102	0x3bd7183b	0.006564168
103	0x3b9bc1fa	0.0047533484
104	0x3e06ba20	0.13156939
105	0xbccc897e	-0.024967905
106	0x3d9e1055	0.07717959
107	0xbd4bc10e	-0.04974466
108	0x3cf72346	0.030168187
109	0x3c33a191	0.010963813
110	0x3cfc9dde	0.030836996
111	0x3c652ab4	0.013987232
112	0xbbb273b4	-0.005445922
113	0xbd06dc46	-0.032924913
114	0x3d4c8438	0.04993078
115	0x3d559801	0.052146915
116	0x3d40d144	0.04707457
117	0x3e063b4e	0.1310856
118	0xbdcac1b9	-0.09900231
119	0xbc376c05	-0.011195187
120	0xbda79ceb	-0.081842266
121	0x3cd8ccd8	0.026464865
122	0x3dd7a3bf	0.10529279
123	0x3dc36ebd	0.09542606
124	0x3dc26d45	0.09493498
125	0x3d9d3f7d	0.07678125
126	0x3d5045df	0.050847884
127	0x3bfab418	0.0076508634
128	0xbd0b5038	-0.03401205
129	0x3d99a552	0.075022355
130	0x3d5ad6c1	0.05342746
131	0x3d75a0bc	0.05996774
132	0x3d1e19e5	0.038598914
133	0x3beaca56	0.0071652336
134	0x3d99c7de	0.07508825
135	0x3ca51f5b	0.020156553
136	0x3db8eb3e	0.09029244
137	0xbd6609c7	-0.05616167
138	0xbdcb1af5	-0.09917251
139	0xbd33aefc	-0.04386805
140	0x3d36520c	0.04451184
141	0xbcb2733b	-0.021783462
142	0xbc95d30a	-0.018289108
143	0x3ddb0966	0.10695152
144	0xbd426f74	-0.04746957
145	0x3d4ad449	0.049518857
146	0x3dad1672	0.08451547
147	0x3d2c30a5	0.04203858
148	0xbd9e52ed	-0.077306606
149	0x3c951f4f	0.018203406
150	0xbd982a60	-0.074299574
151	0x3cd1b0d7	0.02559702
152	0xbd696215	-0.056978304
153	0x3c8b5003	0.017005926
154	0x3e04a16a	0.129522
155	0x3c097888	0.008390553
156	0x3d0742de	0.033022754
157	0xbd6b0945	-0.057381887
158	0x3d46b000	0.04850769
159	0x3d83b91e	0.06431793
160	0x3def9cad	0.116998054
161	0xbda459bc	-0.08024928
162	0x3c858ba5	0.01630194
163	0xbc277905	-0.010221724
164	0xbd34b196	-0.04411467
165	0x3d90bf03	0.070676826
166	0xbd284338	-0.04107973
167	0x3c1fecba	0.00976103
168	0x3dd72a1f	0.10506081
169	0x3ad13a48	0.0015962804
170	0x3da64274	0.08118144
171	0xbd9e797e	-0.077380165
172	0x3e09ac80	0.1344471
173	0xbd3b67f3	-0.04575343
174	0x3ce51e30	0.027968496
175	0xbaf4a966	-0.0018666207
176	0x3dab0ed6	0.08352439
177	0x3d193120	0.037400365
178	0xbd1086ca	-0.035284795
179	0x3c6d510a	0.014484653
180	0x3d8f99ae	0.07011734
181	0xbc8321e7	-0.016007377
182	0x3d86cafb	0.06581684
183	0xbdd8d809	-0.105880804
184	0x3d6c0f73	0.05763192
185	0xbd11529c	-0.035479173
186	0xbd077b30	-0.033076465
187	0xbda56af9	-0.08077044
188	0x3d8b93a4	0.068152696
189	0xbdc73071	-0.09726036
190	0x3d49e1b1	0.0492875
191	0x3d527081	0.051376823
192	0xbda7edc0	-0.08199644
193	0x3d651498	0.055927843
194	0x3d0601db	0.032716613
195	0x3d9b1737	0.07572787
196	0x3d66218f	0.056184348
197	0xbd5f2df5	-0.054487187
198	0xbca389b1	-0.019963117
199	0xbdb24951	-0.0870539
200	0x3db4ecec	0.08834252
201	0xbd98eb0d	-0.074667074
202	0x3ba81940	0.005129963
203	0x3d9f0d15	0.07766167
204	0xbdd7952c	-0.10526499
205	0xbc0d1141	-0.008610071
206	0x3de1bc34	0.11022225
207	0xbd8d6904	-0.06904796
208	0xbd1e2907	-0.038613345
209	0x3d5b3db8	0.053525656
210	0xbc3c3cd7	-0.011489115
211	0xbce5f059	-0.028068708
212	0xbd389b1b	-0.045069795
213	0x3d49f1e5	0.049302954
214	0xbc47f992	-0.012205498
215	0x3d9a76bb	0.07542177
216	0xbd22fd7f	-0.039792534
217	0x3d195517	0.037434664
218	0x3dc8c68c	0.09803495
219	0x3d1dc585	0.038518447
220	0xbb7332cb	-0.0037109132
221	0xbd9b6132	-0.07586898
222	0xbcfe267d	-0.031024212
223	0xbb5f58a9	-0.0034079945
224	0x3d380179	0.04492328
225	0xbdbd756d	-0.09250913
226	0x3ce6fa15	0.02819542
227	0xbcc56776	-0.024097186
228	0xbd67c16a	-0.05658094
229	0x3cb969ef	0.02263352
230	0xbd140cb3	-0.036144923
231	0x3c175e91	0.009238855
232	0xbdcb806a	-0.099366024
233	0x3db71e2d	0.089413024
234	0x3db85dca	0.09002264
235	0xbd01767e	-0.031607144
236	0x3d4e1ea4	0.05032219
237	0x3c97843f	0.018495677
238	0xbdb34570	-0.087534785
239	0x3e064662	0.13112786
240	0xbd680cf5	-0.05665298
241	0xbc1915fa	-0.0093436185
242	0x3d46b92f	0.04851645
243	0x3ddc54d1	0.10758365
244	0x3db8f33f	0.090307705
245	0xbde8010c	-0.11328325
246	0x3d2819af	0.04104012
247	0x3dbf9bbf	0.09355878
248	0xbd38e696	-0.04514178
249	0xbc239bfc	-0.00998592
250	0x3d7f8a0c	0.06238751
251	0xbd49064c	-0.04907827
252	0x3d3f8ba3	0.046764027
253	0x3d68a306	0.056796096
254	0xbd62698f	-0.05527645
255	0x3d82515a	0.06363173

classifier.2.bias f4 [84]
0	0xbc36085b	-0.011110391
1	0x3d89c39d	0.067267634
2	0x3d2e2289	0.042513404
3	0x3d90c24c	0.07068309
4	0x3d664a48	0.056223184
5	0x3d4d162e	0.05006998
6	0xbd076a58	-0.0330604
7	0xbd3fc2a3	-0.04681648
8	0xbcb0a6c2	-0.021563891
9	0x3da38483	0.07984259
10	0x3da62036	0.081116125
11	0x3dd828dd	0.10554669
12	0xbd936447	-0.07196861
13	0xbcb10fa8	-0.02161391
14	0x3d846f24	0.06466511
15	0x3dfac590	0.12244713
16	0x3d3e42e1	0.0464505
17	0xbd5db4bb	-0.054127436
18	0xbb390050	-0.0028228946
19	0xbd117ae4	-0.03551759
20	0x3d00fa7a	0.031488873
21	0x3b2d7e4f	0.002647299
22	0x3da3ac3f	0.07991838
23	0x3e080f5b	0.13287108
24	0xbcc51ab9	-0.024060594
25	0xbcf089fc	-0.029362671
26	0x3d8282ae	0.063725814
27	0xbd992f59	-0.07479734
28	0x3c8036ff	0.015651224
29	0xbc375d81	-0.011191727
30	0xbd2ddd04	-0.042447105
31	0x3d17d81a	0.037071325
32	0xbd952b1b	-0.07283612
33	0x3d862b99	0.06551284
34	0xbd455549	-0.048177037
35	0xbcf65f1a	-0.030074645
36	0x3d82c74c	0.06385669
37	0xbce259a9	-0.027630644
38	0x3d96e409	0.07367713
39	0x3dc38ffb	0.095489465
40	0x3d3ed198	0.046586603
41	0x3ce4bf27	0.02792318
42	0xbd2075bd	-0.039174784
43	0x3dcbc502	0.09949686
44	0xbd907511	-0.07053579
45	0xbce2e7d5	-0.027698437
46	0xbd621eaa	-0.055205025
47	0x3d09bc91	0.033627097
48	0x3d1e9268	0.038713843
49	0xbd3baaf1	-0.04581732
50	0xbd59066a	-0.052984633
51	0x3c9dc3e1	0.019258441
52	0x3e05262c	0.13002843
53	0xbd1f0b8f	-0.038829383
54	0x3df3eed7	0.119107895
55	0xbcc63608	-0.024195686
56	0xbcd014a8	-0.025400475
57	0x3db8f6b7	0.09031432
58	0x3ca4c39d	0.020112807
59	0xbcabe264	-0.020981975
60	0xbc259095	-0.010105272
61	0x3c462f68	0.0120962635
62	0x3d75a929	0.059975777
63	0x3d3ff16a	0.04686109
64	0x3ded40d2	0.11584629
65	0x3e232403	0.15931706
66	0x3d10621c	0.035249814
67	0x3d09a26c	0.033602163
68	0x3c790bbc	0.015200552
69	0xbd7f7f85	-0.06237747
70	0x3dfa5968	0.12224084
71	0x3d5d32dd	0.054003585
72	0xbba5e532	-0.0050627226
73	0x3bd884f0	0.0066076443
74	0x3c4e2500	0.012582064
75	0x3e01bc38	0.12669456
76	0x3d44db9b	0.048060995
77	0x3dadbead	0.08483634
78	0x3d1fece7	0.039044287
79	0x3cfd70a6	0.030937504
80	0x3c94c076	0.018158179
81	0x3c404613	0.011735457
82	0x3d7d183c	0.06179069
83	0xbcd7d162	-0.026344959

classifier.4.weight f4 [10, 84]
0	0xbdab41d8	-0.08362168
1	0x3df81a6e	0.12114416
2	0x3ea59e40	0.32347298
3	0x3e71281a	0.23550454
4	0x3d05f9ea	0.03270904
5	0x3dbd3b0b	0.09239777
6	0x3e4e614c	0.20154303
7	0xbdd698ba	-0.10478349
8	0xbc9da5ca	-0.019244093
9	0xbe566e82	-0.20940593
10	0x3d77f89f	0.060539838
11	0xbd59a678	-0.053137273
12	0x3d8b669e	0.06806682
13	0x3e89852b	0.26859412
14	0xbcebbe88	-0.028777376
15	0xbe316697	-0.17324291
16	0x3dfa7fc0	0.12231398
17	0x3e672ea5	0.22576387
18	0x3e61c902	0.22049335
19	0x3e8a0996	0.26960438
20	0x3e45ab7d	0.19303699
21	0xbddfe2e4	-0.10931948
22	0x3e8c62ab	0.27419028
23	0xbd8addfa	-0.0678062
24	0x3de34f33	0.110990904
25	0x3da92e78	0.08260816
26	0xbe243ca6	-0.1603876
27	0x3e399b93	0.18125753
28	0xbdd64d0e	-0.10463916
29	0x3d437691	0.047720496
30	0xbbd38d8f	-0.006456084
31	0x3cb2aa76	0.021809798
32	0xbce6dcbd	-0.028181428
33	0xbe0d4a48	-0.13797867
34	0x3de8f719	0.11375255
35	0x3ddd613d	0.10809562
36	0x3d9fcdc4	0.078029186
37	0x3e25e718	0.16201437
38	0x3e259009	0.16168226
39	0xbda43888	-0.08018595
40	0xbd8e2451	-0.069405206
41	0x3ebe25f0	0.3713832
42	0xbe1dc902	-0.1540871
43	0x3df2b6e1	0.11851288
44	0xbcdaaaba	-0.026692737
45	0x3e80e01d	0.25170985
46	0x3dd82f3c	0.10555884
47	0xbdbcd8b2	-0.09221019
48	0x3e69c94e	0.22830698
49	0x3e14723d	0.14496703
50	0x3e9e9668	0.30974126
51	0xbd2d9c02	-0.04238511
52	0x3cf599a0	0.02998048
53	0xbe417bcb	-0.1889488
54	0x3dc5d55e	0.09659837
55	0xbdbedb4c	-0.09319171
56	0xbd111e93	-0.03542955
57	0x3df2042b	0.11817201
58	0xbdfd6c8c	-0.12374219
59	0x3e15bed8	0.14623582
60	0x3e5cb4d5	0.21553357
61	0x3de0bf8b	0.10974034
62	0xbded21db	-0.11578723
63	0x3e886947	0.2664282
64	0xbe3ad90f	-0.18246864
65	0xbe777cb8	-0.2416867
66	0xbd241e80	-0.04006815
67	0xbdf9bdcf	-0.12194406
68	0xbdde0979	-0.108416505
69	0xbda898bf	-0.08232259
70	0x3c844318	0.016145274
71	0xbd03fda8	-0.032224327
72	0x3d16085c	0.036629066
73	0xbd6f0e7c	-0.058363423
74	0xbc87d625	-0.016581604
75	0x3dda1492	0.10648455
76	0x3dfe235c	0.12409088
77	0xbe1811bb	-0.14850514
78	0x3e5be946	0.21475706
79	0x3d5efce1	0.054440383
80	0x3e58a77e	0.21157643
81	0x3d8c6a92	0.06856264
82	0xbd95929a	-0.07303353
83	0x3c16725e	0.009182541
84	0x3dd7a072	0.105286494
85	0xbe1aa240	-0.15100956
86	0x3ed76a82	0.42073447
87	0x3ed73415	0.42031923
88	0xbd971ee9	-0.073789425
89	0xbd64666a	-0.055761732
90	0x3ebbbb23	0.3666621
91	0xbda1e2ea	-0.079046085
92	0x3ec19f37	0.37816784
93	0x3e73e99a	0.2381958
94	0xbc959dd8	-0.018263742
95	0xbe74792e	-0.23874351
96	0xbda4c19e	-0.08044742
97	0xbdacc1b1	-0.08435381
98	0x3e62b6c8	0.22140038
99	0x3c9cbdde	0.019133504
100	0xbe5b99c5	-0.21445377
101	0xbe018f5a	-0.1265234
102	0xbce1d6f6	-0.027568322
103	0x3cbc7355	0.023004213
104	0x3b781cc5	0.0037858945
105	0xbe5d2a2e	-0.21598122
106	0xbe213674	-0.15743428
107	0x3e0138b4	0.12619287
108	0x3d8c5fc9	0.06854207
109	0xbd99d006	-0.075103804
110	0x3e5d43af	0.2160785
111	0x3e1256e2	0.14290956
112	0x3e6d004e	0.23144647
113	0xbd9adc13	-0.07561507
114	0x3d64b800	0.05583954
115	0xbd9967b2	-0.074904814
116	0x3bb8e048	0.005641971
117	0xbd608394	-0.054812983
118	0xbc49ad0a	-0.012309322
119	0xbc44c2db	-0.012009348
120	0xbd8e3915	-0.06944481
121	0x3d067759	0.032828663
122	0xbde4b9f4	-0.1116828
123	0x3df3180f	0.11869823
124	0x3dba21d5	0.09088484
125	0xbe3912eb	-0.18073623
126	0x3e49b7d6	0.19699034
127	0xbd80775a	-0.062727645
128	0x3d06ed52	0.03294117
129	0x3e03af6f	0.12859891
130	0xbdd73280	-0.10507679
131	0x3db37c65	0.08763961
132	0xbe24e44c	-0.16102713
133	0x3ded7bba	0.115958646
134	0x3b4eb820	0.0031542853
135	0x3b9a10e3	0.00470172
136	0xbd4b47b7	-0.04962894
137	0xbde85377	-0.11344045
138	0x3cf3d77c	0.029765837
139	0x3e2dfae3	0.16990237
140	0xbdcb53a5	-0.09928063
141	0x3e16c56a	0.14723745
142	0xbda0333a	-0.07822271
143	0xbd0d8d37	-0.0345585
144	0xbd4a364b	-0.049368184
145	0xbd158da1	-0.03651202
146	0xbca3d408	-0.019998565
147	0x3e93193a	0.28730184
148	0x3d46c459	0.048527095
149	0x3e565a05	0.20932777
150	0xbd11bde1	-0.035581473
151	0x3d04cc98	0.03242168
152	0x3dde211d	0.108461596
153	0xbd821c33	-0.06353035
154	0xbd1fbfb0	-0.039001167
155	0x3e1b34f0	0.15156913
156	0xbda7bb26	-0.081899926
157	0x3e85e33e	0.26149935
158	0xbd8ed46a	-0.069741085
159	0x3de9a292	0.11407961
160	0xbdc525e3	-0.09626367
161	0x3e59f80d	0.2128603
162	0xbdbb2044	-0.091370136
163	0x3da8c397	0.08240431
164	0x3e80ef7f	0.2518272
165	0xbe5c9124	-0.21539742
166	0x3e77d784	0.24203306
167	0xbcc098c8	-0.023510352
168	0x3e024e0a	0.12725082
169	0xbc947ccc	-0.018125914
170	0xbddd48a6	-0.10804872
171	0xbd27806a	-0.04089395
172	0x3db4a595	0.08820645
173	0xbd7e10c9	-0.062027726
174	0x3c15eb71	0.009150372
175	0xbd99b22d	-0.075046875
176	0xbdbadd06	-0.09124188
177	0x3d7d3494	0.06181772
178	0x3e8688da	0.26276284
179	0xbd765607	-0.060140636
180	0x3dda3f31	0.10656584
181	0x3e224bfe	0.15849301
182	0xbdbd1150	-0.09231818
183	0xbe20c433	-0.15699844
184	0x3da92727	0.08259421
185	0x3dcf55fb	0.10123821
186	0x3e9237be	0.28558153
187	0xbd6731ee	-0.0564441
188	0xbe27ae91	-0.16375186
189	0x3d902dd9	0.07039995
190	0xbdc8b4d7	-0.098001175
191	0x3e4278ad	0.18991347
192	0x3e0d4899	0.13797225
193	0xbd6c6d1d	-0.057721246
194	0x3e71a0c6	0.23596486
195	0x3d8465a1	0.06464697
196	0x3dea0679	0.11427016
197	0x3e49d246	0.19709119
198	0x3dcb6877	0.099320345
199	0xbc1afae2	-0.009459229
200	0x3e1ec89d	0.15506215
201	0x3d9bf539	0.07615132
202	0x3d758af4	0.05994697
203	0x3e377a00	0.17917633
204	0xbc9eae94	-0.019370355
205	0x3e9327ce	0.28741306
206	0x3ca83114	0.020531215
207	0xbe139241	-0.1441126
208	0x3de75d81	0.11297131
209	0x3e750dbb	0.23931019
210	0xbd7981d8	-0.060914844
211	0x3cef6126	0.029221129
212	0xbd14c9c6	-0.03632524
213	0x3cc0b143	0.023522025
214	0x3dc19ccd	0.094537355
215	0xbd84d7e8	-0.06486493
216	0x3eb29742	0.34881026
217	0x3dc1ba14	0.0945932
218	0x3e46534b	0.19367711
219	0x3d00312c	0.031296894
220	0x3e3d670d	0.18496342
221	0xbcb74e3e	-0.022376176
222	0xbe110389	-0.14161505
223	0xbdc0fe25	-0.09423474
224	0x3e0d8ca5	0.13823183
225	0xbe29ab00	-0.16569138
226	0x3e94ca4b	0.29060587
227	0x3e644284	0.22290999
228	0x3db9c627	0.09070998
229	0x3e4b6ee7	0.19866525
230	0x3ea44591	0.32084325
231	0xbd9a5a75	-0.075367846
232	0x3d41711e	0.047227018
233	0xbd0c3901	-0.03423405
234	0x3c266394	0.010155577
235	0x3e8dc509	0.27689388
236	0xbd685bf7	-0.05672833
237	0x39e66b03	0.00043948748
238	0xbe8edad0	-0.27901316
239	0xbe32b762	-0.17452767
240	0xbdc472ab	-0.09592184
241	0x3b8e2b0f	0.004338629
242	0xbd76d12d	-0.06025808
243	0xbe0373fa	-0.1283721
244	0x3e87e0df	0.2653875
245	0x3dd51096	0.10403554
246	0x3e789e15	0.24279054
247	0xbd953ffa	-0.07287593
248	0x3e488c78	0.19584835
249	0xbd13e0d9	-0.036103103
250	0x3e4078a6	0.18796024
251	0xbd411294	-0.047136858
252	0x3e193ae6	0.14963874
253	0xbd69df29	-0.057097588
254	0xbd6d9275	-0.058001
255	0xbe17f104	-0.14838034

classifier.4.bias f4 [10]
0	0xbdf26bac	-0.11836943
1	0xbd69f02f	-0.057113823
2	0xbda87612	-0.08225645
3	0x3e15abad	0.1461627
4	0x3ee30d05	0.4434587
5	0x3cfda3f6	0.030961972
6	0x3e0acd61	0.13554908
7	0x3dfe66da	0.12421961
8	0xbd4878a9	-0.048943195
9	0x3e22a8fe	0.15884778
