experiments/LeNet/FashionMNIST/experiment-9/last-epoch.pt (torch, 188459 bytes, 18 tensors)

features.0.weight f4 [6, 1, 5, 5]
0	0xbf0a0e2c	-0.53927875
1	0xbea70007	-0.32617208
2	0xbe181c28	-0.14854491
3	0x3f027a64	0.50968003
4	0x3f330348	0.6992688
5	0x3daa179d	0.08305285
6	0x3be628ed	0.0070239217
7	0x3e2284e2	0.15871003
8	0x3f0332f6	0.51249635
9	0x3d9ec631	0.07752646
10	0xbe970290	-0.29494143
11	0xbd8d82a7	-0.069096856
12	0x3eab4568	0.3345139
13	0x3eb3acc8	0.3509276
14	0x3d56fa3f	0.052484747
15	0xbeb1a3de	-0.34695333
16	0xbed9563f	-0.42448613
17	0xbb505764	-0.003179037
18	0x3f16527c	0.5871961
19	0x3e2a7a6c	0.16648263
20	0xbee9d550	-0.45670557
21	0xbe895c03	-0.26828012
22	0x3e240f7c	0.16021532
23	0x3e762c0f	0.24040245
24	0xbed515b8	-0.41618133
25	0x3dfbdd1e	0.12298034
26	0x3e1b3773	0.15157871
27	0xbda88eee	-0.08230387
28	0xbd40c780	-0.047065258
29	0xbf7828d6	-0.9693731
30	0xbf30f28d	-0.69120103
31	0xbf847ee6	-1.0351226
32	0xbf2a12d4	-0.6643498
33	0xbf387f88	-0.720696
34	0x3e564574	0.20924932
35	0xbf20df78	-0.62840986
36	0xbf81e111	-1.014681
37	0xbedbfd71	-0.42966798
38	0x3eaa2475	0.3323094
39	0x3ee93dde	0.45555013
40	0x3ec5d6ec	0.38640535
41	0x3cacc3d9	0.021089481
42	0xbd932d24	-0.07186344
43	0xbeb74805	-0.35797134
44	0x3e36601b	0.17810099
45	0x3f0ed1f0	0.5578909
46	0xbc35ed10	-0.011103883
47	0xbe6828c7	-0.22671805
48	0xbdf2823f	-0.11841249
49	0x3d4877c6	0.04894235
50	0xbd9c6433	-0.07636299
51	0x3e3a43b9	0.18189897
52	0x3eeada8a	0.45869857
53	0x3e3742ab	0.17896526
54	0xbf0af42b	-0.5427882
55	0xbf52be81	-0.82321936
56	0x3df9ec47	0.122032695
57	0x3ed30441	0.41214183
58	0x3cd0703b	0.02544414
59	0xbf1bb9e1	-0.60830504
60	0xbf08da04	-0.53457665
61	0x3e5984da	0.21242085
62	0x3d3bf7c6	0.045890592
63	0xbd0608d9	-0.03272328
64	0xbd8cd035	-0.0687565
65	0xbdecd072	-0.11563195
66	0x3f0f0f84	0.5588305
67	0xbd81c423	-0.06336238
68	0xbe2ea1f4	-0.17053968
69	0x3e1f90bf	0.1558256
70	0x3e5327ca	0.20620647
71	0x3edf1583	0.435711
72	0x3e91f218	0.28505015
73	0xbc1d9ede	-0.009620396
74	0x3ef8fb2b	0.48629126
75	0x3ed57fe1	0.41699126
76	0xbe680804	-0.22659308
77	0xbf91689f	-1.1360053
78	0xbf83d5fb	-1.0299677
79	0xbeeb7c8b	-0.45993456
80	0x3eb4c8c8	0.35309434
81	0x3e8f9d44	0.28049672
82	0xbe033ec1	-0.12816907
83	0x3d983667	0.074322514
84	0x3eea4772	0.45757633
85	0x3e0a9f34	0.13537294
86	0xbdbf7fab	-0.093505226
87	0x3ef70461	0.48245528
88	0x3e8f121a	0.27943498
89	0x3e9754db	0.29556927
90	0x3e402a0b	0.18766038
91	0x3e86d222	0.26332194
92	0x3ed3c3b6	0.41360253
93	0xbcb2b964	-0.021816917
94	0x3e96c79a	0.2944916
95	0xbf1652c8	-0.58720064
96	0x3e86fc74	0.2636448
97	0xbc2f2137	-0.010689071
98	0xbe2fd0a0	-0.17169428
99	0xbe2c4148	-0.16821778
100	0xbe3adb15	-0.18247636
101	0xbe05a6f7	-0.13051973
102	0x3c0ecf01	0.008716346
103	0x3ea95c32	0.33078152
104	0xbd276f45	-0.0408776
105	0xbe2cab11	-0.16862132
106	0xbe865e69	-0.26243904
107	0x3e617686	0.2201787
108	0x3f188464	0.5957701
109	0x3eb75bb9	0.35812166
110	0x3db55309	0.08853728
111	0xbcdf241e	-0.027238902
112	0x3e0a4ad0	0.13505101
113	0x3dc4ab78	0.096030176
114	0x3ecc0076	0.39844102
115	0x3ebba1e1	0.3664694
116	0x3ee22624	0.44169724
117	0x3e6110a9	0.21979012
118	0xbf40ab76	-0.7526163
119	0xbe0bec5d	-0.13664384
120	0x3ead9867	0.33905336
121	0x3d8a6eaf	0.067593925
122	0xbe7ff850	-0.24997067
123	0xbf9a39b3	-1.2048858
124	0xbf9d340b	-1.2281507
125	0xbdcac17b	-0.09900185
126	0x3f191ec4	0.5981257
127	0x3f215236	0.6301607
128	0xbfcef998	-1.616992
129	0x3e218cd4	0.15776378
130	0x3d8c436c	0.06848797
131	0x3f809ee9	1.0048496
132	0x3f7de74d	0.9918106
133	0xbfff8254	-1.9961648
134	0xbe20b221	-0.15692951
135	0xbd035bd3	-0.032069992
136	0x3ee2b6ac	0.44279993
137	0x3eab2451	0.33426145
138	0xbf1548b1	-0.58314043
139	0x3e0177ca	0.12643352
140	0xbe466528	-0.19374526
141	0x3e573626	0.2101675
142	0x3e4e2416	0.20130953
143	0xbf53f237	-0.82791466
144	0x3f219309	0.6311498
145	0x3da6dfac	0.08148131
146	0xbe8d7cf6	-0.276344
147	0x3e8c7643	0.27433977
148	0xbf8422d6	-1.0323131
149	0x3f571caf	0.8402814

features.0.bias f4 [6]
0	0x3e3825b0	0.17983127
1	0x3e29ac14	0.16569549
2	0x3e70e3c7	0.2352439
3	0x3e0f2d47	0.13982116
4	0x3e074703	0.13210683
5	0xbc351781	-0.011052967

features.2.weight f4 [6]
0	0x3f542342	0.828663
1	0x3f975fdc	1.1826129
2	0x3f446506	0.7671665
3	0x3f840620	1.0314369
4	0x3f9d4de4	1.2289395
5	0x3f94c40b	1.1622328

features.2.bias f4 [6]
0	0x3e52c16a	0.20581594
1	0x3e960385	0.2929956
2	0x3d7e128f	0.062029418
3	0x3e494558	0.19655359
4	0x3ed0f9e9	0.40815666
5	0x3df7ebc2	0.12105514

features.2.running_mean f4 [6]
0	0x3f0ca036	0.5493196
1	0x3d65c622	0.056097157
2	0x3f097597	0.5369505
3	0x3e8a8469	0.27054146
4	0x3e35129e	0.17682883
5	0x3e69ce2a	0.22832552

features.2.running_var f4 [6]
0	0x3ec049a8	0.37556195
1	0x3c2e7e07	0.010650164
2	0x3e54fd9d	0.20799871
3	0x3df54245	0.119755305
4	0x3dd1dd9b	0.10247346
5	0x3eab38e8	0.33441854

features.4.weight f4 [16, 6, 5, 5]
0	0x3e040d6d	0.12895747
1	0x3d1c4466	0.038151167
2	0xbeba11f6	-0.36341828
3	0xbeab2595	-0.3342711
4	0xbe083e87	-0.13305102
5	0x3de40a63	0.111347936
6	0xbe144aba	-0.14481631
7	0xbe66c1ae	-0.2253482
8	0xbe4072c0	-0.18793774
9	0x3e07d9c0	0.13266659
10	0x3e061a6b	0.13096015
11	0x3cbcb419	0.023035096
12	0xbc69487c	-0.014238473
13	0x3c882c03	0.016622549
14	0x3d90db9d	0.07073138
15	0xbe47fbf9	-0.19529714
16	0x3e1a7bcd	0.15086289
17	0x3dfdb82e	0.12388645
18	0x3de9164a	0.113812044
19	0x3d9f442e	0.07776676
20	0xbea6940e	-0.32534832
21	0x3e84979a	0.25896913
22	0x3db65640	0.0890317
23	0x3d4fe110	0.050751746
24	0xbd66dd17	-0.05636319
25	0xbba99fbc	-0.0051765125
26	0x3dfb9553	0.12284341
27	0x3e2fa2a5	0.17151888
28	0x3d4bc256	0.04974588
29	0xbdf77325	-0.12082509
30	0xbe6a0dc4	-0.22856814
31	0x3e14ad5b	0.14519255
32	0xbd333089	-0.04374746
33	0xbcce6773	-0.025195813
34	0xbdeab222	-0.114597574
35	0xbe2e3669	-0.17012943
36	0xbd157112	-0.036484785
37	0xbe166290	-0.14686036
38	0xbda52588	-0.08063799
39	0x3d63d0ee	0.055619173
40	0xbd50349b	-0.05083142
41	0x3e98f5fc	0.2987517
42	0xbe12c056	-0.14331183
43	0xbea5c7ac	-0.323789
44	0xbde42b4c	-0.11141071
45	0x3e7911d1	0.24323203
46	0xbaa84f33	-0.0012840986
47	0xbe64eefb	-0.22356789
48	0xbe8c0e03	-0.2735444
49	0xbe71356b	-0.23555534
50	0x3bd20242	0.0064089606
51	0xbd591b2d	-0.053004432
52	0xbe3421dd	-0.17591043
53	0xbd963197	-0.07333677
54	0xbe8105d3	-0.25199756
55	0x3d1da4dd	0.038487304
56	0x3ce1d9ec	0.027569734
57	0xbe1c7fb3	-0.15283088
58	0x3d5736f0	0.052542627
59	0xbd3959d9	-0.0452517
60	0xbe8307f6	-0.2559201
61	0xbd1bb4ba	-0.03801415
62	0xbd22e5c1	-0.03976989
63	0x3d3fd5c0	0.046834707
64	0x3d21427a	0.039370038
65	0xbe5c1cc9	-0.21495356
66	0xbe06dcab	-0.13170116
67	0x3cf88fd9	0.03034203
68	0xbe2bec6a	-0.16789404
69	0xbd6e105c	-0.05812107
70	0xbe4153d6	-0.18879637
71	0x3d2ad46e	0.041706495
72	0x3dd55b39	0.1041779
73	0xbe11a5fa	-0.14223471
74	0x3e4ca1b9	0.19983567
75	0x3d84edfc	0.064907044
76	0x3d42f992	0.04760129
77	0x3d20025b	0.039064746
78	0x3c9e0f1d	0.019294316
79	0xbe4c63f0	-0.19959998
80	0xbe19924d	-0.14997216
81	0x3d75a13d	0.059968222
82	0x3db2e319	0.08734722
83	0xbd6363bf	-0.055515047
84	0x3ce92f17	0.028464837
85	0xbdb0e239	-0.086368985
86	0xbd8bc7ec	-0.068252414
87	0x3e088493	0.13331823
88	0x3dcdcf13	0.10049262
89	0xbaf07b60	-0.0018347315
90	0xbe05dfb0	-0.13073611
91	0xbcbd7cf9	-0.02313088
92	0xbe372185	-0.1788388
93	0xbd346eef	-0.044051107
94	0x3d87c40a	0.06629188
95	0x3df83fef	0.12121569
96	0x3b457276	0.0030128038
97	0xbd0c9e46	-0.03433063
98	0xbda19374	-0.078894526
99	0xbe00251e	-0.12514159
100	0x3e1ec1ab	0.15503566
101	0xbd599327	-0.05311885
102	0x3cd08192	0.025452409
103	0xbd6d93fc	-0.058002457
104	0x3dfbb832	0.12290992
105	0x3e1150a5	0.1419092
106	0x3d68b9eb	0.05681793
107	0x3cf52c3c	0.02992832
108	0xbcf17da3	-0.029478854
109	0x3d79725a	0.06090007
110	0x3dc9fe15	0.098629154
111	0xbd09d8f8	-0.033654183
112	0xbdc50a2b	-0.0962108
113	0xbde2d497	-0.110757045
114	0xbe14d378	-0.14533794
115	0x3e89804a	0.2685569
116	0xbe4ee525	-0.20204599
117	0x3d3d6c8e	0.046246104
118	0xbda6a9c3	-0.08137848
119	0xbd22336b	-0.039599817
120	0xbe9b9589	-0.30387524
121	0xbe473601	-0.19454195
122	0x3ea02e32	0.31285244
123	0x3e063dde	0.13109538
124	0xbe92018a	-0.285168
125	0xbd20f166	-0.039292715
126	0x3da4a7cb	0.080398165
127	0xbe2a96f3	-0.16659145
128	0xbdd1b462	-0.102394834
129	0xbd9fee9f	-0.07809185
130	0xbe6571b3	-0.22406654
131	0xbeb5d2a2	-0.35512263
132	0xbec11ea8	-0.377187
133	0xbecd7cfe	-0.40134424
134	0xbdde280a	-0.108474806
135	0xbe789377	-0.24275003
136	0xbe1e5029	-0.15460266
137	0xbebcd0e7	-0.3687813
138	0xbe4479bd	-0.19187064
139	0x3df9fd3b	0.12206503
140	0xbe813fe4	-0.25244057
141	0xbd51a773	-0.051185083
142	0xbead8725	-0.3389217
143	0xbdcdc834	-0.10047951
144	0x3ca3a337	0.019975288
145	0xbe863c7c	-0.2621802
146	0xbe4859d8	-0.19565523
147	0xbe79c8df	-0.24393032
148	0xbc2a8e32	-0.010409879
149	0xbd8aafba	-0.067717984
150	0xbe9fb830	-0.3119521
151	0x3e39e6b5	0.18154414
152	0xbd2d87de	-0.0423659
153	0x3cb1e257	0.021714373
154	0xbd5417c5	-0.05178048
155	0xbe4ea8f5	-0.2018164
156	0x3e04ae7f	0.1295719
157	0xbc62026d	-0.013794524
158	0x3d95dfc2	0.07318069
159	0x3d426f02	0.047469147
160	0xbe6b7fc4	-0.22997957
161	0x3c9f515a	0.019447971
162	0xbbdc2e90	-0.006719418
163	0xbbc236aa	-0.0059269266
164	0xbc8e621a	-0.017380763
165	0xbe93052c	-0.28714883
166	0x3cae8c99	0.021307277
167	0xbd86ad73	-0.065760516
168	0x3d34fc84	0.04418613
169	0x3d053b99	0.03252754
170	0xbe9ab095	-0.30212846
171	0xbcb0093c	-0.021488778
172	0x3d1ceadb	0.038309913
173	0xbe2c3005	-0.16815193
174	0xbcef8af3	-0.02924106
175	0x3ea9585d	0.33075228
176	0x3e437e73	0.19091205
177	0xbd063bf8	-0.032772034
178	0x3d9ac5b1	0.07557238
179	0xbe91d4d6	-0.28482693
180	0xbd8702d9	-0.0659234
181	0x3d970f07	0.07375913
182	0x3d4d903d	0.050186384
183	0xbc924723	-0.017856186
184	0x3cb6ba10	0.022305518
185	0xbe31aa57	-0.17350136
186	0x3d81532d	0.06314693
187	0x3d984181	0.07434369
188	0xbdd5650a	-0.10419662
189	0x3e15419f	0.14575814
190	0xbdb12ceb	-0.086511455
191	0x3d64bf0c	0.05584626
192	0x3d0cc6db	0.03436933
193	0x3e51338d	0.20429821
194	0x3d802598	0.062571704
195	0xbeb47f8a	-0.35253555
196	0xbd88fcb1	-0.06688822
197	0xbe30f6a9	-0.17281593
198	0x3d0b210a	0.033967055
199	0x3e1c9979	0.1529292
200	0x3ca82b41	0.020528438
201	0x3cc0e547	0.023546828
202	0x3e786735	0.2425812
203	0x3e05429c	0.1301369
204	0x3d5c2be1	0.053752784
205	0x3d345fed	0.044036794
206	0xbce230c8	-0.027611151
207	0x3d8ef8df	0.06981062
208	0x3e7191fe	0.23590848
209	0xbd9c0fa0	-0.07620168
210	0x3c8e3941	0.017361285
211	0xbdbffeed	-0.09374795
212	0x3d77624c	0.060396478
213	0x3e646b88	0.22306645
214	0x3d0fb34b	0.035083096
215	0x3dbd2baa	0.09236844
216	0xbe94fbb7	-0.29098293
217	0x3e062f14	0.13103896
218	0xbdcf252e	-0.10114513
219	0xbcd9fa45	-0.026608596
220	0xbda3b10e	-0.07992755
221	0xbed47cf6	-0.41501588
222	0x3cab8f5f	0.020942388
223	0xbe696040	-0.22790623
224	0x3d4e7eb0	0.050413787
225	0xbe809655	-0.25114694
226	0xbdfcccbf	-0.1234374
227	0xbdd142aa	-0.10217793
228	0xbe44906f	-0.19195722
229	0xbd1cdba8	-0.038295418
230	0xbd85020e	-0.064945325
231	0xbdade23c	-0.084904164
232	0x3e1ce7d7	0.15322815
233	0xbe016dcd	-0.12639542
234	0xbd349e2a	-0.04409615
235	0x3da60864	0.08107069
236	0xbddd495f	-0.1080501
237	0x3d91f1b5	0.0712618
238	0xbde77096	-0.11300771
239	0x3df40da5	0.11916665
240	0x3e99207c	0.29907596
241	0x3d40923c	0.04701446
242	0x3e80c018	0.25146556
243	0xbd3adfc7	-0.045623567
244	0x3d279035	0.04090901
245	0x3da38f1e	0.07986282
246	0xbcbfcd90	-0.02341345
247	0x3e8a82f7	0.27053043
248	0x3e6efad0	0.23337865
249	0xbe3062ac	-0.1722514
250	0x39e94c84	0.00044498232
251	0xbd2b2f28	-0.04179302
252	0x3d3845cb	0.044988435
253	0x3e5c3d48	0.21507752
254	0x3e634e95	0.22197945
255	0x3d9ece2c	0.07754168

features.4.bias f4 [16]
0	0x3e9929da	0.29914743
1	0xbe94e6a7	-0.29082224
2	0xbed1b632	-0.40959316
3	0xbe915762	-0.2838698
4	0x3e8cc2fc	0.2749251
5	0xbe9601c2	-0.29298216
6	0x3d50e17b	0.050996285
7	0xbe736e23	-0.23772483
8	0xbe6291eb	-0.22125976
9	0x3db6670e	0.08906375
10	0xbe6af211	-0.22943904
11	0x3c40de31	0.011771725
12	0xbf0be5d4	-0.54647565
13	0xbe219b3f	-0.15781878
14	0x3df53129	0.11972267
15	0xbe4e07e0	-0.20120192

features.6.weight f4 [16]
0	0x3fcb4a37	1.5882024
1	0x40077240	2.1163483
2	0x4001292e	2.0181384
3	0x3fa744e4	1.3067899
4	0x3fdaeedc	1.7104144
5	0x3fd951f7	1.6978139
6	0x3ffbe116	1.9678066
7	0x4005206e	2.0801044
8	0x3ffe8ae1	1.9886132
9	0x3fe8ae79	1.8178245
10	0x3fe8ba50	1.8181858
11	0x3fd884ab	1.6915487
12	0x3ffddec4	1.9833608
13	0x3febb463	1.8414425
14	0x40025824	2.0366297
15	0x40028a74	2.0397005

features.6.bias f4 [16]
0	0x3bdf7234	0.006819034
1	0x3ea876cf	0.32903144
2	0xbd5b0107	-0.053467777
3	0x3c9b3f11	0.01895097
4	0xbe6e749e	-0.23286673
5	0x3db327b0	0.08747804
6	0x3cb9466e	0.022616591
7	0x3e821c59	0.25412253
8	0xbcfa14eb	-0.030527553
9	0xbc7f9bc4	-0.015601102
10	0xbd5fe69c	-0.054663286
11	0x3de1c641	0.11024142
12	0x3ddfda81	0.10930348
13	0x3dddcf2b	0.1083053
14	0xbe064eeb	-0.13116042
15	0x3e138b73	0.14408664

features.6.running_mean f4 [16]
0	0x3f0951ef	0.53640646
1	0x3ea87f0e	0.32909435
2	0x3e8f4b15	0.2798697
3	0x3eb7d73a	0.35906392
4	0x3f1bba3a	0.60831034
5	0x3ea3f521	0.32022956
6	0x3ec4eb6b	0.3846086
7	0x3e581140	0.2110033
8	0x3f0048f2	0.50111306
9	0x3e8ad88b	0.27118334
10	0x3ebfdec2	0.37474638
11	0x3f205be0	0.6264019
12	0x3e4bbdda	0.19896641
13	0x3eefe752	0.4685617
14	0x3ed60e44	0.4180776
15	0x3ea7de8d	0.3278698

features.6.running_var f4 [16]
0	0x3f22f19e	0.6364993
1	0x3ef4b29e	0.47792524
2	0x3ecb7302	0.39736181
3	0x3f0fb21d	0.56131154
4	0x3f40a7ae	0.7525586
5	0x3ebbc64d	0.3667473
6	0x3f01d5f6	0.50717103
7	0x3ec1cbc3	0.3785077
8	0x3f5ba663	0.8580076
9	0x3ed86ca3	0.42270383
10	0x3ef8e222	0.48610026
11	0x3f68af16	0.9089216
12	0x3e9623ca	0.2932418
13	0x3f204e8f	0.6261987
14	0x3f1d3d33	0.6142151
15	0x3f0d99cb	0.55312794

classifier.0.weight f4 [120, 256]
0	0x3d919f1b	0.07110425
1	0x3d8c733c	0.06857917
2	0x3dd16a59	0.10225362
3	0xbd15a2f8	-0.036532372
4	0x3cac50f0	0.021034688
5	0x3e11b7b1	0.14230229
6	0xbd1a3dc6	-0.037656568
7	0x3d4bdd56	0.04977163
8	0x3dd8e832	0.10591163
9	0x3dc1bb5c	0.09459564
10	0xbcd59839	-0.026073562
11	0x3d458cbd	0.04822992
12	0xbd2968f2	-0.04135985
13	0x3d4a1d4b	0.049344342
14	0xbbcb6ab3	-0.006207788
15	0xbc931195	-0.01795272
16	0xbcbdfba1	-0.023191275
17	0xbd6e137a	-0.058124043
18	0x3dcbc04d	0.09948788
19	0x3dc741d1	0.0972935
20	0x3d74b499	0.059742544
21	0xbc17b842	-0.009260239
22	0x3d5e769c	0.054312333
23	0xbc14cbf6	-0.009081831
24	0x3d99ed8c	0.075160116
25	0xbd81f7b5	-0.063460745
26	0xbc25a190	-0.01010932
27	0x3b7ff302	0.0039054756
28	0x3caf391b	0.021389535
29	0xbd73c422	-0.05951322
30	0x3bf07b4b	0.0073389164
31	0xbd3da82d	-0.046302963
32	0xba55efa5	-0.0008161015
33	0xbddc40f4	-0.10754576
34	0x3b2e53da	0.0026600272
35	0x3c9aa13e	0.018875714
36	0xbd38ca73	-0.045114946
37	0xbc55a3b1	-0.013039515
38	0xbd239e48	-0.03994587
39	0x3d643d21	0.05572236
40	0xbdb69c89	-0.089165755
41	0xbb16792b	-0.0022960405
42	0xbd2c9823	-0.042137276
43	0x3cd089d1	0.025456341
44	0x3bda70ef	0.0066662948
45	0xbb9fe83e	-0.0048799803
46	0x3d7d9642	0.061910875
47	0xbda8bb40	-0.0823884
48	0x3dbedf18	0.093198955
49	0x3c8837ba	0.016628135
50	0x3d90e245	0.070744075
51	0x3dd5592e	0.104174
52	0x3d21f9a3	0.039544713
53	0x3d45200f	0.048126277
54	0x3d6a8f1e	0.057265393
55	0x3b0b6311	0.0021268765
56	0x3d923588	0.071391165
57	0x3a8c0dda	0.001068528
58	0xbcc2d1d2	-0.02378169
59	0xbc6c585d	-0.014425364
60	0x3abe0cd5	0.0014499674
61	0x3d0bea5c	0.03415905
62	0xbd12c191	-0.03582913
63	0x3c001c57	0.007819257
64	0xbd9c0e55	-0.07619921
65	0xbcc3c5cc	-0.023898028
66	0x3db74d1b	0.089502536
67	0xbced9d67	-0.02900572
68	0xbd1bb98a	-0.03801874
69	0xbc2b2fd7	-0.010448418
70	0x3d66735b	0.056262355
71	0xbc85d739	-0.016337978
72	0x3ca47ef8	0.020080075
73	0x3d0fe2a9	0.03512827
74	0x3deaf26b	0.11472019
75	0x3d64f054	0.055893257
76	0xbd2f6780	-0.042823315
77	0x3ccb09de	0.024784978
78	0x3e022358	0.12708795
79	0x3b323459	0.0027191846
80	0x3d0162bb	0.031588297
81	0x3d09f73a	0.03368304
82	0x3d0f12f8	0.0349302
83	0x3ddecace	0.10878526
84	0x3dc50c4c	0.09621486
85	0x3dca1840	0.098679066
86	0x3da10064	0.07861403
87	0x3c118eee	0.008884175
88	0xbcb13583	-0.021631962
89	0xbcd2222c	-0.02565106
90	0x3d794eb1	0.06086606
91	0xbd38bda5	-0.045102734
92	0xbd42b34d	-0.047534276
93	0x3d8cd45a	0.0687644
94	0x3d4aef65	0.04954471
95	0x3dc45a90	0.09587586
96	0xbd3ac3dd	-0.045596946
97	0xbc301447	-0.010747022
98	0x3d45501f	0.048172113
99	0xbc298e36	-0.010348847
100	0x3dabf6d4	0.08396688
101	0x3d74ceae	0.059767418
102	0x3d0b9aad	0.034083057
103	0xbcb40635	-0.021975616
104	0x3da6cc6d	0.0814446
105	0xbd505b38	-0.050868243
106	0x3d06cf80	0.03291273
107	0x3d253955	0.04033788
108	0x3c888597	0.016665263
109	0xbd3e80c8	-0.046509534
110	0xbd659e8d	-0.05605941
111	0x3d8a421f	0.06750893
112	0xbc1e904a	-0.009677956
113	0xbc09642f	-0.008385702
114	0x3d9e8718	0.07740611
115	0x3e3ad55c	0.18245453
116	0x3d74a62b	0.059728783
117	0x3d77e09a	0.06051693
118	0x3d0d73d1	0.03453428
119	0xbdbced60	-0.09224963
120	0x3cdd99ca	0.027050871
121	0xbd61fae7	-0.05517092
122	0xbd1a16c9	-0.037619386
123	0xbca8c750	-0.020602852
124	0xbd605d32	-0.054776378
125	0x3d732c97	0.059368696
126	0xbd0a3963	-0.033746134
127	0xbe027f7d	-0.12743945
128	0xbdb671fa	-0.08908458
129	0xbb9f6b0a	-0.004865055
130	0xbddee961	-0.10884357
131	0x3d25f440	0.040516138
132	0xbd0c0ebb	-0.034193736
133	0xbd43a50a	-0.047764815
134	0xbd0c41a5	-0.03424229
135	0xbd78b694	-0.060720995
136	0x3c41a792	0.011819737
137	0xbd0c08db	-0.034188133
138	0xbbb43e53	-0.0055005937
139	0x3d29056d	0.04126494
140	0x3d6f85b6	0.058477126
141	0xbd7956fb	-0.060873967
142	0xbce17340	-0.027520776
143	0xbd70fbb7	-0.058833804
144	0xbdbfe7ee	-0.09370409
145	0xbd5bd0bb	-0.053665858
146	0xbc885966	-0.016644191
147	0xbc4abe86	-0.012374526
148	0x3d28045d	0.041019786
149	0x3b198832	0.0023427126
150	0xbca853cf	-0.020547776
151	0xbd98183c	-0.07426497
152	0xbd8e94a9	-0.069619484
153	0xbd439347	-0.047747876
154	0xbd440d08	-0.04786399
155	0xbd2c3bb9	-0.042049143
156	0x3da4378c	0.08018407
157	0xbc78a0b0	-0.01517503
158	0xbdb46ff3	-0.08810415
159	0x3c6d26f1	0.014474616
160	0xbda44367	-0.080206685
161	0x3d5c9be3	0.053859603
162	0xbd841006	-0.06448369
163	0xbaef62e9	-0.001826373
164	0x3cb5606d	0.022140706
165	0x3d5791a7	0.05262914
166	0x3d869c11	0.06572736
167	0xbd49e452	-0.04929001
168	0x3ccec229	0.025239067
169	0xbcfea507	-0.03108455
170	0xbd9cd9e4	-0.07658747
171	0xbc13098e	-0.008974446
172	0xbba59066	-0.005052614
173	0xbe1b1422	-0.15144399
174	0xbd09746b	-0.03355829
175	0xbd157ec8	-0.03649786
176	0x3ca396e5	0.019969413
177	0xbe4183da	-0.18897954
178	0x3d0690fa	0.032853104
179	0xbd586245	-0.052828092
180	0x3c96c15f	0.018402753
181	0x3d1d027b	0.038332444
182	0xbc378adc	-0.01120254
183	0xbc03e40b	-0.008049975
184	0x3e0192ff	0.12653731
185	0x3d7094b7	0.058735576
186	0xbd33294c	-0.043740556
187	0xbd1cfbf6	-0.038326226
188	0xbc5c8093	-0.013458389
189	0x3d901527	0.070352845
190	0x3cc28e84	0.023749597
191	0x3d820ea5	0.063504495
192	0xbdab0c79	-0.08351988
193	0x3d69d1fe	0.05708503
194	0x3d0daecf	0.03459054
195	0x3d2f0580	0.042729855
196	0x3d67f7d4	0.05663283
197	0x3c42e5ca	0.011895606
198	0x3ca985ea	0.020693738
199	0x3dc17430	0.09445989
200	0x3d62ca90	0.05536896
201	0x3c8236d3	0.015895283
202	0x3dd6e08e	0.10492049
203	0xbbdeaa08	-0.0067951716
204	0x3d31d0a3	0.043411862
205	0x3cd65e1c	0.026167922
206	0xbdc01fc0	-0.09381056
207	0x3cc676eb	0.024226626
208	0xbc07c5e0	-0.008286923
209	0x3dbf5876	0.093430445
210	0xbcc0789a	-0.023495007
211	0xbdbd7dee	-0.09252535
212	0x3d8c6596	0.068553135
213	0x3d2949e4	0.041330233
214	0xbcc626fa	-0.024188507
215	0x3c9395fa	0.01801585
216	0x3db4c4c1	0.0882659
217	0x3d8de08e	0.06927596
218	0x3dbaef44	0.091276675
219	0x3d0f55b4	0.034993842
220	0x3c992c25	0.018697808
221	0xbdddc7ff	-0.10829162
222	0x3d87875d	0.06617615
223	0xbdd5307e	-0.1040964
224	0x3c28289b	0.010263587
225	0xbd9655ee	-0.073406085
226	0xbdde6eb0	-0.10860956
227	0xbd11fba3	-0.03564037
228	0xbd2339ed	-0.039850164
229	0xbdebbd1c	-0.11510679
230	0xbbc29ede	-0.0059393486
231	0x3e2612dd	0.16218133
232	0xbdd1a76f	-0.102370135
233	0x3d49bb02	0.04925061
234	0x3d988237	0.074467115
235	0xbabdd240	-0.0014482215
236	0xbe4176d8	-0.18892992
237	0x3da5a8df	0.0808885
238	0xbd810996	-0.063006565
239	0xbe1eb7c4	-0.15499789
240	0xbd3a393a	-0.04546473
241	0xbc0f4a49	-0.008745738
242	0x3d330c73	0.043713044
243	0xbcd48cd8	-0.025946066
244	0x3d7d99e0	0.061914325
245	0x3dfe50bf	0.12417745
246	0x3d5b841f	0.053592797
247	0x3da9cce7	0.08291035
248	0x3d640af0	0.055674493
249	0x3d663a6f	0.05620807
250	0x3d536d4e	0.051617913
251	0x3d190d0f	0.03736597
252	0x3cf58c35	0.029974082
253	0xbd64e0cb	-0.05587844
254	0xbd074c1a	-0.03303156
255	0xbd8dffea	-0.06933577

classifier.0.bias f4 [120]
0	0xbd46b021	-0.048507813
1	0xbc7bf778	-0.015378825
2	0xbb17dc78	-0.002317218
3	0x3d6b570d	0.057456065
4	0xbd4f8500	-0.050663948
5	0x3d0f3a3d	0.03496765
6	0x3cc45f66	0.02397127
7	0xbd80dbd8	-0.06291932
8	0xbbdaa596	-0.0066725714
9	0x3da2a626	0.079418465
10	0x3d1b55b1	0.03792352
11	0xbd15c789	-0.036567245
12	0xbd49476c	-0.04914038
13	0x3c575f45	0.013145273
14	0xbcdac1f2	-0.026703808
15	0x3b159468	0.0022824053
16	0x3e05c200	0.13062286
17	0xbc5d7859	-0.013517463
18	0x3d554f3c	0.052077517
19	0x3d4ef585	0.050527114
20	0xbbea57b4	-0.0071515683
21	0xbd03fca6	-0.032223366
22	0x3c87c3f2	0.016572926
23	0x3caf0cf2	0.021368477
24	0xbdb7f03d	-0.08981369
25	0xbd88f398	-0.06687087
26	0x3cd74da1	0.026282134
27	0x3d9ddbfd	0.07707975
28	0xbcb5f298	-0.022210404
29	0xbb14f203	-0.0022727258
30	0xbd827725	-0.06370381
31	0xbb9a6748	-0.004712019
32	0x3dad3c5f	0.084587805
33	0xbd56d3a0	-0.052447915
34	0x3d67ae90	0.05656296
35	0x3c3ff8c3	0.011717024
36	0xbdddd269	-0.10831148
37	0x3c6e6428	0.014550246
38	0xbd5bb090	-0.05363518
39	0x3cf7ad7a	0.030234087
40	0x3d77c2dc	0.060488567
41	0xbd029e90	-0.0318895
42	0x3d492e88	0.04911664
43	0x3dc3cfe3	0.095611356
44	0xbd783851	-0.060600583
45	0xbcb340b0	-0.021881431
46	0xbdd74afc	-0.10512349
47	0x3d3b90fb	0.04579256
48	0xbd512d20	-0.051068425
49	0x3c86322d	0.016381348
50	0x3ca3ad21	0.019980015
51	0xbd234ff0	-0.039871156
52	0x3d99eb3c	0.075155705
53	0x3c8525a5	0.016253302
54	0x3db97448	0.09055382
55	0xbc01dd6c	-0.007926326
56	0xbd631c40	-0.055446863
57	0xbb2841e7	-0.0025674046
58	0xbd8b5fd5	-0.06805388
59	0x3cdedb83	0.02720428
60	0x3da6476a	0.0811909
61	0x3c57e2f6	0.01317667
62	0x3ce6a29a	0.028153706
63	0x3d75c305	0.06000044
64	0x3d298bdd	0.04139315
65	0xbd5e25ab	-0.05423514
66	0xbbb8841d	-0.0056309835
67	0xbdaaa8f2	-0.08333005
68	0xbd722133	-0.059113692
69	0xbd9003d1	-0.07031978
70	0x3ad7906e	0.0016446242
71	0xbe236c77	-0.15959345
72	0xbd2304bd	-0.03979944
73	0x3db0f125	0.08639745
74	0xbaeeff8c	-0.0018234118
75	0x3b95865f	0.0045631374
76	0xbd1a1ce1	-0.037625197
77	0xbb2301f0	-0.002487298
78	0xbc13ac2c	-0.009013217
79	0xbd9cd6ef	-0.07658183
80	0x3d902669	0.07038576
81	0x3ca089bd	0.019596929
82	0xbe0bdf37	-0.13659368
83	0xbd8300f3	-0.063966654
84	0xbcc8da75	-0.02451823
85	0xbd03406f	-0.03204387
86	0x3aa78668	0.0012781145
87	0xbd4603be	-0.048343413
88	0xbc520785	-0.012819176
89	0xbcc37b53	-0.023862517
90	0x3d0362ff	0.032076832
91	0x3d5eb5ed	0.054372717
92	0x3dcf6d2b	0.10128244
93	0x3a57ff07	0.0008239601
94	0xbd1a136d	-0.037616182
95	0xbd4e337d	-0.05034207
96	0x3d737b5d	0.05944382
97	0x3dbed047	0.093170695
98	0xbd4e3d2e	-0.050351314
99	0xbcbdbd99	-0.023161696
100	0xbd9168ba	-0.07100053
101	0x3da2eb64	0.079550534
102	0xbd8d909f	-0.0691235
103	0x3d5072b1	0.05089063
104	0xbcdaa215	-0.026688615
105	0x3d970c91	0.07375444
106	0xbdb21a6d	-0.086964466
107	0xbcdccdf5	-0.026953677
108	0xbbbad565	-0.005701708
109	0xbcd78911	-0.026310476
110	0x3d93a785	0.07209686
111	0x3daeea20	0.085407495
112	0x3e0f0c4f	0.13969539
113	0xbd88b11d	-0.06674407
114	0xbd0fa803	-0.035072338
115	0x3d6b8963	0.05750407
116	0x3cea912a	0.028633673
117	0xbca978a5	-0.02068741
118	0x3b9b8bf1	0.004746907
119	0xbb6b5f6d	-0.0035915032

classifier.2.weight f4 [84, 120]
0	0xbd9c8547	-0.07642608
1	0x3dba0920	0.09083772
2	0xbccce0e9	-0.02500959
3	0x3ce7ee71	0.02831194
4	0xbd834cfa	-0.064111665
5	0xbdb539cc	-0.088489145
6	0xbdc26bc1	-0.09493209
7	0xbd69170a	-0.056906737
8	0xbd8c701a	-0.06857319
9	0xbd8a11bf	-0.06741666
10	0x3d9b5755	0.07585017
11	0x3db663a3	0.08905723
12	0x3b9d6047	0.004802737
13	0x3e08ba7b	0.13352387
14	0xbcc0a25d	-0.02351492
15	0x3d343bf5	0.044002492
16	0xbca8616e	-0.02055427
17	0x3c7aecf1	0.01531528
18	0x3e2c8127	0.16846143
19	0x3d80efb2	0.06295718
20	0xbde13b3d	-0.10997627
21	0x3d1b7e65	0.037962336
22	0x3db8108a	0.089875296
23	0x3d947b1b	0.07250043
24	0xb9fb2873	-0.00047904588
25	0x3b74101c	0.0037241047
26	0x3db8f63b	0.0903134
27	0x3b71f8fb	0.0036922086
28	0x3cc289a4	0.023747273
29	0x3bc2766e	0.005934528
30	0x3b66d88c	0.0035224287
31	0x3df48581	0.11939526
32	0xbd831abf	-0.06401586
33	0xbbe73df7	-0.0070569473
34	0x3d84906d	0.064728595
35	0xbd9fe01a	-0.07806416
36	0x3dc88994	0.09791866
37	0x3c87d404	0.01658059
38	0xbd4c04e6	-0.04980936
39	0x3b8b8d52	0.00425879
40	0xbc076d22	-0.008265765
41	0xbd602e05	-0.054731388
42	0x3dda7813	0.106674336
43	0xbdabd06d	-0.083893634
44	0x3d582ab8	0.052775115
45	0x3d8f3633	0.069927596
46	0xbdace829	-0.084427185
47	0x3d8d7d5c	0.06908676
48	0xbdbeef6c	-0.0932301
49	0x3c4b407f	0.012405514
50	0xbd672e4a	-0.05644063
51	0x3d1b3904	0.03789617
52	0x3c58e918	0.013239168
53	0xbddf0911	-0.10890401
54	0x3d740ff7	0.059585538
55	0xbc97542a	-0.01847275
56	0xbcead91e	-0.028667983
57	0x3e24a714	0.1607936
58	0xbb9f03c4	-0.004852744
59	0xbcc466a4	-0.023974724
60	0x3dc03f9b	0.09387132
61	0xbe16e38a	-0.14735237
62	0xbbbb5516	-0.00571693
63	0xbd2c53c7	-0.042072084
64	0xbc38d586	-0.011281377
65	0xbdd24c33	-0.1026844
66	0x3d1d5a25	0.038416047
67	0xbd434308	-0.047671348
68	0xbc390dcc	-0.011294793
69	0xbcbb466d	-0.02286073
70	0xbc94e3d5	-0.018175045
71	0x3de1247c	0.10993287
72	0xbd6272c4	-0.05528523
73	0xbc589ec3	-0.0132214455
74	0x3d8769a8	0.06611949
75	0x3c465fdc	0.012107816
76	0x3d7c0d53	0.061536144
77	0x3d8a7fe7	0.06762677
78	0xbcaa93f4	-0.020822503
79	0x3e14d777	0.14535318
80	0xbdc618b6	-0.09672682
81	0xbd6d6758	-0.057959884
82	0x3d43c018	0.047790617
83	0x3d779d57	0.060452785
84	0x3d26a18e	0.040681414
85	0x3c312d74	0.0108140595
86	0x3d26282d	0.04056566
87	0xbdac4934	-0.084124
88	0xbd16a9eb	-0.03678314
89	0xbd697dcb	-0.05700473
90	0x3ba43425	0.005011099
91	0x3d1d5e6c	0.038420126
92	0x3e3e0468	0.18556368
93	0x3dc419cc	0.09575233
94	0x3cf1b32b	0.02950438
95	0xbd8ccf50	-0.06875479
96	0x3d6a17a3	0.057151448
97	0xbe143e2d	-0.14476843
98	0x3e2238d9	0.15841998
99	0xbc65a669	-0.014016726
100	0x3d16fb41	0.03686071
101	0xbd973b28	-0.0738433
102	0xbe23cc99	-0.15996017
103	0xbdcfa817	-0.101394825
104	0x3d4340d6	0.047669254
105	0x3e0e8b55	0.13920338
106	0x3db9dfb1	0.09075869
107	0x3dc1e1d1	0.09466899
108	0x3e26dbb8	0.16294754
109	0x3d079b91	0.033107344
110	0x3d6841ba	0.056703307
111	0x3e67336d	0.22578211
112	0xbdb29ed1	-0.08721698
113	0x3b26c3c9	0.0025446287
114	0xbd77608e	-0.060394816
115	0xbd864102	-0.06555368
116	0xbdc1da20	-0.09465432
117	0x3cc09e82	0.023513082
118	0xbcff194c	-0.031139992
119	0xbe10afdf	-0.1412959
120	0x3d806537	0.06269305
121	0xbcfe3a36	-0.031033617
122	0x3e639939	0.22226419
123	0x3ca1e22d	0.01976117
124	0x3d773085	0.060349006
125	0x3d64a410	0.055820525
126	0x3d908213	0.0705606
127	0xbd730904	-0.05933477
128	0x3d8860e8	0.066591084
129	0xbd077347	-0.03306892
130	0xbd0acce2	-0.033886798
131	0xbdc86a85	-0.09785942
132	0xbbbf037c	-0.005829273
133	0xbd17f9e9	-0.037103567
134	0xbd096760	-0.03354585
135	0x3db0f7a3	0.08640983
136	0xbdd445b8	-0.1036486
137	0xbd4641e1	-0.04840267
138	0x3d93738c	0.07199773
139	0xbd05eee4	-0.032698527
140	0x3df6d210	0.12051785
141	0x3c10d1d4	0.008839089
142	0xbcc3c3f9	-0.023897158
143	0xbcac04d6	-0.0209984
144	0x3ccfff13	0.025390184
145	0x3c9a6d29	0.01885088
146	0x3dd65858	0.10466069
147	0x3e1562d0	0.14588475
148	0x3e4c0aa2	0.19925931
149	0x3cbe29dd	0.023213321
150	0xbdf4525e	-0.11929773
151	0x3de0d977	0.10978978
152	0x3da5fbe6	0.081046864
153	0x3de2bd45	0.110712565
154	0xbcffadbf	-0.031210778
155	0xbd21bb35	-0.039485175
156	0xbd4c599f	-0.049890157
157	0x3cf4f512	0.029902015
158	0xbd09b247	-0.033617284
159	0xbdd2c5a2	-0.10291602
160	0x3d97e70a	0.07417114
161	0x3d0c423a	0.034242846
162	0x3cd5204c	0.026016377
163	0x3d6e20dc	0.058136806
164	0xbd795468	-0.06087151
165	0xbcf8abe0	-0.030355394
166	0xbddf91dc	-0.10916492
167	0xbcd619cf	-0.026135353
168	0x3daa8636	0.0832638
169	0xbc359ac0	-0.011084259
170	0x3d9eed82	0.07760145
171	0xbdea2cce	-0.11434327
172	0x3dc32580	0.09528637
173	0xbd98c2f8	-0.07459062
174	0x3d0bb662	0.03410948
175	0x3dba2a22	0.090900674
176	0xbd8cbcc4	-0.06871942
177	0x3d406fdb	0.046981674
178	0x3c567373	0.013089049
179	0xbdc4583f	-0.09587144
180	0x3d0e09bd	0.034677256
181	0x3d45de71	0.04830784
182	0xbd706a1c	-0.058694944
183	0x3de5e0c6	0.11224513
184	0x3da3871a	0.07984753
185	0x3d8c61a6	0.068545625
186	0x3d83a760	0.064284086
187	0x3e2df915	0.16989549
188	0xbc550124	-0.01300076
189	0x3d8b92f9	0.06815142
190	0x3dbc3860	0.0919044
191	0xbe310f1d	-0.17290922
192	0x3dfe6a83	0.12422659
193	0x3e03ad86	0.12859163
194	0x3e1d3cd8	0.15355241
195	0x3bd3eab9	0.00646719
196	0xbd2e2032	-0.042511173
197	0x3daee984	0.08540633
198	0xbc9b481d	-0.018955285
199	0xbd47bed0	-0.048765957
200	0xbc15f690	-0.009153023
201	0x3b20e0c1	0.0024548026
202	0x3d41faf1	0.047358457
203	0xbdb11e89	-0.08648402
204	0xbe33b5f3	-0.17549877
205	0x3de840ce	0.113404855
206	0xbce9dd75	-0.028547982
207	0x3ccb4ead	0.024817789
208	0xbca7eade	-0.020497736
209	0xbd2cd717	-0.042197313
210	0x3d6fe51a	0.058568098
211	0xbbf2bac0	-0.0074075162
212	0xbdef8d6f	-0.11696898
213	0xbde642d8	-0.11243218
214	0xbd26afc7	-0.040694978
215	0xbd9827ea	-0.07429488
216	0x3d32bae7	0.043635275
217	0x3d73bf89	0.059508834
218	0xbc9496be	-0.018138286
219	0xbe1a8a1a	-0.15091744
220	0xbd54f605	-0.051992435
221	0x3dbb2bda	0.091392234
222	0x3b65d2f4	0.0035068365
223	0xbd118fb5	-0.03553744
224	0x3ce08774	0.02740834
225	0xbd808143	-0.06274655
226	0x3d34309d	0.043991674
227	0x3d27703a	0.040878512
228	0x3d78efdb	0.06077562
229	0xbe1f107d	-0.15533634
230	0x3e081518	0.13289297
231	0xbddb468d	-0.10706816
232	0xbd7ec1b2	-0.06219644
233	0xbd141a91	-0.03615815
234	0xbd93a767	-0.07209664
235	0xbc48fa2d	-0.012266678
236	0x3dbd0f67	0.092314534
237	0xbdd7ef7a	-0.105437234
238	0xbd333d08	-0.043759376
239	0x3d8e501c	0.069488734
240	0x3cf53cba	0.029936183
241	0xbc839c38	-0.016065702
242	0x3c440e7c	0.011966344
243	0x3e05809f	0.13037346
244	0xbd717804	-0.058952346
245	0xbc8e9c8f	-0.017408637
246	0xbd372566	-0.0447134
247	0xbe1a1896	-0.15048441
248	0x3d9573af	0.072974555
249	0xbdb4ba9e	-0.08824657
250	0xbc962c08	-0.018331543
251	0xbe03321d	-0.12812085
252	0x3d8e3bae	0.06944977
253	0xbe291684	-0.16512495
254	0xbd91e971	-0.071246035
255	0xbd411fb5	-0.04714938

classifier.2.bias f4 [84]
0	0x3ca3b0cd	0.019981766
1	0xbd55612f	-0.052094635
2	0xbd477d4a	-0.04870347
3	0xbe063d78	-0.13109386
4	0xbd36defd	-0.044646252
5	0x3cc269fe	0.023732182
6	0xbd17cc36	-0.037059985
7	0x3c8d3cfe	0.017240997
8	0x3d652360	0.05594194
9	0x3d0e2e09	0.03471187
10	0xbc8293a8	-0.015939549
11	0xbd874cda	-0.06606455
12	0x3d8fffeb	0.07031234
13	0x3c8af0ee	0.016960587
14	0xbca0c95f	-0.019627271
15	0xbd3f8ebe	-0.04676699
16	0x3d4d9a3b	0.050195914
17	0xbcfc3885	-0.03078867
18	0xbd92dbd6	-0.07170837
19	0x3d812c40	0.06307268
20	0xb8e707cf	-0.00011016393
21	0xbcbe6e87	-0.023246063
22	0x3b35a567	0.0027716996
23	0x3ddd83ba	0.108161405
24	0xbdcbad7f	-0.09945201
25	0x3de29f2b	0.11065515
26	0xbc09c0ab	-0.008407752
27	0xbd9a40cb	-0.075318895
28	0x3e0c536b	0.13703696
29	0xbcbfd2aa	-0.023415882
30	0xbc66ee30	-0.014094874
31	0xbcc5bd1a	-0.024138022
32	0xbd8b7d9f	-0.0681107
33	0x3d63b20d	0.055589724
34	0x3cf30b76	0.029668551
35	0x3e03028a	0.12793937
36	0x3d82e3ea	0.063911274
37	0x3c5303ad	0.012879294
38	0xbb129c91	-0.0022371153
39	0x3d69fed6	0.057127796
40	0x3e0fbeb2	0.14037588
41	0x3d8019e1	0.06254936
42	0x3d70231d	0.058627237
43	0x3c065d90	0.008201018
44	0x3d9822d0	0.07428515
45	0x3d309cfd	0.043118466
46	0x3d96ea03	0.07368853
47	0xbc7f52d4	-0.015583713
48	0x3df19cbc	0.11797473
49	0x3dde474e	0.10853444
50	0x3cf8b178	0.030358061
51	0x3db718d8	0.089402854
52	0xbc70fdec	-0.014708977
53	0xbc65868a	-0.014009127
54	0x3dcbe153	0.099550866
55	0xb542ece6	-7.2615364e-07
56	0xbde48fc8	-0.111602366
57	0x3d47222b	0.04861657
58	0x3cdec672	0.027194235
59	0x3cf7892a	0.030216772
60	0xbcd1f7e3	-0.025630897
61	0x3d724c96	0.05915507
62	0x3bbc2d5e	0.005742713
63	0xbcb16281	-0.021653416
64	0x3ce01cf4	0.027357556
65	0x3e3de58d	0.18544598
66	0xbca78466	-0.020448875
67	0x3c301a4e	0.010748459
68	0x3d796b9e	0.060893647
69	0x3c8fcacb	0.017552754
70	0xbd2c5723	-0.042075288
71	0xbd4cbf4c	-0.049987122
72	0x3d43732e	0.047717266
73	0x3c4e30bc	0.012584861
74	0xbdb47bf5	-0.088127054
75	0x3d9fbc8c	0.07799634
76	0xbd0c7241	-0.03428865
77	0x3cb340ab	0.021881422
78	0x3d0386d1	0.032110993
79	0x3cf4983c	0.029857747
80	0x3e291941	0.1651354
81	0xbc6e060f	-0.014527812
82	0xbdb76220	-0.08954263
83	0x3aaaab56	0.0013021033

classifier.4.weight f4 [10, 84]
0	0x3e366231	0.17810895
1	0x3dbe2fd4	0.09286466
2	0xbdece90c	-0.11567888
3	0x3f4f8661	0.8106442
4	0xbe182ba5	-0.14860399
5	0x3e454018	0.19262731
6	0xbd13c559	-0.036076877
7	0x3ddbee7e	0.10738848
8	0xbc27d3ae	-0.010243339
9	0xbed3f195	-0.4139525
10	0xbe3f4695	-0.18679269
11	0x3e1bbde5	0.15209158
12	0x3dded4e5	0.1088045
13	0xbea57fbe	-0.32324022
14	0x3e19aca1	0.15007259
15	0xbe726a03	-0.23673253
16	0xbdc7476d	-0.0973042
17	0x3e3b00d0	0.18262029
18	0x3e16734c	0.1469242
19	0x3d1ed794	0.03877981
20	0xbe376cae	-0.17912552
21	0xbcc7e502	-0.024401192
22	0x3db1dc4e	0.08684598
23	0xbd641600	-0.055685043
24	0xbe64f252	-0.22358063
25	0x3f15c104	0.58497643
26	0xbe28433c	-0.16431898
27	0xbd546738	-0.05185625
28	0x3db272bb	0.08713289
29	0xbe245508	-0.16048062
30	0x3e87878a	0.26470596
31	0x3f2282c4	0.6348078
32	0xbda1644d	-0.07880459
33	0x3e906329	0.28200653
34	0xbe72b27b	-0.23700897
35	0x3db8f986	0.09031968
36	0xbda6cbe4	-0.08144358
37	0x3dff4ff7	0.12466424
38	0x3e83999f	0.2570314
39	0x3e86415e	0.26221746
40	0x3e8bace6	0.2728035
41	0x3f0be232	0.5464202
42	0xbe3289d6	-0.17435393
43	0xbe7712ff	-0.2412834
44	0x3e8058d4	0.2506777
45	0xbd0f7af4	-0.035029367
46	0x3e3f4786	0.18679628
47	0x3dfad930	0.122484565
48	0xbe53537d	-0.20637317
49	0xbeaaa4ca	-0.3332885
50	0x3ea184f1	0.3154674
51	0xbe8d5a85	-0.27608123
52	0x3db338fa	0.08751102
53	0xbdca5673	-0.0987977
54	0x3e30e145	0.17273434
55	0xbe3a40a2	-0.18188718
56	0xbe558074	-0.20849782
57	0xbec87125	-0.39148822
58	0xbe4b79f8	-0.19870746
59	0x3ed49b61	0.41524795
60	0xbdcfc981	-0.10145856
61	0xbddfa05c	-0.10919258
62	0x3dbfd0e9	0.09366018
63	0x3d4ee322	0.05050958
64	0xbe41dcaf	-0.1893184
65	0xbe5fcd55	-0.21855672
66	0x3ed204c9	0.41019276
67	0x3f3fe423	0.74957484
68	0xbe7168e4	-0.23575169
69	0x3e8d5249	0.2760184
70	0x3e19f400	0.15034485
71	0xbd1d05cb	-0.038335603
72	0xbd2229fa	-0.039590813
73	0xbe124a0b	-0.14286058
74	0x3ec997fd	0.3937377
75	0x3e034a5b	0.12821333
76	0x3eb20ab3	0.34773788
77	0x3e3d5917	0.18491016
78	0x3f2b4408	0.6690068
79	0xbdec84be	-0.11548756
80	0xbe02d47f	-0.12776373
81	0xbc6e9ee4	-0.01456425
82	0x3e9c221b	0.3049477
83	0xbeb88549	-0.36039189
84	0x3ef63caa	0.48093158
85	0xbe0e9e1e	-0.13927504
86	0xbdb27633	-0.08713951
87	0x3bae0edb	0.0053118295
88	0xbd99fc2a	-0.075187996
89	0xbe17560a	-0.14778915
90	0xbe58260a	-0.21108261
91	0xbd15f686	-0.036612056
92	0xbdd41589	-0.1035567
93	0xbdac28b8	-0.08406204
94	0x3d82ead7	0.063924484
95	0x3b3463e5	0.0027525362
96	0xbb6d8199	-0.0036240576
97	0x3f060f6d	0.5236729
98	0xbd537be2	-0.051631816
99	0x3eddcc8d	0.43320122
100	0xbcabad95	-0.020956794
101	0x3f00cde9	0.50314194
102	0x3d6277ea	0.05529014
103	0xbdd62ddf	-0.10457968
104	0xbe3ebd01	-0.18626787
105	0xbdad78f8	-0.084703386
106	0xbddcf3c5	-0.10788683
107	0x3ea30e5d	0.31846896
108	0xbe114355	-0.14185841
109	0xbe625742	-0.22103599
110	0x3e9c9fe4	0.30590737
111	0xbc818bfe	-0.015813824
112	0x3e16c8a0	0.1472497
113	0xbdd4e70e	-0.10395633
114	0xbe0bb8f2	-0.1364477
115	0xbe534c26	-0.20634517
116	0x3d733d6c	0.05938475
117	0x3d874b9e	0.0660622
118	0xbe819c63	-0.25314626
119	0x3e471ee0	0.19445372
120	0xbde04a2f	-0.109516494
121	0xbacc7dd6	-0.0015601467
122	0x3e1fe95d	0.15616365
123	0xbe433121	-0.1906171
124	0xbe124d95	-0.14287408
125	0xbea33422	-0.31875712
126	0xbd6797c0	-0.056541204
127	0x3d2c145a	0.042011596
128	0xbe5bb7c1	-0.21456815
129	0x3e4410f9	0.191471
130	0x3f2a1e16	0.6645216
131	0xbc9648d9	-0.018345283
132	0xbe69d701	-0.22835924
133	0x3d1d1277	0.038347688
134	0x3ed29be9	0.41134575
135	0x3cafdb23	0.021466797
136	0x3ebaa231	0.36451867
137	0xbdbe8553	-0.09302773
138	0x3dcd2e2d	0.10018573
139	0x3e595c47	0.21226607
140	0x3e928f40	0.28624916
141	0xbd56e524	-0.05246462
142	0x3d19669d	0.037451375
143	0x3e2c1dcc	0.16808242
144	0xbddeafd9	-0.10873384
145	0xbe359fb2	-0.177367
146	0xbe0dcde3	-0.13848071
147	0x3d88e530	0.06684339
148	0x39625ca5	0.00021587552
149	0xbe2d3e7e	-0.1691837
150	0xbc7f5552	-0.015584307
151	0xbe2f7d96	-0.17137751
152	0xbe625cca	-0.22105709
153	0xbe30f8f7	-0.17282473
154	0x3daf186e	0.085495815
155	0x3e01b394	0.1266616
156	0xbe28f8db	-0.16501181
157	0xbe1723ab	-0.147597
158	0x3db8899c	0.09010622
159	0xbf016124	-0.5053885
160	0x3e89a367	0.2688248
161	0x3ed0eef1	0.40807298
162	0x3d64af3d	0.055831183
163	0x3ef93eec	0.48680818
164	0x3d31cd6d	0.0434088
165	0xbda0bb24	-0.07848194
166	0x3d99156b	0.07474788
167	0xbe598ded	-0.21245547
168	0xbe2a57e1	-0.16635086
169	0xbe567457	-0.20942818
170	0x3e68828e	0.22706053
171	0xbcf8f21a	-0.03038888
172	0xbd70cad6	-0.05878719
173	0x3f385974	0.72011495
174	0x3edb634d	0.42849198
175	0xbeb71999	-0.35761717
176	0xbeb98d90	-0.36240816
177	0xbc30d384	-0.010792617
178	0x3e9e5dd5	0.30930963
179	0xbe217ee1	-0.15771057
180	0xbdd8ecf2	-0.10592069
181	0xbe53118e	-0.20612165
182	0x3df806c9	0.12110669
183	0xbe54efce	-0.20794603
184	0x3d613612	0.054983206
185	0xbdf9930b	-0.12186249
186	0xbd1620c3	-0.036652338
187	0x3e117d89	0.14208044
188	0xbdd21108	-0.10257155
189	0x3e1cee76	0.1532534
190	0xbd444d92	-0.04792554
191	0xbcec774c	-0.028865479
192	0x3f46e7df	0.7769756
193	0xbe1cfe5c	-0.15331405
194	0xbdcb86c0	-0.09937811
195	0xbdac78f1	-0.08421505
196	0xbeba2859	-0.36358908
197	0xbd390536	-0.045170985
198	0x3ea87119	0.32898787
199	0x3c6154b2	0.013753103
200	0xbe15b47c	-0.1461963
201	0x3e2c81db	0.16846411
202	0x3d0e1abd	0.03469347
203	0xbeac61b0	-0.3366828
204	0x3e8458b9	0.2584894
205	0x3ea909d5	0.33015314
206	0x3e98018b	0.29688677
207	0xbeb0c9db	-0.34529004
208	0xbe3a96b9	-0.18221559
209	0xbe4309da	-0.19046727
210	0x3e8b02f2	0.27150685
211	0x3ebb7a36	0.36616677
212	0xbd923279	-0.07138533
213	0xbe2b1428	-0.16706908
214	0x3ec6f587	0.38859197
215	0xbd05d02f	-0.032669242
216	0xbee47791	-0.44622472
217	0xbe62d67e	-0.22152135
218	0x3f0c0657	0.54697174
219	0x3c77c9e6	0.01512382
220	0xbe80b622	-0.25138956
221	0xbe39f3f0	-0.18159461
222	0x3e88f6c0	0.26750755
223	0xbe05579f	-0.13021706
224	0xbddc6a8b	-0.10762509
225	0x3f26a420	0.65094185
226	0x3f2602bc	0.6484792
227	0xbe947415	-0.28994814
228	0x3f1547d4	0.58312726
229	0xbe0f72bb	-0.1400861
230	0x3ded790c	0.115953535
231	0x3d0b49ff	0.034006115
232	0xbdee16bc	-0.1162543
233	0xbe9659c5	-0.29365364
234	0x3e2dab2f	0.16959833
235	0x3e574f91	0.21026446
236	0x3eb79fd1	0.35864118
237	0x3e345c39	0.17613305
238	0x3ecac294	0.39601576
239	0x3e82c4b4	0.25540698
240	0x3ec4a628	0.38408017
241	0x3f135528	0.57551813
242	0xbcfe8314	-0.031068362
243	0x3f0bbe9d	0.5458773
244	0xbe3b564d	-0.1829464
245	0x3eb04099	0.34424284
246	0x3ed1e054	0.4099146
247	0x3d56da38	0.052454203
248	0xbe85ead1	-0.26155713
249	0x3d901930	0.07036054
250	0xbe2528a9	-0.16128792
251	0xbef9d585	-0.48795715
252	0xbd7ac247	-0.061220434
253	0x3d0e9094	0.03480585
254	0x3e9ffe5a	0.31248742
255	0xbe794b34	-0.24345094

classifier.4.bias f4 [10]
0	0x3e534953	0.2063344
1	0xbb402999	-0.002932167
2	0x3d969df1	0.07354344
3	0x3e929eaf	0.2863669
4	0xbd9126b8	-0.07087463
5	0xbd0e2d65	-0.03471126
6	0x3dcff259	0.10153646
7	0xbd3e15ce	-0.046407513
8	0x3d1d94dc	0.03847204
9	0xbe2082ea	-0.1567494
