experiments/LeNet/FashionMNIST/experiment-9/last-epoch.pt (torch, 188523 bytes, 18 tensors)

features.0.weight f4 [6, 1, 5, 5]
0	0xbe677723	-0.22604041
1	0xbec7b5a0	-0.39005756
2	0x3e2c9f75	0.16857703
3	0x3e12886d	0.14309855
4	0x3da75521	0.08170534
5	0xbfdf3b5e	-1.7439992
6	0xbef71b88	-0.48263192
7	0xbd9420be	-0.072328076
8	0xbd60f621	-0.054922227
9	0xbdbc5d89	-0.09197528
10	0xbf5044a5	-0.81354743
11	0xbf1024b5	-0.5630601
12	0xbcfe5d6c	-0.031050406
13	0x3dbfebc6	0.09371142
14	0x3e20297b	0.15640824
15	0x3d714d33	0.058911514
16	0x3c2a6cce	0.010401918
17	0x3d32218f	0.043489035
18	0xbb9b10ed	-0.0047322423
19	0xbd5ce6b5	-0.053930957
20	0x3e0dfa94	0.13865119
21	0xbd548551	-0.051884953
22	0x3b17350b	0.0023072388
23	0xbe0c2177	-0.13684641
24	0x3d47602a	0.048675694
25	0x3d299317	0.04140004
26	0xbe6eeacb	-0.23331754
27	0x3da79ddc	0.08184406
28	0xbd39230c	-0.04519944
29	0xbe890c06	-0.26766986
30	0x3e8e82ad	0.27834073
31	0xbf2fd781	-0.6868821
32	0xbfcc07d0	-1.5939884
33	0x3e23b4b3	0.159869
34	0x3d931e3f	0.07183503
35	0x3f108a6a	0.56461203
36	0x3fd53f32	1.6659911
37	0xbf84238c	-1.0323348
38	0xbf10a796	-0.56505716
39	0x3de3ab38	0.11116642
40	0x3cf86552	0.03032175
41	0x3f7824b9	0.96931034
42	0x3f281b26	0.65666425
43	0xbed787c7	-0.42095777
44	0xbd9f231d	-0.07770369
45	0x3be8c690	0.0071037486
46	0xbcb98a24	-0.022648878
47	0x3e8e7058	0.27820086
48	0x3dac68c6	0.084184214
49	0xbc32b4f0	-0.010907397
50	0x3dc59534	0.09647599
51	0x3e6fd435	0.23420794
52	0x3ebbb1d5	0.36659113
53	0x3eeb3495	0.45938554
54	0x3f0c4b41	0.5480233
55	0xbe73ecb5	-0.23820765
56	0x3d864f2d	0.0655807
57	0x3e2c9b0c	0.1685602
58	0x3e2a930b	0.16657655
59	0x3e5e59bc	0.21713918
60	0xbeaf70d9	-0.34265783
61	0x3ea44854	0.32086432
62	0x3e8d3e79	0.27586725
63	0x3de18dce	0.11013375
64	0x3d8149f3	0.06312933
65	0xbf118294	-0.5683987
66	0xbde54571	-0.111948855
67	0x3e952313	0.29128322
68	0x3e55d7e8	0.20883143
69	0x3d7602d2	0.060061283
70	0xbf909d43	-1.1297992
71	0xbe459592	-0.19295338
72	0xbdc7d418	-0.097572505
73	0xbe5f6642	-0.21816352
74	0xbe548625	-0.20754297
75	0x3efcaa9a	0.4934891
76	0x3ebdf9e0	0.37104702
77	0x3e79bc0e	0.24388143
78	0xbdd02981	-0.10164166
79	0xbedd677f	-0.43243024
80	0x3e64c3a2	0.22340253
81	0xbd0a800b	-0.033813518
82	0xbdc1a856	-0.09455936
83	0xbe18414b	-0.14868657
84	0xbedddbc9	-0.43331745
85	0x3eb49682	0.35271078
86	0x3cd3165e	0.025767501
87	0xbe079c05	-0.1324311
88	0xbe544741	-0.20730306
89	0xbe09f9df	-0.13474225
90	0x3e81eaf0	0.25374556
91	0x3d49020b	0.049074214
92	0x3d5b43df	0.053531524
93	0xbdde5200	-0.10855484
94	0xbc258c44	-0.010104243
95	0xbc7e21b5	-0.015510966
96	0x3e34d2d1	0.17658545
97	0xbcd8401d	-0.02639776
98	0x3e9af5d2	0.3026567
99	0x3ef57e1a	0.4794777
100	0x3eac999b	0.33710942
101	0x3f12e454	0.5737965
102	0xbd2d4473	-0.042301606
103	0xbeb5bf46	-0.35497493
104	0xbe8295fa	-0.25505048
105	0x3c9d0686	0.01916815
106	0x3f2a5976	0.66542757
107	0x3f28a98c	0.6588371
108	0xbecd318c	-0.40076864
109	0xbefae872	-0.49005467
110	0xbf1db243	-0.6160013
111	0xbe346777	-0.17617594
112	0x3f6b173e	0.9183234
113	0x3ecff1bd	0.4061412
114	0xbe8f3358	-0.2796886
115	0xbd416f72	-0.047225423
116	0xbf8adc36	-1.0848453
117	0xbec4a580	-0.38407516
118	0x3f96bd53	1.1776527
119	0x3f25bcff	0.6474151
120	0xbd4bcca1	-0.049755696
121	0xbe91e5f4	-0.28495753
122	0xbf634539	-0.887775
123	0xbecfbc26	-0.40573233
124	0x3ed016ea	0.40642482
125	0xbd3e467b	-0.046453934
126	0x3ec434ac	0.38321435
127	0x3d8d140b	0.068885885
128	0x3e306d8a	0.17229286
129	0x3e0f8f8a	0.140196
130	0x3cd73f76	0.026275378
131	0x3f1f88ef	0.6231832
132	0x3f04b082	0.5183183
133	0x3e85c257	0.26124832
134	0xbe63bf0e	-0.2224085
135	0x3ddd696d	0.10811124
136	0x3f00de50	0.5033922
137	0x3e8a95a4	0.27067292
138	0xbf198ad6	-0.5997747
139	0xbf55f5d1	-0.8357821
140	0xbe0f5da0	-0.14000559
141	0x3d8394d3	0.0642487
142	0xbe986aff	-0.29769132
143	0xbf805c45	-1.0028158
144	0xbea0ef3e	-0.31432527
145	0x3e70c3a4	0.23512131
146	0x3db358a2	0.0875714
147	0xbea4d72e	-0.3219542
148	0xbed7c754	-0.42144263
149	0x3f15a4ea	0.58454764

features.0.bias f4 [6]
0	0xc0472720	-3.111763
1	0xbdbbfdfb	-0.09179302
2	0x3e577633	0.21041183
3	0x3c1ba01d	0.009498623
4	0xbd39ea65	-0.04538955
5	0xbe937ac4	-0.288046

features.2.weight f4 [6]
0	0x3f8797dc	1.0593219
1	0x3fb522a5	1.4151198
2	0x3f71fc44	0.9452555
3	0x3f0524f5	0.52009517
4	0x3f981174	1.1880326
5	0x3f8a74ff	1.0816954

features.2.bias f4 [6]
0	0x3da71ffe	0.08160399
1	0x3e852cf6	0.26010865
2	0x3e1bab6b	0.1520211
3	0x3e82872a	0.25493747
4	0x3ebee6f6	0.37285584
5	0x3e3c29b6	0.18375286

features.2.running_mean f4 [6]
0	0x3e7ba562	0.24574807
1	0x3ec5e904	0.3865434
2	0x3f1261b1	0.57180315
3	0x3e9adeba	0.30248052
4	0x3eebe62e	0.4607405
5	0x3e767419	0.24067725

features.2.running_var f4 [6]
0	0x3dd5ff46	0.1044908
1	0x3f871bec	1.0555396
2	0x3f7e1483	0.9925005
3	0x3e90120c	0.2813877
4	0x3f88015d	1.0625416
5	0x3effe052	0.4997583

features.4.weight f4 [16, 6, 5, 5]
0	0x3e5f0203	0.21778111
1	0x3dbb36bc	0.09141299
2	0x3e5e4d2a	0.21709123
3	0x3eaae4c2	0.33377653
4	0x3dc03b5d	0.09386323
5	0x3e6428b2	0.22281149
6	0x3e570687	0.20998584
7	0xbea93340	-0.33046913
8	0xbe11c794	-0.1423629
9	0x3ec1bfe7	0.37841722
10	0x3dda419f	0.106570475
11	0xbe276e42	-0.16350654
12	0xbedb31f9	-0.42811564
13	0xbecdd57e	-0.40201944
14	0x3dd9195a	0.106005386
15	0x3ed211c1	0.4102917
16	0x3de4a498	0.11164206
17	0xbe0d0d69	-0.13774647
18	0xbee1ff95	-0.44140306
19	0xbda4e6f6	-0.08051865
20	0x3d7c8180	0.06164694
21	0x3ccb301b	0.024803212
22	0x3e27bd16	0.16380724
23	0x3db58ff8	0.088653505
24	0x3e128864	0.14309841
25	0xbdf839a0	-0.12120366
26	0x3dd7121e	0.105015025
27	0x3e0f81f8	0.14014423
28	0x3e829ead	0.25511685
29	0xbe015805	-0.12631233
30	0x3e13ef12	0.14446667
31	0x3da0b4cc	0.07846984
32	0x3e66f695	0.22555001
33	0x3e9dd2cf	0.30824897
34	0xbe94e6a3	-0.29082212
35	0x3d91582b	0.07096895
36	0x3d9985e3	0.0749624
37	0xbd99b4b9	-0.07505173
38	0x3ddd925c	0.108189315
39	0xbc306d90	-0.010768309
40	0xbd15b998	-0.03655395
41	0x3e18e068	0.14929354
42	0x3e207eca	0.15673366
43	0x3c1bd90d	0.009512198
44	0x3d6449ba	0.055734374
45	0xbd79818a	-0.060914554
46	0x3d5cd93e	0.053918116
47	0x3ddfde31	0.109310515
48	0x3d857de3	0.065181516
49	0x3dc0b30e	0.09409152
50	0xbd8a64ef	-0.06757533
51	0x3e781dec	0.24230164
52	0xbc4d2f0f	-0.012523427
53	0x3d3de3e3	0.046359908
54	0x3dd096d3	0.101850174
55	0xbdaf63a2	-0.08563925
56	0x3df74783	0.12074187
57	0xbdf73c41	-0.120720394
58	0x3b72b7a3	0.0037035726
59	0x3d8bf6c1	0.06834174
60	0x3d8df38b	0.06931218
61	0x3d1dc514	0.038518026
62	0x3e3a8732	0.18215635
63	0x3d63f406	0.05565264
64	0x3cd6ee93	0.026236808
65	0x3c5150ea	0.012775639
66	0xbdada10b	-0.08477982
67	0x3e0875c9	0.13326181
68	0x3e7b5189	0.24542822
69	0x3ded1f6c	0.11578259
70	0xbc47a829	-0.012186089
71	0xbe54cfc9	-0.20782389
72	0xbe3848cd	-0.17996521
73	0x3b048ce5	0.0020225581
74	0x3dcea472	0.10089959
75	0x3b18f034	0.0023336532
76	0xbcb40967	-0.02197714
77	0x3d1297b5	0.03578921
78	0xbc210614	-0.009828109
79	0x3d03425f	0.03204572
80	0xbcbed332	-0.023294065
81	0xbe4bb662	-0.19893792
82	0xbdd21aac	-0.102589935
83	0x3d587fb6	0.05285617
84	0x3d821bfd	0.063529946
85	0xbe296856	-0.16543707
86	0xbe8ca3c4	-0.27468693
87	0xbd00e9af	-0.031472858
88	0x3d0690ab	0.03285281
89	0xbc87a711	-0.016559156
90	0xbe1f127d	-0.15534396
91	0xbdeb0950	-0.114763856
92	0xbd7df4d4	-0.062001064
93	0x39b744f0	0.00034955842
94	0xbc91769d	-0.017756755
95	0xbe05fbbc	-0.1308431
96	0xbdec22e9	-0.11530096
97	0xbb2e2aa3	-0.0026575706
98	0x3d3500d5	0.044190247
99	0xbe144942	-0.1448107
100	0xbd739b03	-0.059474003
101	0xbdcdfcca	-0.10057981
102	0x3d3fda74	0.046839193
103	0x3ce7b428	0.028284147
104	0xbd2acb33	-0.041697692
105	0x39fdad56	0.00048385066
106	0xbe0e06cd	-0.13869782
107	0xbdec68ab	-0.11543401
108	0xbc99b294	-0.01876191
109	0x3de4d158	0.11172742
110	0x3dd3559e	0.103190646
111	0x3e4d7753	0.2006505
112	0xbe084a44	-0.1330958
113	0xbe7e18b9	-0.24814118
114	0xbc586b9d	-0.013209251
115	0xbdaa61fc	-0.0831947
116	0xbd696204	-0.05697824
117	0x3a173361	0.0005767849
118	0xbddcaa2b	-0.107746445
119	0xbb3f0e73	-0.00291529
120	0x3d566510	0.052342474
121	0xbc6ae4a3	-0.014336738
122	0xbe3a7143	-0.18207268
123	0xbe02e49d	-0.12782522
124	0x3d820746	0.063490435
125	0x3e21bf1e	0.15795562
126	0x3e0a9d34	0.1353653
127	0x3d971ad6	0.073781654
128	0xbc4f248d	-0.012642992
129	0x3d52ecfd	0.05149554
130	0xbbdaa604	-0.0066726226
131	0xbe090594	-0.13381034
132	0xbcad29ef	-0.02113816
133	0x3c9d4384	0.019197233
134	0x3ceeaa00	0.029133797
135	0x3d330d22	0.043713696
136	0xbde1584c	-0.110031694
137	0xbe0f9965	-0.14023359
138	0xbbfae6f8	-0.007656928
139	0xba8f5491	-0.0010935237
140	0x3d9544fc	0.07288548
141	0xbb558ae1	-0.0032584
142	0xbe184e9f	-0.14873742
143	0xbd40e232	-0.047090717
144	0xbd89880f	-0.06715404
145	0x3dbe3549	0.09287507
146	0xbb5aa3e1	-0.003336184
147	0xbb106e1a	-0.0022038282
148	0x3cc1eb98	0.02367191
149	0x3c994f44	0.018714555
150	0xbef237bb	-0.47308144
151	0xbe440d40	-0.1914568
152	0xbdad08e0	-0.084489584
153	0xbd874e29	-0.06606705
154	0x3e3627dc	0.17788643
155	0xbeb4506b	-0.35217604
156	0xbe13d862	-0.14438012
157	0xbdbeb2bf	-0.09311437
158	0xbe066e18	-0.13127935
159	0x3d3bc59e	0.04584276
160	0xbc705ef5	-0.014671077
161	0xbe1588f4	-0.14603025
162	0xbe5c3af2	-0.21506861
163	0xbadb10ea	-0.0016713415
164	0x3e7c1acb	0.24619596
165	0x3de99ccb	0.11406859
166	0xbcb30d0e	-0.02185681
167	0xbd40a725	-0.0470344
168	0x3dd5c394	0.10437694
169	0x3e7d8942	0.24759391
170	0x3e9c9088	0.3057902
171	0x3de68962	0.112566724
172	0x3ddabbc2	0.10680343
173	0x3e0190cf	0.12652896
174	0x3ea530eb	0.32263884
175	0xbf2157de	-0.630247
176	0xbec2fa02	-0.38081366
177	0xbe30de67	-0.1727234
178	0x3da425fd	0.08015058
179	0x3e88845e	0.26663488
180	0xbed4b75f	-0.4154615
181	0xbde4a62b	-0.111645065
182	0x3e39669b	0.18105547
183	0x3d63d8bd	0.05562662
184	0x3b8f5943	0.0043746545
185	0xbc22b288	-0.0099302605
186	0xbdaebeee	-0.08532511
187	0x3e84cac9	0.25935963
188	0x3e13aae6	0.14420661
189	0x3d3aa40f	0.045566615
190	0x3db1d6a5	0.08683518
191	0xbd929a4f	-0.07158338
192	0x3d917ca6	0.07103853
193	0xbcf68d65	-0.030096719
194	0x3e0cdb49	0.13755526
195	0x3d7ff82e	0.062492542
196	0x3d20cd5b	0.039258342
197	0x3d2a1d7a	0.041532017
198	0x3e2eb06f	0.17059492
199	0x3ea12e29	0.3148053
200	0xbe717de3	-0.23583178
201	0xbd9a9030	-0.07547033
202	0x3cb87cbb	0.022520414
203	0x3e32c923	0.1745954
204	0x3e6b85da	0.23000279
205	0xbdbe9b62	-0.09306981
206	0xbd29def4	-0.04147239
207	0x3d997421	0.07492853
208	0xbd06510d	-0.03279214
209	0x3c0bc82a	0.00853161
210	0xbd4e27a0	-0.050330758
211	0xbd021659	-0.031759594
212	0x3d9c0325	0.07617787
213	0xbd670be9	-0.056407843
214	0x3a2ee4e1	0.0006671679
215	0xbda005c4	-0.078136
216	0xbca7afcf	-0.020469574
217	0xbc5edc41	-0.013602317
218	0x3dbe1781	0.09281827
219	0x3d5ba491	0.05362374
220	0x3a4b9dc3	0.0007767344
221	0xbcf74995	-0.030186454
222	0xbdac2815	-0.084060825
223	0xbceff5d4	-0.029292025
224	0xbe4f62ac	-0.20252484
225	0x3e5dfacf	0.21677707
226	0x3e57ccba	0.2107419
227	0x3cf51b79	0.029920327
228	0xbd795523	-0.06087221
229	0xbd4d1670	-0.050070226
230	0x3e96b013	0.2943121
231	0x3d78a08b	0.06069998
232	0xbd8bd515	-0.068277515
233	0xbbcf52e8	-0.006327022
234	0xbc2fb90c	-0.010725271
235	0x3e137af0	0.14402366
236	0xbdf9b4c3	-0.12192681
237	0xbd91f5a1	-0.07126928
238	0xbb735f69	-0.0037135726
239	0xbda349ef	-0.07973086
240	0xbc7afa06	-0.015318399
241	0xbdaac7d1	-0.08338893
242	0xbd836dfa	-0.06417461
243	0xbc99dbb8	-0.018781528
244	0xbe000266	-0.12500915
245	0xbd30a414	-0.043125227
246	0xbd0f5618	-0.034994215
247	0x3d861858	0.06547612
248	0xbe09581d	-0.13412519
249	0xbe1584a3	-0.14601378
250	0xbc9f67c4	-0.019458659
251	0x3dc7a025	0.09747342
252	0xbda297cc	-0.07939109
253	0x3c6a75d4	0.014310319
254	0x3b0ea84a	0.0021767789
255	0x3d8b212b	0.06793436

features.4.bias f4 [16]
0	0xbe150fb4	-0.14556772
1	0x3f0817c7	0.5316128
2	0x3e01e1f8	0.12683856
3	0xbb28387a	-0.0025668428
4	0xbe9a76c3	-0.30168733
5	0xbe84916c	-0.25892198
6	0xbf2964b0	-0.6616926
7	0xbccb3fc2	-0.024810676
8	0x3e134479	0.14381589
9	0x3d1accad	0.03779285
10	0xbde72099	-0.112855144
11	0x3df54b6f	0.119772784
12	0xbcddbe7d	-0.027068371
13	0x3e287fea	0.16455045
14	0xbee491d5	-0.4464251
15	0xbcb49647	-0.022044314

features.6.weight f4 [16]
0	0x3f98b2b7	1.192954
1	0x3f942223	1.1572918
2	0x3f9272bf	1.1441268
3	0x3fa28c83	1.2699131
4	0x3fac6400	1.3468018
5	0x3fbd9552	1.4811194
6	0x3f9b1bf4	1.2117906
7	0x3f9fb3cc	1.2476745
8	0x3f9af9b4	1.2107453
9	0x3f93b1c2	1.1538622
10	0x3f8eda69	1.1160403
11	0x3f96b5b3	1.17742
12	0x3fa61373	1.2974685
13	0x3f8fb2f8	1.1226492
14	0x3f9634ca	1.173486
15	0x3f96f224	1.1792645

features.6.bias f4 [16]
0	0xbd0a40dd	-0.033753265
1	0x3c8a4330	0.01687774
2	0x3d48be98	0.04900989
3	0xbc4f05cb	-0.0126356585
4	0xbba258c8	-0.004954431
5	0x3e152f04	0.14568716
6	0x3dc2462d	0.09486041
7	0xbc663fb0	-0.01405327
8	0x3e2b03b7	0.16700636
9	0xbdc4483c	-0.0958409
10	0x3bc52794	0.006016681
11	0x3d4d284b	0.050087254
12	0x3dca091f	0.09865021
13	0x3b6803cd	0.0035402656
14	0xbca69774	-0.02033589
15	0xbd2088ac	-0.03919284

features.6.running_mean f4 [16]
0	0x3f07a9cd	0.5299347
1	0x3f2e91c6	0.6819118
2	0x3effd72b	0.49968848
3	0x3f2a5600	0.66537476
4	0x3e185e36	0.14879689
5	0x3ecb8bd4	0.39755118
6	0x3e9502dc	0.29103744
7	0x3f094409	0.5361944
8	0x3edb9b80	0.42892075
9	0x3f0c4cda	0.54804766
10	0x3eea56e2	0.4576941
11	0x3ebd288e	0.36945003
12	0x3f003b5b	0.5009057
13	0x3f109e2f	0.5649137
14	0x3e90b176	0.28260392
15	0x3f92ca92	1.146807

features.6.running_var f4 [16]
0	0x3f5d7cd1	0.8651858
1	0x3f43bf79	0.7646404
2	0x3f145484	0.5794146
3	0x3f2de64e	0.6792954
4	0x3e34959b	0.17635195
5	0x3f25c32c	0.64750934
6	0x3edad5a7	0.4274113
7	0x3f32b465	0.6980651
8	0x3f04e889	0.5191732
9	0x3f1e4b0d	0.6183327
10	0x3ef310ff	0.47473904
11	0x3f01ddb8	0.5072894
12	0x3f4ae395	0.7925351
13	0x3f1b97c0	0.6077843
14	0x3e9cae5d	0.3060178
15	0x3fa82cba	1.313865

classifier.0.weight f4 [120, 256]
0	0xbd4dada6	-0.050214432
1	0xbd893ad5	-0.067006744
2	0x3cd24d18	0.025671527
3	0x3e0b264d	0.1358883
4	0xbccba048	-0.024856701
5	0xbd5b8b2e	-0.05359953
6	0xbd0e9566	-0.034810446
7	0x3db4e1a1	0.08832098
8	0x3d431245	0.047624845
9	0xbbd91945	-0.006625327
10	0x3d3a5667	0.045492556
11	0x3d2396d4	0.039938763
12	0x3daac005	0.08337406
13	0x3d8ccc5c	0.06874916
14	0x3db6e3e2	0.08930184
15	0x3d6a2f7d	0.057174195
16	0x3da5b8ff	0.08091926
17	0x3df175b5	0.11790029
18	0x3c938930	0.018009752
19	0xbd64579f	-0.055747624
20	0x3de86ade	0.11348508
21	0x3d70c704	0.058783546
22	0xbd087c60	-0.03332174
23	0xbd3b0e0b	-0.04566769
24	0x3d4e518c	0.050370738
25	0xbb68e06a	-0.0035534152
26	0xbbc75e55	-0.0060842433
27	0xbde5cbe1	-0.112205274
28	0xbc0ff362	-0.008786054
29	0xbbb2f29b	-0.0054610497
30	0xbca29e3a	-0.019850839
31	0xbe4fd275	-0.20295127
32	0xbb94ec65	-0.004544782
33	0xbc83b1e2	-0.016076032
34	0x3e0741e9	0.13208736
35	0xbcf0c18d	-0.029389167
36	0xbd8ce2ec	-0.068792194
37	0x3c44ec6e	0.01201926
38	0x3d045a66	0.032312773
39	0x3d4be745	0.049781103
40	0xbc2a62d7	-0.010399542
41	0xbc23284d	-0.009958339
42	0x3d7c8ff5	0.061660726
43	0x3db5c414	0.088752896
44	0x3cca3f8e	0.024688508
45	0x3d49dffe	0.04928588
46	0x3e01793b	0.12643902
47	0xbdb806a9	-0.08985645
48	0xbd29660a	-0.041357078
49	0x3d565f25	0.05233683
50	0x3d528bd1	0.05140287
51	0x3dd6539e	0.104651675
52	0xbbf23a2e	-0.0073921895
53	0xbd800989	-0.06251819
54	0xbe015eb1	-0.12633778
55	0xbdb6dbe7	-0.08928662
56	0xbb6904a7	-0.0035555752
57	0x3d9b46d9	0.075818725
58	0x3b772c80	0.0037715733
59	0xbb97091b	-0.0046092398
60	0xbd12cee5	-0.03584184
61	0xbd8cae4f	-0.06869184
62	0xbd43e8c8	-0.04782942
63	0x3d2f320f	0.04277235
64	0x3d5b7ddc	0.053586826
65	0x3c80d839	0.015728103
66	0xbd8b71ac	-0.068087906
67	0xbd0b95e2	-0.034078486
68	0x3d035045	0.032058973
69	0xbcfc41a1	-0.030793013
70	0x3d96c33a	0.07361455
71	0x3dcc2f51	0.099699624
72	0xbdb8f249	-0.09030587
73	0x3d3d13ae	0.046161346
74	0xbd0a44f9	-0.033757184
75	0xbd4e549e	-0.050373666
76	0xbcae3194	-0.021263875
77	0x3db70f21	0.089384325
78	0x3a0daf62	0.0005404857
79	0xbd93f8f4	-0.072252184
80	0x3d9ae10a	0.07562454
81	0x3dcf7624	0.101299554
82	0x3db94eca	0.09048231
83	0xbc91afd7	-0.017784042
84	0x3dd53e2a	0.104122475
85	0xbd39e807	-0.045387294
86	0xbde4daba	-0.11174531
87	0xbdb09ae4	-0.08623293
88	0x3bede31e	0.0072597405
89	0x3d1ed64a	0.03877858
90	0x3c6c1de9	0.014411428
91	0xbdce26f6	-0.10066025
92	0xbbd7ed27	-0.00658955
93	0x3c96e06d	0.018417561
94	0xbcdceca0	-0.0269683
95	0xbe2236bf	-0.15841196
96	0xbcf38450	-0.029726177
97	0xbc55bf0d	-0.013046038
98	0x3d5af104	0.053452507
99	0x3e21b929	0.15793289
100	0xbc3082e7	-0.010773397
101	0xbc6d5aa3	-0.0144869415
102	0x3bf9e5ef	0.007626287
103	0x3cffbbf6	0.031217556
104	0x3dae5a3a	0.08513303
105	0x3c8b742f	0.017023174
106	0xbc11ade9	-0.008891561
107	0xbb572edc	-0.0032834327
108	0x3de6d933	0.11271896
109	0x3d839cb3	0.064263724
110	0x3d63f095	0.05564936
111	0xbdac1870	-0.084030986
112	0x3cfd3d30	0.030912966
113	0x3d6de269	0.05807725
114	0x3cdfed12	0.027334724
115	0xbdba0d62	-0.09084584
116	0x3d957b82	0.07298948
117	0xbd85c944	-0.06532529
118	0x3d58625f	0.05282819
119	0x3cc596cb	0.024119755
120	0x3e0c8810	0.13723779
121	0xbdb1a215	-0.08673493
122	0xbd1598a2	-0.036522515
123	0xbde00ce7	-0.10939961
124	0x3d831904	0.06401256
125	0xbc31757d	-0.010831234
126	0xbcbf1378	-0.023324713
127	0x3af21aed	0.0018471159
128	0x3cb068d1	0.021534355
129	0x3b5165b0	0.003195148
130	0xbb662fe0	-0.003512375
131	0x3a63333c	0.00086669973
132	0x3d155415	0.03645714
133	0x3bea0291	0.007141419
134	0xbc8f3365	-0.017480562
135	0xbd815766	-0.06315498
136	0x3d760a21	0.060068253
137	0x3d0f3f6b	0.03497259
138	0xbd541500	-0.05177784
139	0xbd96cfff	-0.07363891
140	0xbd20f04a	-0.039291658
141	0xbd42a6a5	-0.047522206
142	0xbd2d937e	-0.042376988
143	0xbdc351f5	-0.095371164
144	0xbd51e747	-0.051245954
145	0x3d274b45	0.040843267
146	0x3da96e44	0.082729846
147	0xbd6bf2b8	-0.05760452
148	0x3d73ac33	0.059490394
149	0x3c2a9867	0.010412312
150	0x3db6399f	0.08897709
151	0xbd4cd8b6	-0.05001136
152	0x3d93e669	0.072216816
153	0xbc50983d	-0.012731609
154	0xbc84715e	-0.016167339
155	0xbd1877e9	-0.03722373
156	0xbddfc981	-0.10927106
157	0x3c0cda9c	0.008597042
158	0x3c56d06b	0.013111214
159	0xbd7cb4d9	-0.061695907
160	0x3ca0898e	0.019596841
161	0xbc9b8fca	-0.018989462
162	0x3ccc4812	0.02493671
163	0xbd949df8	-0.07256693
164	0xbd87a331	-0.06622923
165	0x3bd547fb	0.006508825
166	0x3d3a5064	0.045486823
167	0xbc80e0f6	-0.01573227
168	0x3d6f7dec	0.058469698
169	0xbc8f8eb3	-0.017524099
170	0x3b0ea410	0.002176527
171	0xbc9a372b	-0.018825134
172	0x3de5b184	0.11215499
173	0x3daf4a3e	0.085590824
174	0x3c9d02ac	0.019166313
175	0x3d543630	0.05180949
176	0x3d867624	0.06565502
177	0x3ccddb69	0.025129037
178	0x3dacdf82	0.08441068
179	0x3d96c70c	0.07362184
180	0xbd762c37	-0.06010076
181	0x3d35832c	0.04431455
182	0x3d2e6586	0.04257729
183	0xbcaff79f	-0.02148038
184	0xbc493703	-0.012281182
185	0x3dc94ac5	0.09828714
186	0x3c9e7f6a	0.019347865
187	0xbd77a262	-0.060457595
188	0xbc848ef3	-0.016181445
189	0x3e0eaae0	0.13932371
190	0xbcf7491d	-0.03018623
191	0xbe4b27ed	-0.19839449
192	0xbcc73e54	-0.024321713
193	0xbc997a63	-0.018735116
194	0xbdf8445f	-0.12122416
195	0x3c2e89c8	0.010652967
196	0xbcb8fe02	-0.022582058
197	0x3cb72a57	0.022359056
198	0x3d9f26b7	0.07771056
199	0xbd438024	-0.047729626
200	0xbd37ed7a	-0.04490421
201	0x3d21c7b5	0.039497096
202	0x3d346846	0.044044755
203	0xbd49f272	-0.04930348
204	0xbc937326	-0.017999243
205	0xbcac2a43	-0.021016246
206	0xbc0169aa	-0.007898727
207	0x3bc38c94	0.005967686
208	0xbdd7e6e1	-0.105420835
209	0x3d4660e7	0.048432257
210	0x3cb3e133	0.02195797
211	0xbda3bda9	-0.07995159
212	0x3db798a1	0.089646585
213	0xbd8a31db	-0.067477904
214	0x3ca4e073	0.020126557
215	0xbd0d9040	-0.034561396
216	0x3ce4b90d	0.02792027
217	0x3da39008	0.07986456
218	0x3d93c091	0.072144635
219	0x3dc748dc	0.09730694
220	0xbc9cfc10	-0.019163162
221	0x3bdd94ef	0.006762139
222	0xbd283257	-0.041063633
223	0xbce4426d	-0.027863706
224	0x3d71a683	0.05899669
225	0x3a5d3097	0.00084377214
226	0x3cd0c0f3	0.02548263
227	0x3cb46152	0.022019062
228	0xbc18a05d	-0.009315577
229	0xbc9ebb52	-0.01937643
230	0x3d310f4d	0.043227483
231	0xbc98799a	-0.018612672
232	0xbdb60227	-0.08887129
233	0x3cd272ee	0.025689568
234	0xbcf4c092	-0.02987698
235	0xbdbaf1b2	-0.09128131
236	0xbbb58312	-0.0055393064
237	0xbd66245d	-0.056187022
238	0xbdb0e074	-0.08636561
239	0xbdae5ac0	-0.08513403
240	0x3d04509b	0.032303434
241	0xbb92b4cf	-0.0044771205
242	0x3d13edc5	0.036115427
243	0x3b3315da	0.0027326257
244	0x3cd96379	0.02653669
245	0xbd310ccd	-0.0432251
246	0x3dc72648	0.097240984
247	0xbd81c6a3	-0.06336715
248	0x3c81cd87	0.015845073
249	0x3d8162a9	0.06317646
250	0xbc4b167d	-0.012395498
251	0xbd56b10f	-0.05241495
252	0x3ddc9c98	0.107720554
253	0xbb18e2e2	-0.0023328592
254	0xbdc9ad6d	-0.098475315
255	0x3d5734cc	0.052540585

classifier.0.bias f4 [120]
0	0x3b481fe5	0.0030536589
1	0x3ca7a14c	0.020462655
2	0xbdbf171d	-0.093305804
3	0xbd9dc5ea	-0.07703765
4	0xbd52c080	-0.051453114
5	0xbdcb7efb	-0.09936329
6	0xbd965a5a	-0.07341452
7	0xbdb9cd91	-0.09072412
8	0xbc364d6a	-0.011126855
9	0xbe023270	-0.12714553
10	0x3d39bd6d	0.045346666
11	0xbcb89154	-0.022530235
12	0x3c99b949	0.018765109
13	0x3c3edc38	0.011649184
14	0xbcffaa83	-0.031209236
15	0xbc3a9d73	-0.011390078
16	0xbd49fb3d	-0.049311865
17	0xbcd0a625	-0.025469849
18	0xbd95eadc	-0.073201865
19	0x3c2a5e87	0.010398514
20	0xbd110af1	-0.035410825
21	0x3cbd0434	0.023073293
22	0x3c8f8f70	0.017524451
23	0xbd70a80c	-0.058754012
24	0xbd34b8d3	-0.044121575
25	0x3d365741	0.044516806
26	0xbdb9ec6b	-0.09078296
27	0xbd41177a	-0.04714153
28	0x3c697d90	0.014251128
29	0xbd3d6c2d	-0.046245743
30	0xbdad540a	-0.08463295
31	0x3d0e919b	0.03480683
32	0xbd625f03	-0.05526639
33	0x3d1581f7	0.036500897
34	0x3d3b981a	0.045799352
35	0xbd46d35d	-0.048541415
36	0xbd8ea3a6	-0.06964807
37	0x3c4dbe75	0.0125576155
38	0x3cf812d7	0.030282421
39	0x3daa3ab2	0.083119765
40	0xbdc94052	-0.09826721
41	0xbda0f030	-0.07858312
42	0x3d28e19b	0.04123078
43	0xbd39523e	-0.045244448
44	0x3b88906c	0.004167607
45	0xbddbbcc8	-0.107293665
46	0x3b697e15	0.003562813
47	0xbd90d2c5	-0.07071451
48	0xbc5c9844	-0.013464037
49	0x3d44b82e	0.04802721
50	0xbda60a0c	-0.08107385
51	0xbc9e6d2f	-0.019339172
52	0xbdfd93d4	-0.123817116
53	0xbcce2e16	-0.02516846
54	0xbda6bd07	-0.08141523
55	0xbd8ff95d	-0.07029984
56	0xbbf47ef7	-0.0074614245
57	0xbb7051d1	-0.003666986
58	0xbd754108	-0.05987647
59	0xbcbb9dac	-0.022902332
60	0xbc690ac3	-0.014223757
61	0xbd735c19	-0.059414003
62	0x3c51e146	0.012810057
63	0xbddd7455	-0.10813204
64	0xbceb1f77	-0.028701527
65	0x3d38ff1d	0.04516517
66	0xbbd2881a	-0.006424916
67	0xbbab1546	-0.005221042
68	0xbcc5cbc2	-0.02414501
69	0xbc38ce07	-0.0112795895
70	0x3d25b683	0.04045726
71	0xbdb59767	-0.08866768
72	0x3d0c88f7	0.034310307
73	0x3d3b55e7	0.04573622
74	0xbd19905e	-0.037491195
75	0xbce8e231	-0.028428169
76	0xbd12d8ef	-0.035851415
77	0xbd4815fa	-0.048849083
78	0x3bd4a504	0.006489398
79	0xbd819a8f	-0.06328308
80	0xbd4291f4	-0.047502473
81	0xbd7c7168	-0.06163159
82	0xbcbbb26a	-0.022912223
83	0x3ddf17dd	0.108932234
84	0xbdbf907e	-0.093537316
85	0xbd8a129d	-0.067418315
86	0x3cb398fb	0.021923533
87	0xbd792950	-0.060830414
88	0xbd08e231	-0.033418838
89	0x3bc78366	0.006088662
90	0xbd3bc54a	-0.045842446
91	0x3d1f0835	0.038826186
92	0xbcdf6dbf	-0.02727401
93	0xbd48bfa0	-0.049010873
94	0xbd0e7bfc	-0.03478621
95	0xbcc52396	-0.02406482
96	0xbd141ae9	-0.036158476
97	0xbd2f714a	-0.04283265
98	0x3cd20c7f	0.025640724
99	0xbdeae89f	-0.1147015
100	0xbde439dd	-0.11143849
101	0xbd28a6ea	-0.041174807
102	0xbd223315	-0.039599497
103	0xbd2ac375	-0.04169031
104	0x3c3d8d80	0.011569381
105	0x3d489b0c	0.04897599
106	0xbdcec82e	-0.10096775
107	0x3d22e58a	0.039769687
108	0xbcf4edf3	-0.02989862
109	0x3d2fd01a	0.04292307
110	0xbc116afe	-0.008875607
111	0x3d011f45	0.03152396
112	0x3d586904	0.052834526
113	0x3c687d63	0.014190051
114	0x3cc4806f	0.023987023
115	0x3c751852	0.014959412
116	0xbc15f9d6	-0.009153804
117	0x3cd5dccf	0.026106266
118	0x3d52d4bb	0.051472407
119	0xbc1df549	-0.009641

classifier.2.weight f4 [84, 120]
0	0xbd9851dd	-0.07437489
1	0xbd98dc56	-0.07463901
2	0x3d941c59	0.072319694
3	0x3da88ef2	0.0823039
4	0xbdb0cdf8	-0.086330354
5	0x3cf166f5	0.029468039
6	0x3c9b90bb	0.018989911
7	0xbd8c7f02	-0.06860162
8	0xbe178ea4	-0.14800507
9	0x3ca1447d	0.019685978
10	0xbd9a19c6	-0.07524447
11	0xbc5494bf	-0.012974917
12	0x3d1530cd	0.036423493
13	0xbd42c34d	-0.047549535
14	0xbd912e44	-0.070889026
15	0xbd7cb973	-0.061700296
16	0x3e17d170	0.14825988
17	0x3b8960e1	0.004192457
18	0x3d6da00c	0.05801396
19	0xbc7487e1	-0.014924974
20	0xbd742a69	-0.059610758
21	0xbde1cd58	-0.11025494
22	0xbc1345cc	-0.008988809
23	0x3c626b26	0.0138194915
24	0xbdc734f0	-0.09726894
25	0xbe13d7cd	-0.1443779
26	0x3d470d51	0.048596684
27	0x3d80c4b9	0.06287522
28	0x3d9d0600	0.0766716
29	0xbdd09139	-0.10183949
30	0x3d142ec9	0.03617743
31	0x3c8a1af5	0.016858557
32	0xbd2d8517	-0.042363252
33	0x3c37d979	0.011221283
34	0xbd24b68b	-0.04021315
35	0x3d4a0a80	0.04932642
36	0x3db12404	0.086494476
37	0x3dd711c6	0.10501437
38	0x3d18d13c	0.037308916
39	0xbd95cb60	-0.07314181
40	0x3bf82b67	0.0075735333
41	0xbb21084a	-0.002457159
42	0xbd935e54	-0.07195726
43	0x3ce90f35	0.028449634
44	0xbcc33310	-0.02382806
45	0x3d855137	0.06509631
46	0x3d05aa72	0.032633252
47	0x3d82bf76	0.063841745
48	0x3e4b1c39	0.19834985
49	0xbdb4971e	-0.08817886
50	0x3d7e93d2	0.06215269
51	0xbc593bc3	-0.013258877
52	0xbc531e00	-0.0128855705
53	0x3d8fe8b5	0.07026807
54	0x3d9fafda	0.07797213
55	0xbd2c3c44	-0.04204966
56	0x3d87b446	0.06626181
57	0xbe108c92	-0.14116123
58	0x3d338f5e	0.043837897
59	0xbd2bc195	-0.04193266
60	0xbdebdd6a	-0.11516841
61	0xbd4f8377	-0.050662484
62	0xbb91cdaa	-0.004449566
63	0xbd5f196c	-0.054467604
64	0x3dfb0bb4	0.122580916
65	0xbd97011b	-0.07373258
66	0x3d53715d	0.051621784
67	0x3db10bdb	0.086448394
68	0x3c9528ca	0.018207926
69	0xbd524707	-0.05133727
70	0xbda5eaab	-0.081014
71	0x3d2e8793	0.042609762
72	0xbdb3f181	-0.087862976
73	0xbd66c406	-0.056339286
74	0x3aa55930	0.0012615081
75	0x3c1b11d6	0.009464702
76	0x3da3a293	0.07989993
77	0x3ddec624	0.10877636
78	0x3cb0000d	0.0214844
79	0x3deb0b6d	0.11476789
80	0x3e2c8ce3	0.16850619
81	0x3c616357	0.013756595
82	0x3d7035a2	0.0586449
83	0x3dafd0f7	0.08584779
84	0x3c6ef577	0.014584891
85	0x3dc57312	0.096410885
86	0x3dc3dc4a	0.09563501
87	0x3d099f95	0.033599455
88	0x3c4a6e5d	0.012355414
89	0xbd900bcf	-0.07033502
90	0xbd14994a	-0.036279
91	0x3d471602	0.048604973
92	0xbce632f8	-0.028100476
93	0xbccad00f	-0.024757413
94	0xbd81986a	-0.06327899
95	0xbdb057e2	-0.08610512
96	0x3c3b069e	0.011415152
97	0xbdab136f	-0.08353316
98	0x3d11b20e	0.035570197
99	0xbc802d0f	-0.015646486
100	0xbb8b7062	-0.0042553404
101	0xbca3b3d4	-0.01998321
102	0xbdacda08	-0.08440024
103	0xbbb31b74	-0.005465919
104	0xbcd4abeb	-0.025960883
105	0x3c7f338d	0.0155762555
106	0x3e2c0f8a	0.16802803
107	0x3baed279	0.005335149
108	0xbda41326	-0.08011465
109	0x3d43c354	0.0477937
110	0xbdaeb9a3	-0.08531501
111	0xbd784085	-0.060608406
112	0x3e280d8a	0.16411415
113	0xbe176350	-0.14783978
114	0xbcfef50b	-0.031122705
115	0x3ccb7f0e	0.024840858
116	0xbda9c41d	-0.08289359
117	0x3db5c396	0.08875196
118	0x3af2bde0	0.0018519722
119	0xbd08f296	-0.033434473
120	0xbda5ae61	-0.08089901
121	0xbe209342	-0.15681174
122	0xbd667ce3	-0.056271445
123	0x3dcbf9b1	0.09959734
124	0x3cab14bb	0.020883908
125	0xbdc6d98b	-0.09709462
126	0xbc72db6d	-0.014822823
127	0x3d5137a2	0.051078446
128	0x3dd2f591	0.10300744
129	0x3bc569c1	0.0060245697
130	0x3b079250	0.0020686574
131	0x3d0a079e	0.03369867
132	0x3d867f56	0.06567256
133	0xbcecb952	-0.028896961
134	0xbd87bad7	-0.06627434
135	0x3da0b20e	0.07846461
136	0x3d8f4c33	0.06996956
137	0xbd4d640c	-0.05014424
138	0xbbf2298c	-0.0073902067
139	0xbdd167fa	-0.1022491
140	0xbe2a35ac	-0.16622037
141	0xbde8f96e	-0.113757
142	0xbd623135	-0.05522271
143	0x3d8661da	0.065616325
144	0xbd1da443	-0.03848673
145	0xbd5673af	-0.05235642
146	0x3d090017	0.03344735
147	0xbe2e4707	-0.17019282
148	0x3d73c334	0.059512332
149	0x3d7d8f4b	0.061904233
150	0xbd9583d2	-0.07300533
151	0xbd128ebf	-0.035780665
152	0x3d26fb9a	0.04076729
153	0x3d818519	0.063242145
154	0x3e3e585d	0.18588395
155	0xbd44ba99	-0.048029516
156	0xbe15df9b	-0.1463608
157	0x3d61fd24	0.055173054
158	0x3ca012be	0.019540187
159	0xbd73c27f	-0.059511658
160	0x3d5b4c6e	0.053539686
161	0xbdb78dba	-0.08962579
162	0xbc71605f	-0.014732449
163	0xbcb4d03f	-0.022071956
164	0xbc837c1f	-0.016050396
165	0x3da0bc59	0.078484245
166	0x3c1c158f	0.009526624
167	0x3ccad592	0.024760041
168	0xbd21be35	-0.039488036
169	0x3e14babd	0.1452436
170	0x3d3cfb13	0.04613788
171	0xbcf31d57	-0.029677076
172	0xbe17c297	-0.14820324
173	0xbbb4cf08	-0.005517844
174	0xbd0aff60	-0.03393495
175	0xbdd711c2	-0.10501434
176	0xbcdf0ae8	-0.02722688
177	0x3d933fc7	0.07189899
178	0xbda6b5c1	-0.081401356
179	0xbde0e519	-0.10981197
180	0xbd95dd23	-0.07317569
181	0x3bd2d906	0.0064345626
182	0x3d3624e5	0.04446878
183	0x3d6c79ec	0.05773346
184	0x3e0f179f	0.13973854
185	0x3db2550a	0.08707626
186	0xbdc7386d	-0.09727559
187	0x3e0f596c	0.13998955
188	0xbd999140	-0.07498407
189	0x3db656fe	0.08903311
190	0xbcf98b2d	-0.030461872
191	0x3d5cb1bf	0.05388045
192	0x3d824306	0.0636044
193	0xbdadc8c5	-0.084855594
194	0xbcc3831a	-0.023866225
195	0x3e0d435b	0.13795225
196	0x3d4b7436	0.049671374
197	0x3d90a380	0.07062435
198	0x3d08ab33	0.033366393
199	0x3d9d92cb	0.07694014
200	0xbdf28b48	-0.11842972
201	0x3c93c8a2	0.018040005
202	0x3e9a5787	0.30144903
203	0x3e02b096	0.12762675
204	0xbd182069	-0.037140284
205	0x3c91f716	0.017818015
206	0x3d0cef37	0.03440782
207	0x3d786799	0.060645673
208	0xbd13dd39	-0.036099646
209	0xbd521722	-0.051291592
210	0x3cf7aa38	0.030232534
211	0xbbbabda8	-0.0056988783
212	0xbb1fcf5a	-0.0024385066
213	0xbcde93bc	-0.027170055
214	0xbda2559d	-0.07926486
215	0xbdc43d81	-0.095820434
216	0xbd2efb45	-0.042720098
217	0x3db1de19	0.0868494
218	0xbd85ca78	-0.065327585
219	0xbd817c2b	-0.06322511
220	0x3ce1affc	0.027549736
221	0x3b80d2e5	0.0039313906
222	0xbd38f4de	-0.0451554
223	0xbcc84944	-0.024448998
224	0xbd965db6	-0.07342093
225	0x3de69109	0.11258132
226	0x3dd0dcb9	0.101983495
227	0xbd657349	-0.056018148
228	0x3d9c7e11	0.07641233
229	0xbd37963a	-0.044821
230	0x3cf6f063	0.030143922
231	0x3de78beb	0.11305984
232	0x3e33dd0c	0.17564791
233	0x3cfd6846	0.03093351
234	0xbb9f929f	-0.0048697735
235	0x3c7e0126	0.0155032035
236	0x3db14d7b	0.08657356
237	0xbd0a1aef	-0.033717092
238	0xbd18e1b8	-0.037324637
239	0xbd939eb9	-0.07208008
240	0x3da92187	0.08258348
241	0x3db79e2e	0.08965717
242	0x3d869510	0.065714
243	0xbd52511e	-0.05134689
244	0x3dbbb93d	0.09166191
245	0xbdc36c06	-0.09542088
246	0xbd862168	-0.065493405
247	0xbdebae20	-0.11507821
248	0xbd3d201a	-0.046173193
249	0xbb823128	-0.003973145
250	0xbcb928f1	-0.02260253
251	0x3deff34c	0.11716327
252	0xbdf03123	-0.11728122
253	0xbc94da3d	-0.01817047
254	0xbd8bc5b7	-0.068248205
255	0xbd5017b7	-0.050803866

classifier.2.bias f4 [84]
0	0x3d09b102	0.033616073
1	0x3e0196e4	0.12655216
2	0x3d9460f6	0.07245056
3	0x3cfcc7f3	0.030857062
4	0x3d05f62a	0.032705463
5	0x3cffa184	0.031204946
6	0x3da94a58	0.08266133
7	0xbd98eb74	-0.07466784
8	0xbd2aa157	-0.041657772
9	0x3c1df775	0.009641518
10	0x3dd29290	0.10281861
11	0xbd92e59b	-0.071727
12	0x3d0855d1	0.033284966
13	0x3d4aea32	0.049539752
14	0xbdc3212f	-0.09527814
15	0x3e3f4c7d	0.18681522
16	0x3c027d56	0.007964453
17	0x3cbe4137	0.023224456
18	0x3db550b7	0.08853286
19	0x3e38e445	0.18055828
20	0x3e1d01f4	0.15332776
21	0x3df3810f	0.1188985
22	0x3d5ef398	0.054431528
23	0x3cb37ec1	0.021911027
24	0x3e21695f	0.15762852
25	0x3d9fdf47	0.07806259
26	0xbc8fa86a	-0.01753636
27	0xbce01988	-0.027355924
28	0x3e20a97d	0.15689655
29	0x3df7e44e	0.121040925
30	0x3ca19979	0.019726502
31	0xbe0953d3	-0.13410883
32	0xbd763129	-0.060105477
33	0x3ccc5348	0.024942055
34	0x3e128499	0.14308394
35	0x3d1094ad	0.03529804
36	0x3e1a4ccf	0.15068363
37	0x3d8a20da	0.06744547
38	0x3db6a12e	0.08917461
39	0x3db1f807	0.086898856
40	0xbcb07507	-0.021540178
41	0xbda26da8	-0.079310715
42	0x3d869582	0.06571485
43	0xbd4bf519	-0.04979429
44	0xbcd2327a	-0.025658835
45	0xba31736f	-0.0006769215
46	0x3deadfcb	0.11468466
47	0x3c02bb43	0.007979217
48	0x3da45858	0.08024663
49	0x3d55947f	0.05214357
50	0xbc746f1e	-0.0149190705
51	0x3dc259cd	0.094897844
52	0xbc1a6713	-0.009423989
53	0x3d3cdcc9	0.046108995
54	0xbc68fb23	-0.014220032
55	0xba812fd1	-0.0009856169
56	0x3e1684f6	0.14699158
57	0x3d4399a3	0.04775394
58	0x3d444704	0.04791929
59	0xbd0144a6	-0.03155961
60	0x3cba9909	0.022778051
61	0x3d8fc1a5	0.07019357
62	0xbd52dd37	-0.0514805
63	0x3bdcb742	0.006735713
64	0x3a273352	0.0006378192
65	0xbcc98909	-0.024601476
66	0xbc91f79f	-0.01781827
67	0x3dbdca4c	0.09267101
68	0x3d568ab3	0.052378368
69	0xbd2270b1	-0.039658252
70	0x3c990181	0.018677475
71	0x3ded949c	0.116006106
72	0x3d1767c6	0.0369642
73	0xbc756ef7	-0.014980069
74	0x3e062d5f	0.13103245
75	0xbcdb0cad	-0.026739443
76	0x3dc9e799	0.09858627
77	0x3d8b8368	0.06812173
78	0x3e158f9c	0.14605564
79	0x3dd50cb0	0.104028106
80	0x3e2ea180	0.17053795
81	0x3bb0c1bb	0.005394188
82	0x3d55b642	0.052175768
83	0xbdbd126b	-0.092320286

classifier.4.weight f4 [10, 84]
0	0x3eb4ba1e	0.35298246
1	0x3c98d563	0.018656438
2	0x3e28db29	0.16489853
3	0xbe4bf398	-0.19917142
4	0xbd060ed2	-0.032728978
5	0x3cb1919e	0.021675881
6	0x3cbb25d0	0.022845179
7	0x3e57b864	0.21066433
8	0xbbb55686	-0.005533996
9	0x3d11fcda	0.03564153
10	0x3dfe90f8	0.12429994
11	0xbdf93d82	-0.12169935
12	0xbc82e1ba	-0.015976775
13	0xbd740e49	-0.059583936
14	0x3d434251	0.047670666
15	0xbe738ae2	-0.23783448
16	0xbda5cfc8	-0.08096272
17	0x3c602d02	0.013682606
18	0x3e87d53d	0.26529875
19	0xbd3bd82c	-0.045860454
20	0x3ed3aff1	0.4134517
21	0xbd837d40	-0.06420374
22	0x3e0b5455	0.13606389
23	0xbce830e5	-0.028343627
24	0xbdaa0cd3	-0.08303227
25	0xbe1cd7df	-0.15316723
26	0xbe32f2f8	-0.17475498
27	0xbe00e9e8	-0.12589228
28	0xbdb8a5cb	-0.090159975
29	0x3e04b270	0.12958694
30	0xbe032186	-0.12805757
31	0x3e171e86	0.14757738
32	0xbd301af0	-0.04299444
33	0xbcfcc891	-0.030857356
34	0x3ec951b9	0.39320162
35	0xbd80b380	-0.06284237
36	0x3e43ea10	0.19132257
37	0xbce9ed1a	-0.028555442
38	0x3f1cf3e4	0.6130965
39	0x3ed10d6d	0.40830556
40	0x3e7daf21	0.24773838
41	0x3e2b899f	0.16751717
42	0x3e831b51	0.25606778
43	0xbd8688b8	-0.06569046
44	0x3ea6a50c	0.32547796
45	0xbe69ed0c	-0.22844332
46	0xbd8bb7ba	-0.068221524
47	0xbd71a462	-0.05899466
48	0x3a7756fc	0.0009435264
49	0x3eb44e5c	0.35216033
50	0x3ee20d0e	0.44150585
51	0x3e873c37	0.26413128
52	0x3c5a4844	0.0133228935
53	0xbe15ae14	-0.14617187
54	0xbe195689	-0.14974417
55	0xbd82e3ea	-0.063911274
56	0x3e8116b2	0.25212628
57	0x3d18a125	0.037263054
58	0x3e988bd0	0.29794168
59	0x3dd50523	0.104013704
60	0x3cade6f4	0.021228291
61	0xbe5488d0	-0.20755315
62	0xbdfe355f	-0.124125235
63	0x3e52b4d4	0.20576793
64	0xbc97c904	-0.018528469
65	0x3daf5a0f	0.08562099
66	0xbe05aa8d	-0.13053341
67	0xbe2d8cd8	-0.16948259
68	0x3df53a31	0.1197399
69	0x3e8b17df	0.2716665
70	0x3cddd2e8	0.027078107
71	0x3ed0a86f	0.40753505
72	0x3e040186	0.12891206
73	0x3e6fe521	0.2342725
74	0x3e081f8a	0.13293281
75	0x3b3c2d67	0.0028713585
76	0x3ef944a9	0.48685196
77	0xbe35cd6c	-0.17754143
78	0x3e2c0582	0.16798976
79	0xbc506de9	-0.012721517
80	0xbe83c6a6	-0.25737494
81	0x3e8f068c	0.27934682
82	0x3e70c130	0.23511195
83	0x3dde9d66	0.10869865
84	0xbe361b9c	-0.1778397
85	0x3d909dc8	0.070613444
86	0xbb389ac7	-0.0028168426
87	0x3e96cc80	0.29452896
88	0xbe2a8985	-0.16654022
89	0x3d0af729	0.033927117
90	0xbe0c442c	-0.1369788
91	0x3e67139d	0.22566076
92	0xbe029942	-0.12753776
93	0xbd3f29ac	-0.0466706
94	0x3c910a41	0.017705085
95	0x3e49810e	0.19678137
96	0x3ec081fd	0.37599173
97	0xbd4956d6	-0.04915508
98	0x3e931e6b	0.28734145
99	0xbe2b8e04	-0.16753393
100	0xbdbe136b	-0.092810474
101	0x3dcaf1ea	0.09909423
102	0xbd9053f7	-0.07047265
103	0x3e3c36c7	0.18380271
104	0xbe6aa7c2	-0.22915557
105	0x3d798bfc	0.060924515
106	0x3e93afac	0.28844965
107	0xbe205961	-0.15659095
108	0xbc8b05cf	-0.016970543
109	0xbe3b1782	-0.18270686
110	0xbde99554	-0.11405435
111	0x3d6f7851	0.058464352
112	0x3e8d2603	0.27568063
113	0x3eb8e1fd	0.36109915
114	0xbdede427	-0.11615782
115	0x3e5474df	0.20747708
116	0x3c1802bb	0.009277995
117	0xbd67812b	-0.05651967
118	0xbe03f9e5	-0.12888296
119	0xbdb16ce5	-0.08663348
120	0xbe62500a	-0.22100845
121	0x3ead3194	0.33826888
122	0x3d15638e	0.036471896
123	0x3e9e7603	0.3094941
124	0x3e0f755c	0.14009613
125	0xbd2ec583	-0.04266883
126	0x3ed433ed	0.41445866
127	0xbd8e4167	-0.06946068
128	0x3c2261ac	0.009910982
129	0x3ce9e6f5	0.028552512
130	0xbdc62aa3	-0.09676101
131	0xbe8113e8	-0.252105
132	0x3edc95e5	0.4308311
133	0xbe7c5fa3	-0.24645858
134	0xbbab5180	-0.0052282214
135	0x3d6d6315	0.05795582
136	0x3d8c2791	0.06843484
137	0x3e085440	0.13313389
138	0x3e4a536f	0.1975839
139	0x3e063346	0.13105497
140	0xbd2a22a4	-0.041536942
141	0xbdf1b1b4	-0.11801472
142	0xbdffd1db	-0.12491199
143	0x3db45dab	0.08806928
144	0x3e04eb97	0.12980495
145	0xbe2369c5	-0.15958317
146	0x3e4e4817	0.20144688
147	0xbe285811	-0.16439845
148	0xbda0bcf8	-0.07848543
149	0xbdc82cf3	-0.097741984
150	0x3e8ccfd6	0.27502316
151	0xbd2bc91e	-0.041939847
152	0xbe441800	-0.1914978
153	0xbdb936ab	-0.0904363
154	0x3e549172	0.20758608
155	0x3da5a4be	0.08088063
156	0xbe487cc7	-0.19578849
157	0x3d2450d9	0.040116165
158	0x3e44ec27	0.1923071
159	0x3eb388f5	0.35065427
160	0x3d8dfac6	0.06932597
161	0xbd46012b	-0.048340958
162	0xbdc447d1	-0.095840104
163	0xbe0be644	-0.13662058
164	0xbe374eec	-0.179012
165	0x3e9b48b3	0.30328903
166	0xbe3c9b91	-0.18418719
167	0x3f152c15	0.5827039
168	0x3ef6019a	0.48048097
169	0x3e263378	0.16230571
170	0xbe19ac70	-0.15007186
171	0x3ea267b2	0.31719738
172	0x3d67d59a	0.05660019
173	0x3d9af6b0	0.07566583
174	0x3d719812	0.058982916
175	0x3e36c303	0.17847829
176	0xbd0034f8	-0.031300515
177	0xbd92c7a0	-0.07166982
178	0x3d1fa702	0.03897763
179	0xbcc183ad	-0.023622358
180	0xbcba552e	-0.022745695
181	0xbda6f4f8	-0.08152193
182	0x3e872ce4	0.26401436
183	0x3e479339	0.19489755
184	0xbe870fcb	-0.26379237
185	0xbd8b81ee	-0.068118915
186	0x3ee3b2f6	0.44472474
187	0x3eadf20d	0.33973733
188	0x3efbe5ba	0.49198705
189	0xbdff9e9d	-0.12481425
190	0x3daa3ba3	0.08312156
191	0xbd78b18b	-0.060716193
192	0x3e015189	0.1262876
193	0xbe30ab41	-0.17252828
194	0x3ee7aa90	0.45247316
195	0xbdda2cb2	-0.10653056
196	0x3c58d673	0.013234722
197	0xbd656014	-0.05599983
198	0xbdd9d406	-0.106361434
199	0xbbe8b804	-0.0071020145
200	0xbdb4131c	-0.08792707
201	0x3e8b6861	0.27228072
202	0x3da774d5	0.08176581
203	0x3e497b13	0.19675855
204	0xbed1fe3c	-0.41014278
205	0x39916637	0.0002773271
206	0xbe9d9a71	-0.30781892
207	0x3e880711	0.2656789
208	0xbe01d377	-0.12678324
209	0x3e22dcdc	0.15904564
210	0xbc8cfff1	-0.017211886
211	0x3b094165	0.002094352
212	0xbdf60bce	-0.1201397
213	0xbde7f9f7	-0.11326974
214	0xbdb2cf08	-0.08730894
215	0x3eb00333	0.3437744
216	0xbe6a2b0a	-0.2286798
217	0x3ee8ce3a	0.45469838
218	0xbe45a1d0	-0.19300008
219	0x3ee5400e	0.44775432
220	0xbd07f432	-0.033191867
221	0xbe860356	-0.2617442
222	0x3e991c1b	0.29904255
223	0x3e617d67	0.22020493
224	0x3eabf377	0.33584186
225	0xbe875e43	-0.26439103
226	0x3e157601	0.14595796
227	0x3c22bf46	0.009933298
228	0x3e2c36e0	0.16817808
229	0xbd8d4a25	-0.068989076
230	0x3d981a81	0.0742693
231	0x3e6a7782	0.22897151
232	0x3d33deaf	0.04391354
233	0x3e657728	0.22408736
234	0x3da1f05e	0.079071745
235	0x3ccf460b	0.025301954
236	0x3ce810ad	0.028328264
237	0x3e64275f	0.22280644
238	0x3d64cfee	0.05586236
239	0x3efdd65a	0.495776
240	0x3ddfc90a	0.10927017
241	0xbdcc078d	-0.09962378
242	0xbe76cc9d	-0.24101491
243	0x3dae8abf	0.085225575
244	0x3ed86653	0.42265567
245	0xbdffab8d	-0.124838926
246	0xbe356f73	-0.17718296
247	0x3d05aa99	0.032633398
248	0xbe2224de	-0.15834376
249	0x3ece0ed0	0.40245676
250	0x3eaac482	0.3335305
251	0xbda3ddc4	-0.08001283
252	0x3da55c42	0.080742374
253	0xbe06868b	-0.13137262
254	0xbe529411	-0.20564295
255	0x3e2ff789	0.17184271

classifier.4.bias f4 [10]
0	0x3d0799b6	0.033105575
1	0xbd51d5d7	-0.051229324
2	0x3db1f44c	0.08689174
3	0x3e4dd577	0.20100962
4	0xbc1fbd7d	-0.009749767
5	0x3e0f6283	0.14002423
6	0x3e65cba9	0.22440971
7	0xbe00d2b6	-0.1258038
8	0x3e807c04	0.25094616
9	0x3dcb38d2	0.09922947
