experiments/LeNet/FashionMNIST/experiment-3/last-epoch.pt (torch, 184811 bytes, 10 tensors)

conv1.weight f4 [6, 1, 5, 5]
0.07815186 0.16936123 -0.035822917 -0.17187098 -0.16476882 -0.18780972 0.04066084 0.15290734
0.0068704146 0.18015838 -0.17864595 -0.09125228 0.051230524 0.05752458 -0.092490144 -0.02502348
0.08476965 -0.035325184 -0.15429085 -0.082654834 -0.0074064448 -0.1082647 0.09654724 0.06328835
-0.090048335 0.003050131 -0.5770836 -0.58690864 -0.4675265 -0.33218315 -0.101725854 0.004287965
-0.26699755 0.1476785 -0.046714287 0.33892947 0.13318673 0.2639442 0.19166185 0.07838593
0.36885577 0.16167863 0.2931137 0.06689895 0.3927348 -0.09198608 0.19140147 -0.13064721
0.06675429 0.26066345 -0.67487836 -0.7846017 -0.78270984 -0.45594138 -0.2646651 -0.22388473
-0.30464253 -0.049109686 -0.24120986 -0.38167506 0.03944267 -0.0130887935 0.11045795 0.03175646
0.10819899 -0.058281966 0.32401955 0.5084479 0.52703065 0.3361363 0.0060542645 0.39896336
0.40444317 0.45528394 0.45412648 -0.45984513 0.4945619 1.0989702 1.191288 0.2851366
-0.42258704 0.33989576 0.7205091 0.49552274 -0.1898691 -0.4261557 0.221545 0.11287571
-0.15112874 -0.3928754 -0.06950891 0.5895321 0.5462012 0.38138166 -0.17567417 -0.28324953
0.55158633 0.5487823 0.75495213 0.3876244 -0.35468698 -1.289926 0.5799905 0.94914895
0.25956687 -0.5595849 -1.3405448 0.6056996 0.84971035 0.2920835 -0.36562043 -1.3325851
0.372541 1.0131178 0.21910276 0.0474846 -1.4034497 0.25025165 0.8454006 0.15611614
-0.17591216 -1.2276065 0.21239968 0.8429864 0.30425367 -0.27789947 0.039190065 -0.18924329
-0.220672 -0.056553215 -0.16101596 -0.07052251 -0.24807383 -0.24861056 -0.30653998 0.16985972
-0.16008095 0.037211765 -0.3173065 -0.35838765 -0.026274035 0.115971535 0.13985686 0.043222677
-0.19773744 0.22551563 0.00011034932 0.040600874 -0.037647862 -0.025970237
00000000: 150e a03d 086d 2d3e 0dbb 12bd f2fe 2fbe
00000010: 28b9 28be 3151 40be fb8b 263d be93 1c3e
00000020: 3721 e13b 707b 383e f7ee 36be 7ae2 babd
00000030: 19d7 513d e59e 6b3d 796b bdbd 0bfe ccbc
00000040: b69b ad3d 24b1 10bd 6cfe 1dbe f046 a9bd
00000050: c3b1 f2bb e2b9 ddbd 8fba c53d 539d 813d
00000060: 436b b8bd b5e4 473b c0bb 13bf a53f 16bf
00000070: a25f efbe e913 aabe a555 d0bd 0f82 8c3b
00000080: e7b3 88be 0839 173e 7b57 3fbd 2a88 ad3e
00000090: 1a62 083e b223 873e 0143 443e cd88 a03d
000000a0: aada bc3e 158f 253e 0013 963e 5102 893d
000000b0: 8914 c93e 3363 bcbd bffe 433e 62c8 05be
000000c0: 79b6 883d ae75 853e d4c4 2cbf a8db 48bf
000000d0: ac5f 48bf 2671 e9be 2f82 87be 0a42 65be
000000e0: 1bfa 9bbe 3d27 49bd b8ff 76be ea6a c3be
000000f0: a38e 213d 6172 56bc c737 e23d 1013 023d
00000100: 6f97 dd3d 12b9 6ebd e4e5 a53e a429 023f
00000110: 7beb 063f 0f1a ac3e da62 c63b ed44 cc3e
00000120: 2d13 cf3e fa1a e93e 4483 e83e d270 ebbe
00000130: 3837 fd3e 0eab 8c3f 207c 983f 6dfd 913e
00000140: 545d d8be d106 ae3e 4973 383f 28b5 fd3e
00000150: 0c6d 42be 1431 dabe b1dc 623e 612b e73d
00000160: 7ec1 1abe f726 c9be b05a 8ebd 93eb 163f
00000170: d8d3 0b3f 7544 c33e eee3 33be 1506 91be
00000180: c334 0d3f ff7c 0c3f 8b44 413f b576 c63e
00000190: 8899 b5be 4c1c a5bf 427a 143f 6dfb 723f
000001a0: f3e5 843e f540 0fbf f996 abbf 210f 1b3f
000001b0: 9e86 593f f88b 953e 9a32 bbbe 2692 aabf
000001c0: b2bd be3e d8ad 813f 795c 603e 367f 423d
000001d0: 3da4 b3bf fc20 803e 2c6c 583f e9dc 1f3e
000001e0: 5122 34be 3622 9dbf 4d7f 593e f5cd 573f
000001f0: 23c7 9b3e d748 8ebe c385 203d fec8 41be
00000200: d7f7 61be 58a4 67bd 5ee1 24be 1b6e 90bd
00000210: 1107 7ebe c493 7ebe cff2 9cbe b5ef 2d3e
00000220: 43ec 23be 5d6b 183d ff75 a2be 967e b7be
00000230: a53c d7bc 7c82 ed3d a336 0f3e 430a 313d
00000240: af7b 4abe 92ed 663e 576b e738 1a4d 263d
00000250: a534 1abd 89bf d4bc

conv1.bias f4 [6]
-0.16881733 -0.09100236 1.1982088 0.0080222385 0.11512658 0.42176142
00000000: 73de 2cbe 725f babd e85e 993f b56f 033c
00000010: 7cc7 eb3d 1df1 d73e

conv2.weight f4 [16, 6, 5, 5]
-0.046729088 0.051347956 -0.04674 0.036407396 -0.04176485 -0.077004164 -0.0615164 0.011700619
0.028853832 -0.06544722 -0.03923472 0.067937054 0.07482267 0.017024789 0.07563584 0.035620347
-0.033374324 0.05874586 0.009219496 -0.072187774 -0.04642883 0.05880154 -0.034644496 -0.04516074
-0.047222838 -0.24915434 -0.18104362 -0.11087856 0.16773766 0.07817809 0.032703698 0.087597616
-0.050369155 0.06422374 0.07134844 -0.014161327 -0.021256313 -0.15607382 -0.0076483055 0.0688289
0.041391656 -0.01720098 -0.079067454 0.07504376 -0.0042935396 0.026420053 0.012361179 0.13118926
-0.059489656 -0.05799718 0.06738203 -0.34724796 -0.26276797 -0.0032547489 0.23051482 0.08125585
0.056150764 0.08748216 -0.029813254 0.072183356 0.13564657 -0.094362795 -0.14081994 -0.13465703
0.13262762 0.054647017 0.018081848 0.07821341 0.17232132 0.20901972 -0.18157765 -0.115890935
-0.06874724 -0.047303613 -0.0701947 0.14553785 0.6545441 0.108972326 -1.0893916 -0.8029824
-0.22146189 -0.31376827 0.09374339 -0.43221357 -0.41219607 -0.010289648 0.014291122 0.30755198
-0.0435062 -0.11787621 0.08333353 0.08752901 0.34590983 0.29095334 0.532229 0.1920231
-0.10350994 -0.06606633 0.16465662 0.70580286 0.43173134 0.44079715 -0.05534883 -0.21706375
0.027064532 0.06575127 0.21697882 -0.057053134 -0.20605312 -0.13032888 -0.037853044 0.07109365
-0.16550325 -0.38435322 -0.144609 -0.10277283 0.051262554 -0.050225146 -0.30388448 -0.305923
0.05655228 -0.19060668 -0.22352819 -0.3062145 -0.2891158 -0.04054663 -0.019237045 -0.027530365
0.04847368 0.08222229 -0.047518108 -0.07837979 -0.05271168 0.041473195 0.07674418 -0.01887062
-0.15254948 -0.018818358 -0.06839128 -0.07614906 -0.09042358 -0.042946234 -0.10279259 -0.084991924
-0.11748862 0.056654513 0.0044857194 -0.05822547 -0.026907008 -0.14842637 0.032148845 0.061384875
0.06346878 -0.0063913893 0.06537359 -0.006767172 0.0795232 -0.032790698 -0.0025942302 0.06564675
0.019261543 0.037750166 -0.007918014 -0.024856012 0.023147902 -0.018989546 0.03863991 0.046938214
0.029250965 -0.023034582 -0.053415712 0.0027491099 0.041503396 -0.06947272 -0.077972054 -0.059921727
-0.065608606 -0.092934325 -0.036553517 -0.06015572 -0.067663394 -0.0040195514 -0.07934646 0.01962082
0.009121175 -0.050146654 -0.030726092 0.06999113 0.019624637 0.039437428 -0.064243555 0.0031063887
0.059767876 -0.01047688 0.027220313 0.07485446 -0.02677966 0.020024225 0.016735723 -0.020896379
0.08925117 0.1270298 0.068362065 0.06546345 -0.0007580924 0.12653212 0.17128594 0.078208975
0.115252554 0.0840284 -0.010691997 0.11382595 0.12472096 0.09368472 0.11399903 -0.020371804
-0.01816813 -0.034189686 0.08774961 0.18739806 0.10901052 0.15897869 0.13464265 -0.045858182
0.08788701 -0.17455265 -0.13615845 -0.20370324 -0.41015485 -0.12761939 -0.14157207 0.065501325
-0.1419426 -0.45185405 -0.4665084 0.12729363 0.1666837 -0.00612675 -0.3973272 -0.47595614
0.068818145 0.22878423 0.16876024 -0.27957338 -0.3504452 0.17938124 0.073128305 0.18721518
-0.2685027 -0.3518074 0.10949662 0.109979965 -0.11007105 -0.05189322 0.059780233 0.067247584
00000000: 0067 3fbd 3c52 523d 7172 3fbd ec1f 153d
00000010: 9f11 2bbd 5cb4 9dbd 9ff8 7bbd f4b3 3f3c
00000020: df5e ec3c 3109 86bd 96b4 20bd 9522 8b3d
00000030: a13c 993d 9277 8b3c f7e6 9a3d a4e6 113d
00000040: 84b3 08bd 809f 703d 5e0d 173c 2fd7 93bd
00000050: 282c 3ebd e2d9 703d 63e7 0dbd 78fa 38bd
00000060: bc6c 41bd 5122 7fbe 8063 39be 4c14 e3bd
00000070: 6cc3 2b3e d61b a03d 50f4 053d 6166 b33d
00000080: e34f 4ebd bc87 833d 221f 923d e904 68bc
00000090: b821 aebc d1d1 1fbe a39e fabb 2bf6 8c3d
000000a0: 4c8a 293d 12e9 8cbc 1eee a1bd 8bb0 993d
000000b0: d2b0 8cbb de6e d83c 8b86 4a3c 7a56 063e
000000c0: 6dab 73bd 738e 6dbd 97ff 893d 7cca b1be
000000d0: 8689 86be a04d 55bb 140c 6c3e 7869 a63d
000000e0: 58fe 653d d929 b33d ed3a f4bc ded4 933d
000000f0: efe6 0a3e 4841 c1bd 1a33 10be 88e3 09be
00000100: 89cf 073e 8dd5 5f3d 6220 943c 5a2e a03d
00000110: 0075 303e 4409 563e 7eef 39be 3a58 edbd
00000120: 5acb 8cbd 6fc1 41bd 3dc2 8fbd e007 153e
00000130: 3490 273f e22c df3d 2f71 8bbf 4190 4dbf
00000140: e8c6 62be 3ca6 a0be 89fc bf3d 194b ddbe
00000150: 5d0b d3be e995 28bc 4f25 6a3c 7477 9d3e
00000160: 8f33 32bd 1569 f1bd c5aa aa3d 6942 b33d
00000170: 181b b13e d6f7 943e 2940 083f b4a1 443e
00000180: 05fd d3bd c94d 87bd bf9b 283e 7faf 343f
00000190: e40b dd3e 2ab0 e13e 74b5 62bd f645 5ebe
000001a0: 70b6 dd3c 9aa8 863d b22f 5e3e 8cb0 69bd
000001b0: 97ff 52be ef74 05be cb0b 1bbd 8c99 913d
000001c0: af79 29be f2c9 c4be 6214 14be 907a d2bd
000001d0: aff8 513d e2b8 4dbd bf96 9bbe f1a1 9cbe
000001e0: 5da3 673d 662e 43be 93e4 64be 26c8 9cbe
000001f0: fc06 94be 3914 26bd 0297 9dbc 5c87 e1bc
00000200: 568c 463d 2964 a83d 59a2 42bd 9585 a0bd
00000210: 34e8 57bd ccdf 293d 0d2c 9d3d 8f96 9abc
00000220: ee35 1cbe f528 9abc ba10 8cbd 0af4 9bbd
00000230: ff2f b9bd 64e8 2fbd ec84 d2bd 3f10 aebd
00000240: e09d f0bd 900e 683d f1fc 923b d57d 6ebd
00000250: 166c dcbc 15fd 17be 82ae 033d b56e 7b3d
00000260: ebfb 813d dc6e d1bb 97e2 853d 27bf ddbb
00000270: 0fdd a23d 8a4f 06bd f603 2abb ce71 863d
00000280: 62ca 9d3c eb9f 1a3d 8fba 01bc d69e cbbc
00000290: aba0 bd3c f78f 9bbc e244 1e3d 4942 403d
000002a0: b89f ef3c 05b3 bcbc 6fca 5abd 692a 343b
000002b0: 77ff 293d b747 8ebd d0af 9fbd 7c70 75bd
000002c0: ce5d 86bd 5a54 bebd 24b9 15bd d865 76bd
000002d0: 1b93 8abd 71b6 83bb 6680 a2bd d8bb a03c
000002e0: fb70 153c 9466 4dbd 49b5 fbbc 8257 8f3d
000002f0: d9c3 a03c 2489 213d 2092 83bd 8e94 4b3b
00000300: 29cf 743d 38a7 2bbc 22fd de3c 4c4d 993d
00000310: 0461 dbbc d809 a43c 5b19 893c e22e abbc
00000320: 51c9 b63d 1a14 023e 6901 8c3d b411 863d
00000330: b8ba 46ba a391 013e 9565 2f3e 072c a03d
00000340: 8809 ec3d 1517 ac3d 7c2d 2fbc 941d e93d
00000350: b46d ff3d c6dd bf3d 5378 e93d c5e2 a6bc
00000360: 55d5 94bc 7c0a 0cbd 11b6 b33d 47e5 3f3e
00000370: e840 df3d 4fcb 223e c3df 093e cad5 3bbd
00000380: 1bfe b33d eebd 32be 1f6d 0bbe 9597 50be
00000390: d1ff d1be a8ae 02be 45f8 10be 8f25 863d
000003a0: 6759 11be 6a59 e7be 30da eebe 4359 023e
000003b0: 22af 2a3e e7c2 c8bb 796e cbbe 86b0 f3be
000003c0: 87f0 8c3d 6a46 6a3e 7ccf 2c3e 3e24 8fbe
000003d0: 8e6d b3be b7af 373e 4bc4 953d 56b5 3f3e
000003e0: 3079 89be 1920 b4be c43f e03d 2d3d e13d
000003f0: ee6c e1bd fc8d 54bd 1edc 743d 1ab9 893d

conv2.bias f4 [16]
-0.14373016 0.10731774 0.20916973 0.06869734 -0.06318987 0.15911676 0.30323222 0.2431536
0.07711646 0.24285991 0.21137707 0.13610764 0.003240684 0.25295818 0.18796167 0.09051547
00000000: 002e 13be 67c9 db3d 9730 563e 31b1 8c3d
00000010: b169 81bd 81ef 223e 4141 9b3e 42fd 783e
00000020: 3cef 9d3d 45b0 783e 3b73 583e cd5f 0b3e
00000030: a861 543b bc83 813e 0679 403e 2d60 b93d

fc1.weight f4 [120, 256]
0.14632024 -0.09601869 0.0067573753 0.06131665 0.015815819 0.016790802 0.01795719 -0.16079475
0.037343036 -0.030697959 -0.08919336 -0.07495329 0.09376408 0.13553086 0.07625828 0.07613357
0.04529458 0.039182857 -0.017882554 -0.100029334 0.076890275 0.007197591 -0.055946145 -0.13767269
0.10011994 0.026547115 -0.004663512 -0.08457459 0.011628755 -0.0048842463 -0.09327155 -0.0802484
-0.015084891 0.08568615 0.122965254 0.045206413 0.14802839 0.0048530186 0.057056453 -0.056252383
0.103163935 -0.1539934 -0.005742044 -0.154841 -0.09314326 0.10675135 0.025583055 0.124394685
0.19091478 0.18681616 -0.1919354 0.03795011 -0.019262102 0.045968294 0.05745545 0.1659225
-0.044621773 -0.02801459 -0.21552327 0.06896202 0.12087328 0.067151375 0.10116539 0.026383027
-0.0072574895 0.018264879 0.0633384 0.037777353 0.015275859 0.048164878 -0.07041783 0.030752238
0.01145803 -0.021188676 -0.035099085 -0.018105926 -0.024863409 0.0043856497 0.060383487 -0.0030954666
-0.03183207 0.06342299 0.06088794 -0.13611595 -0.027343208 -0.049458776 -0.041953232 -0.00975067
0.0036209244 -0.039808102 0.0037764516 -0.031100662 -0.07165085 0.02338336 -0.022027917 -0.097758904
-0.18283704 0.011572134 -0.10674298 -0.096102916 0.18687762 -0.080156066 -0.0030161347 -0.15054482
0.12853704 -0.054774363 -0.08456732 0.081148 -0.03425987 0.2154252 0.040320598 -0.058544233
0.058123033 -0.062603004 -0.09307964 0.0679186 -0.06226211 0.03185521 -0.11032084 -0.024072725
0.03171561 0.030466925 -0.054056164 0.12877339 -0.0028591217 0.16489333 0.10080415 -0.08198021
-0.097449034 -0.0022047989 -0.16367577 0.13237038 0.06666216 -0.08820399 0.010666433 -0.08817246
0.06662461 0.0387135 0.12581697 -0.08932573 -0.0904242 -0.02113403 0.078311644 -0.012242153
0.12736651 -0.01688938 0.0061650015 0.041516047 -0.07167586 0.0037109342 0.010889351 -0.07467249
-0.039843183 -0.030936448 -0.0013214275 -0.03321296 -0.106768966 0.1852462 0.07898339 -0.11361156
-0.017200164 -0.15869229 0.055096738 0.05208452 -0.20277889 0.00038311572 0.060228553 0.10710686
-0.12083894 -0.0027322024 0.020151233 -0.034160927 -0.015903872 0.009343252 -0.06625622 -0.014117647
-0.06313043 0.12860757 0.1466593 0.14129446 0.050081357 0.19820361 0.030490719 0.18094537
-0.07780249 -0.12717417 -0.0300777 -0.03173082 -0.15055303 -0.1662746 0.040255714 0.05424801
-0.07448872 -0.054661237 -0.08065382 -0.11489698 0.10037325 0.2565989 -0.08000105 0.08576263
-0.14350839 -0.009788453 0.123988375 0.020733189 -0.0014399686 0.17535505 -0.096961975 0.029374793
0.22514743 -0.035422027 0.066463456 -0.03595512 0.011806672 0.031704955 0.037935972 -0.03061423
-0.031328045 0.12842143 0.012666135 0.032378133 0.03706075 0.11516586 0.047051612 0.09583341
0.0048689446 -0.1258494 0.0097686825 -0.05695169 -0.33709255 -0.031882606 -0.014772833 -0.066728644
-0.275808 0.015440945 -0.06689651 0.0036250416 -0.065362394 0.033656877 -0.023345763 0.004602273
0.01959146 -0.010435682 -0.019507904 0.006569707 -0.03629025 0.02723696 0.05453311 0.03152849
-0.03281332 -0.050177373 0.04800262 -0.024804253 -0.03412156 0.060404394 -0.031047216 0.0064707296
00000000: f9d4 153e 72a5 c4bd f96c dd3b 2b27 7b3d
00000010: 2d90 813c dd8c 893c f51a 933c 61a7 24be
00000020: 03f5 183d 497a fbbc 02ab b6bd 1c81 99bd
00000030: 6207 c03d 9ac8 0a3e 4d2d 9c3d ebeb 9b3d
00000040: cf86 393d 347e 203d 6f7e 92bc 2edc ccbd
00000050: a678 9d3d c5d9 eb3b c927 65bd 12fa 0cbe
00000060: af0b cd3d 5679 d93c 60d0 98bb 7135 adbd
00000070: 8986 3e3c 070c a0bb 2805 bfbd 4659 a4bd
00000080: 9e26 77bc 387c af3d 35d5 fb3d 5c2a 393d
00000090: c194 173e 1206 9f3b 07b4 693d e668 66bd
000000a0: 9d47 d33d 72b0 1dbe c227 bcbb a48e 1ebe
000000b0: e5c1 bebd 74a0 da3d 8e93 d13c a4c2 fe3d
000000c0: 2a7f 433e bc4c 3f3e b78a 44be 9371 1b3d
000000d0: 8ecb 9dbc 4049 3c3d 6856 6b3d 96e7 293e
000000e0: 52c5 36bd da7e e5bc 22b2 5cbe f63b 8d3d
000000f0: 698c f73d a986 893d cd2f cf3d 3821 d83c
00000100: 3cd0 edbb 3aa0 953c 90b7 813d 6dbc 1a3d
00000110: 9947 7a3c 8948 453d 3937 90bd 1eec fb3c
00000120: 76ba 3b3c e093 adbc 0fc4 0fbd e152 94bc
00000130: 59ae cbbc 7fb5 8f3b ad54 773d 50dd 4abb
00000140: 5862 02bd eae3 813d a265 793d fb61 0bbe
00000150: ddfe dfbc 4995 4abd 27d7 2bbd 46c1 1fbc
00000160: 084d 6d3b d20d 23bd 587e 773b d1c6 febc
00000170: aebd 92bd 768e bf3c e473 b4bc d235 c8bd
00000180: a239 3bbe 0c99 3d3c 109c dabd 9bd1 c4bd
00000190: d95c 3f3e dd28 a4bd 58aa 45bb 6c28 1abe
000001a0: 379f 033e 155b 60bd a231 adbd ec30 a63d
000001b0: 1454 0cbd 6c98 5c3e 3627 253d 14cc 6fbd
000001c0: 6b12 6e3d 0136 80bd 8aa0 bebd e818 8b3d
000001d0: 8e06 7fbd 9c7a 023d e4ef e1bd 2a34 c5bc
000001e0: 3ae8 013d c695 f93c ff69 5dbd 2cdd 033e
000001f0: 1a60 3bbb ccd9 283e 6872 ce3d 3ee5 a7bd
00000200: 5c93 c7bd 637e 10bb 9f9a 27be 1a8c 073e
00000210: 2c86 883d 4ba4 b4bd 43c2 2e3c c393 b4bd
00000220: 7c72 883d 0c92 1e3d 2ad6 003e 69f0 b6bd
00000230: 5330 b9bd 4621 adbc db61 a03d 5093 48bc
00000240: 5e6c 023e 995b 8abc c803 ca3b bb0c 2a3d
00000250: cbca 92bd 2533 733b 4069 323c e4ed 98bd
00000260: 9b32 23bd 6f6e fdbc c033 adba 500a 08bd
00000270: b0a9 dabd 2eb1 3d3e 0bc2 a13d 2dad e8bd
00000280: 5ce7 8cbc 3b80 22be 1ead 613d 9456 553d
00000290: 45a5 4fbe ecdc c839 37b2 763d d75a db3d
000002a0: 687a f7bd c00e 33bb 3314 a53c 54ec 0bbd
000002b0: d648 82bc 7014 193c 57b1 87bd b44d 67bc
000002c0: 874a 81bd b4b1 033e db2d 163e 7faf 103e
000002d0: 1c22 4d3d e3f5 4a3e acc7 f93c be49 393e
000002e0: e956 9fbd f239 02be 8265 f6bc 2df8 01bd
000002f0: 932a 1abe e443 2abe 2de3 243d 2933 5e3d
00000300: 8b8d 98bd 76e4 5fbd d42d a5bd 1c4f ebbd
00000310: 7e90 cd3d ee60 833e 97d7 a3bd 51a4 af3d
00000320: ddf3 12be bf5f 20bc 9eed fd3d a6d8 a93c
00000330: 54bd bcba 4690 333e 0094 c6bd 68a3 f03c
00000340: 0c8d 663e b016 11bd fe1d 883d ad45 13bd
00000350: c670 413c 0edd 013d c062 1b3d b2ca fabc
00000360: d651 00bd e880 033e 9f85 4f3c ef9e 043d
00000370: 03cd 173d 14dc eb3d 31b9 403d 4f44 c43d
00000380: ab8b 9f3b aade 00be d30c 203c 2d46 69bd
00000390: 6597 acbe 5697 02bd c109 72bc 07a9 88bd
000003a0: b536 8dbe 04fc 7c3c 0a01 89bd 1b92 6d3b
000003b0: b8dc 85bd cbdb 093d 9d3f bfbc aace 963b
000003c0: 457e a03c 6cfa 2abc 0acf 9fbc b246 d73b
000003d0: 16a5 14bd 0c20 df3c 1c5e 5f3d 0524 013d
000003e0: 4367 06bd ca86 4dbd 659e 443d 4a32 cbbc
000003f0: 0dc3 0bbd 996a 773d bb56 febc 6a08 d43b

fc1.bias f4 [120]
0.0054768603 -0.003368304 0.12553878 -0.050573878 0.012442547 0.0848968 -0.033503916 0.022150198
0.013949862 0.038656883 -0.051366802 0.03434767 -0.051174343 -0.01463398 0.022745742 0.10115876
0.12502396 0.08178649 0.036783718 0.074490786 0.06975163 0.025788449 -0.04926407 -0.00884545
0.17849335 -0.043024186 -0.0019605902 -0.020797063 0.053698137 0.023286905 -0.016080512 0.22702461
-0.049255844 0.08159337 0.022381147 0.06269498 0.07497239 0.106656 -0.06349522 -0.032640938
-0.0023884033 0.03164627 -0.022340227 0.09459238 -0.011732162 -0.06683354 0.21680926 0.052559316
0.037992224 0.11372547 0.03918099 0.069468595 -0.1252075 0.2237124 0.13119906 -0.020646648
-0.06734031 0.10788897 0.067427106 -0.013685288 0.054676246 -0.038598098 0.03211066 0.05335318
0.15013018 0.03202334 0.073678486 0.15091927 0.18786807 -0.026189292 0.15867126 -0.19774923
-0.018958004 -0.010809352 0.0075651105 -0.037894767 0.01293005 -0.021789925 -0.017362151 -0.06836713
-0.027446406 0.012806544 0.155127 0.041840076 -0.021204844 0.26084623 0.018463079 -0.015188607
0.03217647 0.058124658 0.016370017 -0.018219393 0.21504262 0.012095449 -0.07607322 0.06414704
-0.06873347 0.032405064 0.016940916 -0.09155936 0.07430066 0.034544263 -0.050333817 0.09519439
0.050340585 0.14881593 -0.023121646 0.15926412 -0.04853709 0.087976 0.09572258 0.16537167
-0.03982822 0.13928597 0.033640686 -0.09994515 0.038058706 0.023705395 0.0021241305 -0.042955816
00000000: 3c77 b33b c4be 5cbb 3d8d 003e 8e26 4fbd
00000010: d3db 4b3c 60de ad3d 673b 09bd 5574 b53c
00000020: f68d 643c ae56 1e3d ff65 52bd 24b0 0c3d
00000030: 309c 51bd 5cc3 6fbc 4755 ba3c 532c cf3d
00000040: 4806 003e ad7f a73d 86aa 163d a08e 983d
00000050: f1d9 8e3d 4c42 d33c 1fc9 49bd 82ec 10bc
00000060: f6c6 363e 213a 30bd 3f7d 00bb 9a5e aabc
00000070: 94f2 5b3d 2ec4 be3c 47bb 83bc 2479 683e
00000080: 7fc0 49bd 6d1a a73d ab58 b73c 3a66 803d
00000090: 208b 993d 766e da3d c809 82bd 81b2 05bd
000000a0: c286 1cbb 859f 013d da02 b7bc a6b9 c13d
000000b0: 4138 40bc 06e0 88bd 3f03 5e3e 7048 573d
000000c0: bc9d 1b3d e6e8 e83d 3f7c 203d 8d45 8e3d
000000d0: 6536 00be dd14 653e 0c59 063e 2923 a9bc
000000e0: b7e9 89bd e4f4 dc3d 3917 8a3d 4238 60bc
000000f0: 33f4 5f3d 0a19 1ebd 7886 033d dd88 5a3d
00000100: babb 193e e82a 033d bfe4 963d 958a 1a3e
00000110: 7d60 403e ed8a d6bc b87a 223e c67e 4abe
00000120: d14d 9bbc b519 31bc bfe4 f73b 8b37 1bbd
00000130: 8fd8 533c c980 b2bc 123b 8ebc 1104 8cbd
00000140: 49d7 e0bc 8ad2 513c 9dd9 1e3e 8060 2b3d
00000150: c8b5 adbc a38d 853e e23f 973c a3d9 78bc
00000160: 79cb 033d 1f14 6e3d 6a1a 863c d640 95bc
00000170: 2234 5c3e fd2b 463c 47cc 9bbd 865f 833d
00000180: 22c4 8cbd 2cbb 043d adc7 8a3c 7983 bbbd
00000190: f22a 983d 497e 0d3d d52a 4ebd 47f5 c23d
000001a0: ee31 4e3d 3463 183e 9b69 bdbc 2216 233e
000001b0: d4ce 46bd c32c b43d 330a c43d 3157 293e
000001c0: ea22 23bd fba0 0e3e d1ca 093d 0bb0 ccbd
000001d0: 72e3 1b3d d131 c23c ff34 0b3b 70f2 2fbd

fc2.weight f4 [84, 120]
-0.10949294 0.038685165 0.09574972 0.0049047135 0.087134756 0.09208053 0.103961855 0.08948493
-0.0017605579 0.040699124 -0.12854755 -0.036944512 0.08992801 0.057383664 0.07872248 0.13443495
-0.09576699 0.13661084 0.010982665 -0.0015321831 -0.10642928 0.02382843 0.053146187 -0.03304547
-0.081805356 0.11766075 0.099947594 -0.1447969 -0.036974978 0.004822227 0.05572093 0.19983988
0.04369318 -0.22197434 0.11706758 -0.07202701 -0.09894977 0.14420019 -0.27774063 0.147902
-0.07427652 -0.039409265 0.14509864 0.23525642 0.1260112 -0.16120248 0.17536712 -0.03738632
0.014694602 0.09197082 0.033868328 0.0108517995 -0.12916842 -0.07270187 -0.09727053 -0.20261936
-0.044991396 -0.017584784 -0.04321347 -0.06506876 0.012449388 0.07236396 0.01710924 -0.033814088
-0.118674114 -0.012850953 0.042970605 0.0798318 -0.16983019 0.037786957 -0.03410098 -0.16156785
-0.07671447 -0.06060497 0.08178798 -0.15902469 -0.100711964 -0.042442866 0.0036695963 -0.060584206
0.11944042 0.069352105 -0.021203618 -0.13124026 -0.04844596 -0.014497754 -0.014494225 -0.02007647
0.05931159 0.0008855476 -0.039237335 -0.07020471 -0.07952115 -0.0321788 -0.016051246 -0.058244333
-0.033895046 -0.045813467 0.014058885 -0.064164825 -0.06287904 -0.10680991 0.09748026 -0.013697779
0.04591558 0.18947747 0.049058408 0.10117901 0.04574255 -0.22633466 0.019939704 -0.100656755
-0.015049972 -0.017498994 -0.06848413 -0.017245976 0.054557223 -0.091214076 0.13419817 0.0751916
0.09676869 -0.17299733 -0.016972642 0.05486398 0.018947506 -0.030052386 0.13065907 -0.14723407
-0.032569766 0.020852933 0.0041509676 -0.03917392 -0.059232585 0.1413872 -0.046969954 0.11783679
0.11838787 -0.055930927 0.12816441 -0.03579146 -0.07479044 -0.07350961 0.019267539 -0.095558554
0.12232002 0.017796312 -0.08792219 -0.082634486 0.04517479 0.050452918 -0.04571299 -0.012563013
-0.028581293 0.090531684 -0.10472895 -0.06467018 -0.057852793 -0.02168212 -0.045102637 -0.09769969
0.11187497 -0.019021487 -0.06402869 -0.19016202 0.048528098 0.0320037 -0.2169212 0.11888897
-0.06830108 0.05282497 0.051247533 0.028911427 -0.0866626 -0.1623866 0.051918503 -0.061823927
0.09787489 -0.027438087 -0.023901345 0.023267867 0.12033456 -0.13735318 0.09830614 -0.116624154
0.04801216 -0.13843414 -0.13121963 0.057205684 0.0040089716 0.053115778 -0.103335924 -0.013989558
0.1096196 0.0453324 -0.035688072 -0.18325886 0.017401619 0.03273372 0.006748109 0.045775864
0.031066844 0.07167211 0.07512038 -0.017094467 0.041045375 0.056712404 -0.026596686 -0.063480355
-0.12851915 0.012302869 -0.0014911329 0.03320641 -0.14243726 -0.008967147 0.16608872 -0.079276085
0.050614577 0.15237966 0.08864773 0.0736523 7.55e-05 -0.04816624 -0.056934513 0.042462185
0.04821777 0.015742127 0.079703666 -0.13714157 -0.049632363 -0.07545196 0.078930184 0.22250159
-0.13478038 0.18571058 0.06778556 -0.12079607 0.1102148 -0.0059064473 0.036490556 -0.05940226
0.085617945 0.031671125 0.14099577 -0.09509809 0.10776027 -0.037021436 -0.049083903 -0.0033277357
-0.2034142 0.16536234 0.04650945 -0.09152219 -0.060777597 0.03701397 0.0021746117 -0.19109549
00000000: d63d e0bd 5674 1e3d 6e18 c43d b8b7 a03b
00000010: b573 b23d b894 bc3d f4e9 d43d e043 b73d
00000020: 85c2 e6ba 20b4 263d f8a1 03be 2153 17bd
00000030: 2d2c b83d 220b 6b3d 4039 a13d 51a9 093e
00000040: 7c21 c4bd b6e3 0b3e a3f0 333c 89d3 c8ba
00000050: 98f7 d9bd d733 c33c d1af 593d b05a 07bd
00000060: 9189 a7bd 1ff8 f03d 53b1 cc3d a345 14be
00000070: 1373 17bd c603 9e3b a13b 643d d3a2 4c3e
00000080: 9ff7 323d 3e4d 63be 21c1 ef3d e682 93bd
00000090: 2da6 cabd 37a9 133e 0534 8ebe 9f73 173e
000000a0: 4a1e 98bd 9c6b 21bd bd94 143e 0fe7 703e
000000b0: 1409 013e 4312 25be 7093 333e 6622 19bd
000000c0: a1c1 703c 335b bc3d 84b9 0a3d bfcb 313c
000000d0: ba44 04be b8e4 94bd c635 c7bd 737b 4fbe
000000e0: e648 38bd f70d 90bc 9c00 31bd c542 85bd
000000f0: 85f8 4b3c 8e33 943d ad28 8c3c a480 0abd
00000100: 6a0b f3bd ce8c 52bc f201 303d db7e a33d
00000110: f7e7 2dbe 7fc6 1a3d 78ad 0bbd 0b72 25be
00000120: 7a1c 9dbd eb3c 78bd 7580 a73d 5ed7 22be
00000130: 1342 cebd 92d8 2dbd 9c7d 703b 2527 78bd
00000140: 2e9d f43d 7a08 8e3d 36b3 adbc d963 06be
00000150: 456f 46bd fd87 6dbc 3079 6dbc 6977 a4bc
00000160: b6f0 723d 1824 683a 54b7 20bd 7dc7 8fbd
00000170: fcdb a2bd ebcd 03bd e77d 83bc 9c91 6ebd
00000180: 88d5 0abd e7a6 3bbd 3d57 663c d968 83bd
00000190: bac6 80bd 27bf dabd bba3 c73d a66c 60bc
000001a0: fa11 3c3d 6206 423e 78f1 483d f136 cf3d
000001b0: 8a5c 3b3d 46c4 67be 9758 a33c 2125 cebd
000001c0: 2894 76bc 0d5a 8fbc 6841 8cbd 6f47 8dbc
000001d0: 6577 5f3d 72ce babd 3f6b 093e 0efe 993d
000001e0: aa2e c63d 3626 31be 360a 8bbc 0db9 603d
000001f0: cd37 9b3c 6c30 f6bc 7ecb 053e 87c4 16be
00000200: e067 05bd c5d3 aa3c d704 883b d574 20bd
00000210: de9d 72bd cec7 103e 9163 40bd 6a54 f13d
00000220: 5775 f23d d417 65bd 883d 033e 119a 12bd
00000230: bb2b 99bd 358c 96bd f5d6 9d3c 34b4 c3bd
00000240: eb82 fa3d 92c9 913c 8d10 b4bd 453c a9bd
00000250: 3309 393d b8a7 4e3d 8b3d 3bbd 18d5 4dbc
00000260: 5123 eabc ad68 b93d 227c d6bd cd71 84bd
00000270: 0df7 6cbd b49e b1bc 8bbd 38bd c616 c8bd
00000280: b41e e53d f3d2 9bbc 7921 83bd d5b9 42be
00000290: 66c5 463d 5016 033d 9720 5ebe 0f7c f33d
000002a0: 70e1 8bbd ff5e 583d efe8 513d a8d7 ec3c
000002b0: 297c b1bd ac48 26be 7fa8 543d 163b 7dbd
000002c0: a172 c83d d7c5 e0bc c1cc c3bc 419c be3c
000002d0: f771 f63d 50a6 0cbe bb54 c93d a5d8 eebd
000002e0: 66a8 443d aec1 0dbe 705e 06be 8250 6a3d
000002f0: b15d 833b ee8f 593d c9a1 d3bd 7634 65bc
00000300: 3e80 e03d 77ae 393d a82d 12bd 36a8 3bbe
00000310: d78d 8e3c cb13 063d 3e1f dd3b 797f 3b3d
00000320: e57f fe3c d4c8 923d b7d8 993d b209 8cbc
00000330: 321f 283d 444b 683d 4be1 d9bc fd01 82bd
00000340: 869a 03be f991 493c 1e72 c3ba 7203 083d
00000350: 13db 11be f1ea 12bc 2913 2a3e 805b a2bd
00000360: 3b51 4f3d 6a09 1c3e f18c b53d 04d7 963d
00000370: c155 9e38 f749 45bd 2a34 69bd d4ec 2d3d
00000380: ff7f 453d a2f5 803c ad3b a33d d76e 0cbe
00000390: 4e4b 4bbd 8f86 9abd 26a6 a13d 75d7 633e
000003a0: de03 0abe ea2a 3e3e 28d3 8a3d ee63 f7bd
000003b0: 4cb8 e13d df8a c1bb 1f77 153d c94f 73bd
000003c0: 7658 af3d 95b9 013d 3261 103e cac2 c2bd
000003d0: 6bb1 dc3d caa3 17bd 340c 49bd 2416 5abb
000003e0: d04b 50be bf54 293e b180 3e3d fc6f bbbd
000003f0: eef1 78bd f69b 173d ee83 0e3b 89ae 43be

fc2.bias f4 [84]
-0.046809725 -0.020757705 0.028171683 0.20290886 -0.1824049 0.07386567 0.17349851 -0.004698234
-0.04679483 0.08244115 0.090863116 -0.11671687 0.24984053 0.019703135 0.080630325 -0.014683473
0.024050072 0.0026143936 0.069077164 0.09526953 -0.041685402 -0.11949807 -0.0392514 -0.05067679
0.12056696 -0.007395316 0.36630538 -0.14537641 0.10004695 -0.19675735 0.13295469 -0.11085569
-0.06495569 0.02856146 -0.031087538 0.18351287 0.06825909 0.24709481 0.06403488 0.005993218
0.05504139 -0.05362574 -0.08343253 0.036927216 0.3474071 0.09319345 -0.020319758 -0.07854815
0.015786374 0.10749222 -0.07282149 0.04170279 0.05180938 0.10741464 -0.15022765 -0.06124202
-0.059261173 0.18390065 0.09604939 0.052444376 -0.06214699 0.43428135 0.3604866 0.1089206
0.18614057 0.16496211 0.050568983 -0.0473939 0.07035575 0.19208416 -0.029329415 -0.023564674
-0.11786343 0.15139201 -0.061300106 0.039793555 -0.09317146 -0.0046844925 0.08861481 0.19582552
0.23007116 0.09918635 0.054876618 -0.12135951
00000000: 8ebb 3fbd 100c aabc 4dc8 e63c 57c7 4f3e
00000010: 5ac8 3abe e246 973d 98a9 313e a5f3 99bb
00000020: f0ab 3fbd e8d6 a83d 7116 ba3d 4109 efbd
00000030: 32d6 7f3e 7868 a13c 8321 a53d f392 70bc
00000040: a804 c53c 3f56 2b3b 5478 8d3d ac1c c33d
00000050: 50be 2abd 67bb f4bd 13c6 20bd 7792 4fbd
00000060: cfeb f63d 6854 f2bb 618c bb3e 8edd 14be
00000070: 6ae5 cc3d c27a 49be 4625 083e 4f08 e3bd
00000080: 7d07 85bd b9f9 e93c 4bab febc ccea 3b3e
00000090: 6ccb 8b3d 6c06 7d3e b824 833d c262 c43b
000000a0: 1573 613d aaa6 5bbd adde aabd fe40 173d
000000b0: 58df b13e 35dc be3d 9f75 a6bc dadd a0bd
000000c0: 6d52 813c e224 dc3d 6f23 95bd 8bd0 2a3d
000000d0: 1336 543d 35fc db3d 47d5 19be ead8 7abd
000000e0: d8bb 72bd 7450 3c3e 8bb5 c43d eacf 563d
000000f0: d88d 7ebd 205a de3e b391 b83e c311 df3d
00000100: a29b 3e3e d4eb 283e 6c21 4f3d 1b20 42bd
00000110: ad16 903d b6b1 443e 3e44 f0bc b40a c1bc
00000120: 6262 f1bd 8206 1b3e d215 7bbd 91fe 223d
00000130: aed0 bebd 5f80 99bb ae7b b53d 7c86 483e
00000140: c697 6b3e 3722 cb3d 4ec6 603d 568b f8bd

fc3.weight f4 [10, 84]
0.081532374 0.3999981 0.080928795 -0.15572605 0.03467698 0.11069095 -0.3948788 -0.022322297
0.09981187 -0.14412732 0.19466735 -0.08797508 0.4309809 0.1673582 0.22027642 0.45835865
0.00542218 0.2063416 0.12619041 -0.04636151 0.4876131 -0.020384453 0.31768978 0.2755946
-0.37556028 -0.16138275 -0.17619486 -0.24135055 0.52315164 0.3653829 -0.037606716 -0.13404222
-0.017987736 -0.4112876 -0.18596277 0.116689235 -0.24748535 0.6071148 -0.011061586 -0.05793463
0.013017964 0.044274617 -0.1052929 -0.057299465 0.35610673 -0.24490122 0.28661135 0.07611066
0.05355367 0.28658128 0.085863605 0.2866436 0.5898087 0.12862606 0.27661228 0.48631677
-0.11144749 -0.06964511 -0.032975983 0.46914428 -0.072414346 0.36393568 0.21849696 0.29480603
-0.11946862 0.44651824 0.0049665854 0.061134446 -0.022733726 -0.0058045187 0.10649549 -0.19149306
0.24676791 0.23079537 0.052818675 -0.19983548 0.0032445607 0.09439037 0.07452968 -0.15996878
0.01903905 0.21536286 -0.06522234 -0.16125922 0.16799639 -0.03877873 0.16633831 0.08109968
-0.00295567 0.08599461 0.1913506 0.05820814 0.073630996 0.08014112 -0.3505417 0.1475727
-0.19074264 -0.019466717 0.028053284 0.019897409 0.35760477 0.2744921 0.09469351 -0.05966077
0.200719 0.05408841 -0.011396725 -0.14281888 -0.4139298 -0.12267638 0.02205148 -0.04391755
-0.3224756 -0.07757305 0.4889365 0.004678978 -0.260361 0.8485132 0.37893105 0.45149505
-0.058714613 0.39304 0.020069601 0.51414233 0.035822045 -0.060653754 -0.054648064 0.048850767
0.12916122 -0.013278601 0.12849823 0.07108221 -0.36559448 -0.07172393 0.07057917 -0.03662614
-0.3296032 0.1610796 -0.18073866 -0.071250714 -0.008753594 0.17157991 -0.13607319 -0.33223677
0.06589936 -0.14023311 0.16632707 0.08828847 0.28667894 -0.09542741 0.12966658 -0.04489722
0.014220578 -0.08021897 -0.06373758 -0.03219281 -0.122975454 -0.04808862 -0.107908614 0.20838237
-0.1317269 0.023142941 -0.20827793 -0.18612942 -0.12652989 0.61183584 0.7890214 0.14503372
-0.21706888 -0.20353854 -0.23253872 -0.014484781 0.09529962 0.33253756 0.08748575 -0.0930743
0.086379744 0.19904044 0.6225621 0.37478775 0.7727283 -0.14397511 -0.30337304 -0.018397456
-0.028432366 0.21277389 0.22523606 0.07710954 -0.41503233 0.18644859 0.52887315 -0.18091397
0.56296855 0.6564625 0.036542386 0.021783648 0.5309082 0.06573915 0.24252063 -0.040202484
0.18531872 0.06671005 -0.14995874 0.537112 0.49154368 -0.43914613 -0.30441824 0.039947342
-0.038087267 -0.0042066183 0.045980785 -0.132322 0.4734457 -0.16726586 -0.20231472 0.100156404
0.017496644 0.18569675 -0.11058661 0.44642144 0.091688454 -0.5089898 0.048284642 -0.29185948
0.005338517 -0.19376859 -0.13703169 -0.117804065 0.13365217 -0.005979133 -0.19744088 -0.40216565
0.15931003 0.11484987 -0.048850868 -0.080107495 -0.17679481 -0.15514223 -0.07140483 0.13219957
0.1452525 0.40941274 -0.10067622 -0.13674876 0.0045341905 0.05749512 0.1280279 -0.0292688
0.4980044 0.09313536 -0.29174924 -0.18306497 0.23918572 -0.13539197 -0.28250337 0.5069382
00000000: 72fa a63d 8dcc cc3e ffbd a53d a676 1fbe
00000010: 7309 0e3d f0b1 e23d 8e2d cabe 40dd b6bc
00000020: 2a6a cc3d 1d96 13be e156 473e 472c b4bd
00000030: 87a9 dc3e f35f 2b3e 2490 613e fcad ea3e
00000040: 8bac b13b 364b 533e 0f38 013e 91e5 3dbd
00000050: 6da8 f93e 4cfd a6bc 3ca8 a23e bc1a 8d3e
00000060: 7049 c0be 8541 25be 6d6c 34be 9924 77be
00000070: 44ed 053f 7813 bb3e 8009 1abd 5d42 09be
00000080: 045b 93bc 4a94 d2be 066d 3ebe c4fa ee3d
00000090: cd6c 7dbe e06b 1b3f a83b 35bc dd4c 6dbd
000000a0: 4c49 553c 4d59 353d cea3 d7bd d8b2 6abd
000000b0: 9f53 b63e 63c7 7abe b9be 923e e8df 9b3d
000000c0: 185b 5b3d c8ba 923e 42d9 af3d f3c2 923e
000000d0: b4fd 163f 8db6 033e 20a0 8d3e 83fe f83e
000000e0: 953e e4bd 18a2 8ebd d311 07bd ae33 f03e
000000f0: f94d 94bd c755 ba3e abbd 5f3e d1f0 963e
00000100: f7ab f4bd 0a9e e43e bdbe a23b 1d68 7a3d
00000110: 143c babc d533 bebb 4f1a da3d c216 44be
00000120: bab0 7c3e 9f55 6c3e 6558 583d aca1 4cbe
00000130: b2a2 543b bd4f c13d 04a3 983d dbce 23be
00000140: c8f7 9b3c 1588 5c3e 4a93 85bd 2321 25be
00000150: 3f07 2c3e 72d6 1ebd 9754 2a3e 9717 a63d
00000160: eab3 41bb f11d b03d 69f1 433e a96b 6e3d
00000170: d9cb 963d 0721 a43d 347a b3be 4c1d 173e
00000180: 0a52 43be aa78 9fbc 00d0 e53c e4ff a23c
00000190: f917 b73e 3b8a 8c3e acee c13d da5e 74bd
000001a0: 4889 4d3e cf8b 5d3d 54b9 3abc 1d3f 12be
000001b0: 9bee d3be c13d fbbd 4ea5 b43c e4e2 33bd
000001c0: 861b a5be 9fde 9ebd e355 fa3e 1d52 993b
000001d0: 094e 85be 2938 593f 4003 c23e 5c2a e73e
000001e0: bc7e 70bd 8a3c c93e 0169 a43c d59e 033f
000001f0: 23ba 123d 1270 78bd a6d6 5fbd be17 483d
00000200: d742 043e 7d8e 59bc 0a95 033e 8d93 913d
00000210: 332f bbbe ffe3 92bd d08b 903d 4b05 16bd
00000220: c0c1 a8be 0df2 243e 8e13 39be e5eb 91bd
00000230: 3c6b 0fbc a5b2 2f3e c556 0bbe f01a aabe
00000240: 3ef6 863d 4599 0fbe a551 2a3e 96d0 b43d
00000250: 95c7 923e 726f c3bd 51c7 043e 26e6 37bd
00000260: 6dfd 683c d849 a4bd d988 82bd 9cdc 03bd
00000270: 8eda fbbd 93f8 44bd 31ff dcbd 3062 553e
00000280: 6be3 06be 4496 bd3c cf46 55be b698 3ebe
00000290: 0d91 01be 46a1 1c3f 4efd 493f b883 143e
000002a0: 4e47 5ebe 686c 50be a11e 6ebe 9351 6dbc
000002b0: 722c c33d 5d42 aa3e bb2b b33d bd9d bebd
000002c0: dde7 b03d 42d1 4b3e 3b60 1f3f 2ee4 bf3e
000002d0: 86d1 453f 366e 13be b653 9bbe 43b6 96bc
000002e0: feea e8bc 66e1 593e 48a4 663e 9beb 9d3d
000002f0: 1e7f d4be 61ec 3e3e 3b64 073f 8341 39be
00000300: b51e 103f ed0d 283f 78ad 153d 9f73 b23c
00000310: 9ae9 073f 3fa2 863d 5457 783e 5cab 24bd
00000320: 31c4 3d3e 479f 883d c98e 19be 2c80 093f
00000330: 9dab fb3e c3d7 e0be b5dc 9bbe d39f 233d
00000340: 6501 1cbd acd7 89bb 5956 3c3d 6b7f 07be
00000350: 7a67 f23e be47 2bbe 972b 4fbe cd1e cd3d
00000360: 1f55 8f3c 4a27 3e3e 3c7b e2bd 5a91 e43e
00000370: 28c7 bb3d 284d 02bf 1ec6 453d 9b6e 95be
00000380: baee ae3b 466b 46be 0952 0cbe 4243 f1bd
00000390: 1ddc 083e 9aec c3bb f12d 4abe a8e8 cdbe
000003a0: 2b22 233e 6936 eb3d d917 48bd 660f a4bd
000003b0: b309 35be 9bdd 1ebe b23c 92bd 535f 073e
000003c0: 12bd 143e 8c9e d13e 562f cebd de07 0cbe
000003d0: 8c93 943b 0180 6b3d bf19 033e 1fc5 efbc
000003e0: 6ffa fe3e c0bd be3d 2860 95be 6275 3bbe
000003f0: 1aed 743e 31a4 0abe 48a4 90be b4c6 013f

fc3.bias f4 [10]
0.1417659 0.18907024 0.54350525 0.3657578 -0.67867213 0.81535673 0.610449 0.0841896
0.35513067 -0.4912147
00000000: 152b 113e a19b 413e 2923 0b3f 9b44 bb3e
00000010: 75bd 2dbf 38bb 503f 6346 1c3f 996b ac3d
00000020: b0d3 b53e 7e80 fbbe
