experiments/LeNet/CIFAR10/experiment-6/last-epoch.pt (torch, 258923 bytes, 18 tensors)

features.0.weight f4 [6, 3, 5, 5]
0	0x3d10ac0d	0.03532033
1	0x3e012564	0.1261192
2	0xbd792a3c	-0.060831293
3	0x3e0b0664	0.13576657
4	0xbc773f7e	-0.015090821
5	0x3ba0cae2	0.004906998
6	0x3ba10037	0.0049133557
7	0xbd53676b	-0.0516123
8	0xbdab4c50	-0.08364165
9	0x3d2d0387	0.042239692
10	0xbd2fab29	-0.04288784
11	0xbe10a453	-0.14125185
12	0xbda4dba1	-0.080497034
13	0x3c5a8159	0.013336503
14	0xbe063e1e	-0.13109633
15	0xbd296305	-0.041354198
16	0xbc5930a2	-0.013256224
17	0x3d662ca7	0.056194928
18	0xbdfa12de	-0.1221063
19	0xbd05fcab	-0.032711666
20	0xbda42f80	-0.080168724
21	0xbc1ad215	-0.0094495015
22	0xbd93578c	-0.071944326
23	0x3d72e875	0.05930372
24	0x3cfb85de	0.030703481
25	0xbdbab1e8	-0.09115964
26	0x3c4a5dd7	0.012351475
27	0x3dab0002	0.08349611
28	0xbc15f67a	-0.009153003
29	0x3dca4f09	0.09878356
30	0xbd0aaa0c	-0.033853576
31	0x3d244d8d	0.04011302
32	0xbdb9870e	-0.09058963
33	0x3c89848f	0.016786842
34	0xbe020c70	-0.12700057
35	0xbdcd2e6d	-0.10018621
36	0xbdb80162	-0.08984639
37	0xbdd0b027	-0.101898484
38	0xbe0e6725	-0.13906534
39	0xbe10bdec	-0.1413495
40	0x3cca4508	0.02469112
41	0xbddc7c84	-0.10765937
42	0xbe0b54b6	-0.13606533
43	0x3c344b7d	0.011004326
44	0xbded0a37	-0.11574214
45	0x3d09544a	0.03352765
46	0xbd85430c	-0.06506929
47	0x3d91c6a2	0.07117964
48	0x3cad8f3f	0.02118647
49	0x3d135b61	0.035975818
50	0x3cc5f2ed	0.024163688
51	0xbd4ca19b	-0.049958806
52	0xbdc9c96e	-0.09852873
53	0xbd3d40a9	-0.046204243
54	0xbd1cd1d4	-0.038286045
55	0xbdcb3106	-0.0992146
56	0xbda9405f	-0.08264231
57	0xbdc5f302	-0.09665491
58	0x39a2db5f	0.00031062492
59	0xbdedd46b	-0.11612781
60	0x3d6ffc37	0.05859014
61	0xbd917a3d	-0.07103393
62	0x3d341b92	0.043971606
63	0xbd8c2b9b	-0.068442546
64	0xbdc9ed49	-0.09859712
65	0xbdb2bb1c	-0.087270945
66	0xbd8c00fd	-0.06836126
67	0xbde89fa4	-0.11358574
68	0x3d409c32	0.04702396
69	0xbc4a207a	-0.012336845
70	0xbc3caafa	-0.011515373
71	0x3c8f92b6	0.017526012
72	0x3dc86a9c	0.09785959
73	0xbb2bd162	-0.0026217331
74	0x3d33c62d	0.043890167
75	0xbe5545cf	-0.20827411
76	0xbe2996cf	-0.16561435
77	0xbe5a5140	-0.21320057
78	0xbd72d090	-0.059280932
79	0xbcce4a7c	-0.025182001
80	0xbe86d1f0	-0.26332045
81	0xbe07625c	-0.13221115
82	0xbdd42f23	-0.10360553
83	0xbc1facd8	-0.009745799
84	0xbc13e2fe	-0.009026287
85	0xbcd186ff	-0.025577066
86	0xbd552312	-0.0520354
87	0x3cfee346	0.031114232
88	0x3d9042a0	0.07043958
89	0xbd6cc21d	-0.05780231
90	0xbd839529	-0.064249344
91	0x3c1f7956	0.009733519
92	0xbd78b451	-0.060718838
93	0xbc931148	-0.017952576
94	0x3db7a771	0.08967484
95	0x3d9065a9	0.0705064
96	0x3d6b2ebd	0.05741762
97	0x3ce8a3c7	0.028398408
98	0x3bae54ba	0.005320159
99	0x3e2f543a	0.17121974
100	0xbe8cd321	-0.2750483
101	0xbe0ea926	-0.13931713
102	0xbc9a993d	-0.018871898
103	0xbd5759b4	-0.052575782
104	0xbda813ba	-0.082068875
105	0xbe18dbbf	-0.14927576
106	0xbd9857a8	-0.07438594
107	0xbd857080	-0.06515598
108	0x3e14f7df	0.1454768
109	0x3c8a039e	0.016847428
110	0xbe0d8ac0	-0.1382246
111	0xbc47d886	-0.012197619
112	0x3b0a6dff	0.0021122692
113	0xbb9b389c	-0.004736973
114	0x3d25c605	0.04047205
115	0xbe29254d	-0.16518135
116	0xbd335475	-0.043781716
117	0xbe0979ee	-0.13425419
118	0xbe011108	-0.12604153
119	0xbc0db4df	-0.00864908
120	0xbd2e7849	-0.04259518
121	0xbe805c30	-0.25070333
122	0xbdb4997d	-0.08818338
123	0xbe7c5fe6	-0.24645957
124	0xbe60ba2f	-0.21946023
125	0x3df08a04	0.117450744
126	0x3e04826f	0.12940381
127	0x3e4e3192	0.20136097
128	0x3e89f361	0.26943496
129	0x3d2c8d9a	0.04212723
130	0x3dd7902b	0.10525545
131	0x3eb4a3ce	0.35281223
132	0x3ea4373e	0.32073396
133	0x3e86531e	0.26235288
134	0x3e469788	0.19393742
135	0x3e5e10b8	0.21686065
136	0x3ea44403	0.3208314
137	0x3ebda8a7	0.37042734
138	0x3eeddf7f	0.46459576
139	0x3eb1ff78	0.3476522
140	0x3c9e56f5	0.019328574
141	0x3d339187	0.043839958
142	0x3e0fbd29	0.14037003
143	0x3dbf7090	0.093476415
144	0x3d2ce817	0.042213526
145	0xbaeb08f9	-0.0017931751
146	0x3b695539	0.0035603775
147	0xbd467282	-0.048449047
148	0xbd9a507f	-0.07534885
149	0xbdfc0e0e	-0.12307368
150	0xbd57682d	-0.052589584
151	0x3d29ed0b	0.041485827
152	0xbd8bf8c3	-0.06834557
153	0x3c1aae5d	0.0094409855
154	0xbdc0e2e3	-0.09418275
155	0xbd100816	-0.03516396
156	0x3e143d64	0.14476544
157	0x3e15bcfa	0.1462287
158	0x3e0f71c7	0.14008246
159	0xbd3ea276	-0.046541654
160	0x3d109b99	0.03530464
161	0x3dd30206	0.1030312
162	0x3e2efa5a	0.17087689
163	0xbc897db9	-0.016783582
164	0xbdbd7e17	-0.09252565
165	0xbe1cfa5d	-0.15329881
166	0x3ccb8d50	0.024847656
167	0xbde7e7b0	-0.11323488
168	0x3ced525c	0.028969936
169	0xbce61239	-0.028084861
170	0xbda40bc2	-0.08010055
171	0xbd66880f	-0.0562821
172	0xbe39dc3a	-0.18150416
173	0xbd9feced	-0.07808862
174	0x3dc52273	0.09625711
175	0x3c469ea7	0.012122787
176	0x3e0bcf2a	0.13653246
177	0x3e33c094	0.17553931
178	0x3dc81261	0.097691305
179	0x3cc7ccca	0.024389643
180	0x3a6cd96d	0.00090350845
181	0x3daa1e40	0.08306551
182	0x3e0814d6	0.13289198
183	0x3bfc6600	0.007702589
184	0x3ba81ad6	0.005130152
185	0x3d1df3f4	0.03856273
186	0x3e30d48e	0.17268583
187	0x3e2ed9e9	0.17075314
188	0x3e091d9d	0.13390203
189	0xbe0168d4	-0.12637645
190	0x3de03097	0.10946768
191	0x3d0f85c6	0.035039686
192	0x3df4a338	0.11945194
193	0x3dbefcca	0.093255594
194	0x3de50773	0.111830615
195	0xbdb5d4e2	-0.08878495
196	0xbdbdfc11	-0.092765935
197	0x3d05e0ba	0.03268502
198	0x3da7e303	0.08197596
199	0x3e2e551e	0.17024657
200	0xbb27ebde	-0.0025622766
201	0x3e659bb2	0.22422674
202	0x3e8f2866	0.2796051
203	0x3d37f38a	0.04490999
204	0xbd4b3b60	-0.04961717
205	0xbdff7ce6	-0.12474994
206	0x3e0892e5	0.13337286
207	0x3e1ab20a	0.15106979
208	0xbc8a09be	-0.016850349
209	0xbd968fc3	-0.07351639
210	0xbd433ee9	-0.047667418
211	0xbd3510e8	-0.044205576
212	0xbd2112a9	-0.039324436
213	0x3cd5a385	0.026078949
214	0xbe250a2e	-0.16117164
215	0xbdfc3b3d	-0.12315986
216	0xbe187d5b	-0.1489157
217	0xbd541f87	-0.05178788
218	0x3be46abb	0.006970731
219	0xbdfb0751	-0.12257255
220	0xbe93c953	-0.28864536
221	0xbe005633	-0.12532882
222	0xbd050a57	-0.032480564
223	0xbda6d3a3	-0.08145835
224	0x3ddb7de1	0.10717369
225	0xbda59b27	-0.080862336
226	0xbe96aafa	-0.2942732
227	0xbe2fccbb	-0.17167942
228	0xbdc52c71	-0.09627617
229	0xbe4a43f4	-0.19752485
230	0xbbb57a63	-0.0055382713
231	0xbd1c94f4	-0.03822799
232	0x3dcaf9d2	0.09910931
233	0x3daccbc7	0.08437305
234	0xbd71f52e	-0.059071712
235	0xbd42e28f	-0.047579344
236	0x3d891836	0.06694071
237	0x3ec0cae3	0.3765479
238	0x3e7e9a74	0.24863607
239	0x3ede4a1a	0.4341591
240	0xbe0e3adf	-0.13889645
241	0x3e3d2ef2	0.1847494
242	0x3ed38776	0.41314286
243	0x3ef166a7	0.4714863
244	0x3f01f8fd	0.5077055
245	0xbd8afb54	-0.06786218
246	0xbd034b0e	-0.032054
247	0x3e9d64ac	0.3074087
248	0x3ee18351	0.440455
249	0x3eb542ec	0.3540262
250	0xbab03ce6	-0.0013445884
251	0xbd0a8c8e	-0.03382545
252	0x3c2160b6	0.009849718
253	0x3e09095d	0.13382478
254	0xbd4284e7	-0.047490027
255	0xbc9b7725	-0.018977711

features.0.bias f4 [6]
0	0xbe031a7a	-0.12803069
1	0x3e353cd6	0.17698988
2	0x3dc813b1	0.09769381
3	0x3e827182	0.25477225
4	0x3ecb5f4e	0.3972115
5	0x3d33ca37	0.04389402

features.2.weight f4 [6]
0	0x3f7b97d6	0.9827856
1	0x3f51046f	0.8164739
2	0x3f611d84	0.8793566
3	0x3f52fed6	0.824201
4	0x3f97f267	1.187085
5	0x3f8b9a3e	1.0906446

features.2.bias f4 [6]
0	0xbeb5ac69	-0.354831
1	0x3e635d84	0.22203642
2	0x3e2e509b	0.17022936
3	0x3d87bcec	0.06627831
4	0x3e2ae8da	0.16690388
5	0x3e092940	0.13394642

features.2.running_mean f4 [6]
0	0x3358b424	5.0455256e-08
1	0x3ef9657e	0.48710245
2	0x3f0dcc20	0.55389595
3	0x3efc34a5	0.49258915
4	0x3efc2995	0.49250475
5	0x3e007297	0.12543713

features.2.running_var f4 [6]
0	0x311c1cd0	2.2717366e-09
1	0x3e525ee5	0.20544012
2	0x3dc7bae6	0.09752445
3	0x3e08f7da	0.13375798
4	0x3e04c246	0.12964734
5	0x3d8f0bcb	0.06984671

features.4.weight f4 [16, 6, 5, 5]
0	0xbd9cbca5	-0.076531686
1	0x3cb3cb63	0.021947568
2	0xbd65d3e7	-0.05611029
3	0xbd17a314	-0.037020758
4	0x3c97f310	0.018548518
5	0x3d107ede	0.03527724
6	0xbd9743b8	-0.07385963
7	0x3d0968a7	0.03354707
8	0x3d829c02	0.063774124
9	0xbd08ea1b	-0.033426385
10	0xbd12558b	-0.03572611
11	0xbd0d511f	-0.03450119
12	0xbd6da902	-0.058022507
13	0xbb59ce66	-0.0033234595
14	0x3d1225e3	0.035680663
15	0xbc3a65c5	-0.011376803
16	0xbd206a6f	-0.039164003
17	0x3d78c98e	0.060739093
18	0xbd855c84	-0.065117866
19	0xbb867145	-0.0041028582
20	0x3c872d40	0.01650107
21	0x3d74449e	0.05963575
22	0xbc771db6	-0.015082767
23	0xbc52e81f	-0.012872725
24	0xbd792c36	-0.06083318
25	0x392bdb7f	0.000163896
26	0x3d940402	0.07227327
27	0x3e190f74	0.14947301
28	0x3d1275e5	0.035756964
29	0xbd2f35f4	-0.042776063
30	0xbd4cf556	-0.050038658
31	0xbcff0a01	-0.0311327
32	0xbd430f24	-0.04762186
33	0xbd53396f	-0.051568445
34	0x3ddba68d	0.107251264
35	0xbe24b60c	-0.1608507
36	0xbdec167b	-0.11527725
37	0xbe1b7167	-0.15179978
38	0x3a4c3d75	0.000779114
39	0xbd346a87	-0.044046905
40	0xbe3dd6a5	-0.18538912
41	0xbe1e9969	-0.15488209
42	0xbe02ddc6	-0.12779912
43	0xbc35c154	-0.011093456
44	0x3c249df2	0.010047423
45	0xbe630f12	-0.22173718
46	0xbe0a7500	-0.13521194
47	0xbda4165a	-0.08012076
48	0xbd2ad63f	-0.041708227
49	0xbd1339c0	-0.035943747
50	0xbbd3c8b4	-0.0064631347
51	0x3d6ef078	0.058334798
52	0xbc6ecff4	-0.014575947
53	0xbd9ce602	-0.07661058
54	0xbe095896	-0.13412699
55	0x3debbefb	0.11511036
56	0x3dd045ac	0.10169539
57	0x3df61598	0.120158374
58	0x3dd8cd2b	0.10586008
59	0xbcf93af7	-0.030423624
60	0x3dcb914c	0.099398226
61	0x3db723a9	0.089423485
62	0x3cca4c1e	0.024694499
63	0x3da53f7d	0.0806875
64	0xbce14437	-0.027498348
65	0x3d227366	0.039660834
66	0x3cad6858	0.021167919
67	0x3d3c633b	0.04599307
68	0x3d508799	0.050910566
69	0xbd698b48	-0.057017595
70	0xbe0c6902	-0.13711932
71	0xbe3578d4	-0.17721874
72	0xbe1f8997	-0.1557983
73	0xbcf306de	-0.02966636
74	0xbd4c7bd6	-0.049922787
75	0xbdc49d2c	-0.09600291
76	0x3cf04b34	0.029332735
77	0xbd6261ad	-0.055268932
78	0x3d8964ff	0.067087166
79	0x3d3fd02f	0.0468294
80	0xbdb369f7	-0.087604456
81	0xbd8f70af	-0.070039146
82	0xbd9c40fb	-0.076295815
83	0xbbbb3a0b	-0.0057137064
84	0x3dd7f16a	0.10544093
85	0xbd1f58d4	-0.038903072
86	0xbd15d72d	-0.03658216
87	0xbd04b92d	-0.03240316
88	0x3d9c944e	0.076454744
89	0x3dc39c41	0.095512874
90	0xbd16d1f3	-0.036821317
91	0xbe5ad37e	-0.2136974
92	0xbd445ef8	-0.04794213
93	0xbd8fd6b5	-0.07023374
94	0x3ce61347	0.028085364
95	0xbbee7746	-0.007277402
96	0xbc0107ec	-0.007875424
97	0x3cb74d6a	0.022375781
98	0xbc536632	-0.012902783
99	0x3cbac42f	0.022798626
100	0x3c31bf6f	0.010848864
101	0x3db8ec60	0.0902946
102	0x3d3c264d	0.045934964
103	0x3d2d8fdd	0.042373527
104	0xbdcccae9	-0.099996395
105	0x3aaf8544	0.0013391157
106	0x3dfa8bd6	0.12233703
107	0x3e30ec6a	0.17277685
108	0x3dcf0303	0.10107996
109	0xbbb1029e	-0.0054019233
110	0x3d9dfc50	0.077141404
111	0x3e12644a	0.1429607
112	0x3db3633c	0.08759162
113	0x3db5460f	0.08851253
114	0xbd9b6b77	-0.07588857
115	0x3c81e0b3	0.015854215
116	0x3d5466b5	0.05185576
117	0x3d98b091	0.07455552
118	0x3d469360	0.04848039
119	0xbd12e1a7	-0.03585973
120	0xbd87dd31	-0.06633986
121	0xbda5e04d	-0.080994226
122	0x3c62a19f	0.013832479
123	0xbd824ca4	-0.06362274
124	0xbddc4db0	-0.10757005
125	0x3c3fd482	0.011708381
126	0x3dc70604	0.09717944
127	0xbcbad7ee	-0.022808041
128	0xbca0e772	-0.019641612
129	0xbda20623	-0.07911327
130	0x3c7857ae	0.015157623
131	0x3c9eed8a	0.019400377
132	0xbbfb1525	-0.0076624327
133	0xbb8bd520	-0.00426735
134	0xbb64962a	-0.0034879544
135	0x3d1f4c8f	0.03889137
136	0x3d891408	0.06693274
137	0xbda026e7	-0.0781992
138	0xbd98fb68	-0.07469827
139	0xbb8af0c6	-0.004240128
140	0xbd23c820	-0.039985776
141	0x3cbda3ab	0.023149332
142	0x3d82efad	0.06393371
143	0x3d6cf58f	0.05785137
144	0xbcaf0967	-0.021366788
145	0x3cb53236	0.022118669
146	0x3d808ac7	0.0627647
147	0x3ce709af	0.02820286
148	0x3cd351d5	0.025795856
149	0x3dfd2feb	0.12362655
150	0x3d80ebf4	0.062950045
151	0x38f491a9	0.00011661958
152	0xbcd3e758	-0.02586715
153	0x3d17b988	0.03704217
154	0x3d114c4f	0.035473164
155	0x3d216e45	0.0394118
156	0x3ba4a455	0.0050244727
157	0x3d9bfc68	0.07616502
158	0x3c02f3b5	0.007992675
159	0xbbae215b	-0.005314035
160	0x3abb0b3b	0.0014270315
161	0x3de3d654	0.11124864
162	0x3dd48e13	0.10378661
163	0x3d5d7255	0.054064114
164	0xbce27909	-0.027645605
165	0x3ca26712	0.019824538
166	0xbac95678	-0.0015360853
167	0x3dccdc25	0.10002927
168	0x3d87f061	0.066376455
169	0x3da21616	0.07914369
170	0x3ceea5b4	0.029131748
171	0x3db36772	0.08759965
172	0xbc9689a0	-0.018376172
173	0xbb402605	-0.0029319536
174	0x3d29a8a0	0.04142058
175	0xbd0a77c3	-0.03380562
176	0xbd41d511	-0.047322337
177	0xbcd80990	-0.026371747
178	0x3c83e377	0.016099675
179	0xbd051be4	-0.0324973
180	0x3c8b3468	0.016992763
181	0x3c05339f	0.008129983
182	0x3dac3e3e	0.08410309
183	0x3d91a93f	0.07112359
184	0xbb9b2440	-0.004734546
185	0x3de62663	0.112377904
186	0xbdd92c62	-0.106041685
187	0xbd824395	-0.063605465
188	0x3c41a7f8	0.011819832
189	0x3d4cc67c	0.049993977
190	0x3dabb396	0.08383863
191	0x3e6435f4	0.22286206
192	0x3e0692d8	0.13141954
193	0x3ce01251	0.027352484
194	0xbdb4d60c	-0.08829889
195	0xbe007391	-0.12544085
196	0xbe4dcc63	-0.20097499
197	0xbe1e0e92	-0.15435246
198	0xbd0d12dc	-0.034441814
199	0x3cf353dc	0.029703073
200	0xbbdb64d2	-0.0066953683
201	0x3d3b2481	0.04568911
202	0xbb4d2f77	-0.0031308809
203	0x3b880dc2	0.0041520307
204	0xbca8032e	-0.020509329
205	0x3db8b184	0.090182334
206	0x3d59df00	0.053191185
207	0x3cc39b3e	0.023877736
208	0x3dcfbd69	0.10143549
209	0xbb811e9e	-0.0039404174
210	0x3d9d32b6	0.07675688
211	0x3d305b4b	0.043055814
212	0xbd00ca35	-0.03144284
213	0xbdb40f8a	-0.08792026
214	0xbd098385	-0.033572692
215	0xbe213cee	-0.15745899
216	0x3dbce11d	0.092226245
217	0x3ddd73f0	0.10813129
218	0x3d630a81	0.05542994
219	0x3d762f7f	0.06010389
220	0xbe46b788	-0.19405949
221	0xbe02f082	-0.12787059
222	0xbbb0b5ac	-0.0053927507
223	0x3d8562a2	0.06512953
224	0xbd4d555e	-0.05013024
225	0xbcd91855	-0.02650086
226	0x3cbd7140	0.02312529
227	0x3de4e505	0.111764945
228	0xbce5ffe0	-0.028076112
229	0x3d8786a4	0.066174775
230	0x3c57565d	0.013143149
231	0xbd09ab06	-0.033610366
232	0xbcc4d1bb	-0.024025789
233	0x3e088925	0.13333566
234	0x3cb4dd00	0.022078037
235	0x3dce3432	0.10068549
236	0x3dc46dfe	0.09591292
237	0x3d95114e	0.07278691
238	0x3c9834c1	0.018579843
239	0xbd9e65f2	-0.07734288
240	0xbe00c59f	-0.12575386
241	0xbe097d3a	-0.13426676
242	0x3da09d2b	0.078424774
243	0x3ceebc2d	0.029142464
244	0xbdbe9657	-0.09306019
245	0xbe0ed6cf	-0.1394913
246	0xbe20a719	-0.15688743
247	0xbe8168dd	-0.25275317
248	0xbe54cd66	-0.20781478
249	0x3df6fda1	0.120600946
250	0xbbc21662	-0.0059230784
251	0x3cecb7cb	0.028896233
252	0x3b586280	0.0033017695
253	0x3bce0c04	0.0062880535
254	0xbd85fd6e	-0.065424785
255	0x3b9ced1b	0.0047890074

features.4.bias f4 [16]
0	0x3ca6ea5c	0.020375423
1	0xbe6cbdb8	-0.23119247
2	0xbc9bef6a	-0.01903506
3	0xbcb953bb	-0.022622934
4	0xbd737669	-0.059439097
5	0xbe05be1a	-0.13060799
6	0xbe22e2b7	-0.15906797
7	0xbe84742c	-0.25869882
8	0xbc460be9	-0.012087801
9	0xbcf5c7c7	-0.030002488
10	0xbdfbd03b	-0.12295576
11	0xbe1cae0d	-0.1530077
12	0x3c361eb9	0.011115723
13	0x3e4c349f	0.19941948
14	0xbe155aa1	-0.14585353
15	0xbdef1681	-0.11674214

features.6.weight f4 [16]
0	0x3f8dc291	1.1075002
1	0x3fadacc6	1.3568351
2	0x3fbee872	1.4914687
3	0x3fda49ba	1.705375
4	0x3f9a931c	1.2076144
5	0x3f8f0ce0	1.1175804
6	0x3fad7623	1.3551677
7	0x3fb29a9c	1.3953433
8	0x3f946bdb	1.1595415
9	0x3fa1e956	1.2649333
10	0x3fa98aa4	1.3245435
11	0x3fa3afcc	1.2788024
12	0x3f984c5a	1.1898301
13	0x3f87c8cf	1.0608157
14	0x3fba0a17	1.4534329
15	0x3fb936bb	1.4469827

features.6.bias f4 [16]
0	0x3e8912d0	0.26772165
1	0x3e28197a	0.16415969
2	0x3e81d837	0.2536027
3	0x3ddc27b0	0.10749757
4	0x3dd23d80	0.102656364
5	0x3e7d4d55	0.24736531
6	0x3e5c627e	0.21521947
7	0x3d4ee4bb	0.050511103
8	0x3d6f20f8	0.05838105
9	0x3dfa3b32	0.12218322
10	0x3e81e4b1	0.2536979
11	0x3ea79a1b	0.3273476
12	0x3e48339a	0.19550934
13	0xbdc9d814	-0.09855667
14	0x3dca1adf	0.098684065
15	0x3dcf20e1	0.10113693

features.6.running_mean f4 [16]
0	0x3eb8ec36	0.36117715
1	0x3dc0221c	0.09381506
2	0x3ea45d92	0.32102638
3	0x3e3ee141	0.18640615
4	0x3e4e0df9	0.20122518
5	0x3ee85a80	0.45381546
6	0x3e0b9ca8	0.13633978
7	0x3e0dff01	0.13866808
8	0x3eb633f3	0.3558651
9	0x3eb3136c	0.34975755
10	0x3e3584ba	0.17726412
11	0x3e47abb8	0.19499099
12	0x3ecfd78d	0.4059414
13	0x3f389dca	0.72115767
14	0x3e134f74	0.14385778
15	0x3e1ae3ce	0.15125963

features.6.running_var f4 [16]
0	0x3e9d3e21	0.30711463
1	0x3da6c554	0.08143106
2	0x3ed4d870	0.4157138
3	0x3e5b3fd0	0.21411061
4	0x3e200fbf	0.15631007
5	0x3ec0298c	0.37531698
6	0x3e07d14f	0.13263439
7	0x3e021505	0.12703331
8	0x3e8dd2a9	0.27699783
9	0x3ed41ef0	0.41429853
10	0x3e4e29cc	0.20133132
11	0x3e7c7c45	0.2465678
12	0x3edf4282	0.4360543
13	0x3eefe16c	0.4685167
14	0x3e131f33	0.1436737
15	0x3e48ce33	0.19609909

classifier.0.weight f4 [120, 400]
0	0xbce7aefd	-0.028281683
1	0xbc4d0107	-0.012512452
2	0x3962574e	0.00021585563
3	0x3c9f7aaa	0.01946767
4	0x3b2d6a2b	0.0026460986
5	0xbcc9013c	-0.024536721
6	0x3b908fad	0.0044116587
7	0x3c05ac55	0.008158763
8	0x3d001a1f	0.03127491
9	0x3ca3e847	0.02000822
10	0xbbb41f39	-0.005496886
11	0xbb8c94ac	-0.004290184
12	0xbc110e1a	-0.00885346
13	0xbc9d090d	-0.019169355
14	0x3cd504bb	0.026003232
15	0xbd339b2d	-0.04384916
16	0x3c4db4a5	0.012555276
17	0x3cebae62	0.028769676
18	0xbcc7ef17	-0.024406
19	0xbbaa5532	-0.0051981444
20	0xbcbedbd1	-0.023298176
21	0xbb867043	-0.004102738
22	0xbb13f357	-0.0022575462
23	0x3bfea3c5	0.0077709877
24	0x3c54d86f	0.012991055
25	0x3d23e581	0.040013794
26	0x3a008892	0.0004903163
27	0xbc856f42	-0.016288403
28	0x3cd13aab	0.02554067
29	0xbc9d9f1f	-0.019240914
30	0xbd375d6d	-0.044766832
31	0xbcab03e2	-0.020875875
32	0xbd8b1125	-0.067903794
33	0xbd2f2ff6	-0.04277035
34	0x3ce38a86	0.027776014
35	0xbc56cccc	-0.013110351
36	0xbcd729e8	-0.0262651
37	0xbd6cac70	-0.057781637
38	0xbd89e4c2	-0.06733085
39	0xbcbc14d5	-0.022959152
40	0x3cb0b5f3	0.021571135
41	0xbc70716b	-0.014675478
42	0xbc70942f	-0.014683767
43	0xbd4ab19e	-0.049485795
44	0xbd640877	-0.055672135
45	0xbd825222	-0.06363322
46	0x3ced1925	0.028942654
47	0xbd2474ef	-0.04015058
48	0xbd44dcab	-0.048062008
49	0xbd66f40f	-0.056385096
50	0x3c3d8bf6	0.011569014
51	0x3cb429ca	0.021992583
52	0x3cac18de	0.021007951
53	0x3cd776ff	0.026301859
54	0xbd3464bf	-0.04404139
55	0xbd1164d6	-0.035496555
56	0xbca5c792	-0.020236764
57	0xbbb9512e	-0.0056554293
58	0xbd65d7b1	-0.056113902
59	0x39fdb43e	0.0004839021
60	0x3b753a11	0.0037418643
61	0x3c83731d	0.016046101
62	0xbd23b4a4	-0.039967194
63	0x3c5ffe39	0.013671451
64	0x3d1575c9	0.03648928
65	0x3dc2f256	0.09518878
66	0x3d13a16c	0.036042616
67	0x3c83e355	0.016099611
68	0x3d15e4ab	0.036595028
69	0xbae573df	-0.0017505846
70	0x3da444de	0.08020948
71	0x3d38e7cd	0.045142937
72	0xbc977724	-0.018489428
73	0xbc216fb2	-0.00985329
74	0xbc89f144	-0.016838677
75	0xbc979559	-0.018503832
76	0xbd66ec58	-0.05637774
77	0x3b427757	0.0029673183
78	0x3c8c9c52	0.017164383
79	0xbc299c41	-0.010352195
80	0x3c640d08	0.0139191225
81	0xbd5f62c7	-0.05453756
82	0xbca03eda	-0.01956122
83	0x3c6f39b7	0.014601163
84	0xbcbd5fd7	-0.023116989
85	0x3d255c96	0.0403715
86	0xbd74ef87	-0.059798744
87	0xb9e7ca61	-0.00044210537
88	0xbd8dfcb6	-0.069329664
89	0xbd94c962	-0.07264973
90	0xbc3e9ada	-0.011633599
91	0xbd956254	-0.07294145
92	0xbdf789a8	-0.12086803
93	0xbd818d3e	-0.06325768
94	0xbd2d75db	-0.042348724
95	0xbdad7002	-0.084686294
96	0xbda2b2c0	-0.0794425
97	0xbde7e567	-0.11323052
98	0xbd9c0f4b	-0.076201044
99	0xbddb164c	-0.10697612
100	0xbd00386b	-0.031303804
101	0xbcc8587e	-0.024456259
102	0x3c4122d8	0.011788093
103	0xbd7ebb94	-0.062190607
104	0xbd4f45b3	-0.05060358
105	0xbc89922c	-0.016793333
106	0xbc89d306	-0.016824257
107	0xbc969d2f	-0.018385498
108	0xbd4372be	-0.04771685
109	0x3c10a115	0.008827467
110	0xbc0e804b	-0.00869758
111	0xbc895e6c	-0.016768657
112	0xbd023452	-0.031788178
113	0xbc554e29	-0.013019123
114	0x3c7c219c	0.0153888725
115	0xbc0972c9	-0.008389183
116	0x3cc30c28	0.023809507
117	0x3b2aa8e9	0.002604062
118	0xbc9ab752	-0.018886242
119	0x3d57a1ba	0.05264447
120	0xbd172757	-0.03690275
121	0xbd58bb92	-0.052913256
122	0xbcd2fc27	-0.025755001
123	0xbc199d08	-0.009375818
124	0x3d8ad704	0.06779292
125	0xbd151db1	-0.03640527
126	0xbd870103	-0.0659199
127	0xbd3cdbcd	-0.046108056
128	0x3d0f987d	0.035057534
129	0x3c613767	0.013746119
130	0x3cbc5b55	0.02299277
131	0xbd81301e	-0.06308006
132	0x3cad19bf	0.02113044
133	0x3cc393fa	0.023874272
134	0x3ce446a6	0.027865719
135	0xbd30ac7c	-0.043133244
136	0xbcb6dc94	-0.022321977
137	0xbc59a30d	-0.013283503
138	0x3c204ba6	0.009783661
139	0xbd02254b	-0.031773847
140	0xbd188e14	-0.03724487
141	0xbc1aed3b	-0.009455974
142	0x3cc31c37	0.023817165
143	0x3bc8e93e	0.0061313203
144	0x3d13cffa	0.036087014
145	0x3d255db0	0.04037255
146	0xbcc8fe25	-0.024535248
147	0xbb883c72	-0.0041575963
148	0xbcc8815d	-0.024475748
149	0x3c385513	0.011250752
150	0x3ccb392a	0.024807531
151	0xbc19e68e	-0.009393347
152	0xbd12cca7	-0.035839703
153	0xbbf5eda7	-0.007505137
154	0x3a9a58dc	0.001177575
155	0x3d053ac4	0.032526746
156	0xbd8b4ead	-0.068021156
157	0x3b58d121	0.0033083635
158	0xbba67850	-0.0050802603
159	0xbbd001a9	-0.006347854
160	0x3d41db99	0.047328565
161	0x3d0ea23b	0.034822684
162	0x3d321ccc	0.043484494
163	0x3cbab9d5	0.02279369
164	0xbd510223	-0.05102743
165	0x3cdf9196	0.0272911
166	0x3d7ac127	0.06121936
167	0x3d5c9250	0.053850472
168	0x3d47074a	0.048590936
169	0xbceedaa6	-0.029156994
170	0x3d6bca00	0.05756569
171	0x3c8ec2c3	0.017426854
172	0x3c700a42	0.014650883
173	0x3d28b61b	0.041189294
174	0x3ccb8886	0.024845373
175	0x3c5bd088	0.013416417
176	0xbca09ce0	-0.019606054
177	0x3c8634e6	0.016382646
178	0xbc2b018c	-0.0104373805
179	0x3ceaa554	0.028643288
180	0xbc051ec1	-0.008125008
181	0x3c738e6d	0.0148655
182	0x398cfae4	0.0002688981
183	0x3c9c59c9	0.019085782
184	0x3cf597ee	0.029979672
185	0x3c78d6a4	0.015187893
186	0xbd324f50	-0.04353267
187	0x3cff2b9d	0.031148726
188	0x3d0f19ae	0.0349366
189	0x3d1134e7	0.035450842
190	0x3d4831cb	0.04887561
191	0x3cfedf41	0.031112315
192	0x3bd6683e	0.0065431884
193	0x3b3ce8cb	0.002882528
194	0x3d8ec332	0.06970824
195	0x3c4a97d4	0.0123653
196	0xbba4c61e	-0.0050285
197	0xbc823e0c	-0.015898727
198	0x3c868b16	0.016423743
199	0xbc6b16ee	-0.014348729
200	0xbcc3f205	-0.023919115
201	0x3b2e4a6f	0.002659466
202	0xbc3aea37	-0.01140838
203	0xbd2a7038	-0.041610926
204	0xbded034c	-0.115728945
205	0x3c19ce97	0.009387634
206	0x3d08912d	0.033341575
207	0xbd16bd05	-0.036801357
208	0x3b4d455a	0.0031321854
209	0xbc74a7fe	-0.014932631
210	0xbcd24b65	-0.025670717
211	0x3d1d1556	0.038350426
212	0x3c01a090	0.007911816
213	0x3bc0217d	0.005863367
214	0xbc047b07	-0.008085973
215	0xbba911a3	-0.005159573
216	0x3ba8d65f	0.005152508
217	0x3d308735	0.043097693
218	0x3c48d4a5	0.01225773
219	0x3ce6eb07	0.028188242
220	0x3cac19f7	0.021008475
221	0xbc21a84b	-0.009866784
222	0x3d18ca27	0.037302162
223	0x3d060d5b	0.03272758
224	0xbc8860c7	-0.01664771
225	0x3d0ff172	0.03514237
226	0x3b06c32b	0.0020563107
227	0xbb6c719b	-0.0036078456
228	0x3c4bd867	0.012441731
229	0x3c63b257	0.0138975
230	0xbd1b789e	-0.037956826
231	0x3cb1ccdb	0.021704128
232	0xbbcb4526	-0.0062033115
233	0x3bb9932d	0.0056632967
234	0x3bf40ac6	0.0074475734
235	0x3cf051bc	0.029335849
236	0xbbfe8744	-0.0077675898
237	0x3c834d79	0.016028153
238	0xbc36b9e7	-0.011152721
239	0x3c290caf	0.010317965
240	0x3d2730f6	0.040818177
241	0x3bfdd947	0.0077468487
242	0x3db85d40	0.09002161
243	0x3ce2d3e7	0.027688934
244	0x3d48f268	0.0490593
245	0x3cd93b47	0.026517523
246	0x3c190317	0.009339116
247	0x3cdcf1f2	0.026970837
248	0xbd2c25d2	-0.042028256
249	0xbd4eded3	-0.05050547
250	0xbd0e4d2e	-0.034741573
251	0x3d405792	0.046958514
252	0xbd613dab	-0.05499045
253	0x3cb28f87	0.021796955
254	0xbd1f996f	-0.038964685
255	0xbd87573e	-0.06608437

classifier.0.bias f4 [120]
0	0xbbc06eeb	-0.0058725975
1	0xbca8b813	-0.020595586
2	0x3cedc7c7	0.029025925
3	0x3b13ce24	0.002255329
4	0x3d859f88	0.06524569
5	0xbd110cf4	-0.035412744
6	0xbb1c6acc	-0.0023867367
7	0xbadadc65	-0.0016697763
8	0xbd1f02b9	-0.038820956
9	0xbc40c79d	-0.0117663415
10	0xbaa5fe4f	-0.0012664291
11	0xbd53107c	-0.051529393
12	0xbcd8d419	-0.026468324
13	0x3cb7d6b8	0.022441253
14	0xbdd1074a	-0.102064684
15	0x3bf55a32	0.0074875588
16	0xbd0c192b	-0.03420369
17	0xbd624657	-0.055242863
18	0x3d160aa7	0.036631253
19	0xbd49ccfc	-0.049267754
20	0xbd479d84	-0.048734203
21	0x3d90f6a2	0.070782915
22	0xbde87533	-0.11350479
23	0x3c8dad89	0.017294662
24	0xbd307bb9	-0.04308674
25	0xbd58d41f	-0.05293667
26	0xbdce8494	-0.10083881
27	0x3dd5fd46	0.10448699
28	0x3d63916c	0.055558607
29	0x3cd31478	0.025766596
30	0x3c51cfcd	0.012805891
31	0x3d60930e	0.054827742
32	0x3ce5a4d3	0.028032696
33	0xbd9cbb08	-0.07652861
34	0xbdae2a02	-0.08504106
35	0xbd3e6247	-0.046480443
36	0x3d117225	0.035509247
37	0xbd2a231b	-0.041537385
38	0xbd01313b	-0.03154109
39	0xbd5f4ca5	-0.054516453
40	0xbd32fbce	-0.04369717
41	0x3cf284eb	0.029604396
42	0xbc383d0d	-0.011245024
43	0x3d30fa64	0.04320754
44	0xbd02be8d	-0.031920005
45	0xbd8aae6b	-0.06771549
46	0xbbca2001	-0.006168366
47	0x3cb3adcf	0.021933464
48	0xbd247e66	-0.040159605
49	0xbd8f1caa	-0.06987889
50	0xbd062c67	-0.03275719
51	0x3c684504	0.014176611
52	0xbb1971fd	-0.002341389
53	0xbc5b3472	-0.013379203
54	0xbc23b992	-0.009992974
55	0xbd1f69db	-0.03891931
56	0x3c16399e	0.00916901
57	0xbd3f8baa	-0.046764053
58	0xbd698cc7	-0.05701902
59	0x3bffe54c	0.0078093167
60	0xbd7a4ee2	-0.061110385
61	0xbd71d1cd	-0.059037972
62	0xbca2c2fb	-0.019868365
63	0x3d0727f5	0.03299709
64	0xbcab42ab	-0.020905813
65	0x3bbc963b	0.0057552136
66	0xbd3d6e29	-0.046247635
67	0xbb06c3ff	-0.00205636
68	0xbd919044	-0.071075946
69	0xbc9ab0dc	-0.018883161
70	0xbcdd81df	-0.027039466
71	0xbdc4bc2f	-0.09606206
72	0xbd00ce4c	-0.03144674
73	0xbd14aece	-0.03629952
74	0xbce165d1	-0.02751437
75	0x3d4751e5	0.048662085
76	0x3cd733a4	0.026269741
77	0xbd0e53ac	-0.034747764
78	0xbe009123	-0.12555365
79	0xbc335c67	-0.010947323
80	0x3d89d765	0.06730536
81	0xbdc6f61f	-0.097149126
82	0xbe39e550	-0.18153882
83	0x3d40d9ac	0.047082588
84	0xbd8d1613	-0.06888976
85	0x3d8b4a86	0.068013236
86	0x3d02363b	0.03179
87	0x3d27b028	0.04093948
88	0x3ba38e26	0.0049913106
89	0xbdd7e372	-0.105414286
90	0xbcbaee7b	-0.022818794
91	0x3b13ba8d	0.0022541613
92	0x3ce94665	0.02847595
93	0xbd18500b	-0.03718571
94	0xbd35b7ba	-0.04436467
95	0xbd02a02a	-0.031891026
96	0xbce7e25a	-0.028306175
97	0x3c38f6ee	0.011289341
98	0xbbff3286	-0.0077880053
99	0x3ac0028d	0.0014649198
100	0xbd8ba1c4	-0.06817964
101	0xbb9f52d3	-0.0048621683
102	0x3c79e419	0.015252137
103	0xbc8a6c37	-0.016897304
104	0xbd8fd379	-0.07022757
105	0xbce31a30	-0.027722448
106	0xbd57cbf5	-0.052684743
107	0xbdc98dfa	-0.09841533
108	0xbcfe5bdf	-0.031049667
109	0x3c8f0206	0.01745702
110	0xbdaea376	-0.085272714
111	0x3c6e4518	0.01454284
112	0x3d7dda16	0.06197556
113	0xbdcf50b2	-0.10122813
114	0xbcd37f1f	-0.025817452
115	0xbdcdac1b	-0.10042592
116	0xbd8a9f3c	-0.06768653
117	0x3c8527b9	0.016254293
118	0xbcccaa26	-0.024983477
119	0xbd7814d3	-0.060566735

classifier.3.weight f4 [84, 120]
0	0xbd7f2526	-0.062291287
1	0xbd1ab04c	-0.037765786
2	0xbd27f0e4	-0.041001216
3	0x3d813606	0.06309132
4	0x3d8bc91a	0.068254665
5	0xbcb84c57	-0.02249734
6	0xbc7a14bf	-0.015263735
7	0x3db8a230	0.0901531
8	0xb7f7078b	-2.9448207e-05
9	0x3c362e8a	0.011119494
10	0xbd15245c	-0.036411628
11	0x3da77b8a	0.0817786
12	0xbd3fe7ef	-0.04685205
13	0xbd69c87d	-0.057075966
14	0xbd4f10ea	-0.05055324
15	0x3b174999	0.002308464
16	0xbd6bd652	-0.05757744
17	0x3d302dd5	0.04301246
18	0xbd8e8cf2	-0.06960477
19	0xbd508b25	-0.05091395
20	0x3d0f2c0a	0.03495411
21	0x3cc5a656	0.024127167
22	0x3cc9bfb0	0.024627537
23	0x3d82dc49	0.06389672
24	0xbc3db018	-0.011577629
25	0x3d0264c6	0.031834386
26	0xbd8fc4a5	-0.07019929
27	0x3bc9cc99	0.006158423
28	0x3d41a626	0.047277592
29	0xbd7cb7d5	-0.061698753
30	0xbd9d981e	-0.0769503
31	0x3da883f7	0.08228295
32	0x3c0769d8	0.008264981
33	0xbcce896b	-0.02521201
34	0xbd3c4d4b	-0.04597215
35	0xbd440f61	-0.04786623
36	0xbd2fb5ea	-0.042898096
37	0x3b9f866d	0.0048683197
38	0xbdba8dd5	-0.091090836
39	0xbdb5579f	-0.08854603
40	0x3cceab52	0.025228176
41	0xbd8fee8c	-0.07027921
42	0xbd7863ee	-0.060642175
43	0x3d3e1fba	0.046416976
44	0xbd76c80f	-0.060249384
45	0xbd8235ba	-0.06357904
46	0x3db8047e	0.08985232
47	0x3ce22408	0.027605072
48	0x3b8a5526	0.0042215763
49	0x3d2a4f03	0.041579258
50	0xbc66a498	-0.014077328
51	0xbd7b3432	-0.061329074
52	0xbd2e39c5	-0.042535562
53	0xbd168b59	-0.036753986
54	0x3da52a5e	0.080647215
55	0xbd4854cb	-0.04890899
56	0x3d8bfc93	0.06835284
57	0xbb01b586	-0.0019792034
58	0x3cdc4855	0.02688996
59	0xbd8459b9	-0.06462426
60	0x3c3c9c00	0.011511803
61	0x3be0cd10	0.006860383
62	0xbdbb2ce8	-0.091394246
63	0x3a7e8ad0	0.0009710016
64	0xbd2649ed	-0.040597845
65	0xbdab01f6	-0.083499834
66	0xbda50fc1	-0.080596454
67	0xbba01a44	-0.0048859436
68	0x3d920d54	0.071314484
69	0x3dc24ff1	0.09487904
70	0x3d05f533	0.032704543
71	0xbd98706d	-0.074433185
72	0x3d7d77c2	0.061881788
73	0xbda62aeb	-0.08113655
74	0x3d5a111f	0.053238984
75	0xbda783fc	-0.08179471
76	0x3d2c0aa0	0.04200232
77	0x3d16f6d6	0.036856495
78	0xbd434d47	-0.04768112
79	0xbdb23217	-0.0870096
80	0xbd9e17a6	-0.07719354
81	0xbd863c29	-0.065544434
82	0xbdb1ee05	-0.08687977
83	0x3e099ddc	0.13439125
84	0xbd2cff6c	-0.042235777
85	0x3ba9d603	0.005182983
86	0x3b931d56	0.004489581
87	0x3d4747b4	0.048652366
88	0xbd62f7b5	-0.055412013
89	0xbd1bd32d	-0.03804319
90	0xbcd9c435	-0.026582817
91	0x3d5050b4	0.050858214
92	0x3d2466be	0.040137045
93	0xbdb5a563	-0.08869436
94	0x3cb90c69	0.022588925
95	0xbd1b547b	-0.037922364
96	0xbd40e80f	-0.04709631
97	0xbd6b72c2	-0.05748249
98	0xbaa778ad	-0.0012777053
99	0x3bac5329	0.005258937
100	0x3c0941b6	0.008377483
101	0xbd32d370	-0.043658674
102	0xbd5c743c	-0.053821787
103	0x3d55e0b5	0.05221625
104	0xbda9645f	-0.082710974
105	0x3d280f71	0.04103035
106	0xbd1488a8	-0.036263138
107	0x3c328415	0.010895749
108	0x3cc37c8e	0.023863103
109	0x3d7e1450	0.06203109
110	0x3d091152	0.033463784
111	0x3cfc8d12	0.030828986
112	0x3c6b0721	0.014344961
113	0x3dbebc08	0.09313208
114	0x3d3047d1	0.04303724
115	0x3d37c698	0.044867128
116	0xbdacad0f	-0.08431446
117	0xbcc03a3f	-0.023465274
118	0x3d195fb7	0.037444796
119	0xbd74d770	-0.05977577
120	0xbd06a3c4	-0.032871023
121	0x3d263243	0.040575277
122	0xbd67f4e0	-0.056630015
123	0xbd2b2391	-0.041781966
124	0xbd376edd	-0.04478346
125	0x3d79f693	0.061026167
126	0xbcdaae41	-0.026694419
127	0xbdddabe3	-0.108238004
128	0x3c61075d	0.013734666
129	0xbd4b4eb7	-0.049635615
130	0x3ddb0281	0.10693837
131	0xbd589e08	-0.052885085
132	0x3e29b40e	0.16572592
133	0x3d95172f	0.072798125
134	0xbc9809de	-0.018559393
135	0x3e0eae4d	0.13933678
136	0x3dcfd795	0.10148541
137	0x3c63c6de	0.013902394
138	0x3c8cb414	0.017175712
139	0x3da39fe0	0.07989478
140	0xbd2b8ff5	-0.041885335
141	0xbd317e71	-0.043333475
142	0x3d0f1185	0.034928817
143	0x3d812d0f	0.06307422
144	0xbd9a6cba	-0.07540269
145	0xbc962255	-0.018326918
146	0x3da5b500	0.08091164
147	0x3db1c861	0.08680797
148	0xbdd06e0a	-0.10177238
149	0xbc570e11	-0.013125912
150	0xbd5ad912	-0.05342967
151	0xbdd9b6dc	-0.10630581
152	0x3d309f84	0.043120876
153	0x3e1b08ad	0.15140028
154	0x3da06dbe	0.07833432
155	0xbb0ccae0	-0.0021483228
156	0x3db70336	0.08936159
157	0x3da3151f	0.07963013
158	0x3d9e7705	0.07737545
159	0xbd3dc043	-0.046325933
160	0xbb919205	-0.0044424557
161	0x3d71380a	0.058891334
162	0x3d0a937d	0.033832062
163	0x3dc90635	0.09815637
164	0x3daa43d5	0.08313719
165	0x3d39cf61	0.045363788
166	0x3db8f1a3	0.090304635
167	0x3ddecbe5	0.108787335
168	0x3d1ae1a5	0.037812848
169	0x3e166218	0.14685857
170	0xbcca2127	-0.024674011
171	0x3c1e03b7	0.00964444
172	0x3d87af4f	0.06625234
173	0xbd10270d	-0.03519349
174	0xbd65e132	-0.056122966
175	0x3da777da	0.08177157
176	0x3d51d5d6	0.05122932
177	0xbc9d6c72	-0.01921675
178	0xbdc9c674	-0.09852305
179	0x3d341b04	0.043971077
180	0x3e17c96c	0.1482293
181	0xbd7e6a66	-0.06211319
182	0xbd4594de	-0.048237674
183	0xbd9b4477	-0.07581418
184	0x3da10e06	0.07864003
185	0xbdc1e014	-0.09466568
186	0x3cc97776	0.024593096
187	0xbd731c59	-0.059353206
188	0x3cf05901	0.029339315
189	0x3d3595fa	0.044332482
190	0x3c34cd6e	0.011035306
191	0x3d9ba779	0.07600302
192	0x3cda7e77	0.026671631
193	0xbdc693fc	-0.096961945
194	0x3b774f1a	0.0037736357
195	0xbd599db2	-0.053128906
196	0x3e0f151e	0.139729
197	0x3d4662e8	0.048434168
198	0x3d77d00a	0.060501136
199	0xbb1b8931	-0.0023732895
200	0x3dc810cd	0.097688295
201	0x3dc3ac9f	0.09554409
202	0x3d80fc72	0.0629815
203	0xbd1b6ccf	-0.037945565
204	0xba753ef4	-0.0009355389
205	0x3c86093f	0.01636183
206	0xbd05e68b	-0.032690566
207	0xbd551cb4	-0.052029327
208	0xbd283102	-0.041062362
209	0x3d92f57c	0.07175729
210	0x3c2169c1	0.009851874
211	0x3e0f589f	0.1399865
212	0x3d5b217f	0.05349874
213	0x3d49ebb5	0.049297053
214	0xbcb84d02	-0.022497658
215	0x3d048eb1	0.032362644
216	0x3d910f02	0.07082941
217	0x3ca8bfbb	0.020599237
218	0xbd4318dd	-0.047631133
219	0xbb09b829	-0.002101431
220	0x3cca8327	0.024720741
221	0x3d4c6858	0.049904197
222	0xbd9fc067	-0.0780037
223	0x3d7af238	0.061266154
224	0x39693e55	0.00022243832
225	0x3db13f35	0.08654634
226	0x3dd18a8b	0.10231503
227	0x3d3f527a	0.046709515
228	0x3d3aa42f	0.045566734
229	0xbd03c90c	-0.032174155
230	0xbb75d2d4	-0.0037509697
231	0x3dcfd0be	0.10147236
232	0x3d6c4458	0.057682365
233	0x3dcb457f	0.09925365
234	0x3b46794e	0.0030284706
235	0xba77b18e	-0.000944876
236	0x3dc20296	0.094731495
237	0x3d5c8815	0.053840715
238	0xbd28377c	-0.04106854
239	0x3d98a041	0.07452441
240	0xbdf16e4f	-0.11788618
241	0x3db226b2	0.08698787
242	0x3d2acf87	0.04170182
243	0x3c2a8eb0	0.010409996
244	0xbc82fccc	-0.015989684
245	0x3d2f1ddf	0.042753097
246	0x3d83f246	0.06442694
247	0x3d8d897d	0.069109894
248	0xbd22ff39	-0.03979418
249	0x3cb7c119	0.022430943
250	0x3ca220fc	0.019791119
251	0xbd8a1bd9	-0.06743593
252	0xbd449c83	-0.048000824
253	0x3d8dae2a	0.06917985
254	0xbc82970f	-0.015941171
255	0xbcb26732	-0.021777723

classifier.3.bias f4 [84]
0	0x3d06482a	0.032783665
1	0x3c741102	0.014896633
2	0xbd0f13c4	-0.03493096
3	0x3e56a51f	0.20961426
4	0x3e010210	0.12598443
5	0x3d349a1c	0.044092283
6	0x3e2d38a8	0.16916144
7	0x3e1655de	0.14681193
8	0x3e266a5d	0.16251512
9	0x3d80751a	0.06272335
10	0x3dd8c14b	0.10583743
11	0x3d3486be	0.044073813
12	0xbc1a0980	-0.009401679
13	0x3d84b173	0.06479158
14	0x3cc720fa	0.024307717
15	0x3d3a60b4	0.04550238
16	0x3e27ce2b	0.1638724
17	0xbd430379	-0.047610734
18	0x3d8070ab	0.0627149
19	0x3db7b19c	0.08969423
20	0x3cb0c596	0.021578591
21	0x3dbd5caa	0.0924619
22	0xbd860583	-0.0654402
23	0x3d6935bc	0.05693601
24	0x3e358f30	0.17730403
25	0x3d2a47e4	0.041572466
26	0x3d8a94ea	0.06766684
27	0x3d7de010	0.06198126
28	0x3d532bc2	0.051555403
29	0x3c688131	0.014190958
30	0x3d151621	0.036398057
31	0x3d1d4630	0.038397014
32	0x3cc1d9fc	0.023663513
33	0x3d3e4b3d	0.04645847
34	0x3c8746f5	0.016513327
35	0xbd589d52	-0.052884407
36	0x3e3a2e5f	0.18181752
37	0xbd9b02a8	-0.07568866
38	0x3db40bb2	0.08791293
39	0x3ddb5358	0.10709256
40	0x3dd10883	0.102067016
41	0x3c2a0d45	0.01037914
42	0x3d2f2082	0.04275561
43	0x3e5ca0f8	0.2154578
44	0xbd927e87	-0.071530394
45	0x3cf13a96	0.029446881
46	0x3c8ac957	0.01694171
47	0x3dd980c4	0.10620263
48	0x3d80a762	0.06281926
49	0x3e12561c	0.1429066
50	0x3d44eb14	0.04807575
51	0x3d1b1369	0.037860308
52	0x3a27c094	0.0006399241
53	0x3e11cde4	0.14238697
54	0xbdb142a7	-0.08655291
55	0x3b151e22	0.0022753556
56	0x3c9d6086	0.019211065
57	0xbbf93935	-0.0076056966
58	0x3b018809	0.001976492
59	0x3e51d5d7	0.2049173
60	0x3c22890e	0.009920372
61	0xbcf3f704	-0.029780872
62	0x3df5bf0e	0.119993314
63	0x3d237346	0.039904855
64	0x3e0606cd	0.13088532
65	0x3d485c32	0.04891605
66	0x3da67180	0.08127117
67	0xbde5fae3	-0.112294935
68	0x3c7949cf	0.015215351
69	0x3c991eba	0.01869141
70	0x3de8a778	0.11360067
71	0x3c3e347d	0.011609194
72	0xbcae51e8	-0.02127929
73	0x3d2da5cd	0.042394448
74	0xbd740ff2	-0.05958552
75	0xbcfbec21	-0.030752243
76	0x3d908cd9	0.070581146
77	0x3d48e87e	0.049049847
78	0x3e04a3a0	0.12953043
79	0xbdadfbff	-0.0849533
80	0x3e1dab70	0.1539743
81	0xbdbbf1c9	-0.09176976
82	0xbd95d663	-0.07316282
83	0x3d62aa41	0.055338148

classifier.5.weight f4 [10, 84]
0	0xbdda73b7	-0.10666602
1	0x3d88147b	0.06644531
2	0x3e31f1b5	0.1737736
3	0xbe254968	-0.16141284
4	0x3b82a672	0.003987127
5	0x3e383b7b	0.1799144
6	0xbe1a5f94	-0.15075523
7	0xbdc2ab94	-0.09505382
8	0xbc8c630f	-0.017137079
9	0xbe37146f	-0.17878889
10	0xbe206b4c	-0.1566593
11	0x3d1185d4	0.03552802
12	0x3e0aa9ed	0.13541384
13	0x3d74e129	0.059785042
14	0x3cc4e3d5	0.02403442
15	0x3e389c2a	0.18028322
16	0xbe40724b	-0.187936
17	0x3dcccc0a	0.09999855
18	0x3eb5ae6f	0.35484645
19	0xbe194a8f	-0.14969848
20	0x3d12b4ce	0.03581696
21	0xbd6f0429	-0.058353577
22	0x3b89d9a6	0.004206854
23	0xbd1ada44	-0.03780581
24	0xbdec87d3	-0.11549344
25	0x3d22a7a3	0.039710652
26	0x3cdf84c4	0.027284987
27	0x3d8d9c56	0.06914584
28	0x3e0272e7	0.12739144
29	0x3e052a26	0.1300436
30	0x3e85b826	0.26117057
31	0x3ebbdd76	0.366924
32	0xbdc2a893	-0.09504809
33	0xbdb069d6	-0.086139366
34	0x3d596750	0.053077042
35	0x3e65e683	0.22451214
36	0x3eb6af2f	0.3568053
37	0x3daeee60	0.0854156
38	0x3e827178	0.25477195
39	0xbe0d2261	-0.13782646
40	0x3d5c0846	0.053718828
41	0x3e47438c	0.19459361
42	0x3e0014b1	0.12507893
43	0xbe3e9822	-0.18612722
44	0x3d66ec34	0.056377605
45	0x3e36d62c	0.17855138
46	0x3c3a2c22	0.011363061
47	0x3cf464f2	0.02983329
48	0xba9f8ea9	-0.0012173253
49	0xbe036132	-0.12830046
50	0xbd2e6618	-0.042577833
51	0x3e76799c	0.24069828
52	0xbcd15234	-0.025551893
53	0xbd12ab46	-0.03580787
54	0xbcc9ed47	-0.024649275
55	0x3d09ac0b	0.03361134
56	0x3e148732	0.14504698
57	0x3e859f5a	0.26098138
58	0x3d90e179	0.070742555
59	0xbd2e7341	-0.042590383
60	0x3e047a8a	0.1293737
61	0x3e5cb91b	0.21554987
62	0x3e920678	0.2852056
63	0x3e5a6668	0.21328127
64	0x3d0157ed	0.031577993
65	0xbbca2c82	-0.0061698565
66	0x3db2c3f8	0.08728784
67	0x3b23c442	0.0024988805
68	0xbe0c881e	-0.137238
69	0x3bc107b0	0.005890809
70	0xbd8f2f03	-0.06991389
71	0xbd706b23	-0.058695924
72	0x3ea48c4d	0.3213829
73	0xbb5b9c70	-0.0033509992
74	0xbd9f9ace	-0.077931985
75	0x3e211da2	0.1573396
76	0xbcdb9c25	-0.026807854
77	0x3e858954	0.26081336
78	0x3cb6ee3b	0.022330394
79	0x3e39e12c	0.18152303
80	0xbe75b28a	-0.23993888
81	0xbc8977fe	-0.01678085
82	0x3e9006f1	0.28130296
83	0xbe4e2880	-0.20132637
84	0xbd577aea	-0.052607454
85	0xbe5232d5	-0.20527203
86	0xbd384ace	-0.044993214
87	0x3e25ec87	0.1620351
88	0xbe690a84	-0.22757918
89	0x3e0b7073	0.13617115
90	0x3e38d81d	0.1805119
91	0x3bd30125	0.0064393454
92	0x3f18ce9d	0.59690267
93	0x3e846b07	0.25862905
94	0xbe252624	-0.1612783
95	0xbe695f36	-0.22790226
96	0x3c761231	0.015018986
97	0xbd88d3a3	-0.066809915
98	0xbe000d7e	-0.12505147
99	0xbbd7af0e	-0.0065821474
100	0x3e7f79c8	0.249488
101	0xbd1efa28	-0.038812786
102	0x3eb2c246	0.34913844
103	0xbdfa7272	-0.1222886
104	0x3e192175	0.14954169
105	0x3e1aab70	0.1510446
106	0x3ec3400a	0.38134795
107	0x3e0d4996	0.13797602
108	0xbdefbc7a	-0.11705871
109	0x3c8c1a0a	0.01710226
110	0xbd1fa348	-0.038974077
111	0x3e9784ab	0.29593405
112	0xbe0370d1	-0.12836005
113	0x3e2ea7c8	0.17056191
114	0xbe066a17	-0.13126408
115	0xbd9d9f8e	-0.07696448
116	0xbe0db068	-0.13836825
117	0x3ab4a981	0.0013783426
118	0xbd9ac3a2	-0.07556845
119	0x3da502ac	0.0805715
120	0x3eb0051b	0.34378895
121	0xbd2bd76e	-0.041953497
122	0xbe12af2b	-0.14324634
123	0x3c6181a6	0.013763821
124	0x3dcb7894	0.09935108
125	0x3c3de6c7	0.011590666
126	0xbd470663	-0.048590075
127	0xbe2b20c1	-0.16711713
128	0x3e40207c	0.18762392
129	0xbd6c1126	-0.05763354
130	0x3d206039	0.039154265
131	0xbd6a2e95	-0.05717333
132	0xbd3c98a4	-0.046044007
133	0xbc99826d	-0.01873895
134	0x3cd5ea29	0.026112633
135	0xbd97d3ae	-0.074134216
136	0x3c5d8a92	0.013521807
137	0x3d3a3247	0.045458104
138	0x3c7f8b8e	0.015597237
139	0xbe20c276	-0.15699181
140	0xbda36c2e	-0.07979618
141	0xbdbe81ff	-0.093021385
142	0xbdc2b3f4	-0.095069796
143	0xbe213043	-0.15741067
144	0x3e079a1b	0.1324238
145	0xbe1f04ea	-0.15529218
146	0x3e0ced3c	0.13762373
147	0x3e83ad60	0.25718212
148	0xbd115d84	-0.035489574
149	0xbd91b496	-0.07114522
150	0xbdb1ce79	-0.0868196
151	0x3e9d248c	0.30691946
152	0x3c285dff	0.010276317
153	0x3af149ed	0.0018408872
154	0xbdb8b8ca	-0.09019621
155	0x3dc3bdb6	0.09557669
156	0xbd960307	-0.07324796
157	0x3d864d62	0.06557728
158	0xbd03ed0d	-0.03220849
159	0x3ce7b866	0.02828617
160	0xbcad7bde	-0.021177229
161	0xbdc8c75c	-0.0980365
162	0x3e9f5286	0.31117648
163	0xbcbbda23	-0.022931164
164	0x3dac5242	0.08414127
165	0x3daf8af9	0.08571429
166	0xbdb02c50	-0.08602202
167	0x3e30783d	0.17233367
168	0x3d4ee425	0.050510544
169	0x3eb66d61	0.35630324
170	0x3e02d7cc	0.12777632
171	0x3bb55395	0.0055336454
172	0x3e7e7efa	0.24853125
173	0xbc3f1d25	-0.011664663
174	0xbe47189c	-0.19442981
175	0xbde979d0	-0.11400187
176	0x3dc27129	0.0949424
177	0xbe2214c4	-0.15828234
178	0x3dcfb5b5	0.1014208
179	0x3e06e20c	0.13172168
180	0x3e0f5c73	0.1400011
181	0xbd95841f	-0.07300591
182	0xbda46806	-0.080276534
183	0x3e12c422	0.14332631
184	0x3ded8360	0.115973234
185	0x3d518164	0.051148787
186	0x3cbd2a36	0.023091417
187	0x3d29f57d	0.04149388
188	0x3e9045cf	0.2817826
189	0xbe5ae404	-0.21376044
190	0x3e24f1c6	0.16107854
191	0xbd6927d2	-0.05692274
192	0x3d00f7fe	0.031486504
193	0xbcf7bb63	-0.03024072
194	0xbbec62a8	-0.007213909
195	0x3db74ba3	0.089499734
196	0xbe59dfd4	-0.2127679
197	0x3cec5b63	0.02885217
198	0x3e26660c	0.16249865
199	0x3dd5004f	0.104004495
200	0x3cbe43cb	0.023225686
201	0x3d741aaa	0.05959574
202	0x3eb273aa	0.3485387
203	0x3eb17bb6	0.34664696
204	0xbddbc469	-0.10730822
205	0x3e7bec66	0.24601898
206	0xbe0598b6	-0.13046536
207	0x3dd3bed3	0.10339131
208	0x3e8e304f	0.27771232
209	0x3d7dbf39	0.061949942
210	0x3cd56805	0.026050577
211	0xbcd22875	-0.025654057
212	0x3df588d6	0.1198899
213	0x3d7f1579	0.062276337
214	0x3e15f96a	0.14645925
215	0xbdb6604d	-0.08905087
216	0xbd6a377e	-0.057181828
217	0x3cef28a4	0.029194184
218	0xb9a4c4e3	-0.0003142721
219	0xbe0b3df9	-0.1359786
220	0x3e06b4c0	0.13154888
221	0x3a83e35f	0.0010062269
222	0xbc5a7131	-0.013332651
223	0xbdcbc51a	-0.099497035
224	0x3d7a5186	0.061112903
225	0x3e5a4de8	0.21318781
226	0x3ddea476	0.10871212
227	0xbbded3c7	-0.006800148
228	0x3d5228ad	0.051308323
229	0x3e409f77	0.18810831
230	0xbd91d969	-0.07121546
231	0x3e7abfa7	0.24487172
232	0xbe20f30f	-0.1571772
233	0x3d7e1957	0.062035885
234	0x3c8ed8d7	0.017437382
235	0xbcda9a2c	-0.026684843
236	0xbd49c7cc	-0.049262807
237	0x3d280971	0.04102463
238	0x3ebbe2e8	0.36696553
239	0x3e672112	0.22571209
240	0x3dcdeff2	0.100555316
241	0xbc9c2c9f	-0.019064246
242	0xbd8a621d	-0.06756995
243	0xbd399e02	-0.045316704
244	0x3df95cd2	0.12175907
245	0x3e45592e	0.192723
246	0xbe233c52	-0.15940979
247	0x3eab9d63	0.33518514
248	0x3e67492a	0.22586504
249	0x3c3246f3	0.010881173
250	0x3df7fea3	0.12109115
251	0x3bef9e4f	0.007312573
252	0xbdda015f	-0.10644793
253	0x3e6d516f	0.23175596
254	0xbe19af8c	-0.15008372
255	0x3c9e0380	0.019288778

classifier.5.bias f4 [10]
0	0xb9cf4c12	-0.00039538793
1	0x3defd8e8	0.117112935
2	0xbde7830e	-0.113042936
3	0x3e1ef777	0.15524088
4	0x3df8ffbc	0.121581525
5	0x3e244710	0.16042733
6	0x3e14843a	0.14503565
7	0x3e1acb08	0.15116513
8	0x3e3847ed	0.17996188
9	0x3ec33d0e	0.3813252
