experiments/LeNet/FashionMNIST/experiment-7/last-epoch.pt (torch, 188203 bytes, 18 tensors)

conv1.weight f4 [6, 1, 5, 5]
000000 ed 3b 73 be b3 f3 28 be dc d6 2a 3e e3 65 43 3e
       -0.23753329 -0.16499214 0.16683525 0.19081835
000010 ae a0 33 bd 20 c3 aa 3c ba 66 c2 3e de 3b ae 3c
       -0.043854408 0.020844996 0.37969 0.021268781
000020 f4 cc 68 be c6 e2 51 be b9 b8 5c 3e 58 c5 a6 3e
       -0.22734433 -0.20496663 0.21554841 0.32572436
000030 50 9f 52 3e c4 89 d4 3c 65 c3 66 be e6 63 b0 3e
       0.20568585 0.025944598 -0.22535475 0.34451216
000040 8f fb d3 3e df 2c 68 bd 31 bb 2a be 9a 42 3c bf
       0.4140286 -0.056683417 -0.1667297 -0.73539126
000050 36 ab 9e bd a8 c3 e1 be b9 05 d9 be e3 4a c4 be
       -0.077475 -0.44094586 -0.4238718 -0.38338384
000060 93 f3 88 be 3d 93 c8 3e ae 5d f9 3e 8c e3 89 bd
       -0.26748332 0.39174834 0.48704284 -0.06732854
000070 16 e7 5e 3e 70 c0 d7 3c d1 95 36 3e d6 bd 9e 3e
       0.2176784 0.026336879 0.17830588 0.31004208
000080 2e e1 33 3e 69 a3 a1 3e da 4a a0 bd 00 ca 8a 3d
       0.17566368 0.31569985 -0.07826777 0.0677681
000090 17 ae d0 3c 44 a9 81 be a3 b1 b2 bc 45 b1 36 3e
       0.025473638 -0.25324452 -0.02181322 0.1784106
0000a0 26 a2 05 bc 31 b6 55 be 42 1e 13 bf a4 10 c0 bb
       -0.008156335 -0.20870282 -0.57468045 -0.0058613587
0000b0 2e ea ec 3e be 8b 5d 3d ab c3 c8 3e 89 49 d1 be
       0.46272415 0.054088347 0.39211783 -0.40876415
0000c0 9e 5f e3 be 20 39 ff bd 4e 0f 4a 3d fe 2c 54 3d
       -0.44408888 -0.124620676 0.049331002 0.05180072
0000d0 b4 40 b4 3e 01 6f 00 bf 10 e0 24 3d a7 5a 37 3f
       0.35205615 -0.5016938 0.040252745 0.716227
0000e0 39 12 9a be d1 fb cc be 42 eb 2c 3e d5 93 fd bd
       -0.30092028 -0.4003587 0.16886619 -0.12381712
0000f0 5a ed 43 3f 44 69 3e be 91 bd 9b bf c2 24 35 3f
       0.76534045 -0.18594843 -1.2167226 0.7075921
000100 f5 b4 1a 3c 1a 4b 95 3e cd 17 e0 be 34 15 3a bf
       0.009442558 0.2915886 -0.4376816 -0.72688603
000110 f0 25 86 3f a8 23 56 bd e5 6d 7a be 74 55 57 bf
       1.0480328 -0.0522801 -0.24455984 -0.84114766
000120 ca 89 72 be 4e ce 18 3f 3c 0b 28 3f ea 50 b9 bd
       -0.23685375 0.59689796 0.6564214 -0.09048636
000130 2f 28 51 be fb 66 36 be 61 e5 c1 be 53 9a 52 3e
       -0.20425485 -0.17812721 -0.37870315 0.20566683
000140 16 a9 45 3e 91 1c 1b be 0d 42 23 bf 41 21 1d bf
       0.19302782 -0.15147616 -0.6377266 -0.61378866
000150 28 89 39 be 0c e5 2c 3a 31 c8 16 3e 07 c0 14 3d
       -0.18118727 0.000659541 0.14724804 0.036315944
000160 20 16 d7 be e9 32 5a 3d 11 1c d6 bd 91 fb c3 bc
       -0.42009068 0.053271208 -0.10454572 -0.023923667
000170 78 e8 32 bd af 51 0a be 9b 4e 37 3e 0a 15 26 3e
       -0.04367873 -0.13507722 0.1790108 0.16218963
000180 04 a8 56 3e 7b 40 19 3e df 1e b2 be 0a 61 45 be
       0.2096253 0.14966004 -0.34789178 -0.19275299
000190 e3 ad 1c bf a7 0d b7 bf fa ab 04 bf 05 52 b2 be
       -0.6120283 -1.4301041 -0.51824915 -0.348282
0001a0 f5 7d 5b 3e fa ca f9 3e c5 fd b0 be 6c 2b de be
       0.21434768 0.4878767 -0.3456861 -0.43392503
0001b0 82 9c 45 be d1 ab 7a 3e 78 d7 f5 3d 42 0c e2 3e
       -0.19297984 0.24479605 0.12003988 0.44149977
0001c0 d7 21 90 3e 75 ac 04 3d d3 4e 23 be 09 08 c8 bc
       0.28150818 0.03239103 -0.15948038 -0.024417894
0001d0 45 64 04 3d d4 d1 f5 3d 2a 8e b6 3e c5 89 08 be
       0.032322187 0.12002912 0.35655338 -0.13333805
0001e0 d9 65 93 bd 03 6c c7 3e b8 c8 1b be 9d cd a2 bb
       -0.0719716 0.38949594 -0.15213287 -0.0049683587
0001f0 44 8c 1e bd 9c 78 67 3e 28 d7 ee 3e 4f d7 a5 3e
       -0.038707986 0.22604603 0.46648526 0.3239083
000200 96 70 53 3e 43 62 dd bd e7 c9 6e be b1 3f 0f 3e
       0.20648417 -0.108097576 -0.23319207 0.1398914
000210 90 b6 bc 3e cd 22 b1 3e a0 72 63 bc dd 79 a4 be
       0.36858034 0.34596863 -0.013882309 -0.32124224
000220 d8 cd e5 3d d6 02 c3 3e 26 39 e9 3e 88 5e 05 bd
       0.11220902 0.380881 0.45551413 -0.032560855
000230 b0 21 8a be d5 04 42 be 7b b0 c7 bd 4c 1d bf 3e
       -0.26978827 -0.18947156 -0.09750458 0.3732704
000240 cd 41 47 3d 31 28 e0 be 17 e1 6f bf 66 fe fa be
       0.048646737 -0.43780664 -0.93702835 -0.49022216
000250 9b 9a 9d be 8a ee fe bd
       -0.30782017 -0.124478415

conv1.bias f4 [6]
000000 63 49 25 3e 5b 02 cc 3d ed e2 10 be bf 37 1f bd
       0.16141276 0.09961387 -0.14149065 -0.038871523
000010 8a be 86 3d 58 ab dd 3d
       0.06579311 0.10823697

conv1_bn.weight f4 [6]
000000 d2 54 72 3f a8 10 25 3f ad a6 6b 3f fb 41 ba 3f
       0.94660676 0.6447854 0.920512 1.4551386
000010 7e 6f bf 3f 89 95 2e 3f
       1.49559 0.6819692

conv1_bn.bias f4 [6]
000000 a7 e8 ad be 25 91 5e be c2 19 81 bd ac 10 53 bf
       -0.33966562 -0.21735056 -0.06303741 -0.82447314
000010 e4 ab 69 bf f2 fb 1e 3e
       -0.9127791 0.15525797

conv1_bn.running_mean f4 [6]
000000 05 58 95 be ec f0 e6 3e 3d d7 e9 bd ad f6 59 bf
       -0.29168716 0.45105684 -0.114180066 -0.8514202
000010 ab 30 04 bf d1 b5 8b 3d
       -0.5163676 0.06821788

conv1_bn.running_var f4 [6]
000000 58 ac c1 3e 22 23 71 3e db bd cd 3e 9f 6c 21 3f
       0.378268 0.23548558 0.4018391 0.6305637
000010 d1 4a 02 3f c0 9e be 3e
       0.5089541 0.37230492

conv2.weight f4 [16, 6, 5, 5]
000000 a0 61 18 be 03 12 3b be 10 98 cb bd e8 e9 9e 3d
       -0.14880991 -0.1826859 -0.09941113 0.07759458
000010 8f 82 99 be f7 88 52 bc a9 af 43 be 1f 5f 8d bd
       -0.2998242 -0.012850038 -0.19109978 -0.069029085
000020 bd 0d 9e 3d b5 7b 02 3e 6c 1f a3 bd c8 71 a7 bc
       0.07717464 0.12742503 -0.079649776 -0.020439997
000030 2e 08 67 3d 4e 5c ca bd e2 79 38 3b 70 b5 22 bc
       0.056404285 -0.09880887 0.002814882 -0.009930953
000040 ce b6 91 3b ee c4 dc 3d 31 16 4e 3b 65 43 1b be
       0.004446841 0.10779749 0.0031446333 -0.15162428
000050 1e f1 ab 3c da af fd 3d 9e 22 6e 3e 18 d8 1f 3d
       0.020988997 0.12387057 0.23255393 0.039024442
000060 55 46 7d be 1b 21 18 be 17 77 aa be fb da 00 bd
       -0.24733861 -0.14856379 -0.33293983 -0.031458836
000070 78 98 86 bd 8f e4 88 3d e3 53 6d 3d 59 58 ba bd
       -0.0657205 0.06684219 0.05794133 -0.09098882
000080 d6 23 96 bd b5 2f 25 be f6 22 a4 bc d4 96 89 3d
       -0.07331054 -0.1613148 -0.020036202 0.06718221
000090 b9 bf 8a be e8 5f 22 3d 37 2f 20 bd dc ec 14 3e
       -0.27099398 0.039642245 -0.039107528 0.1454348
0000a0 1a b0 cf 3d d4 66 cd bd ac 15 6f 3e f5 88 c2 3c
       0.101410106 -0.100293785 0.23348111 0.023746947
0000b0 4a ce df 3d bc d9 0a be d2 bb 15 3e 70 5a 99 3e
       0.109280184 -0.13559622 0.14622429 0.2995181
0000c0 00 8c ee 3d b9 24 c2 ba 82 cf ea bd ae 02 b1 be
       0.11647797 -0.001481197 -0.1146536 -0.34572357
0000d0 28 29 bb be b8 b6 fc be 84 d6 95 be 23 df 1c 3b
       -0.36554837 -0.49358153 -0.29265225 0.002393671
0000e0 e1 c2 af bd f6 7e 8e be e4 ce 27 3d af 27 4f be
       -0.08582092 -0.27831239 0.04096879 -0.20229982
0000f0 b4 dc bb 3d 2f 27 c0 3d 93 5e 09 be 1d f5 41 3d
       0.09172955 0.09382474 -0.13414983 0.0473529
000100 7c ec db 3c 73 7e 2d bb 69 e3 fb bc 49 8e b9 3c
       0.026846163 -0.0026473075 -0.030748086 0.022650855
000110 2a d0 42 3b 65 76 57 3e e0 36 ed bd fb 3e 61 be
       0.0029726126 0.21041258 -0.11582732 -0.21996681
000120 6d 45 9d bd bb 47 f0 bd e8 6e 2d 3e 26 a4 f4 bd
       -0.076792575 -0.117324315 0.16936839 -0.11945371
000130 63 2d 9a bd c7 58 5c bd 61 47 6a 3e 56 d0 81 be
       -0.07528188 -0.053795602 0.22878791 -0.2535426
000140 2e 3b 16 3d 42 6e 3b bd 8d 35 90 3c 1f c9 7b 3d
       0.036677532 -0.045759447 0.01760366 0.0614711
000150 9f d6 74 bd 9d 76 21 bd 78 72 88 bc c2 f1 74 bc
       -0.05977499 -0.03941976 -0.016656145 -0.014950218
000160 86 51 38 bb ad fd 71 bd 96 b9 90 bc 19 56 c4 bd
       -0.0028124764 -0.059079815 -0.01766662 -0.09586734
000170 5f d4 71 bd 3d 5e 06 3c b7 65 c1 bd 81 d5 eb bd
       -0.059040423 0.008201179 -0.09443229 -0.11515332
000180 05 14 8c 3d 99 c0 6f 3d ba 05 fb 3d 43 cb ef bc
       0.06839756 0.058533285 0.12256952 -0.029271727
000190 47 ee 0b 3e c7 fc f5 bd b5 e6 08 3e 81 ed 59 3e
       0.13665114 -0.12011104 0.13369258 0.21282007
0001a0 7c f7 87 3d 9b f3 88 be 87 6e 9f bd d9 4d 1d bd
       0.06639001 -0.26748356 -0.07784753 -0.03840432
0001b0 75 15 b2 39 e1 04 24 be f8 fb ce 3d 24 a9 b2 3d
       0.00033966792 -0.16017486 0.10106653 0.08723667
0001c0 3e 42 22 3d 3e 6d 0a 3e f4 d7 90 bd da 80 bf bd
       0.039613955 0.13518235 -0.0707244 -0.09350748
0001d0 ce 54 b7 3d 08 14 0c bc 80 79 96 3d bf c2 5e bc
       0.08951722 -0.008549698 0.07347393 -0.013596236
0001e0 35 60 05 3b 70 6a b3 3d 31 c0 01 bd e5 ae b8 3d
       0.0020351533 0.08760536 -0.03167743 0.090177335
0001f0 e7 cb fb bd 55 df 55 3d 1c 5a 84 3e 87 24 e1 3d
       -0.12294751 0.05221494 0.25849998 0.10993295
000200 7d 46 27 bd 07 56 58 3e a7 89 0c be 54 ff 79 3e
       -0.040838707 0.21126567 -0.13724385 0.24413806
000210 10 88 32 bd a6 dc 8d be 68 d1 fa 3d de 99 72 bc
       -0.04358679 -0.27707404 0.12246972 -0.014807193
000220 56 e5 7b 3b ba 9c d5 bc 8d d2 0c be 70 e0 0d 3e
       0.0038436255 -0.02607571 -0.13752194 0.13855147
000230 98 f1 f9 3b cc eb ed bc f1 dc 9e 3d 08 77 03 be
       0.007627677 -0.0290431 0.07756985 -0.12838376
000240 03 de bf bb 64 e6 42 bd af 3c bf be 39 65 55 bd
       -0.0058553233 -0.047583 -0.37350985 -0.052098487
000250 97 df 80 be 7d 43 d4 3e ea 36 67 3d ca 94 04 be
       -0.25170586 0.4145774 0.056448855 -0.12947384
000260 f9 f2 fa bd 54 b8 ca bd dc 77 4b be 50 59 a3 3c
       -0.122533746 -0.09898439 -0.19869941 0.019940048
000270 cd 77 95 3d 55 42 8e 3d 0c 01 f8 bd 6a 4d cc 3d
       0.07298241 0.069462456 -0.12109575 0.09975703
000280 80 3c bf 3c b0 da fa 3c ce 40 ad bb 9b 8f 88 3c
       0.023344278 0.030621856 -0.0052872663 0.016670039
000290 49 be 71 3e 86 eb e1 3d f2 04 79 3d c0 c5 fc bd
       0.23607744 0.11031251 0.06079573 -0.12342405
0002a0 d9 13 d6 bd cc 6b 56 3e e3 ae 05 bd 74 cf 03 3d
       -0.104530044 0.20939559 -0.032637488 0.032180265
0002b0 a8 31 a4 bd fd 49 e1 bd 77 c8 6f 3e 7a 39 22 be
       -0.08017284 -0.1100044 0.23416315 -0.15842238
0002c0 20 e8 a7 bd 5b 84 91 bd ea c1 70 be 1f 54 7c bd
       -0.08198571 -0.07105323 -0.23511472 -0.06160366
0002d0 d2 7f d3 bc 58 14 5f 3e 8a 56 4d bd 55 0c ec bd
       -0.025817785 0.21785104 -0.05013136 -0.1152579
0002e0 80 69 30 3d e6 03 bc bc 3d a0 ca 3d de b8 7d bd
       0.043069363 -0.022951078 0.09893844 -0.06194388
0002f0 e7 a5 b0 bd be 4c e0 bd 39 10 57 3c 7c ef aa 3d
       -0.08625393 -0.109521374 0.013126426 0.08346459
000300 bd af 87 3d 0b b6 c2 3d b1 87 7b bd 38 8a 85 bd
       0.06625316 0.09507378 -0.061408702 -0.06520504
000310 b6 4f 9e bd 63 9a 20 3d 50 95 2a bc 5d c3 9d be
       -0.077300474 0.039209735 -0.010411575 -0.30813113
000320 2e fd 81 3e f2 30 00 bc 60 4a 15 3e ce 89 37 be
       0.25388473 -0.0078241695 0.14579153 -0.17923662
000330 9d 82 33 be a9 df 19 3e 30 80 34 be a7 f5 4b be
       -0.17530294 0.15026726 -0.17627025 -0.19917928
000340 c1 e9 d8 3d ed 09 87 bd 50 09 f9 3d 0d 20 1a 3e
       0.1059146 -0.0659369 0.12159979 0.15051289
000350 5e 94 8a bc a3 2c 43 3e 94 69 38 3e 17 e5 9d 3d
       -0.01691645 0.19059996 0.18009025 0.07709711
000360 db 25 df 3e 4c aa 88 3d 2c b1 02 be 93 80 e8 3c
       0.4358357 0.066731066 -0.12762898 0.028381621
000370 c4 17 13 bd b0 a4 22 3d 6d ec 8c bd dd 4e 0e 3e
       -0.035911337 0.03970784 -0.06881032 0.13897271
000380 ed df 8a 3c 9b ef b8 3c 8b ec cf 3d 99 6e 34 be
       0.01695248 0.02257519 0.10152539 -0.17620315
000390 bc c0 a9 bd a3 b0 98 bd 9c 97 41 bc 1e 5c a0 bd
       -0.08288714 -0.07455566 -0.011815932 -0.0783007
0003a0 79 d1 b0 bd 48 ba ff bd 43 5c 7a be 6f 30 43 3e
       -0.08633704 -0.12486702 -0.24449258 0.19061445
0003b0 c7 f4 29 3d 91 f9 4c 3e 6b a0 89 3d 5e 31 ed ba
       0.041493203 0.20017077 0.067200504 -0.0018096378
0003c0 93 a9 3e 3e 51 1a 35 bd 84 ad 9d 3d bd 30 77 3e
       0.18619375 -0.04421455 0.07699111 0.24139686
0003d0 d9 80 04 3e 07 0e a9 3d 50 71 5d be 2c dd 6a bd
       0.12939776 0.08254629 -0.21625257 -0.057339832
0003e0 67 1d 0e be 07 c8 1a 3e e0 9d 1f be bd 78 ab 3d
       -0.13878404 0.15115367 -0.15587568 0.083726384
0003f0 5a e7 bf 3d 43 77 c4 bd 24 f7 74 3e 0a e5 2d bd
       0.09370299 -0.0959306 0.23922402 -0.042454757

conv2.bias f4 [16]
000000 f5 95 5d 3d 1e 96 51 bd 4f d6 81 3d 47 72 7b 3d
       0.05409809 -0.051168554 0.06339704 0.06138828
000010 a2 ba a9 3c 7b da 75 3d e6 cc ff 3c 86 1f a2 3d
       0.020718876 0.060022812 0.031225633 0.07916169
000020 ab 6f 9f 3c 85 7b a6 3b 20 cd a6 bd 83 31 a2 3d
       0.019462427 0.0050806426 -0.08144593 0.079196
000030 ec 84 95 bd df 17 d1 3b b8 79 24 bd 96 ad bc 3b
       -0.073007435 0.0063810195 -0.040155143 0.0057579977

conv2_bn.weight f4 [16]
000000 a2 f8 f1 3f 22 d7 d0 3f d7 bd eb 3f 0a 67 f5 3f
       1.8904002 1.6315653 1.841731 1.917207
000010 7c 47 de 3f cc 97 d7 3f 74 de e6 3f 5d b2 bd 3f
       1.7365565 1.68432 1.8036637 1.4820057
000020 c6 f1 c0 3f 73 4e c8 3f ff 9a e2 3f 20 7d d7 3f
       1.5073783 1.5648941 1.7703551 1.683506
000030 ca 3b ef 3f cb 61 f1 3f 8a e4 e7 3f 97 8b e0 3f
       1.8690121 1.8857969 1.811662 1.75426

conv2_bn.bias f4 [16]
000000 02 d9 76 be 24 a5 90 be 4b 2c 92 be d8 73 49 be
       -0.2410622 -0.28250992 -0.28549418 -0.19673097
000010 72 70 a1 be ac 03 64 be c0 9a 59 be 2e 19 04 bd
       -0.315311 -0.22267026 -0.21250439 -0.032250576
000020 91 59 5a be 6b 6f 7b be 57 df 5e be cc ad 3c be
       -0.2132323 -0.24554221 -0.21764885 -0.18425673
000030 22 d3 69 be be b5 5d be b5 16 a8 be 1b f8 82 be
       -0.22834447 -0.2165136 -0.32829824 -0.25579914

conv2_bn.running_mean f4 [16]
000000 6d c3 32 bf e3 98 3c 3e 4b 98 6b be 41 80 8b 3e
       -0.69829446 0.18417697 -0.23007314 0.27246287
000010 9d 52 a9 3c 55 5b c4 be 73 bf 09 bd a6 15 8f 3e
       0.020669276 -0.3835093 -0.033629846 0.27946204
000020 1c 41 51 bf f1 0b 13 3e c3 c0 d7 bd 1f 6d d7 be
       -0.81739974 0.14360024 -0.10534813 -0.4207544
000030 53 6f 31 3e ff 1d c5 be 07 eb ae 3b 56 4b 57 3d
       0.17327623 -0.38499448 0.005338076 0.05256208

conv2_bn.running_var f4 [16]
000000 51 61 07 3f 2d 36 78 3e b5 ad b0 3e 33 03 ae 3e
       0.5288287 0.24239416 0.34507528 0.33986816
000010 53 18 98 3e 79 16 f1 3e 64 1f c1 3e d6 8a 06 3f
       0.29706058 0.47087458 0.37719262 0.52555597
000020 fd dd c3 3e b0 1c ae 3e 64 0f ed 3e c2 6b ef 3e
       0.382553 0.34006262 0.46300805 0.467619
000030 64 ed c6 3e 7f 21 ca 3e 0b 6d 73 3e f7 56 8a 3e
       0.3885299 0.3947868 0.23772065 0.27019474

fc1.weight f4 [120, 256]
000000 1a 0f da 3d c0 82 1d be 40 8f 94 bc 48 96 a9 bd
       0.10647412 -0.15381908 -0.018134713 -0.08280617
000010 a7 20 b4 3b 1d cf 3d bc ab 7b 10 bd 88 e1 8a bc
       0.0054970565 -0.011585024 -0.03527419 -0.016953245
000020 cb f3 86 38 81 64 d6 3d 1d 0e 85 3d 11 df 86 bd
       6.435028e-05 0.10468388 0.064968325 -0.06585515
000030 fd 13 e3 3c 23 1a 6e 3c 76 37 6e bb 65 1f 14 bd
       0.027719492 0.014532599 -0.0036348975 -0.036162753
000040 cb 60 e5 bd 8e 1d c7 bb a4 fe 2a 3d c8 a9 36 bd
       -0.112001024 -0.0060765212 0.04174675 -0.04459551
000050 9b d1 59 bd c6 58 b7 bc ff 69 5f 3d 09 23 3c 3c
       -0.05317841 -0.022381198 0.054544445 0.011482962
000060 13 2e 61 bb 7e 50 03 3e 3a 07 2b bd 7d c1 80 bd
       -0.0034359738 0.12823674 -0.04175494 -0.06286905
000070 56 c4 7e bd 74 c7 a2 bd c2 e4 51 3c 88 5a 42 bd
       -0.06219896 -0.07948199 0.012810888 -0.04744962
000080 0d 98 dc bc cd 83 d3 3b 84 f7 d3 bd 6b fe 0f 3d
       -0.026927972 0.006454921 -0.10349944 0.03515474
000090 48 38 37 ba e3 10 0b bd b0 89 33 bd b1 d9 3d 3d
       -0.00069892826 -0.03395165 -0.04383248 0.046350185
0000a0 c0 bc 96 3d 7a 3e 31 bc eb 22 81 bd cf 11 e0 3d
       0.0736022 -0.010818118 -0.06305488 0.10940897
0000b0 70 56 c1 3d 96 a2 b8 bc b9 ab 84 bd 42 a9 ab 3d
       0.09440315 -0.022538465 -0.06478066 0.08381893
0000c0 d1 a3 8e bd 97 88 87 3d c1 5f 78 be 9f 0c 9c 3e
       -0.06964839 0.06617849 -0.24255277 0.3047838
0000d0 db c5 b0 bc f1 a6 67 3d 04 d3 92 3d 06 ef fd 3d
       -0.02157872 0.056555692 0.07169154 0.12399106
0000e0 b2 c7 7b bb 1f 72 6f bc 9b 9b 24 bc e3 95 9e 3d
       -0.0038418588 -0.014614611 -0.010046865 0.077434324
0000f0 95 80 4f bd 95 9a 5f 3b c9 87 22 be 7e ac f2 bc
       -0.050659735 0.0034119238 -0.1587211 -0.029623266
000100 af 89 3c be bf e6 ae 3c d9 7b e4 bd f8 57 2a 3c
       -0.18411897 0.021350263 -0.111564346 0.01039695
000110 40 d9 a3 3d 03 08 da 3c f8 d0 8a bc c1 3c 22 3e
       0.080004215 0.026615148 -0.016945347 0.15843488
000120 13 b7 d4 3d 91 a9 da bd 2f aa 10 3c 89 00 95 bd
       0.10386481 -0.106768735 0.008829637 -0.07275493
000130 23 12 8c 3e be 22 76 bd b8 b0 e0 3c 0d 71 fa bc
       0.27357587 -0.060091726 0.027428016 -0.030571485
000140 3c 1a 35 bd 67 76 d0 bd 03 ce 45 bb a5 79 c8 bd
       -0.044214472 -0.101788335 -0.0030182607 -0.09788827
000150 78 87 d0 bb cb 02 5e bd db 24 bb 3d f1 44 9f 3d
       -0.0063638054 -0.054201882 0.09137889 0.077768214
000160 cf aa 9e 3d 27 6d f0 bd 6a a9 19 3b d2 78 75 3c
       0.07747423 -0.11739569 0.0023446926 0.014982419
000170 6b c3 91 3d a1 1a df bc 7d 06 df bd 04 d9 10 bd
       0.07117351 -0.027234377 -0.108899094 -0.035363212
000180 42 c6 ab 3d c1 6a 97 3b 90 32 1d bc 8c 8c 03 3e
       0.08387424 0.0046208804 -0.009594575 0.12846583
000190 cc fa 31 3e 1e 96 4e 3d 42 38 7a 3d 82 a3 5b 3d
       0.17380828 0.05043613 0.061088808 0.05362273
0001a0 81 4b 07 3e b2 23 4b 3d ef 25 14 3e c2 ae c1 3d
       0.13212396 0.04959459 0.14467596 0.094571605
0001b0 18 01 87 bd 49 47 87 bc db d6 10 3d 17 07 9f 3c
       -0.065920055 -0.016513484 0.035361152 0.01941256
0001c0 ae 0c 10 be 85 93 10 bd 19 f5 28 be 72 00 5a bd
       -0.14067337 -0.035296936 -0.16499747 -0.05322308
0001d0 2c 6f 0f bd 1c f0 85 bd b4 2c a4 3c 30 73 5b 3c
       -0.03501813 -0.06539938 0.020040847 0.013394162
0001e0 3d 17 05 bd 9e 2b 1c bd a5 8f 09 bb 60 9c d2 bd
       -0.032492865 -0.038127534 -0.002099016 -0.102837324
0001f0 d5 ae 83 bd 44 62 e9 bd aa 46 a5 3c 52 67 8d 3d
       -0.06429831 -0.11395696 0.020175297 0.069044724
000200 85 0a 96 bc 04 73 27 3e 47 49 6c 3c aa f6 24 3d
       -0.018315563 0.16352469 0.014421768 0.0402743
000210 f0 5a c0 bd d7 5b 2e bc 2e c2 e0 bd 1f c3 99 bd
       -0.09392345 -0.0106420135 -0.10974537 -0.075079195
000220 96 75 38 bc 5e 6f bb 37 d3 9a ac bc 8b dd 09 be
       -0.011258503 2.2343997e-05 -0.02106992 -0.13463418
000230 54 73 8e bc 98 e5 04 3d 44 5d 1e bc 5a c1 e9 bd
       -0.017388977 0.03244552 -0.009665791 -0.11413832
000240 60 73 a5 3c ca f3 1e bd 57 9d 82 3d 2f f3 ac 3d
       0.020196617 -0.038806714 0.063776664 0.08444821
000250 bf 95 ba 3c 3e cd 84 bc 99 2d ea bc 2a fc 0f 3c
       0.022776483 -0.016211148 -0.028586196 0.008788148
000260 8d e5 3e bd 59 f3 51 bd 1a d1 0b 3d 8e 1f 15 3d
       -0.046605635 -0.051257465 0.03413496 0.036407046
000270 ed 2a e8 3d e1 7c 8a bd 8a 47 f0 bc 51 00 e5 3d
       0.113363124 -0.067621 -0.029330987 0.11181701
000280 13 df 9c 3d 08 57 57 bd 94 da 2e 3b e8 0a 03 3d
       0.076597355 -0.052573234 0.0026680576 0.031992823
000290 02 fb 44 3d 89 ae f5 3c a0 c3 f7 3b a7 52 b9 bd
       0.048090942 0.029990451 0.007561162 -0.09048968
0002a0 ed cc ac 3c 58 cb b2 3d 40 bb 43 bd eb 7b 8a 3c
       0.02109381 0.08730191 -0.047785997 0.016904792
0002b0 ff 67 66 bb 81 d1 5c 3c 3d 5f 9f bd 43 23 28 3e
       -0.0035157201 0.013477684 -0.07781837 0.16419701
0002c0 2d 59 f5 bd 40 ad ed bd b9 ae 37 3e b9 23 ab bd
       -0.119798996 -0.116053104 0.17937745 -0.08356423
0002d0 bc 41 1d 3d 7e ad 84 3d e6 e0 27 bc ee 36 a9 b8
       0.038392767 0.064784035 -0.010246491 -8.0687794e-05
0002e0 51 7f 81 3c f4 7f 04 bd e5 a4 01 3d 7d 39 c6 3c
       0.01580778 -0.032348588 0.031651396 0.024197334
0002f0 fb 0b 80 3c 7c f9 6b bd 21 0f 98 3d ce fe 3f 3d
       0.015630713 -0.057610974 0.074247606 0.04687386
000300 9b 34 58 3d e3 c2 9e 3d 48 ea 0a bd 49 7d 5e 3a
       0.052784543 0.077520154 -0.033914834 0.0008487297
000310 3e 38 91 3d b0 00 1e bd d9 f2 20 3d ed 2b 26 bb
       0.070908055 -0.038574874 0.039294098 -0.0025355772
000320 a3 aa 99 3c f7 73 87 bd 36 e9 a1 3d ed 75 2a 3d
       0.018758124 -0.066139154 0.079058096 0.04161637
000330 82 5f 3d 3e d1 da 6d bd e2 40 d2 3d 3a 41 a0 bd
       0.18493465 -0.058070008 0.10266282 -0.07824941
000340 18 25 c3 3c 33 0b 4c bb 77 29 cb bd 0a 1e f2 3d
       0.023821399 -0.0031134605 -0.09920018 0.11822136
000350 43 5a 3a bd 87 46 9d bd 38 e0 c8 3d a4 01 8d 3d
       -0.045496237 -0.07679468 0.09808391 0.068850785
000360 b0 59 16 3e 78 e3 78 3d 7f b2 72 3c f3 2f eb 3c
       0.1468265 0.060763806 0.014813065 0.028709387
000370 4f db 0a 3d 5a cd 1d bd aa 4b 84 3c 22 f8 5d 3c
       0.033900555 -0.038525917 0.01614936 0.013547929
000380 0b 4a 53 bd 69 8a d2 3c eb ec 84 3d c9 a0 48 be
       -0.051584285 0.025700765 0.06490501 -0.19592585
000390 3c b7 ca 3c a9 c9 bb bd 66 dc 99 3c e5 80 e2 bc
       0.024745576 -0.09169323 0.018781852 -0.027649352
0003a0 1e 41 99 bd 6a d7 39 bd e8 71 8d bc 30 93 12 3d
       -0.07483123 -0.04537145 -0.017266229 0.0357849
0003b0 b8 43 2d 3d 4b 74 87 3d 0c 38 99 3d 70 7b df 3d
       0.04230091 0.06613978 0.07481393 0.10912216
0003c0 5a c5 ff bd c3 ff de 3b 5a 4c 90 bd 7b 57 28 be
       -0.12488814 0.0068053915 -0.07045813 -0.16439621
0003d0 4b 4c d0 bd 18 d3 39 bd a6 48 f8 3b 70 3f 02 be
       -0.10170802 -0.04536733 0.0075770197 -0.12719512
0003e0 c0 4f 06 3d 60 ff cb 3d d4 fa 0f bd e8 93 2d 3d
       0.0327909 0.09960818 -0.035151318 0.042377383
0003f0 40 6a 98 3d a8 bf c1 3d d0 a2 ca bd de b6 bb 3d
       0.074421406 0.09460384 -0.09894335 0.091657385

fc1.bias f4 [120]
000000 ad 74 bf 3d 80 d4 39 bc 66 63 ad 3d b7 94 2e bd
       0.09348426 -0.011342168 0.08466224 -0.042622294
000010 2e d3 aa 3d 2f bb e9 3d 63 1f 14 bc 35 b4 36 bb
       0.083410606 0.114126556 -0.009040686 -0.0027878408
000020 01 ef bd bd 75 11 be 3d e7 c6 7b bd ef d1 5e 3d
       -0.09274102 0.092806734 -0.061468985 0.054399427
000030 77 20 1f bd 2a 7d 80 3d 70 a7 c3 3c 9e 6f 8b bb
       -0.03884932 0.06273873 0.023883551 -0.004255249
000040 eb 21 30 bd 52 ea da 3c 96 f5 5f bd b7 1f 14 3d
       -0.043001097 0.02672306 -0.05467757 0.036163058
000050 c5 41 0f 3d 67 2a b2 3c d4 dc fa bc 45 24 16 bd
       0.034974832 0.021748735 -0.030622877 -0.036655683
000060 2a c1 01 3d 7c 5b 37 3d 15 f4 c2 bc fb 9c ed 3c
       0.031678356 0.04476498 -0.023798028 0.029005518
000070 e7 d8 90 3d e1 7b 11 3d 0d c6 3f bd 89 20 99 bc
       0.07072621 0.03551853 -0.046819735 -0.018692272
000080 2a a3 a7 3d cc a0 74 3d 37 b1 d9 3c 10 dd ad 3d
       0.08185418 0.05972366 0.02657376 0.0848943
000090 26 10 89 bd 41 c3 79 bd f0 d1 78 3b 6d cf 28 3d
       -0.06692533 -0.060977224 0.003796693 0.04121344
0000a0 ca e7 00 be ad f0 b1 3c fc 2f bd 3d c9 76 e6 bd
       -0.1258842 0.021721208 0.09237668 -0.11253125
0000b0 1d 00 9c bd c7 ad 5c 3d 0b 5d b7 ba 35 b2 89 bc
       -0.07617209 0.053876664 -0.0013989521 -0.016808609
0000c0 b5 f5 91 3d 28 48 d5 3d 14 ba 05 bd e4 ed 87 3b
       0.07126943 0.10414153 -0.03264816 0.004148232
0000d0 1b 61 67 bc 4a a5 89 3d 3f 63 91 3c 33 fb d9 3c
       -0.014122273 0.067209795 0.01774752 0.026609039
0000e0 72 74 f1 bc cc e7 af 3d 85 8e 84 ba 3b f2 f0 3c
       -0.02947447 0.085891336 -0.0010113275 0.02941238
0000f0 a4 9a 39 3d 4d 58 14 3d cc 11 75 ba 50 c0 32 3d
       0.045313492 0.036217023 -0.000934866 0.043640435
000100 bb be 81 3d be 10 30 bd 61 9c 4a bd f9 44 bc ba
       0.06335207 -0.042984717 -0.04946554 -0.0014363817
000110 5a ea 16 3d 89 d0 01 3c be 58 9b bc e1 97 b1 3c
       0.03684459 0.007923254 -0.018963214 0.021678867
000120 73 43 ef 3d 85 30 70 bc 35 0a 8c 3c ad 3a 4e 3c
       0.11682787 -0.014660005 0.01709471 0.012587232
000130 f0 b2 29 bd c4 44 9e 3d cc 54 06 bd 5d ce 93 3b
       -0.041430414 0.0772796 -0.032795712 0.0045106844
000140 8d 31 fa 3c 0f 05 62 3d aa 8c e9 3c 31 1f 51 3d
       0.030541206 0.055180606 0.028509457 0.051055137
000150 cc b8 c9 3c 48 72 7a 3c b8 a2 aa 3d 2e b7 04 3d
       0.02462425 0.015286036 0.083318174 0.032401256
000160 1e 81 53 bd f7 69 44 3c c4 74 81 3c 18 3e 1e bd
       -0.051636808 0.011988155 0.015802749 -0.038633436
000170 01 0f 56 3d 40 87 90 bc ce fd f8 ba 0b 0b 20 3d
       0.052260403 -0.017642617 -0.0018996538 0.03907303
000180 bc b0 da ba 9a ea f3 bc 01 80 ec 3c 4f 98 32 3d
       -0.0016684751 -0.029774953 0.02886963 0.043602284
000190 35 6b 1b 3d 0b 56 18 bd ff 67 5b bd f5 a4 86 bd
       0.037944037 -0.037191432 -0.053565975 -0.06574432
0001a0 8e 04 4f bd 8a e8 86 bd 42 94 47 3d 0c eb 8c 3d
       -0.050541453 -0.06587322 0.048725374 0.06880769
0001b0 d9 4f ab bc 5d 2d dd bc 74 e4 99 bd d2 8a 82 bd
       -0.020912098 -0.02699917 -0.07514277 -0.06374134
0001c0 86 74 90 bd 19 c4 80 3d 11 ec d1 bc bb 66 30 bd
       -0.07053475 0.06287403 -0.02562526 -0.04306672
0001d0 e0 4c e1 bd da f6 56 3c e3 48 06 bc 7e 14 97 3d
       -0.11000991 0.013120377 -0.0081960885 0.073769554

fc2.weight f4 [84, 120]
000000 da 0d 1a be 45 f1 6e 3c 72 af 99 bb c5 4c ab bd
       -0.15044346 0.01458389 -0.004690104 -0.08364252
000010 48 58 01 3d 18 82 30 bd 6d e9 ad 3d 6b 73 37 bd
       0.031578332 -0.043092817 0.08491788 -0.044787806
000020 a0 dd 06 3e 41 4c 9e bd 99 dd ec 3d cb 8c 99 bd
       0.1317048 -0.07729388 0.11565704 -0.07497557
000030 f8 7d 4e be c1 b9 7d bc f8 21 87 bd 72 90 08 3e
       -0.20165241 -0.015486182 -0.06598276 0.13336352
000040 15 5d d8 bc 11 d9 54 3d 54 65 4f be 12 eb e7 bc
       -0.026411572 0.051964823 -0.20253497 -0.028310332
000050 ab 4a f1 3d fc 9f 8a bd e9 fd 87 bd aa 64 53 be
       0.1178182 -0.06768796 -0.066402264 -0.20643869
000060 c7 02 99 3d 10 bb 18 be a7 67 c9 3c 6a 7b e0 bd
       0.07471233 -0.14915109 0.024585558 -0.10961039
000070 22 8e 0d be e1 c9 18 3e fb 0b e3 3c 8d 5e 0f 3d
       -0.1382375 0.1492076 0.027715674 0.03500228
000080 77 08 0c 3e 68 2c be 3d 7b c7 87 3d 3d 3e c0 3d
       0.13675104 0.092858136 0.06629845 0.09386871
000090 66 28 62 3d 08 9a 98 3d 66 b3 97 bd 9e b9 b9 3c
       0.05521431 0.07451254 -0.074072644 0.022671517
0000a0 96 90 3b 3e 26 5b 8a 3c 09 6d 7e 3d 42 67 18 3d
       0.18316874 0.016889166 0.062115703 0.03720785
0000b0 46 ca 8a 3e 93 60 61 3e bc 6e a6 bd cd 16 13 3d
       0.27107447 0.22009496 -0.0812659 0.035910416
0000c0 f1 72 64 3d f4 b8 8f bc cd ab b0 3c 4b 23 03 3e
       0.05577368 -0.017544247 0.021566296 0.12806432
0000d0 41 68 12 3d 8b db 0a 39 db 4c 6e 3d dd 5f c5 bc
       0.035743956 0.00013242492 0.058178764 -0.024093563
0000e0 cc c7 99 bc 5d 21 b8 3b 8b 80 f2 bc 06 47 13 bd
       -0.018772028 0.0056192116 -0.02960231 -0.035956405
0000f0 54 85 d9 3c b1 bd 02 3e 33 20 ba bc 23 40 f8 bd
       0.026552834 0.12767674 -0.022720432 -0.12121608
000100 0b 8c 0c 3e 3b 6c 35 3e 52 13 f4 3d 20 a0 70 3c
       0.13725297 0.17717068 0.119177476 0.014686614
000110 99 26 d4 3d 84 89 18 3e 62 42 af bd ec bf 7c bd
       0.103589244 0.14896208 -0.085575834 -0.06170647
000120 47 ae b5 3d 0f 3f ac bd 57 82 1e 3e 34 4e b7 bd
       0.088711314 -0.08410465 0.15479408 -0.08950463
000130 2b 33 92 bd 98 d8 c7 3d 9d d4 92 3d 86 03 9a bd
       -0.07138666 0.09758109 0.07169459 -0.07520203
000140 94 d3 e3 bc 37 67 7b bd 72 96 d4 3d 80 7a 17 bd
       -0.02781085 -0.06137773 0.10380258 -0.03698206
000150 e4 e2 0e 3d fc c6 d9 bc db 9e 5a 3e cd c3 c5 bd
       0.03488435 -0.026584141 0.21349661 -0.09656487
000160 1a 25 19 3c 18 58 08 3e 68 3a 12 3e c1 2f d9 3c
       0.009347225 0.13314855 0.14280093 0.026512029
000170 81 2f bc 3d 53 cb 32 bc e8 a7 98 bd 9e a8 95 bd
       0.09188748 -0.010912734 -0.074539006 -0.07307552
000180 20 eb c6 bc 65 8c 1d 3d 8f 74 79 3d b0 24 58 bc
       -0.024282038 0.03846397 0.060902175 -0.013192341
000190 e2 a8 23 bd f6 7d 69 3d 66 30 da bc fe 29 e8 3d
       -0.03995598 0.05700489 -0.026634406 0.113361344
0001a0 bf b1 18 3d 9b 69 ec bd 71 9a a1 3d 46 9b 05 3b
       0.037278887 -0.1154358 0.078907855 0.002038674
0001b0 e1 22 c6 bc 53 7c bb bd db 0c 83 3d 7a 8f 40 bd
       -0.024186553 -0.09154572 0.06398936 -0.04701183
0001c0 06 13 93 bd 27 c1 58 3e 9a 18 cc 3d 47 6a 06 bd
       -0.07181363 0.21167432 0.0996563 -0.032816198
0001d0 f0 27 0e bd 14 d8 b8 3d 32 e7 d2 3b 4a 39 4a bd
       -0.034706056 0.09025589 0.006436252 -0.04937104
0001e0 6f 1b 5f 3b f7 a7 92 3b 43 21 d8 3b b4 8e ec bc
       0.0034043451 0.0044755894 0.006595762 -0.02887664
0001f0 46 10 8c 3c 78 ae e5 bc ca 71 0e bd d1 ce 52 3d
       0.017097604 -0.028037295 -0.034776486 0.051466767
000200 08 7d 95 bc 75 1b 73 bd 70 3f 92 3d 45 64 46 3d
       -0.018248096 -0.059352357 0.07141006 0.04843547
000210 e1 81 05 bd 92 93 d8 3c 10 03 67 bd 8f fa 49 bd
       -0.032594565 0.026437555 -0.056399405 -0.049311217
000220 f0 c5 42 3d e9 50 4d bd 9f e0 a2 3b f8 f0 13 3c
       0.04755205 -0.05012599 0.0049706246 0.009029619
000230 2e e2 a9 bd 6e 5b 81 3d 56 2b ad bd 4b 0c 85 bc
       -0.082950935 0.06316267 -0.08455531 -0.016241213
000240 0a 15 af 3d 8e c5 88 bd 33 bd fb bc 64 2f 36 bd
       0.08548935 -0.066783056 -0.030729866 -0.04447879
000250 c9 e3 36 bd 35 62 8d 3d a1 db e3 bc 9f 5a ba 3d
       -0.044650827 0.06903497 -0.027814688 0.09099316
000260 c1 37 be 3c 82 84 7f 3d 1b e4 73 bd eb 40 4e bd
       0.023219945 0.06238223 -0.05954371 -0.05035488
000270 26 b8 2a 3d 6c e4 00 3c ce ad b5 3d 9e b4 6b bd
       0.041679524 0.00786696 0.08871041 -0.057545297
000280 de f1 55 bd 8f 6c 8d bc 86 98 04 bd f2 c6 20 3d
       -0.052232616 -0.017263679 -0.03237202 0.03925223
000290 03 4a ac bd 52 ea 77 3d 58 f0 02 bd a9 22 bb 3a
       -0.08412554 0.0605262 -0.03196749 0.0014277297
0002a0 4b 90 4a bd fb 00 84 bd 2f fa 95 bb 33 a0 96 bd
       -0.049454015 -0.064454995 -0.0045769433 -0.07354774
0002b0 c0 67 32 3c 01 18 5c 3b e0 a6 67 3b d8 78 99 3d
       0.010888994 0.0033583643 0.0035347268 0.07493752
0002c0 09 01 98 3d 3b 6d 8d 3d f1 39 d4 b9 17 54 03 3c
       0.074220724 0.069056 -0.0004047896 0.008015654
0002d0 e9 f7 ae bc 03 ed c5 bc 24 c9 80 bd 6b cf 95 bd
       -0.021358447 -0.024160868 -0.062883645 -0.073149525
0002e0 74 fd a8 3d 67 f1 96 bd 2c 11 a8 3d 2f 84 18 bd
       0.08251467 -0.073702626 0.082064 -0.037235435
0002f0 65 9b 8f 3c 27 81 89 bc ff 36 a8 3d 2d aa 85 b9
       0.017530153 -0.016785217 0.08213615 -0.00025494528
000300 f8 89 74 3c 58 07 84 bb ae 5a 21 bd 6c 86 93 bd
       0.014925472 -0.0040291958 -0.03939312 -0.07203373
000310 6c 81 2e bd 0b 06 73 bd 12 02 f3 39 8b 4c 1c bc
       -0.042603895 -0.059331935 0.00046350114 -0.009539734
000320 16 99 0a bd 5a c1 88 bd 4c df 2a 3c 90 cb df bc
       -0.0338374 -0.06677504 0.010429215 -0.027318746
000330 8f bd 3f bd 7c ed 6d bc b4 a3 71 bd 98 76 90 bd
       -0.046811637 -0.014521953 -0.05899401 -0.0705387
000340 10 b9 34 bd 72 a8 9e bd af 76 96 3d 63 5d 4d 3c
       -0.0441218 -0.07746972 0.07346856 0.012534472
000350 f8 2d e8 3c ee 73 11 bd ac 6d ca 3c 9f b5 52 bd
       0.028342232 -0.03551095 0.024710499 -0.05144274
000360 fc 0a c3 bc 96 a9 7a 3d 78 14 3b 3d d8 a8 5c bd
       -0.023808949 0.061196886 0.045673817 -0.05387196
000370 5c ce a9 3d 8c ca ae 3c a3 2b 62 3d be 27 ba bc
       0.08291313 0.021336816 0.055217396 -0.022724029
000380 d4 c4 2a bd 42 9a dd 3c d1 c7 0b 3c ef ee 2d bc
       -0.041691616 0.027051095 0.008531527 -0.010616048
000390 75 e8 20 bd bb 9f a7 3c 8c 7a 1a 3d 54 22 aa 3d
       -0.03928419 0.020461908 0.037714526 0.08307329
0003a0 53 a5 8b bd f0 8b 60 3d d8 da 0b 3d d0 c3 2b bd
       -0.068186425 0.054820955 0.034144253 -0.04193479
0003b0 8b ee cd 3c 4c 86 92 bd 61 16 75 3d eb 04 b8 3d
       0.02513816 -0.07154521 0.059835795 0.08985313
0003c0 b5 21 1d 3d b3 9b 70 3d 0f 02 0b 3e a1 f0 a5 bd
       0.038362224 0.058742236 0.13575004 -0.08102537
0003d0 42 95 f5 3c 93 0a 1c bd 40 79 93 bd 54 b6 6f ba
       0.029978398 -0.03809602 -0.07200861 -0.00091442955
0003e0 c3 79 51 3d 3e 17 bd 3d be 74 d8 3c 29 56 40 bd
       0.05114151 0.09232949 0.026422855 -0.04695717
0003f0 56 b2 d6 3d 1e 78 08 3d 1a b3 44 bd d8 85 11 be
       0.10483234 0.033317678 -0.048022367 -0.14211214

fc2.bias f4 [84]
000000 14 c5 39 3d cf 65 ad bd 31 44 25 3d f4 ac b5 3d
       0.045353964 -0.08466684 0.040348236 0.08870879
000010 e9 17 49 3c 34 6c 93 bd 90 57 55 3d ac cf 77 3d
       0.012273767 -0.071983725 0.05208546 0.060500786
000020 23 d7 9b bc 12 50 af 3c 8b 79 00 3d 0d 2e e3 3d
       -0.019023484 0.021400485 0.031365912 0.11092768
000030 84 98 ed 3b 47 9a de 3c ac d0 93 3d cf 18 0d 3e
       0.0072508473 0.027173175 0.072175354 0.13778995
000040 eb 01 87 3d 80 09 bf 3c a6 4c b7 3d ba 65 ed bc
       0.06592163 0.02331996 0.089501664 -0.028979171
000050 2c 18 ac bd 30 dd 94 3c 11 d3 0a 3e 90 c5 eb 3c
       -0.08403048 0.018171877 0.13557078 0.028780729
000060 63 ab 01 3e 11 e8 79 bd 89 1a cf bd 38 66 31 3e
       0.12663035 -0.06101233 -0.10112483 0.1732415
000070 e1 cf 8f 3c 7e e2 6c bd 82 81 95 bd 2b b5 18 bd
       0.01755518 -0.057833187 -0.07300092 -0.03728215
000080 4f 70 96 3d c4 50 06 3d ef b2 fa 3a 25 c5 8b b9
       0.0734564 0.032791868 0.0019126813 -0.0002665903
000090 18 10 05 be af bb 3e 3d bb 31 7b 3d 6a 44 4b 3e
       -0.1299442 0.046565708 0.061326724 0.19850317
0000a0 62 d9 9a 3d 9a 9c ab bc 67 bf 07 bc e6 35 6d 3d
       0.07560994 -0.020948697 -0.00828538 0.05791273
0000b0 3c bf d8 3c 62 2e d0 3d ef ad 90 bd 76 a1 e4 bd
       0.026458375 0.10165097 -0.07064425 -0.11163609
0000c0 e7 1b 50 3d f7 3f 0f 3e 66 50 a7 3d 23 e5 32 3d
       0.05080786 0.13989244 0.08169632 0.043675553
0000d0 c5 ab 84 bd 94 15 11 3c 90 bf 2b 3e 8b d5 da 3b
       -0.06478075 0.008855242 0.16772294 0.0066782883
0000e0 6b 5f 53 3c 03 02 a2 3d ef 6a 02 3d 46 a8 90 3c
       0.012901167 0.0791054 0.03184026 0.017658364
0000f0 9f 58 4c bc a5 1d 79 3d 0c 72 f9 3d 53 fd 76 bd
       -0.012472301 0.060819287 0.12179956 -0.060300183
000100 67 ee 62 bd 84 b3 3e bc 8e 82 e8 bc aa 0f e9 bc
       -0.05540314 -0.01163948 -0.028382566 -0.028449852
000110 76 19 97 bc d1 d0 54 bd 2a fa a0 bd b6 b6 90 bc
       -0.018444758 -0.051956955 -0.07860215 -0.017665248
000120 11 96 49 3e ad 37 2c 3c 10 c4 8d 3c cd 4f 97 3d
       0.19686152 0.010511321 0.017305404 0.07388268
000130 30 c8 9c bd a1 65 e6 bc d9 fd 2a bd fd 1c 05 3d
       -0.0765537 -0.028124632 -0.041745994 0.03249835
000140 3c 49 bb 3d 05 58 07 be d6 5f 1d 3e 50 64 00 bd
       0.09144828 -0.1321717 0.1536859 -0.031345665

fc3.weight f4 [10, 84]
000000 47 bd 8d be b1 73 89 3d 1d 0a a9 3b e0 36 af bd
       -0.2768347 0.067115195 0.0051586763 -0.085553885
000010 df 02 70 bd 2d 7c 05 be 03 91 d8 bd 3f 15 72 3e
       -0.058596488 -0.1303565 -0.10574534 0.23640917
000020 06 21 a5 3d e1 e1 d2 3c 60 28 d1 3e 0d 6f 6d be
       0.08062939 0.025742473 0.40851116 -0.23186894
000030 89 40 e1 be 39 0c c3 bd 9f 91 ce bd 84 c2 09 3f
       -0.4399455 -0.09523816 -0.10086369 0.5381243
000040 fe f6 fa 3c 54 d1 fc bd d0 84 3b 3d db f2 04 bd
       0.030635353 -0.12344614 0.045780957 -0.032458168
000050 98 af 83 3c 8e 39 82 be f9 f0 21 3e 4a 9c ba bd
       0.01607494 -0.25434536 0.1581458 -0.09111841
000060 46 f8 29 3f 67 29 ca bd 11 3b 85 bc c2 90 5f 3f
       0.6639446 -0.09871178 -0.016263517 0.8733026
000070 8b 7b ec 3d 67 eb 34 be d6 25 81 3e a6 86 6b be
       0.115470015 -0.17667924 0.2522418 -0.23000583
000080 d0 32 93 be 62 28 ee be e8 f0 94 3e d4 80 c2 be
       -0.28749704 -0.46515185 0.29090047 -0.37988913
000090 c5 83 11 3d df 7a 2f be c6 db a9 bd 4d 11 a2 be
       0.035526056 -0.17136715 -0.082938716 -0.31653824
0000a0 52 43 55 bd 80 e1 5f 3e f1 42 a8 bd 94 45 d9 3d
       -0.052066155 0.21863365 -0.08215893 0.10608974
0000b0 c4 66 ca 3d 86 1f 61 bc b0 5e cf 3c 0b f7 3b 3e
       0.09882882 -0.013740426 0.025313705 0.18355958
0000c0 7f 16 13 3d d2 6d 2a 3e b7 4e 5e be 51 79 b2 bd
       0.035910126 0.16643456 -0.21709715 -0.087145455
0000d0 d1 8c a1 3e 02 ec 25 3f 8c 56 f9 be ec 6f b4 bd
       0.31552747 0.64813244 -0.48698843 -0.0881041
0000e0 4c c0 85 be 89 23 a1 3d bd d6 07 be f7 1f cf 3d
       -0.26123273 0.07868106 -0.1326551 0.10113519
0000f0 9a 8f 65 3e 68 6a 97 3e 12 68 81 be 1c a1 1a be
       0.22418061 0.2957337 -0.25274712 -0.15100521
000100 07 2e b8 3d c0 91 15 be 83 b9 86 be 9b c1 94 bd
       0.08993154 -0.1460638 -0.2631341 -0.0726349
000110 92 d6 89 bd 5b 79 ee 3e 61 2f 1e 3d 4c 24 de 3d
       -0.06730379 0.46576962 0.038619403 0.10846767
000120 a6 25 09 bf e9 2f 88 be 04 7d 18 be 8b fa e8 bd
       -0.5357307 -0.26599053 -0.1489144 -0.11375912
000130 9e 90 27 bc 67 5d 8f be e8 75 09 be df 8e d2 bd
       -0.0102273505 -0.28000948 -0.13423884 -0.10281157
000140 f3 2a 8b be da 96 37 3f 79 77 ad 3e 76 52 a3 3e
       -0.27181205 0.71714556 0.33880213 0.3189885
000150 d0 a4 a9 bd b1 0f db bd 43 6f ca 3d 73 53 d1 3e
       -0.082833886 -0.10696352 0.09884503 0.4088398
000160 5e 90 98 3d d2 c5 1d 3d bd 0e aa 3e a4 d4 a3 bd
       0.07449411 0.038518734 0.3321437 -0.07999542
000170 eb ff 38 bc ee b9 3e be 9d 9a bc 3e 87 34 65 3d
       -0.011291484 -0.18625614 0.3683671 0.055958297
000180 12 19 9f 3d 77 e1 99 bd a2 ff 18 3e b2 5c 17 bf
       0.07768454 -0.07513707 0.14941266 -0.59125817
000190 3d 24 47 be 0f 35 6d 3e 45 4b 87 bc 2b bd a5 bd
       -0.19447418 0.23164771 -0.016515383 -0.080927216
0001a0 71 94 83 3c fc e0 97 bd 42 aa 03 bf 4a 2c a8 bd
       0.016061993 -0.07415959 -0.5143167 -0.082115725
0001b0 92 49 14 bf 08 24 4e 3d ed e8 d4 3d 36 05 8a bc
       -0.5792476 0.05032733 0.103959896 -0.016848188
0001c0 b3 92 1f 3d fb 1c 85 3e 2e 4a db bc 36 74 12 be
       0.038958263 0.25998673 -0.02676877 -0.14302143
0001d0 66 22 1b bd 4a 3b d6 be f4 d0 b8 bd 6c 1b 63 bd
       -0.0378746 -0.4184211 -0.0902423 -0.055446073
0001e0 46 16 dd bd 6b 72 a2 3c 05 a6 26 3e f8 a3 25 3e
       -0.10795264 0.01982995 0.16274269 0.1617583
0001f0 a4 8b 36 bc f8 f3 e6 bd 1e 94 42 be d5 53 59 be
       -0.011141691 -0.11277002 -0.19001815 -0.21223386
000200 4b 75 88 bd 60 1a 27 be b7 02 e2 bc 53 d2 3f 3d
       -0.06662997 -0.16318655 -0.027589185 0.04683144
000210 5f 60 65 bb a5 b7 54 be dd b1 49 be cb 13 d9 3e
       -0.0035000069 -0.2077318 -0.19696756 0.42397913
000220 ac b8 29 3e d5 66 e3 3e 68 09 0d bf 43 15 83 be
       0.16574353 0.44414392 -0.5509248 -0.2560216
000230 42 3d 5b be ce ef 44 be c5 84 83 be c2 1c 90 bd
       -0.21410087 -0.19232103 -0.25687233 -0.07036735
000240 f8 39 bc 3c 57 5f 18 be 86 1e 70 be 1f ac 47 3e
       0.02297686 -0.1488012 -0.23449144 0.19499253
000250 fd 38 35 bd ec 0c 80 3c ab fd 48 3f 6c be 55 be
       -0.0442438 0.015631162 0.78512067 -0.20873421
000260 2f 76 b3 bd ed 9e 44 3f c0 0f 6e be 9b 17 3e be
       -0.08762776 0.76805 -0.23248196 -0.18563692
000270 4c d9 bd be a9 6a f9 bd 82 a3 d9 bb 47 53 a7 bc
       -0.37079847 -0.12178547 -0.006641806 -0.020425452
000280 13 e2 5f 3b 13 af ab bd 17 46 6f be 87 f8 a2 3e
       0.003416185 -0.08383002 -0.23366581 0.31830236
000290 b8 73 9e bc 97 df 1d be 50 28 a1 3e f7 a0 21 3d
       -0.019342288 -0.15417324 0.31476068 0.03946015
0002a0 ed 9c e0 3d a5 cb 92 3b 9b 53 ef 3d 85 4f d0 3d
       0.10967431 0.0044798427 0.11685868 0.10171417
0002b0 2d eb 65 3c bc c5 2f bd 8a 40 82 bc 73 d8 65 bd
       0.014033121 -0.042913184 -0.015899915 -0.056114625
0002c0 1d 89 0b bd bd de b7 bd 8e 64 37 bd c4 c5 01 3e
       -0.03406631 -0.08978031 -0.04477363 0.12673098
0002d0 88 26 8c bd 28 d4 46 bd 4c e3 32 3d fc ff 9c 3b
       -0.06843287 -0.04854217 0.0436738 0.004791258
0002e0 5e 66 0f 3e 87 35 53 3e 79 91 1c 3e e2 d5 97 bc
       0.14003894 0.20625888 0.15289868 -0.018534604
0002f0 55 d1 e0 bd 9d 1e 57 3d 00 d4 2d be 34 54 62 bd
       -0.10977427 0.05251943 -0.16975403 -0.055256084
000300 2c e5 bb 3e 89 7c 3d bd 5f 68 d6 3d 65 82 47 3d
       0.36698282 -0.046261344 0.10469126 0.04870834
000310 50 d0 26 3c 5b 2b b1 3c 6f 5e 7f bd a4 e9 dc 3c
       0.0101815015 0.021627119 -0.06234592 0.026966877
000320 ea 8e ce bd 5e 93 37 3e 8a 44 da bc 43 43 24 3b
       -0.100858524 0.1792731 -0.02664401 0.0025064505
000330 67 44 50 be 33 27 06 bd 3c 1c 97 bd 3f 6e 12 3d
       -0.20338593 -0.032752227 -0.07378432 0.03574967
000340 3f b0 82 3d b5 cc 38 3e 1d 03 60 3e b1 d2 4c 3c
       0.063812725 0.1804684 0.21876188 0.012501405
000350 69 d8 9a bd e5 93 75 3e 55 3d 07 3d 56 14 85 bd
       -0.07560808 0.23982199 0.033017475 -0.064980194
000360 23 73 5e 3d 73 fc 1e 3e 67 ee 69 bd 5f 30 7b bc
       0.05430902 0.15525989 -0.057112124 -0.015331357
000370 c4 af b0 bd b6 3d e0 3d 7a ae 83 3e 0b ba 02 bd
       -0.08627275 0.109492704 0.25719053 -0.031915706
000380 ac fe 9a bc 1b da 8a 3c f0 fc 65 bc f8 82 a0 3d
       -0.018920265 0.016949704 -0.014037356 0.0783748
000390 47 50 86 3c bf 11 48 bd c7 32 c1 3d e8 e8 43 bd
       0.016395701 -0.04884505 0.09433513 -0.04782954
0003a0 32 b1 98 3d 89 e9 3e 3e 7a 3f 05 3c 87 7f ff 3d
       0.07455672 0.18643774 0.00813281 0.12475496
0003b0 a3 b5 09 3e eb cc 9e 3d 36 fb ad bd cd 58 83 3d
       0.13448195 0.07753929 -0.0849518 0.06413422
0003c0 82 da 15 3e 90 2e 0e bd 5a 13 b4 bc 8d f9 82 bd
       0.14634135 -0.034712374 -0.021981884 -0.06395254
0003d0 50 52 d7 3c 36 bb 44 3e 22 0f 68 3d 63 6b 10 bc
       0.026284367 0.1921204 0.056655057 -0.0088146655
0003e0 b2 65 88 bc b2 41 ac bd da fb 39 3e 57 e2 81 bd
       -0.016650055 -0.08410968 0.1816248 -0.06341999
0003f0 94 88 c6 be 96 5d 85 3d 30 91 d8 3d 62 20 1a 3e
       -0.38776076 0.06511991 0.10574567 0.15051416

fc3.bias f4 [10]
000000 bf 6a fb 3b de 1a b5 bd 16 92 2e 3e a0 87 66 3d
       0.0076726372 -0.08843015 0.17047915 0.056281686
000010 d2 f1 97 bd bd 09 a5 be f6 96 d8 3d 57 b2 32 be
       -0.074191704 -0.32233992 0.105756685 -0.17450844
000020 c8 32 ca bc 8a 09 ab be
       -0.024682418 -0.33405715
