experiments/LeNet/FashionMNIST/experiment-8/last-epoch.pt (torch, 188267 bytes, 18 tensors)

conv1.weight f4 [6, 1, 5, 5]
0	0xbe25f16b	-0.16205375
1	0xbdebb663	-0.11509397
2	0xbe845003	-0.25842294
3	0x3e0d2550	0.13783765
4	0x3e6342d0	0.22193456
5	0xbec7b204	-0.39003003
6	0x3cf2f695	0.029658595
7	0xbf030b0d	-0.5118874
8	0xbeb7e34e	-0.35915607
9	0x3ecab32e	0.39589828
10	0x3b4ae4b3	0.003095907
11	0x3de255c1	0.110515125
12	0xbe0701e4	-0.13184315
13	0xbeb40fb3	-0.35168228
14	0x3eea707d	0.45788947
15	0x3e9e23df	0.30886742
16	0x3ee103b1	0.4394813
17	0xbd327fb8	-0.043578833
18	0x3e7da3b5	0.2476948
19	0x3e8130a1	0.25232413
20	0x3bcf4165	0.0063249343
21	0x3f05d6e9	0.5228105
22	0xbd3525ef	-0.04422563
23	0x3d53a79a	0.05167351
24	0x3de9d429	0.114174195
25	0xbe6f9c18	-0.23399389
26	0xbe9f85de	-0.3115682
27	0x3d2d27f6	0.042274438
28	0x3edfd6ad	0.43718472
29	0x3db9482a	0.09046967
30	0xbce1e670	-0.027575701
31	0x3ea426bf	0.3206081
32	0x3e61c327	0.22047101
33	0x3ee8ede5	0.45494
34	0xbe6d2125	-0.23157175
35	0x3df46d4a	0.11934908
36	0xbd8c8855	-0.06861941
37	0x3d9d0ccd	0.07668457
38	0x3e5478bf	0.20749186
39	0x3e41893f	0.18900011
40	0x3ed8ed19	0.4236839
41	0x3e002ae9	0.12516369
42	0xbe9cc39f	-0.30617997
43	0xbe166a52	-0.14688995
44	0xbee5ccb7	-0.44882748
45	0x3db327bb	0.08747812
46	0x3e85b0eb	0.2611154
47	0xbe9f95ea	-0.31169063
48	0xbf9aeab7	-1.2102879
49	0xbf4d04ea	-0.80085623
50	0xbd2f533a	-0.04280398
51	0x3d5a5274	0.05330129
52	0xbe25c07f	-0.16186713
53	0xbe28b364	-0.16474682
54	0xbf83451a	-1.0255463
55	0xbdf18e4d	-0.1179472
56	0xbd508e22	-0.0509168
57	0xbd96d211	-0.07364286
58	0x3e89c838	0.26910567
59	0x3dc82857	0.09773319
60	0xbeabf959	-0.33588675
61	0x3e8389a9	0.25690964
62	0xbb069e7b	-0.002054124
63	0x3ed33072	0.41247898
64	0x3e8f4c78	0.2798803
65	0x3d77c123	0.060486924
66	0x3f271e8c	0.65280986
67	0x3e248d5b	0.16069548
68	0x3ea44807	0.32086203
69	0x3e473de0	0.19457197
70	0x3cb1c557	0.021700544
71	0x3cbf31c3	0.023339158
72	0xbe9befa2	-0.30456263
73	0xbee81654	-0.45329535
74	0xbe2c6828	-0.16836607
75	0x3f4c3aff	0.7977752
76	0x3f593ab3	0.8485519
77	0xbe700f30	-0.23443294
78	0xbf4d9c75	-0.8031686
79	0xbf4243fa	-0.75884974
80	0xbe88457e	-0.26615518
81	0x3e961243	0.29310808
82	0x3f3427fe	0.70373523
83	0x3d3cb6fb	0.04607294
84	0xbe2e9a1c	-0.17050976
85	0x3ead31d8	0.3382709
86	0x3c428ff7	0.011875144
87	0xbd7c86ec	-0.06165211
88	0xbe519967	-0.20468675
89	0x3e0a244d	0.1349041
90	0x3e9924f7	0.29911014
91	0xbeb9be76	-0.36278123
92	0xbe527257	-0.2055143
93	0xbcb9707d	-0.022636646
94	0xbe8fcd94	-0.2808653
95	0xbebbb644	-0.36662495
96	0xbe534331	-0.206311
97	0x3e3c75e3	0.18404345
98	0x3e6ee946	0.23331174
99	0x3edd863a	0.4326647
100	0xbf545f93	-0.82958335
101	0xbf773d6c	-0.965781
102	0xbf40b5c0	-0.7527733
103	0xbd93a663	-0.0720947
104	0x3e59bd35	0.21263583
105	0xbc39e5ab	-0.011346261
106	0xbf67e2f9	-0.9058071
107	0xbe9b2c04	-0.3030702
108	0x3cdaeb39	0.026723491
109	0x3e0d4616	0.13796267
110	0x3e933209	0.2874911
111	0x3df540fb	0.11975285
112	0x3e74a6e7	0.23891793
113	0xbd5157ff	-0.05110931
114	0xbd9d868f	-0.07691681
115	0x3bc5963a	0.0060298713
116	0xbe2da9bf	-0.16959284
117	0x3e3f6d9c	0.18694156
118	0x3e3a67b1	0.18203618
119	0xbd1abb0a	-0.03777603
120	0x3e0291af	0.12750886
121	0xbe38b7fd	-0.18038936
122	0x3e5b4069	0.2141129
123	0xbdba29b2	-0.09089984
124	0xbdcf2486	-0.10114388
125	0x3e7066a4	0.23476654
126	0xbdd868b3	-0.10566845
127	0xbf6d6284	-0.9272845
128	0x3f7f2935	0.9967225
129	0xbe25714a	-0.16156498
130	0x3ede8ed0	0.43468332
131	0xbe0bafee	-0.1364133
132	0xbfc51190	-1.5395985
133	0x3f76d821	0.96423537
134	0x3e929c1a	0.2863472
135	0x3d2bb42b	0.04191987
136	0x3efa874f	0.48931357
137	0xbfa34adf	-1.2757224
138	0x3eadb575	0.33927503
139	0x3ec8970f	0.3917775
140	0x3d2a0f03	0.041518223
141	0x3f641430	0.89093304
142	0xbf804c54	-1.0023293
143	0xbe7eee9d	-0.24895711
144	0x3e8b128c	0.27162588
145	0x3ee11ede	0.43968862
146	0x3f362428	0.7114892
147	0xbf7f1467	-0.99640507
148	0xbdff0aa3	-0.12453201
149	0xbdb7c01f	-0.08972191

conv1.bias f4 [6]
0	0x3da6a885	0.08137611
1	0xbda09b29	-0.078420945
2	0xbcdfc70b	-0.02731659
3	0xbdfdafc3	-0.123870395
4	0x3dcebec5	0.1009498
5	0x3cf5509b	0.029945662

conv1_bn.weight f4 [6]
0	0x3f14cbee	0.5812367
1	0x3f8b02c6	1.0860221
2	0x3f279d3d	0.654743
3	0x3f28f57c	0.6599958
4	0x3fe915a1	1.8209726
5	0x3f7448da	0.9542366

conv1_bn.bias f4 [6]
0	0xbd38ac8d	-0.045086432
1	0xbea9c6af	-0.33159396
2	0xbd9a67cf	-0.07539331
3	0x3e089d44	0.13341242
4	0xbf8f94a2	-1.1217234
5	0xbd72011a	-0.05908308

conv1_bn.running_mean f4 [6]
0	0x3eae70d8	0.34070468
1	0xbede043e	-0.43362612
2	0xbd063d0c	-0.032773063
3	0xbd385182	-0.044999607
4	0xbf53ace5	-0.8268569
5	0x3d18541b	0.037189584

conv1_bn.running_var f4 [6]
0	0x3e47e37c	0.19520372
1	0x3ec0d66e	0.37663597
2	0x3dda9e9d	0.10674784
3	0x3e74ae10	0.23894525
4	0x3f78832a	0.9707514
5	0x3f280b0f	0.65641874

conv2.weight f4 [16, 6, 5, 5]
0	0xbddecfcf	-0.1087948
1	0xbdd336ed	-0.10313211
2	0x3e3d5d2d	0.18492575
3	0xbbe4912a	-0.0069753127
4	0xbd343333	-0.04399414
5	0xbe3b54b0	-0.18294024
6	0xbde332ce	-0.110936746
7	0xbe7bd9bf	-0.24594782
8	0xbc8b78ce	-0.017025378
9	0xbc94c281	-0.018159153
10	0x3dd533d3	0.10410275
11	0xbd64bc9e	-0.055843942
12	0x3d330f21	0.0437156
13	0xbbf30099	-0.0074158427
14	0xbd8eac96	-0.06966512
15	0x3de8dd5e	0.113703474
16	0xbdb71c0b	-0.08940896
17	0xbd6a2133	-0.057160567
18	0xbbe9403d	-0.0071182535
19	0xbe00c806	-0.12576303
20	0x3ec322dc	0.38112533
21	0xbbd9395d	-0.0066291527
22	0xbe2444c0	-0.16041851
23	0x3d3aed05	0.045636196
24	0xbe2f71c4	-0.17133242
25	0xbc4b4fec	-0.012409192
26	0x3c316815	0.010828038
27	0xbc3bc444	-0.011460368
28	0x3df8785e	0.12132333
29	0xbdb0bc50	-0.08629668
30	0x3d04c0f7	0.032410588
31	0xbc823d93	-0.015898502
32	0x3e0f1d93	0.13976125
33	0x3e043b74	0.12913305
34	0x3ede6657	0.43437454
35	0xbda51d72	-0.08062257
36	0xbdd2cb0a	-0.10292633
37	0x3ca8e9e2	0.020619337
38	0xbe0f6355	-0.14002736
39	0x3d8261ec	0.06366333
40	0x3c90dff4	0.017684914
41	0xbe34d795	-0.17660363
42	0x3d285ba8	0.041103035
43	0xbdcf5a82	-0.10124685
44	0x3c80e101	0.01573229
45	0x3d85ca68	0.065327466
46	0xbe791310	-0.24323678
47	0x3e8807d5	0.26568475
48	0xbd8d8949	-0.06910951
49	0x3da6f700	0.0815258
50	0x3dcd32ef	0.100194804
51	0x3e0f0cf7	0.1396979
52	0xbe2b3d9b	-0.1672272
53	0x3c16fe5c	0.009215917
54	0x3e4a5f0d	0.19762821
55	0xbd01fafb	-0.031733494
56	0xbca5e677	-0.020251496
57	0xbd9a8b90	-0.07546151
58	0xbe014017	-0.12622105
59	0xbdcfdb35	-0.10149232
60	0x3e50b905	0.2038308
61	0x3bcc8f9d	0.006242706
62	0x3d6bb2dd	0.057543624
63	0xbdb59cf5	-0.08867828
64	0xbe2356f7	-0.15951143
65	0xbe45473d	-0.19265456
66	0xbdb018c6	-0.08598475
67	0xbc8bfb16	-0.0170875
68	0xbd643f91	-0.055724684
69	0xbdb5d41f	-0.088783495
70	0xbc9da3ce	-0.019243147
71	0xbd9d7ac8	-0.07689434
72	0x3cc40814	0.023929633
73	0x3d3c0062	0.045898803
74	0x3c9178c8	0.017757788
75	0x3e6eebee	0.23332188
76	0xbeb1d8bd	-0.3473567
77	0xbe31e248	-0.17371476
78	0xbe27d4f0	-0.16389823
79	0x3dfe9705	0.124311484
80	0xbd475bde	-0.048671596
81	0xbdccab72	-0.09993638
82	0x3c175b19	0.009238028
83	0xbe871147	-0.2638037
84	0x3d15f80a	0.0366135
85	0xbda33951	-0.079699166
86	0xbcf08038	-0.029358014
87	0xbea1d7bb	-0.31609902
88	0x3cb2f6fd	0.021846289
89	0xbd80093c	-0.06251761
90	0xbd55dc21	-0.052211884
91	0x3e145155	0.1448415
92	0xbd7b4b17	-0.061350908
93	0xbdda692d	-0.10664592
94	0x3e2a382a	0.16622987
95	0xbcd140e7	-0.025543643
96	0x3ddcd2b9	0.1078238
97	0x3e1d9bb7	0.15391432
98	0xbdfd715d	-0.12375138
99	0x3e14f508	0.14546597
100	0xbda63c1a	-0.08116932
101	0x3e948e50	0.29014826
102	0x3ebbb478	0.36661124
103	0x3df52d21	0.11971498
104	0x3cc9361a	0.02456193
105	0xbdb0260d	-0.086010076
106	0xbed77b07	-0.4208605
107	0xbe9d8df9	-0.3077238
108	0xbd5d5fe8	-0.05404654
109	0xbeaebf16	-0.34130162
110	0x3df88e20	0.12136483
111	0x3da277af	0.07932984
112	0x3e8ceda4	0.27525055
113	0x3e9fac64	0.3118621
114	0xbda81ded	-0.08208833
115	0x3dc70126	0.09717016
116	0xbd93ddd9	-0.072200485
117	0xbe8c9d82	-0.2746392
118	0x3e60987c	0.21933168
119	0x3eb2f42e	0.3495192
120	0x3e0313a3	0.1280046
121	0x3c9dea12	0.019276652
122	0xbe590000	-0.21191406
123	0x3df73cf0	0.1207217
124	0x3e21dc38	0.15806663
125	0x3edcba32	0.43110806
126	0x3e023624	0.12715966
127	0x3e390066	0.18066558
128	0x3e210a9c	0.15726703
129	0xbc1dba8f	-0.009626999
130	0xbdb05b94	-0.08611217
131	0x3dfd419b	0.12366029
132	0xbdfd1a68	-0.12358552
133	0x3b9d6b1d	0.0048040287
134	0xbe3f8a8e	-0.18705198
135	0x3df0fa88	0.11766535
136	0x3dbeed4e	0.09322606
137	0x3da41b1a	0.08012982
138	0xbd31e369	-0.043429766
139	0x3d1d1156	0.03834661
140	0x3c126280	0.008934617
141	0x3dc2730a	0.09494598
142	0x3e027a97	0.12742077
143	0xbdd5caf0	-0.10439098
144	0x3cc0ac7d	0.023519749
145	0x3d25f5d1	0.040517632
146	0xbe3034c7	-0.17207633
147	0xbe8a9ced	-0.2707285
148	0x3dde8262	0.10864712
149	0x3ea11752	0.31463104
150	0x3d129be2	0.035793193
151	0xbd75708f	-0.059921797
152	0xbe250be2	-0.16117814
153	0x3e2d7c19	0.16941871
154	0xbd42eb33	-0.047587585
155	0x3d8057db	0.06266757
156	0x3d1798da	0.037011005
157	0xbe0fe58d	-0.1405241
158	0x3ea620d1	0.32446912
159	0x3ddc5435	0.10758249
160	0x3d9aaa78	0.075520456
161	0x3cf55743	0.029948836
162	0xbd948230	-0.07251394
163	0x3e7f6f58	0.24944818
164	0xbc1e036f	-0.009644373
165	0xbe82386b	-0.25433668
166	0xbdaccf7e	-0.084380135
167	0xbe3a4284	-0.18189436
168	0x3e2ba471	0.16761948
169	0xbd1554c5	-0.036457796
170	0x3ddfb9e7	0.1092413
171	0xbdb86b88	-0.09004885
172	0xbe88a2b0	-0.2668662
173	0x3dd82233	0.10553398
174	0xbcb57d67	-0.022154523
175	0x3ddc6bfa	0.107627824
176	0xbd718dc8	-0.058973104
177	0xbdd7226b	-0.105046116
178	0x3da4a70c	0.08039674
179	0xbcf8d7cd	-0.03037634
180	0x3bcf89a6	0.0063335476
181	0xbd028523	-0.03186525
182	0x3ca879ef	0.020565955
183	0x3c8508db	0.016239574
184	0xbe0401a8	-0.12891257
185	0xbe046704	-0.12929922
186	0x3db3b3ed	0.087745525
187	0x3d87e2ba	0.066350415
188	0x3dab8109	0.08374221
189	0x3dcefd3d	0.10106895
190	0x3b89cd62	0.0042053917
191	0xbe417415	-0.18891938
192	0xbd3c14f3	-0.045918416
193	0xbca3064e	-0.019900467
194	0xbcf2d20e	-0.029641178
195	0xbe4b95d9	-0.19881381
196	0xbbe5bae9	-0.007010807
197	0x3ebdeb3e	0.37093538
198	0x3d95f799	0.07322616
199	0xbe29e64c	-0.16591758
200	0x3ba8e2fe	0.0051540127
201	0xbdf0f91c	-0.11766264
202	0x3d858cac	0.06520972
203	0x3e16834c	0.14698523
204	0xbd0b4ff0	-0.03401178
205	0xbe5034e0	-0.2033267
206	0xbe9c6e5c	-0.30552948
207	0xbe4bdb86	-0.1990796
208	0xbe03fe8c	-0.1289007
209	0x3ca499e6	0.020092916
210	0x3ab4a24f	0.0013781282
211	0xbe445019	-0.1917118
212	0xbdb56d8a	-0.088587835
213	0xbe2965a4	-0.16542679
214	0x3e8123f6	0.2522275
215	0xbe6b6cf6	-0.22990784
216	0xbdde5898	-0.10856742
217	0x3dd97802	0.10618593
218	0x3e108933	0.14114837
219	0x3ed62cb9	0.41830996
220	0xbd6a8afc	-0.057261452
221	0x3df322eb	0.118718944
222	0x3d62e910	0.055398047
223	0x3caf9a76	0.021435957
224	0x3c3f97e4	0.011693928
225	0x3dbbb38c	0.09165105
226	0xbe9a1bb3	-0.30099258
227	0x3e9947af	0.29937503
228	0xbd426514	-0.047459677
229	0xbe7ce279	-0.24695767
230	0xbe4bbb28	-0.19895613
231	0xbde303b2	-0.11084689
232	0x3e3a910b	0.18219392
233	0xbe05b5f7	-0.13057695
234	0xbdfb47a4	-0.12269524
235	0x3d69f31e	0.05711662
236	0x3d88a034	0.06671181
237	0x3ec76cc8	0.3895018
238	0xbc117b81	-0.008879543
239	0x3b75f3e8	0.0037529413
240	0x3d913c10	0.07091534
241	0xbe54fee8	-0.20800364
242	0x3e82acae	0.2552237
243	0xbd69c7b4	-0.057075217
244	0xbdf41290	-0.11917603
245	0xbce6721d	-0.028130585
246	0xbe673006	-0.22576913
247	0x3e137286	0.14399156
248	0x3d3f55e8	0.046712786
249	0xbe63e1ef	-0.22254156
250	0x3de6d47d	0.11270998
251	0x3c6ff366	0.014645433
252	0xbe0fae09	-0.14031233
253	0x3e2ed1f9	0.17072286
254	0x3e388a20	0.1802144
255	0xbec361c9	-0.38160542

conv2.bias f4 [16]
0	0xbd46eb7b	-0.048564415
1	0x3d45c60c	0.048284575
2	0x3b422787	0.002962561
3	0xbc89d9eb	-0.016827544
4	0x3d58f9b9	0.05297253
5	0xbd760c0e	-0.06007009
6	0x3d85fd7b	0.06542488
7	0xbc1cecd5	-0.0095779495
8	0x3d8a918d	0.06766043
9	0xbd057628	-0.032583386
10	0x3c14883c	0.009065684
11	0x3d220539	0.039555762
12	0x3d6e45ec	0.05817215
13	0xbd033571	-0.032033388
14	0x3ca5e5d7	0.020251198
15	0xbd63e500	-0.055638313

conv2_bn.weight f4 [16]
0	0x3ffbe579	1.9679404
1	0x3fea4362	1.8301814
2	0x3fb7b693	1.4352592
3	0x3fcac81e	1.5842321
4	0x3ff4932a	1.9107411
5	0x3fd5cd4f	1.670328
6	0x3fa3bb89	1.2791606
7	0x3ff77048	1.933114
8	0x3fee3fae	1.8613183
9	0x3fe7c099	1.8105651
10	0x3fc95f4f	1.5732211
11	0x3ff3f54a	1.9059231
12	0x3fd4656d	1.6593453
13	0x4004340f	2.0656774
14	0x3fe74ff0	1.807127
15	0x3fe77dc8	1.808526

conv2_bn.bias f4 [16]
0	0xbe97a623	-0.2961894
1	0xbec54d9e	-0.3853578
2	0xbe5bcdd7	-0.2146524
3	0xbe3a185d	-0.18173356
4	0xbed12966	-0.40851897
5	0xbe86e3f2	-0.26345783
6	0xbcd879f1	-0.026425334
7	0xbe9880c9	-0.29785755
8	0xbe58d699	-0.21175613
9	0xbe406474	-0.1878832
10	0xbe480fea	-0.1953732
11	0xbe34825f	-0.17627858
12	0xbe8f4ad9	-0.27986792
13	0xbecadc41	-0.39621165
14	0xbe322589	-0.17397131
15	0xbe91995c	-0.28437316

conv2_bn.running_mean f4 [16]
0	0xbdb84644	-0.08997777
1	0xbf2a5aef	-0.66545004
2	0xbf1f8a4b	-0.62320393
3	0xbed5a479	-0.41727045
4	0xbedf2117	-0.43579933
5	0xbe74d458	-0.23909128
6	0x3ea51598	0.32243037
7	0xbea58f95	-0.32336107
8	0xbdc84c8b	-0.097802244
9	0x3e1ddb7e	0.15415761
10	0xbca08244	-0.019593365
11	0x3d83605e	0.06414865
12	0xbd38291d	-0.044961084
13	0xbf0dbb7d	-0.5536421
14	0xbc6a3ae3	-0.014296266
15	0xbeb06da6	-0.34458655

conv2_bn.running_var f4 [16]
0	0x3eb72d50	0.35776758
1	0x3ee643bd	0.44973555
2	0x3eb4dc29	0.3532422
3	0x3ea6ada2	0.32554346
4	0x3ece4f9e	0.40295118
5	0x3ec1bad0	0.3783784
6	0x3e8d8998	0.27644038
7	0x3ef54b9b	0.47909245
8	0x3eacda33	0.33760223
9	0x3eadab86	0.33919924
10	0x3e882664	0.2659179
11	0x3eaa872d	0.33306256
12	0x3ea54bc1	0.32284358
13	0x3f6de734	0.9293091
14	0x3e95ed1c	0.29282463
15	0x3e9b9dfe	0.30393976

fc1.weight f4 [120, 256]
0	0xbd1c1870	-0.038109243
1	0x3df82a40	0.121174335
2	0xbcce5879	-0.025188671
3	0x3deafa04	0.11473468
4	0x3cc69a49	0.02424349
5	0x3cdcff93	0.026977336
6	0xbdae60ae	-0.08514534
7	0xbdb82ba3	-0.08992698
8	0x3dccbe96	0.09997289
9	0xbc4cd791	-0.012502567
10	0x3de38e4e	0.11111127
11	0x3cb8e879	0.02257179
12	0x3d99e0c8	0.07513577
13	0x3e0202c6	0.1269637
14	0x3cc0fd65	0.023558328
15	0xbdc9478d	-0.098281
16	0x3c8852ca	0.01664104
17	0xbe2f3713	-0.17110853
18	0x3dd11881	0.10209752
19	0xbc870e55	-0.016486326
20	0x3d1563cf	0.036472138
21	0x3d35081d	0.04419719
22	0x3b9cee72	0.004789167
23	0x3c567a8c	0.013090741
24	0x3d385db0	0.045011222
25	0x3cd46ef2	0.02593181
26	0xbd5a597e	-0.053308003
27	0x3c957a38	0.018246755
28	0xbd80eae6	-0.06294803
29	0xbca6e4a9	-0.020372706
30	0xbd06b9fd	-0.032892216
31	0xbdb248ca	-0.0870529
32	0x3d057e3a	0.032591082
33	0x3cd64c07	0.0261593
34	0xbd8dadee	-0.0691794
35	0x3da6934b	0.08133563
36	0x3bc3a475	0.0059705325
37	0x3d0ee2af	0.03488415
38	0xbd8673b7	-0.065650396
39	0xbd58cda8	-0.052930504
40	0xbd137fa3	-0.036010396
41	0xbc524289	-0.012833246
42	0xbd297d5d	-0.04137932
43	0x3d5183cb	0.05115108
44	0xbd92c570	-0.071665645
45	0x3c2afde4	0.010436509
46	0xbc202394	-0.0097741075
47	0xbd06610b	-0.03280739
48	0x3d80651e	0.062692866
49	0x3d3cf3d3	0.046130966
50	0x3e136f1f	0.14397858
51	0x3de297f0	0.11064136
52	0x3deea1f6	0.11651985
53	0x3a0e1467	0.00054199103
54	0x3d2c5177	0.04206988
55	0x3deb45fb	0.11487957
56	0xbc0a321e	-0.0084348
57	0xbdf8e356	-0.12152736
58	0x3d349a0f	0.044092234
59	0x3c050ecf	0.008121206
60	0xbdd6ccdb	-0.10488292
61	0xbd8f6e1d	-0.07003424
62	0xbd142920	-0.036172032
63	0xbda57e06	-0.08080678
64	0xbcc25929	-0.023724156
65	0xbdcb42d9	-0.099248596
66	0xbdeb82c4	-0.11499551
67	0xbe1183c5	-0.14210422
68	0xbdbe6ddf	-0.092983
69	0xbdaae10e	-0.08343707
70	0xbdea851a	-0.11451168
71	0xbd2b46a5	-0.04181542
72	0xbda4966e	-0.08036505
73	0xbbd5958d	-0.006518072
74	0x3ba15192	0.004923054
75	0x3d89631c	0.06708357
76	0x3d587bc9	0.052852426
77	0x3d0c1d37	0.03420755
78	0x3ccc37cc	0.02492895
79	0xbd4451e7	-0.04792967
80	0x3ccf0fd3	0.0252761
81	0x3c9fe665	0.01951904
82	0xbc1a99bf	-0.00943607
83	0xbc5df78e	-0.013547791
84	0x3d107478	0.035267323
85	0x3da40dd7	0.08010452
86	0xbd721392	-0.059100695
87	0xbe277779	-0.16354169
88	0x3dae2634	0.085033804
89	0xbc92897e	-0.017887827
90	0x3b7b5fa6	0.0038356571
91	0x3c97872d	0.018497074
92	0xbc9b1deb	-0.018935164
93	0xbcf90857	-0.030399485
94	0x3c8c3dd6	0.01711933
95	0xbe58226a	-0.21106878
96	0x3db9838c	0.09058294
97	0x3d35d54f	0.04439288
98	0x3da62451	0.081123956
99	0x3d92a438	0.071602285
100	0x3c0b1726	0.008489406
101	0xbd938c6f	-0.0720452
102	0x3c2a8903	0.010408643
103	0x3d9be550	0.07612097
104	0x3c4550b1	0.012043164
105	0x3c21b479	0.009869688
106	0xbda3f829	-0.08006317
107	0xbc95c01e	-0.018280085
108	0x3d8c2d82	0.068446174
109	0x3d6893e0	0.05678165
110	0xbc476098	-0.012169026
111	0xbdbbfe62	-0.09179379
112	0xbdaf19de	-0.08549856
113	0xbe09593a	-0.13412943
114	0x3d0cbfca	0.03436259
115	0x3d4187c7	0.047248628
116	0xbe1abd24	-0.15111214
117	0xbd9c14de	-0.076211676
118	0xbcd2455e	-0.025667842
119	0xbdb15a7e	-0.08659838
120	0xbd3555ba	-0.04427121
121	0xbd8c7b5d	-0.06859467
122	0xbca507c9	-0.020145314
123	0xbd8c01ed	-0.06836305
124	0xbdb85763	-0.09001043
125	0xbd320fd4	-0.043472126
126	0xbd5855b9	-0.052816126
127	0xba82a3d4	-0.0009967037
128	0x3d44aceb	0.04801647
129	0x3d9cc0a1	0.076539285
130	0x3e0c2961	0.1368766
131	0xbdc22fd6	-0.0948178
132	0x3dfa163d	0.12211273
133	0x3c0f0808	0.008729942
134	0x3dbc5e03	0.09197619
135	0xbd031802	-0.032005318
136	0xbda863af	-0.08222138
137	0xbd2f54c0	-0.042805433
138	0xbd07002e	-0.032959156
139	0xbdea43a9	-0.114386864
140	0xbce0d7d7	-0.02744667
141	0xbd7a76a6	-0.06114831
142	0x3e06d40f	0.13166831
143	0xbd53653e	-0.051610224
144	0xbc6732db	-0.014111246
145	0xbce0c3c1	-0.027437093
146	0x3ca4c007	0.020111097
147	0x3ce21b10	0.027600795
148	0x3d875e3d	0.066097714
149	0x3cc809ef	0.0244188
150	0xbc0ea469	-0.008706191
151	0xbdc9ea1d	-0.09859107
152	0x3c737f00	0.014861822
153	0x3cb7a8e2	0.022419397
154	0x3ba55b1d	0.005046262
155	0x3d8ad12d	0.06778178
156	0x3d33e128	0.043915898
157	0x3d154695	0.036444265
158	0x3db77221	0.08957315
159	0x3dca64d0	0.0988251
160	0xbb8a2206	-0.0042154817
161	0x3cd092a3	0.025460547
162	0xbcdbc0f2	-0.026825402
163	0xbdf79dd7	-0.120906524
164	0x3d4bf9bf	0.049798723
165	0x3d328d35	0.043591697
166	0xbd0710f0	-0.032975137
167	0xbc966de5	-0.018362949
168	0x3cd46eae	0.025931682
169	0xbc7d80ed	-0.015472633
170	0x3da3dee4	0.080014974
171	0x3c97babc	0.01852166
172	0x3d1d4910	0.038399756
173	0x3d47be82	0.048765667
174	0x3d2712c4	0.04078938
175	0x3cd853d9	0.02640717
176	0x3da60d19	0.08107967
177	0x3e08b414	0.13349944
178	0x3e021356	0.12702689
179	0x3dee50a1	0.116364725
180	0xbc3f6307	-0.011681325
181	0xbc560a45	-0.013063972
182	0xbd7ca248	-0.0616782
183	0x3d983d15	0.074335255
184	0xbe273543	-0.16328911
185	0xbd43a4e9	-0.047764692
186	0xbc8235a2	-0.015894715
187	0x3cb2e1a8	0.021836117
188	0xbd90b2ae	-0.070653304
189	0xbd72232e	-0.05911558
190	0x3dadc800	0.084854126
191	0x3d90f9da	0.070789054
192	0xbc6df9da	-0.014524901
193	0xbd18bc57	-0.03728899
194	0x3d17ab76	0.037028752
195	0xbcfdb0d8	-0.030968115
196	0x3defccd8	0.11708993
197	0xbd1da6ca	-0.03848914
198	0x3d9e6c73	0.07735529
199	0x3dac77b7	0.08421271
200	0x3d293821	0.041313294
201	0x3cdf2e18	0.027243659
202	0x3d13ca74	0.036081746
203	0x3b676b95	0.0035311927
204	0x3c965cee	0.01835486
205	0x3d6a1553	0.057149243
206	0x3df07c79	0.11742491
207	0xbb7b7718	-0.0038370546
208	0xbcfc2dcd	-0.030783558
209	0xbe8e0aa1	-0.27742484
210	0x3ce78811	0.028263124
211	0x3d466078	0.048431844
212	0x3d83b6a6	0.06431322
213	0xbd7af63e	-0.06126999
214	0xbd20eae6	-0.039286517
215	0x3d3b9d8f	0.045804556
216	0x3c3e6aa6	0.011622107
217	0xbd5dab35	-0.054118354
218	0xbd3bfaf2	-0.045893617
219	0x3bc25bde	0.0059313616
220	0xbdf4da6b	-0.119557224
221	0xbd755dc3	-0.05990387
222	0x3d5c89df	0.05384242
223	0x3c95296d	0.01820823
224	0xbe507c6e	-0.20359966
225	0xbd51a668	-0.051184088
226	0x3dd68d2c	0.10476145
227	0x3d8753bd	0.06607769
228	0xbd048c82	-0.03236056
229	0xbbd35202	-0.006448985
230	0x3d795384	0.060870662
231	0xbd283ae5	-0.04107179
232	0x3d882397	0.06647413
233	0x3d2a5e0f	0.041593608
234	0xbd5ceed7	-0.053938713
235	0x3c9a1c60	0.018812358
236	0xbcb23142	-0.021752004
237	0x3d89921a	0.0671732
238	0x3c864fd9	0.016395496
239	0x3db3b02d	0.08773837
240	0x3d503097	0.05082759
241	0x3d78dfc2	0.060760267
242	0x3c3efe57	0.011657319
243	0x3d6a1783	0.05715133
244	0x3c1c4486	0.009537822
245	0xbe2e75c5	-0.17037113
246	0xbe1b9b6a	-0.15196005
247	0x3d8f47e2	0.069961324
248	0xbc331b22	-0.010931762
249	0xbbf9bf30	-0.0076216683
250	0xbdc8f999	-0.09813232
251	0x3c4d9ad9	0.012549126
252	0x3c98bdc4	0.018645175
253	0xbddf331d	-0.10898421
254	0xbd80c387	-0.06287294
255	0xbd8b96b9	-0.068158574

fc1.bias f4 [120]
0	0x3d00fdbc	0.03149198
1	0x3d1644aa	0.036686577
2	0xbd5134b7	-0.051075663
3	0x3c5fea50	0.013666704
4	0xbd83869f	-0.06422161
5	0x3d486ff6	0.0489349
6	0xbc531860	-0.012884229
7	0x3cb45c4e	0.02201667
8	0xbb8bc048	-0.004264865
9	0xbdcb6a4c	-0.09932384
10	0x3d5860da	0.05282674
11	0xbc8abd09	-0.016935842
12	0x3d16a12f	0.03677481
13	0x3d757903	0.05992986
14	0x3d647346	0.055773996
15	0x3dacf9c8	0.084460795
16	0xbcec2a3f	-0.028828738
17	0x3d069c28	0.032863766
18	0xbd1826fa	-0.037146546
19	0x3d88c1bd	0.06677578
20	0x3d0c529b	0.034258466
21	0x3c6caa29	0.014444866
22	0x3d8dde15	0.069271244
23	0x3d5c30c4	0.053757444
24	0x3dac5bc3	0.0841594
25	0x3db11a33	0.08647575
26	0x3d8cdb21	0.06877733
27	0x3c598c6e	0.01327811
28	0x3d0d0ed7	0.03443798
29	0xbc6c6147	-0.01442749
30	0x3d0020e9	0.031281386
31	0x3d43965b	0.047750812
32	0xbdc4c40f	-0.09607708
33	0x3d559e60	0.05215299
34	0x3cfb80d9	0.030701088
35	0x3d36fbc9	0.044673715
36	0x3d30e316	0.043185316
37	0x3cb92257	0.022599382
38	0x3dc45f19	0.09588451
39	0xbe042f8e	-0.12908766
40	0xbd066fc9	-0.03282145
41	0xbc2d2940	-0.010568917
42	0xbcee1e23	-0.029067105
43	0x3d400ac1	0.046885256
44	0x3d304e7f	0.04304361
45	0xbd72df53	-0.05929501
46	0x3d38803d	0.045044173
47	0x3d72a1b2	0.059236236
48	0x3da6b1b5	0.08139364
49	0x3c019926	0.007910049
50	0x3d411135	0.04713555
51	0xbd620d71	-0.0551886
52	0x3d047c77	0.03234526
53	0xbbf429bc	-0.007451264
54	0xbcd1b1e8	-0.025597528
55	0x3d6ab9df	0.057306167
56	0x3d285a78	0.041101903
57	0x3dbf68e4	0.09346178
58	0xbcba363e	-0.022730943
59	0x3d3402a0	0.043947816
60	0x3d057fb3	0.032592487
61	0x3c874011	0.016510041
62	0xbaf42807	-0.0018627652
63	0xbc811ced	-0.015760863
64	0x3d2b4fad	0.04182403
65	0x3b927dc3	0.0044705584
66	0xbc1db171	-0.009624825
67	0x3caf46fd	0.021396155
68	0xbd81db4d	-0.063406564
69	0xbb897d52	-0.0041958475
70	0xbc316a63	-0.010828587
71	0xb9954014	-0.00028467237
72	0xbc0e142c	-0.008671802
73	0x3cc1289c	0.023578934
74	0x3c929394	0.017892636
75	0xbb6439da	-0.0034824521
76	0xbcd81da9	-0.02638133
77	0xbda40011	-0.08007825
78	0xbcca08be	-0.024662372
79	0x3deef9da	0.11668749
80	0xbc8cb96d	-0.017178262
81	0x3d357bc9	0.044307504
82	0x3db9ddf2	0.09075536
83	0x3cfe3733	0.03103218
84	0xbd8346de	-0.06410001
85	0x3d5eb39b	0.054370504
86	0x3db823b8	0.08991188
87	0x3c98fdfe	0.0186758
88	0x3d2ecd4e	0.042676263
89	0xbc2427f5	-0.010019292
90	0xbd5e71a4	-0.054307595
91	0x3ddf0640	0.10889864
92	0xbd1fe26c	-0.039034292
93	0x3c016737	0.0078981435
94	0xbd39005b	-0.045166355
95	0x3d2cf830	0.042228878
96	0x3cdb63c2	0.026780967
97	0xbc8d228b	-0.017228385
98	0xbbe2d06b	-0.006921818
99	0x3a65c6b2	0.00087652646
100	0x3c10b353	0.008831817
101	0x3dda2b06	0.10652737
102	0x3cb6ba8e	0.022305753
103	0x3d8ea493	0.06964984
104	0x3c719e3e	0.0147472005
105	0xbd4bca24	-0.049753323
106	0x3c83099f	0.015995799
107	0xbd8e2c31	-0.069420226
108	0x3d78b346	0.060717843
109	0x3d8c0afe	0.06838034
110	0xbd792a39	-0.060831282
111	0xbcf6a01f	-0.030105649
112	0xbd938fdd	-0.07205174
113	0xbc07d782	-0.008291127
114	0xbd56494c	-0.052315995
115	0x3daa5706	0.0831738
116	0x3d3ac7ee	0.045600824
117	0x3b7b6309	0.003835859
118	0xbc3e1c57	-0.011603436
119	0xbb112d6e	-0.0022152322

fc2.weight f4 [84, 120]
0	0xbd6bf158	-0.05760321
1	0x3cfa8ac0	0.03058374
2	0x3d9c6844	0.076370746
3	0xbdb3b44e	-0.08774625
4	0x3e0b23ff	0.1358795
5	0xbdbd1d84	-0.09234145
6	0xbda87b39	-0.08226628
7	0x3debf32f	0.11520993
8	0x3c86cb46	0.01645435
9	0xbe3637ea	-0.17794767
10	0xbd737305	-0.059435863
11	0x3e1a5d4a	0.1507465
12	0x3d0ee937	0.03489038
13	0x3d958c4e	0.073021516
14	0xbd4c150b	-0.049824756
15	0xbbfb1c60	-0.0076632947
16	0x3e08b9ba	0.13352099
17	0x3dd52ab6	0.10408537
18	0x3d300fad	0.0429837
19	0xbe0f81a9	-0.14014305
20	0x3ccc710e	0.024956252
21	0x3d3e13ca	0.04640559
22	0xbdc5f869	-0.09666521
23	0x3cb2f3b8	0.02184473
24	0xbe2f1f74	-0.17101842
25	0xbdef80ba	-0.116944745
26	0xbd5487fa	-0.05188749
27	0x3d73b40a	0.05949787
28	0xbe12ecf7	-0.14348207
29	0x3e888dde	0.26670736
30	0x3e7c1662	0.24617913
31	0x3d0be51f	0.034154054
32	0x3dd08643	0.101818584
33	0x3e372d11	0.17888285
34	0x3b060317	0.002044862
35	0x3ddbb0fe	0.10727118
36	0x3dac62c7	0.08417278
37	0xbe132027	-0.14367734
38	0xbb232241	-0.0024892243
39	0xbd67dccb	-0.05660705
40	0x3e545e39	0.20739068
41	0x3dd2048a	0.10254772
42	0x3e12c136	0.14331517
43	0x3de62b16	0.11238687
44	0xbd80697c	-0.062701195
45	0x3e0d486a	0.13797155
46	0x3cde5fc5	0.027145276
47	0xbc84b8e1	-0.016201438
48	0x3e2421d4	0.1602853
49	0xbd4dcc2f	-0.050243553
50	0x3c1bb68a	0.00950397
51	0x3dd535ea	0.10410674
52	0xbceb8c10	-0.02875331
53	0xbdf802fc	-0.12109944
54	0xbc10c225	-0.00883535
55	0x3cb60735	0.022220233
56	0xbd2597e4	-0.040428057
57	0xbe46b88c	-0.19406337
58	0xbd9924a9	-0.074776955
59	0xbe02ad8a	-0.12761512
60	0xbd1f66a6	-0.038916253
61	0x3dbd98b9	0.09257645
62	0x3e39e807	0.18154918
63	0x3b8101a2	0.003936962
64	0x3dc3d27e	0.095616326
65	0xbe242bcb	-0.1603233
66	0x3da08fae	0.07839905
67	0x3d7d4b0e	0.061839156
68	0xbe36c8f0	-0.17850089
69	0xbd984eaa	-0.07436879
70	0xbda50d60	-0.08059192
71	0x3d30f757	0.04320463
72	0x3d612854	0.0549701
73	0x3e4e7b93	0.20164327
74	0xbdb9944f	-0.09061491
75	0xbd43d030	-0.047805965
76	0x3cb07310	0.021539241
77	0xbcf75460	-0.0301916
78	0x3e2d4099	0.16919173
79	0xbcc3e4f2	-0.02391288
80	0x3e7d6012	0.24743679
81	0xbd63b5b8	-0.055593222
82	0xbde48f77	-0.11160176
83	0x3d254ee5	0.040358443
84	0x3daa59c3	0.08317902
85	0x3d3c1a3e	0.045923464
86	0x3d88f9df	0.06688284
87	0xbd5567d7	-0.052100983
88	0xbca55039	-0.020179855
89	0x3d5cda4f	0.053919133
90	0x3e306e83	0.17229657
91	0xbe16a6a2	-0.14712003
92	0x3dbda6cc	0.092603296
93	0x3de1cd10	0.11025441
94	0xbce2f6b5	-0.02770553
95	0xbd6f931e	-0.05848991
96	0xbe019e78	-0.12658107
97	0x3dfd16fa	0.12357898
98	0x3e6455ee	0.22298405
99	0xbd3ae230	-0.045625865
100	0x3e1917cb	0.14950483
101	0x3b82e488	0.003994528
102	0x3dd96076	0.106141016
103	0xbc9cbd90	-0.01913336
104	0xbe1a8c09	-0.15092482
105	0x3c477c34	0.012175608
106	0x3e24f1e8	0.16107905
107	0xbd13bcfb	-0.036068898
108	0xbd9552fe	-0.0729122
109	0x3dca7d2f	0.09887158
110	0xbda0921c	-0.07840368
111	0x3e37b211	0.1793902
112	0x3dd41418	0.10355395
113	0x3cac5b7b	0.021039715
114	0xbd98db8f	-0.074637525
115	0x3d1234a9	0.035694752
116	0x3e0619d8	0.13095796
117	0x3e17fb36	0.14841923
118	0xbcdce141	-0.026962878
119	0xbd072a9b	-0.032999616
120	0x3c3f33d3	0.011670071
121	0x3d2c803c	0.04211448
122	0x3d92b2e6	0.071630284
123	0x3ca00571	0.019533845
124	0xbd7f403e	-0.062317125
125	0x3db1fbcc	0.086906046
126	0x3d660202	0.05615426
127	0xba8479db	-0.0010107117
128	0x3dbbe8b3	0.09175243
129	0xbdb3df56	-0.08782832
130	0xbdaa088e	-0.08302413
131	0xbd908ce6	-0.07058124
132	0x3d2bdb13	0.041956972
133	0xbd0aa7a4	-0.03385128
134	0x3d1b9e3e	0.03799271
135	0xbc828e7a	-0.015937079
136	0xbd08ef5a	-0.03343139
137	0x3d6edd73	0.05831666
138	0x3d1177a1	0.035514478
139	0xbc487a36	-0.012236169
140	0x3b8f6379	0.0043758717
141	0x3d8c6328	0.0685485
142	0xbc9a31b5	-0.01882253
143	0x3c4cae2d	0.012492699
144	0xbc86cf5d	-0.0164563
145	0x3dbcebea	0.092246845
146	0xbc0df43e	-0.008664189
147	0xbd937456	-0.07199924
148	0x3d00f3b1	0.031482402
149	0xbd58f9e6	-0.052972697
150	0xbd9bd8fe	-0.07609747
151	0x3d405057	0.046951618
152	0x3d4f059b	0.050542455
153	0xbda48f17	-0.08035105
154	0xbb6e4f09	-0.0036363027
155	0x3cad369e	0.021144208
156	0xbb79099f	-0.003800012
157	0xbcba5326	-0.022744726
158	0x3abe0cd2	0.001449967
159	0x3c061ca7	0.008185542
160	0x3d646ded	0.055768896
161	0x3d207b53	0.03918011
162	0x3c54cdd3	0.012988525
163	0xbd67500b	-0.05647282
164	0xbd804995	-0.06264035
165	0xbdb48504	-0.08814433
166	0x3db852a6	0.09000139
167	0xbd15c06f	-0.036560472
168	0x3d975b1f	0.07390427
169	0x3d1fa037	0.038971152
170	0xbd971283	-0.07376578
171	0xbd634d20	-0.055493474
172	0xbd937e49	-0.07201821
173	0x3d25706d	0.04039042
174	0xbcf8eda6	-0.030386757
175	0x3d567ef8	0.05236718
176	0x3bccfac2	0.0062554786
177	0x3c608465	0.01370344
178	0x3d5b6552	0.053563423
179	0x399d5364	0.00030007504
180	0xbda96fd9	-0.08273286
181	0xbd7e4572	-0.062077947
182	0xbd64c40c	-0.055851027
183	0xbc06092d	-0.008180899
184	0xbd2e958f	-0.0426231
185	0x3d6b5745	0.057456274
186	0xbd2512ae	-0.040301017
187	0xbade459e	-0.0016958003
188	0x3c7cb420	0.0154238045
189	0x3d695dd8	0.056974262
190	0x3d114fb6	0.03547641
191	0xbd674a1d	-0.056467164
192	0x3d194d75	0.037427384
193	0xbd90fd99	-0.0707962
194	0xbd2dfa6e	-0.042475156
195	0xbd1f671f	-0.038916703
196	0x3c3b61f1	0.011436925
197	0xbde2a750	-0.110670686
198	0x3b98777e	0.0046529165
199	0xbd0d5e97	-0.034514036
200	0x3db66348	0.08905655
201	0xbd512b5d	-0.051066745
202	0xbd2252df	-0.039629813
203	0xbdb9788a	-0.09056194
204	0xbcecd007	-0.028907789
205	0xbd5198c2	-0.05117107
206	0x3d79218a	0.060823
207	0x3d3168c9	0.04331282
208	0xbd6594cf	-0.056050118
209	0xbd44eec9	-0.048079286
210	0x3c949e85	0.018141994
211	0x3d86c587	0.06580644
212	0xbd5fa1e8	-0.054597765
213	0x3dbb9ccd	0.09160767
214	0x3d127bde	0.03576266
215	0x3c4ecd43	0.01262218
216	0x3c4f75c1	0.012662352
217	0x3d031b58	0.0320085
218	0xbd526d80	-0.05137396
219	0x3da2a9f4	0.07942572
220	0xbd125cef	-0.03573316
221	0xbdc38ec6	-0.09548716
222	0xbd06ed6d	-0.03294127
223	0xbd912168	-0.0708645
224	0x3d02a789	0.031898055
225	0xbd96b683	-0.0735903
226	0x3d3bb6c9	0.045828614
227	0x3d95d6f5	0.073163904
228	0x3c81e373	0.015855527
229	0x3d5052d8	0.050860256
230	0x3cc74b26	0.024327826
231	0x3d82e0e3	0.0639055
232	0x3db0e1aa	0.08636792
233	0x3d4e7dc6	0.050412916
234	0xbd1b1bf4	-0.037868455
235	0x3b1e273e	0.0024132277
236	0xbd37ab9e	-0.0448414
237	0xbcb48c3f	-0.02203953
238	0x3d95f5db	0.07322284
239	0x3d693c08	0.056942016
240	0xbd1a5ed5	-0.037688095
241	0xbb784450	-0.0037882514
242	0x3cec6951	0.028858813
243	0x3d7103eb	0.058841627
244	0x3de7b081	0.11312962
245	0xbdabbe69	-0.08385927
246	0x3ca3c3a2	0.019990746
247	0xbd7c1822	-0.061546452
248	0xbbbe3250	-0.0058043376
249	0x3de19383	0.11014464
250	0xbbe8676c	-0.007092407
251	0xbd5652e1	-0.052325133
252	0x3b060e04	0.0020455131
253	0x3d27ba8f	0.0409494
254	0x3d8d58c2	0.06901695
255	0xbdc1d51a	-0.09464474

fc2.bias f4 [84]
0	0xbc34cea8	-0.011035599
1	0xbd189238	-0.03724882
2	0xbd681d41	-0.056668524
3	0x3cf3c280	0.02975583
4	0xbdb867fb	-0.09004208
5	0xbd2e68ea	-0.042580523
6	0x3dc1437c	0.094367
7	0x3d18e19d	0.037324537
8	0x3dd208f7	0.10255616
9	0x3e1f9609	0.15584578
10	0x3e0bccff	0.13652419
11	0xbd5e7ee6	-0.05432024
12	0x3d19708f	0.03746086
13	0x3d138553	0.03601582
14	0xbd3c11c5	-0.045915384
15	0x3b895473	0.0041909753
16	0x3cfa7a72	0.030575965
17	0x3dcc83b7	0.0998606
18	0x3e0051a0	0.12531137
19	0xbd9951b2	-0.07486285
20	0xbda38444	-0.07984212
21	0x3dbf44af	0.09339272
22	0x3e0d4bdb	0.13798468
23	0x3d76994e	0.060204796
24	0xbd2229d4	-0.03959067
25	0x3d2a99df	0.04165065
26	0xbcef269c	-0.029193215
27	0x3dc14116	0.09436242
28	0x3d993d5c	0.074824065
29	0x3c988a12	0.018620525
30	0x3cf294b3	0.029611921
31	0x3d78441f	0.06061184
32	0x3dafabcc	0.085776895
33	0xbd0c7b64	-0.034297362
34	0xbc9da280	-0.019242525
35	0x3d42fea1	0.047606114
36	0x3c34ad35	0.011027624
37	0xbdd34b2f	-0.103170745
38	0x3c20bc41	0.009810508
39	0xbce06523	-0.027391976
40	0x3e06cf2f	0.13164972
41	0x3d744518	0.059636205
42	0xbc877822	-0.016536776
43	0x3dd613d8	0.10453004
44	0x3d9c77ee	0.07640062
45	0x3d9aefe2	0.07565285
46	0xbd5d16ba	-0.053976752
47	0xbc6119ec	-0.01373909
48	0xbc91e169	-0.01780768
49	0xbcc19e1e	-0.023634966
50	0x3dee9507	0.116495185
51	0xbd68bd8c	-0.05682139
52	0x3e633070	0.22186446
53	0x3de052c7	0.109532885
54	0x3c35b43b	0.011090334
55	0xbd0dda83	-0.034632217
56	0xbd3cd0c1	-0.04609752
57	0xbc505d72	-0.012717592
58	0x3da55961	0.08073688
59	0xbc80323a	-0.01564895
60	0x3c9c281d	0.019062096
61	0x3d1970f2	0.03746123
62	0xbd4f7f68	-0.050658613
63	0x3c031568	0.008000709
64	0x3c8d3ab1	0.0172399
65	0xbb4b954b	-0.0031064327
66	0x3d93f7e8	0.07225019
67	0x3dec44c9	0.11536557
68	0x3dd6ecd9	0.10494394
69	0x3d3b6d51	0.04575855
70	0x3d5297e1	0.051414374
71	0xbd12bec5	-0.035826463
72	0xbcb35a56	-0.021893661
73	0x3df2b58a	0.11851032
74	0x3de22206	0.11041646
75	0xbd4fbad9	-0.0507153
76	0x3deec6fc	0.11659047
77	0x3c25886f	0.010103329
78	0x3d80b5e5	0.06284694
79	0x3d3a657d	0.045506943
80	0xbd921def	-0.07134616
81	0x3d925353	0.07144799
82	0x3d871517	0.065958194
83	0x3d88080c	0.0664216

fc3.weight f4 [10, 84]
0	0x3f4d7501	0.8025666
1	0x3d9d9949	0.076952524
2	0xbeb4ae51	-0.35289243
3	0xbcfda406	-0.030962002
4	0x3ea9bcc8	0.3315184
5	0x3e87ec88	0.26547647
6	0xbc932358	-0.01796119
7	0xbe355f0e	-0.17712042
8	0x3eeccce7	0.46250078
9	0xbe86dd40	-0.26340675
10	0xbf06c4c5	-0.52643996
11	0x3cdafc44	0.026731618
12	0xbe1af980	-0.15134239
13	0x3de0566b	0.10953983
14	0x3ee9b8dd	0.45648852
15	0xbbf9c17e	-0.007621943
16	0x3dbc121b	0.09183141
17	0x3e53863c	0.20656675
18	0x3f1ed15a	0.62038195
19	0xbe39c34f	-0.1814091
20	0xbdb43b5e	-0.08800386
21	0xbf0ad8c1	-0.5423699
22	0x3df21f03	0.11822321
23	0xbc94ce78	-0.018164858
24	0xbdf38559	-0.118906684
25	0x3d398c16	0.045299612
26	0x3dacbc93	0.08434405
27	0x3e83d649	0.25749424
28	0xbe235031	-0.1594856
29	0xbe93b455	-0.2884852
30	0x3e75039c	0.23927158
31	0x3e8cb3c1	0.2748089
32	0x3db39a29	0.08769638
33	0x3c3aa00f	0.0113907
34	0x3eb776f0	0.3583293
35	0xbd208092	-0.039185114
36	0xbe55f764	-0.20895153
37	0x3f750188	0.9570546
38	0xbca31419	-0.019907044
39	0xbe418d39	-0.18901528
40	0x3ed0c1e0	0.40772915
41	0x3e1af4b1	0.15132405
42	0x3e8cff25	0.2753841
43	0xbead1524	-0.33805192
44	0x3885ccec	6.380104e-05
45	0xbeb26e86	-0.34849948
46	0x3e44ac4c	0.19206351
47	0xbd89ea54	-0.06734148
48	0x3e85fc88	0.2616923
49	0xbe60ea4c	-0.21964377
50	0xbe924a81	-0.28572467
51	0xbdb52d69	-0.08846552
52	0xbc526975	-0.012842526
53	0xbd60e372	-0.05490441
54	0xbe79a873	-0.24380665
55	0xbd905a31	-0.07048453
56	0xbd96bfb0	-0.0736078
57	0x3df6c161	0.12048603
58	0xbe8bf4ac	-0.27335107
59	0xbbc408d0	-0.005982496
60	0x3e9c8c2a	0.30575687
61	0xbd96c3f5	-0.073615946
62	0xbbf969d1	-0.0076114913
63	0xbdaa3f44	-0.08312848
64	0xbe85db09	-0.26143673
65	0x3e7af748	0.24508393
66	0x3c5f501b	0.0136299385
67	0x3e03857d	0.1284389
68	0xbd79ea81	-0.061014656
69	0x3eb18b8e	0.34676784
70	0xbeb833a4	-0.359769
71	0x3e59bfa9	0.21264519
72	0x3ddc06c7	0.1074348
73	0xbe948e94	-0.29015028
74	0x3e1ec37a	0.15504256
75	0xbd9748d1	-0.073869355
76	0xbe60eca2	-0.21965268
77	0x3ea596f6	0.32341737
78	0xbe79a162	-0.24377969
79	0x3d4660f8	0.04843232
80	0x3e56a9b5	0.20963176
81	0xb7794ada	-1.4858984e-05
82	0xbdf18c29	-0.117943116
83	0x3cbeb164	0.023277946
84	0xbd9373a8	-0.07199794
85	0xbc74d693	-0.014943737
86	0xbe07f166	-0.1327568
87	0x3e64aeb4	0.22332269
88	0xbed43c32	-0.41452175
89	0x3deff93b	0.11717459
90	0x3d5e1380	0.054217815
91	0xbc168d2e	-0.009188933
92	0xbd92f0c5	-0.071748294
93	0xbd84c043	-0.064819835
94	0x3f0a300f	0.5397958
95	0x3df8d90a	0.12150772
96	0xbeeae20e	-0.4587559
97	0xbe161fc0	-0.14660549
98	0xbeac0eb0	-0.33604956
99	0x3e7d13ff	0.24714659
100	0x3d955a3e	0.07292603
101	0xbe860e82	-0.26182944
102	0x3f03e714	0.5152447
103	0xbda3caa9	-0.07997639
104	0xbcb1b75c	-0.021693878
105	0xbf01b39e	-0.506647
106	0xbe9132aa	-0.28358966
107	0x3d42c41e	0.047550313
108	0xbe33f611	-0.17574336
109	0x3e606687	0.21914111
110	0xbd983f52	-0.074339524
111	0xbe55dbe6	-0.20884666
112	0x3c20105d	0.009769526
113	0xbe6970da	-0.22796956
114	0xbdc93de0	-0.09826255
115	0xbc54d9ae	-0.012991352
116	0xbeadbe54	-0.3393427
117	0xbd94189f	-0.072312586
118	0x3d85c37f	0.065314285
119	0x3e4c8bfa	0.19975272
120	0xbe34a83f	-0.17642306
121	0xbe76a165	-0.24085005
122	0x3dbaa310	0.09113133
123	0x3e6a5229	0.22882904
124	0xbe99914f	-0.29993674
125	0x3d00288d	0.031288672
126	0x3c8bb517	0.017054124
127	0x3e92bad8	0.28658175
128	0x3e5670cc	0.20941466
129	0x3e5d7352	0.21626022
130	0x3f0c6ce8	0.5485368
131	0x3c3a9d63	0.011390063
132	0x3bd7a24d	0.006580627
133	0xbe2cbeb9	-0.1686963
134	0x3b7149e5	0.0036817726
135	0xbbbca013	-0.005756387
136	0xbe40a063	-0.18811183
137	0x3e53ed10	0.20695901
138	0xbec0a0ac	-0.37622583
139	0x3d47f3da	0.04881654
140	0xbdac3a5b	-0.08409568
141	0x3ee1661e	0.44023222
142	0x3cf53fe8	0.0299377
143	0xbcd5b6fd	-0.026088232
144	0x3ee124ae	0.43973297
145	0xbe4eb1b6	-0.20184979
146	0xbd10c2a6	-0.03534188
147	0x3d28bb67	0.041194346
148	0x3d994cfc	0.07485387
149	0x3e485cc6	0.1956664
150	0xbd1119cf	-0.035425004
151	0xbe9ceecd	-0.3065094
152	0xbe3086e5	-0.17238958
153	0x3dd86c96	0.10567586
154	0x3e8c2e0a	0.27378875
155	0xbe39497f	-0.18094443
156	0x3e02db61	0.12778999
157	0xbe28c98b	-0.16483133
158	0xbeadb445	-0.33926597
159	0x3d99e692	0.07514681
160	0x3ed28fb0	0.4112525
161	0xbeb5ef9a	-0.35534364
162	0x3d501c1b	0.050808053
163	0xbeade08e	-0.33960384
164	0xbdec98b7	-0.115525655
165	0x3e1ec125	0.15503366
166	0x3b96ca1d	0.0046017305
167	0xbd1537fd	-0.036430348
168	0x3e31213d	0.17297836
169	0x3c3a4263	0.011368367
170	0xbc9b729d	-0.01897555
171	0xbe52843d	-0.20558257
172	0x3e5a3b59	0.21311702
173	0xbea8fb55	-0.3300425
174	0xbeea2f6d	-0.45739308
175	0x3e372920	0.17886782
176	0x3ec0df09	0.37670162
177	0x3e9bf180	0.30457687
178	0x3e276327	0.16346417
179	0x3d07a76c	0.03311865
180	0xbec8e497	-0.392369
181	0xbdcfa75a	-0.10139342
182	0xbee9369e	-0.45549482
183	0xbe3c1a0d	-0.18369313
184	0xbd146bda	-0.036235668
185	0x3ea5a979	0.3235586
186	0xbda118a8	-0.07866031
187	0x3e9e7530	0.30948782
188	0x3c9925ba	0.018694747
189	0xbe9af6a7	-0.30266306
190	0x3f38f022	0.72241414
191	0xbd63074d	-0.055426884
192	0x3ef19e95	0.471913
193	0xbe48b03f	-0.19598483
194	0xbe28bd32	-0.16478422
195	0xbd542f20	-0.051802754
196	0x3ec643da	0.38723642
197	0xbe280bca	-0.16410747
198	0xbe7a1e5d	-0.24425645
199	0xbe7832c0	-0.2423811
200	0x3dd8c272	0.105839625
201	0x3bbe626c	0.0058100726
202	0xbe3c1c00	-0.18370056
203	0x3e8be941	0.27326396
204	0xbe2bd96a	-0.16782156
205	0x3ec7d8ec	0.39032686
206	0x3c5559af	0.0130218705
207	0xbe0f35f8	-0.13985431
208	0x3f2ccd85	0.675011
209	0x3e9792bc	0.29604137
210	0x3d37ed27	0.0449039
211	0x3ea8f4a8	0.32999158
212	0x3e8c9d49	0.2746375
213	0xbef52ae2	-0.4788428
214	0xbb2667a9	-0.0025391376
215	0x3e923548	0.28556275
216	0x3efebdce	0.49754184
217	0xbcb15a3c	-0.021649472
218	0xbec8a7dd	-0.3919057
219	0x3d98ea51	0.07466567
220	0xbe8546fe	-0.26030725
221	0x3eb416cb	0.3517364
222	0x3cdbbade	0.026822504
223	0xbc218bf2	-0.009860026
224	0x3d8d2019	0.06890888
225	0xbd81d79d	-0.06339953
226	0x3e1b97f8	0.1519469
227	0xbbd59d0d	-0.006518966
228	0xbeb0fe14	-0.34568846
229	0xbd28d77e	-0.041221134
230	0x3cd418d1	0.02589074
231	0xbdd35a12	-0.10319914
232	0xbc63c8e0	-0.013902873
233	0x3f225c1c	0.634218
234	0xbe72b2fe	-0.23701093
235	0x3e97f0ed	0.29676
236	0xbe8a3fee	-0.270019
237	0xbec5ffce	-0.38671726
238	0x3e77a5e0	0.2418437
239	0xbc58cbb6	-0.013232162
240	0x3e1249b3	0.14285927
241	0x3e16bc5c	0.14720291
242	0xbe5c61e6	-0.2152172
243	0xbd53aa0b	-0.051675837
244	0xbcc90dec	-0.024542771
245	0x3f3a565e	0.72788036
246	0x3f0144c3	0.5049555
247	0xbe6fbc51	-0.23411681
248	0x3dea54e8	0.11441976
249	0x3ee9c9a0	0.4566164
250	0xbd207252	-0.039171524
251	0xbd551a60	-0.052027106
252	0x3f02c422	0.51080525
253	0xbdbcc340	-0.092169285
254	0x3df83c83	0.12120917
255	0x3c8db609	0.017298715

fc3.bias f4 [10]
0	0x3cebfabb	0.028806081
1	0xbdb3803c	-0.08764693
2	0x3e0da3f4	0.13832074
3	0x3df7e6fb	0.12104603
4	0x3c8f9371	0.01752636
5	0xbd942749	-0.072340555
6	0x3e071e15	0.13195069
7	0x3db3c4d7	0.087777786
8	0x3d6e49b4	0.058175758
9	0xbd963edb	-0.073362075
