experiments/LeNet/FashionMNIST/experiment-2/last-epoch.pt (torch, 184747 bytes, 10 tensors)

conv1.weight f4 [6, 1, 5, 5]
-0.44101378 0.17437348 0.82524335 1.0114256 0.68436193 -0.4682861 0.13268766 0.31908754
0.5522008 0.40857866 -0.52127886 0.0495925 0.26170456 0.37008828 0.014652384 -0.3470477
0.46225023 0.3900019 0.5576966 0.052235596 -0.05395821 0.48704755 0.7086975 0.6416893
0.09994704 0.23554508 0.31610638 0.23499864 0.17504051 0.06049749 0.41115856 0.079792336
0.20134863 -0.018715901 0.28395066 0.0328224 0.015709763 0.2409275 -0.05568356 0.21581198
-0.0017684932 -0.27961528 -0.361104 -0.1394565 -0.23922631 -0.41594577 -0.56773096 -0.4370528
-0.51400304 -0.0078111845 -0.1239837 0.100586265 -0.016094642 0.004586145 0.033194784 -0.18445764
-0.20733613 -0.12634164 0.053039625 0.040402744 -0.14022802 -0.13375048 -0.04400602 -0.056881938
-0.07761853 -0.0702432 -0.030384837 0.1721258 0.06368866 0.12782978 0.021676792 -0.005016277
-0.048628345 0.07265826 -0.020728305 0.12668069 -0.26485628 -0.0411505 0.07322251 0.23132575
0.12639455 -0.24634422 -0.19310309 -0.13934909 -0.07919017 -0.14480934 -0.041336153 -0.25591403
-0.10618704 -0.11044924 0.038297355 0.11576095 -0.21759921 -0.3615673 -0.13589065 0.25205135
0.06963211 -0.1599987 -0.09642996 0.21609393 0.86724615 1.2206789 1.026996 0.13380857
-0.35511845 0.25620112 1.1055975 0.6567528 0.006315573 -0.17775314 0.07280765 0.40939492
0.16370335 -0.39429918 -0.14055116 0.17607151 0.42274117 0.12721978 -0.30060425 -0.24816534
0.33416086 0.68390346 0.50118965 -0.008876675 0.0804426 0.49112797 0.15242486 -0.018884096
0.24703366 0.43595856 0.19697693 0.04305444 -0.2705026 0.018818012 0.11669011 0.079967506
0.051222913 -0.2804256 0.1916676 0.2906523 -0.12602788 -0.34100026 -0.7003444 -0.28456736
0.15663874 -0.0454318 -0.5317103 -0.7888001 -0.04438269 0.23351626
00000000: 8fcc e1be f68e 323e 2643 533f 6576 813f
00000010: 5832 2f3f 32c3 efbe 46df 073e 715f a33e
00000020: 085d 0d3f 3931 d13e 8872 05bf 8121 4b3d
00000030: 24fe 853e 367c bd3e 8e10 703c 3cb0 b1be
00000040: 10ac ec3e 54ae c73e 34c5 0e3f fef4 553d
00000050: 4903 5dbd 4c5e f93e 336d 353f c045 243f
00000060: 09b1 cc3d bb32 713e b2d8 a13e 7ca3 703e
00000070: d23d 333e 37cc 773d 6083 d23e 2a6a a33d
00000080: 562e 4e3e 1752 99bc fb61 913e c870 063d
00000090: c3b1 803c b3b5 763e 7214 64bd d1fd 5c3e
000000a0: c9cc e7ba bc29 8fbe a0e2 b8be afcd 0ebe
000000b0: bef7 74be d8f6 d4be d156 11bf 62c5 dfbe
000000c0: b495 03bf f7f4 ffbb 2beb fdbd 2c00 ce3d
000000d0: e9d8 83bc 5f47 963b 41f7 073d 77e2 3cbe
000000e0: ec4f 54be b45f 01be 1440 593d 597d 253d
000000f0: ef97 0fbe e3f5 08be a83f 34bd 09fd 68bd
00000100: 77f6 9ebd abdb 8fbd 9fe9 f8bc bf41 303e
00000110: 336f 823d cfe5 023e 8793 b13c 955f a4bb
00000120: 842e 47bd dbcd 943d 68ce a9bc 95b8 013e
00000130: 3e9b 87be 6d8d 28bd aff5 953d a8e0 6c3e
00000140: 936d 013e a941 7cbe d1bc 45be 87b1 0ebe
00000150: 752e a2bd e648 14be 1950 29bd 2a07 83be
00000160: 9778 d9bd 3633 e2bd b0dd 1c3d 1414 ed3d
00000170: 54d2 5ebe 591f b9be eb26 0bbe e00c 813e
00000180: 489b 8e3d b3d6 23be 127d c5bd ba47 5d3e
00000190: d803 5e3f 353f 9c3f 9b74 833f 1d05 093e
000001a0: 16d2 b5be cb2c 833e 3884 8d3f f420 283f
000001b0: def2 ce3b eb04 36be 2d1c 953d 369c d13e
000001c0: daa1 273e 95e1 c9be a5ec 0fbe 174c 343e
000001d0: 8871 d83e e745 023e cde8 99be 0e1f 7ebe
000001e0: 2217 ab3e 4c14 2f3f f74d 003f 796f 11bc
000001f0: 17bf a43d 2075 fb3e 4315 1c3e d2b2 9abc
00000200: 64f6 7c3e f635 df3e 52b4 493e da59 303d
00000210: 517f 8abe 3b28 9a3c 39fb ee3d 01c6 a33d
00000220: 1ecf 513d f293 8fbe 8344 443e 61d0 943e
00000230: 740d 01be 9697 aebe c549 33bf d0b2 91be
00000240: e865 203e b216 3abd 2b1e 08bf ceee 49bf
00000250: a0ca 35bd e31e 6f3e

conv1.bias f4 [6]
0.004968115 0.4185823 0.13167231 1.2475959 0.035620265 0.5582944
00000000: 92cb a23b 6b50 d63e 1bd5 063e 39b1 9f3f
00000010: 8ee6 113d 62ec 0e3f

conv2.weight f4 [16, 6, 5, 5]
-0.039314695 -0.1020995 0.078174286 0.002471289 -0.10123422 -0.13169514 -0.1989847 0.20282073
0.18201491 -0.0699819 0.045328885 -0.2986305 -0.18213254 0.015396806 -0.12114281 0.09242056
-0.30544913 -0.20902717 -0.07672741 -0.1987741 0.32400337 -0.07317487 -0.08568319 0.11592908
-0.032686614 0.06773692 0.16191372 0.062722415 -0.06512021 0.035715267 -0.02787242 0.08728551
0.0422203 0.06602027 0.09229228 -0.03854356 0.080262266 0.06421014 0.16169377 0.1804511
0.009868136 0.027039884 0.03416785 0.06803153 -0.0054238937 -0.025649393 0.07967262 0.023029774
-0.059022658 -0.0058443677 0.0808428 0.009385469 0.021601804 0.01990785 0.045586865 -0.041210964
-0.039792135 0.04705599 -0.06471882 0.023560638 -0.04204141 -0.041902583 0.08330561 0.05070122
-0.03593192 0.023358406 0.005072764 0.07310255 -0.025946163 0.07763008 0.04871916 -0.0663513
-0.008827704 0.06629085 0.03724259 0.08629916 0.20669597 0.070299104 0.003636231 0.06640005
0.0873602 0.22237147 0.12690625 0.11222415 0.13919961 0.08181497 0.21116512 0.17613535
0.16890825 0.1119768 0.10876927 0.1182319 0.20400083 0.19625914 0.09653812 0.10204709
0.050628364 0.11222312 0.048329618 0.1346248 0.08225938 -0.036637176 0.004334847 0.12391295
-0.05429383 0.23270655 -0.2576549 -0.17943779 0.1882634 0.19707312 0.23885752 -0.19089201
-0.23991981 -0.030674128 -0.026167879 0.3106978 0.030780487 -0.3212221 -0.18994714 -0.15113847
0.4240534 0.2799588 -0.20584157 -0.12275515 -0.08704801 0.10314034 0.20339362 0.017165873
0.0022803966 0.07920171 -0.04038021 0.11737905 0.1612859 0.11807384 0.089791834 -0.035850987
0.15766613 0.11227769 0.14684476 0.09701449 -0.07508852 0.007400356 0.19283544 0.1778917
0.112004064 0.084788896 0.0986719 0.008674937 0.06253157 0.11327387 -0.5978698 -0.40792173
0.020264447 0.31305286 0.18084532 -0.061179604 0.0699018 0.0040373006 0.14095208 0.11343278
0.027099524 0.04217001 0.042704366 0.052559026 0.0019977738 0.09822697 0.103759356 -0.043574892
-0.012930514 -0.09423316 0.3147636 0.24322402 -0.046457097 -0.051024873 -0.35876676 0.11612053
0.068223245 -0.054530095 -0.045299225 -0.052503444 -0.018268421 0.0019629376 0.028594801 -0.009631063
0.006922027 -0.069447055 0.010458784 -0.088253096 0.03077516 -0.05319298 -0.013853183 -0.023751812
-0.10012936 0.05897648 0.042051483 0.01603571 -0.08575316 -0.044568557 -0.004035594 0.15974991
-0.044872683 0.013546245 0.07004976 0.058220375 -0.06824849 0.04935299 -0.038841926 -0.0631283
-0.006760105 0.04974548 0.0021620844 0.057829857 -0.009769148 0.03557951 -0.014091183 -0.037202775
-0.07593081 0.029125964 0.050431058 -0.0677135 0.08600727 -0.07044417 -0.07413333 -0.01523385
-0.009355269 0.055190783 0.11323716 0.096562706 0.08901332 -0.022060238 0.089348495 0.07944771
-0.02177792 -0.01890482 -0.07232633 -0.006343211 0.06355651 0.08515176 0.057697687 0.05174154
-0.090095155 -0.08018884 0.052161977 -0.035685312 0.023158884 -0.05146138 -0.1299458 -0.025698772
-0.029669423 0.12773336 -0.06630396 -0.60076225 -0.48911312 -0.06817434 0.19320911 -0.16974185
00000000: 7208 21bd 8b19 d1bd d719 a03d 59f5 213b
00000010: e353 cfbd 17db 06be a5c2 4bbe 3db0 4f3e
00000020: 1e62 3a3e ac52 8fbd c8aa 393d 19e6 98be
00000030: f480 3abe e342 7c3c b919 f8bd fe46 bd3d
00000040: d463 9cbe 380b 56be 4323 9dbd 708b 4bbe
00000050: c5e3 a53e b5dc 95bd ab7a afbd 3a6c ed3d
00000060: 66e2 05bd a8b9 8a3d b6cc 253e 9c74 803d
00000070: bf5d 85bd 2c4a 123d b454 e4bc bfc2 b23d
00000080: 31ef 2c3d a335 873d bc03 bd3d dadf 1dbd
00000090: 8b60 a43d 9b80 833d 0d93 253e 2cc8 383e
000000a0: f6ad 213c bf82 dd3c 96f3 0b3d 1d54 8b3d
000000b0: ebba b1bb ad1e d2bc 662b a33d f0a8 bc3c
000000c0: bec1 71bd 1c82 bfbb e990 a53d 83c5 193c
000000d0: 44f6 b03c ca15 a33c 4bb9 3a3d d4cc 28bd
000000e0: 14fd 22bd c8bd 403d 4d8b 84bd 3d02 c13c
000000f0: 9d33 2cbd 0ba2 2bbd 229c aa3d 15ac 4f3d
00000100: 592d 13bd 215a bf3c 6e39 a63b cab6 953d
00000110: 0c8d d4bc 85fc 9e3d be8d 473d 31e3 87bd
00000120: 13a2 10bc 7fc3 873d b08b 183d 9dbd b03d
00000130: 1ca8 533e faf8 8f3d d54d 6e3b c0fc 873d
00000140: e8e9 b23d 59b5 633e b6f3 013e c6d5 e53d
00000150: 588a 0e3e 9b8e a73d ab3b 583e d35c 343e
00000160: 49f6 2c3e 1854 e53d 6cc2 de3d 9123 f23d
00000170: 98e5 503e 28f8 483e c7b5 c53d 11fe d03d
00000180: b05f 4f3d 3cd5 e53d 47f5 453d 15db 093e
00000190: 9b77 a83d dd10 16bd 550b 8e3b 13c6 fd3d
000001a0: 3563 5ebd a04a 6e3e 58eb 83be 8abe 37be
000001b0: 1fc8 403e 89cd 493e 1197 743e 3279 43be
000001c0: 8aad 75be 4f48 fbbc 055e d6bc c813 9f3e
000001d0: 5c27 fc3c 3977 a4be 8181 42be 0bc4 1abe
000001e0: 871d d93e c356 8f3e 22c8 52be 0d67 fbbd
000001f0: 3a46 b2bd 3e3b d33d 6b46 503e 729f 8c3c
00000200: b572 153b 8234 a23d b865 25bd 6d64 f03d
00000210: 2228 253e b3d0 f13d c8e4 b73d 7cd8 12bd
00000220: 3b73 213e d8f1 e53d 795e 163e 88af c63d
00000230: 03c8 99bd af7e f23b a776 453e 3e29 363e
00000240: 6362 e53d cda5 ad3d 7e14 ca3d 5321 0e3c
00000250: 8d10 803d 21fc e73d ff0d 19bf 1edb d0be
00000260: a001 a63c 7748 a03e 842f 393e 7797 7abd
00000270: ad28 8f3d 554b 843b be55 103e 724f e83d
00000280: d2ff dd3c 76ba 2c3d c6ea 2e3d 2248 573d
00000290: 15ed 023b 392b c93d c97f d43d 967b 32bd
000002a0: 82da 53bc 51fd c0bd b228 a13e b80f 793e
000002b0: cc49 3ebd 75ff 50bd 47b0 b7be 9ad0 ed3d
000002c0: a1b8 8b3d f35a 5fbd ae8b 39bd da0d 57bd
000002d0: a8a7 95bc a1a4 003b a53f ea3c 9bcb 1dbc
000002e0: 2cd2 e23b 423a 8ebd 525b 2b3c 0abe b4bd
000002f0: 301c fc3c e2e0 59bd 76f8 62bc 2993 c2bc
00000300: 9f10 cdbd 5291 713d 2d3e 2c3d 525d 833c
00000310: 5a9f afbd 858d 36bd 043d 84bb 7b95 233e
00000320: 6bcc 37bd 12f1 5d3c 4076 8f3d 7d78 6e3d
00000330: ddc5 8bbd 5c26 4a3d b618 1fbd 6949 81bd
00000340: df83 ddbb ebc1 4b3d c2b1 0d3b 00df 6c3d
00000350: c70e 20bc d2bb 113d b5de 66bc f061 18bd
00000360: 9d81 9bbd 9399 ee3c cc90 4e3d 60ad 8abd
00000370: 9424 b03d 0845 90bd 37d3 97bd 6697 79bc
00000380: d846 19bc bb0f 623d e2e8 e73d abc2 c53d
00000390: 9e4c b63d acb7 b4bc 58fc b63d 7bb5 a23d
000003a0: 9c67 b2bc 48de 9abc d41f 94bd b6da cfbb
000003b0: ea29 823d 0c64 ae3d 6954 6c3d f0ee 533d
000003c0: cf83 b8bd 0c3a a4bd cca7 553d c32a 12bd
000003d0: b3b7 bd3c 2bc9 52bd 8310 05be 3b86 d2bc
000003e0: 4a0d f3bc 89cc 023e 5fca 87bd 8ecb 19bf
000003f0: 096d fabe fd9e 8bbd 9cd8 453e cfd0 2dbe

conv2.bias f4 [16]
0.32481763 0.041133888 -0.08277793 0.22720908 0.15026449 0.087127544 0.145474 0.07611537
0.026914915 -0.25426868 0.062920876 -0.0043332884 -0.024511272 0.0913579 0.09734534 0.06063043
00000000: 7f4e a63e 027c 283d 7a87 a9bd 7fa9 683e
00000010: efde 193e ed6f b23d 23f7 143e 60e2 9b3d
00000020: ab7c dc3c 812f 82be a9dc 803d 42fe 8dbb
00000030: ddcb c8bc da19 bb3d fe5c c73d 9d57 783d

fc1.weight f4 [120, 256]
0.036138564 -0.0060109985 -0.056406487 -0.02507727 -0.005226206 -0.048275854 -0.059892893 -0.026608326
0.027685938 -0.041800592 0.04968725 0.02964554 0.06084517 0.05264511 -0.010584341 0.12158267
-0.089363895 -0.07918609 0.049026553 -0.04273293 0.052998915 0.11531785 0.005829587 0.008427871
-0.017234746 -0.0052449126 0.08469872 0.08735441 -0.10304873 -0.09974314 -0.0316737 -0.08992944
-0.044749964 0.020299328 0.026723994 -0.029097956 0.0833618 0.015105514 -0.04460024 -0.04229846
0.034614574 0.04924906 -0.0069328444 -0.0064523434 0.010108929 -0.0413914 0.04050502 0.025233276
0.10204263 0.20624015 0.12047438 0.0073404126 0.024852779 0.13993554 0.10348221 0.015289158
-0.06482044 0.039902788 -0.0080826245 0.049440656 -0.10376571 -0.046797708 0.012324047 -0.05229154
-0.12369598 -0.14735945 -0.080290385 -0.16511647 -0.11441411 -0.09495152 -0.015949897 -0.008599767
-0.0149058215 -0.033417586 0.07914768 0.040579926 0.11621446 -0.04346857 -0.022694232 0.021634718
-0.15128252 -0.0109051 0.040743478 0.013038372 -0.09421827 0.0003107454 0.013624424 -0.033452146
-0.02214418 -0.019767351 0.0037626412 -0.01933186 0.07929497 -0.014630979 0.019582909 -0.08475124
-0.07385649 -0.046771307 0.026759991 0.0463413 0.073998064 0.09126088 -0.08026232 0.042518422
-0.021730533 -0.07652911 0.09042142 0.063247815 0.0128942225 -0.03456729 -0.007315712 -0.0054405397
-0.057709012 -0.042633127 0.07403494 -0.009425386 0.025312819 -0.03604966 -0.0020882336 0.014102502
0.047985256 -0.09212739 0.074983224 0.0024118235 -0.16068467 0.00068563625 -0.026069285 -0.07023685
-0.0056673237 0.0035841838 -0.07791113 -0.01660967 0.07503365 -0.017093997 -0.063907206 -0.041319534
-0.027948208 0.026861262 0.023290975 -0.087100774 0.04103245 0.05459276 -0.00061794434 0.02635401
-0.09268924 -0.055054616 -0.03311757 -0.04580273 -0.11379885 -0.00017788736 0.014499539 -0.01928084
-0.00045673092 -0.036804892 -0.047237333 0.007576664 0.009828717 -0.084969506 -0.088439435 -0.09150625
0.0820659 0.014461667 0.11060761 -0.041778527 0.0108932005 0.10301233 0.08129147 -0.04365462
-0.016949795 0.1023244 -0.03674971 -0.15446918 -0.06632107 -0.03511844 0.03414354 -0.12005548
0.04807326 -0.047848728 -0.06077817 0.045523547 0.03073425 0.04018487 -0.06023869 0.006168464
0.020992989 -8.473395e-05 -0.047712635 0.019790137 0.048013233 0.019684106 0.0480834 0.04386181
-0.026841674 0.038288064 -0.04730705 0.033896945 0.016353613 0.013150063 0.021567168 -0.024323227
0.043232925 -0.031177314 0.04133999 -0.025195092 -0.016765125 -0.002029827 0.014895414 0.010302141
-0.06835508 0.021040646 -0.021609467 -0.04438303 -0.04309689 -0.049075164 0.05140712 -0.034768
-0.0075904555 -0.04268518 0.07057929 0.08133296 0.0218109 0.027836008 -0.016905524 0.01516408
0.038033053 0.081929535 0.0010156148 0.032150295 0.0114194695 -0.023731023 0.01635488 -0.069033876
0.007379161 -0.017298583 0.05616592 -0.016092332 0.0015443498 -0.054464668 0.0024280695 -0.037666947
-0.039372027 -0.03872063 0.03196089 -0.01560914 -0.0097778095 -0.09003267 -0.055639237 0.06270328
-0.057300366 -0.051480934 -0.07332179 0.05820799 -0.071553044 -0.10597152 -0.073210895 -0.092150815
00000000: 0806 143d e9f7 c4bb 7d0a 67bd d96e cdbc
00000010: 9840 abbb e7bc 45bd 4052 75bd b4f9 d9bc
00000020: 9fcd e23c 1937 2bbd dc84 4b3d 34db f23c
00000030: c938 793d 66a2 573d f269 2dbc 5600 f93d
00000040: 6b04 b7bd 512c a2bd 11d0 483d ba08 2fbd
00000050: 6415 593d c42b ec3d 1f06 bf3b 0e15 0a3c
00000060: e22f 8dbc 84dd abbb 8676 ad3d dee6 b23d
00000070: 360b d3bd 2246 ccbd 48bc 01bd ed2c b8bd
00000080: bd4b 37bd c74a a63c 47ec da3c d65e eebc
00000090: 97b9 aa3d 1e7d 773c beae 36bd 2641 2dbd
000000a0: 03c8 0d3d 62b9 493d ea2c e3bb 2e6e d3bb
000000b0: ec9f 253c 078a 29bd 98e8 253d 04b6 ce3c
000000c0: bafb d03d 9e30 533e 46bb f63d d887 f03b
000000d0: 0e98 cb3c 434b 0f3e 7bee d33d 607f 7a3c
000000e0: 94c0 84bd 1b71 233d fc6c 04bc 4982 4a3d
000000f0: 1e83 d4bd f4ae 3fbd cdea 493c a72f 56bd
00000100: 5154 fdbd 65e5 16be 496f a4bd 4b14 29be
00000110: f251 eabd f175 c2bd 5ca9 82bc 0ae6 0cbc
00000120: 8c37 74bc e1e0 08bd 2e18 a23d 2337 263d
00000130: d901 ee3d 190c 32bd 41e9 b9bc 4b3b b13c
00000140: cee9 1abe 4eab 32bc a2e2 263d e59e 553c
00000150: 82f5 c0bd 8beb a239 fa38 5f3c 1e05 09bd
00000160: b667 b5bc 24ef a1bc a596 763b d95d 9ebc
00000170: 6765 a23d c6b6 6fbc 566c a03c 0f92 adbd
00000180: 1242 97bd 4593 3fbd c537 db3c 60d0 3d3d
00000190: 4c8c 973d fce6 ba3d 9260 a4bd cc27 2e3d
000001a0: 3b04 b2bc 4bbb 9cbd de2e b93d 1288 813d
000001b0: 4a42 533c 6e96 0dbd a4b8 efbb 8e46 b2bb
000001c0: 4960 6cbd 13a0 2ebd a19f 973d ef6c 1abc
000001d0: d45c cf3c cfa8 13bd bfda 08bb 2e0e 673c
000001e0: 308c 443d 49ad bcbd ce90 993d af0f 1e3b
000001f0: 868a 24be 45bc 333a 418f d5bc 56d8 8fbd
00000200: f5b4 b9bb a0e4 6a3b df8f 9fbd 0111 88bc
00000210: 3eab 993d b608 8cbc c8e1 82bd ac3e 29bd
00000220: a4f3 e4bc 260c dc3c b7cc be3c e461 b2bd
00000230: a411 283d a89c 5f3d 8bfd 21ba 5de4 d73c
00000240: dbd3 bdbd f380 61bd 4aa6 07bd a59b 3bbd
00000250: 5f0f e9bd 4687 3ab9 798f 6d3c daf2 9dbc
00000260: 6375 efb9 bac0 16bd ef7b 41bd aa45 f83b
00000270: a108 213c 7e04 aebd bc1f b5bd a167 bbbd
00000280: 2b12 a83d a1f0 6c3c 3e86 e23d f61f 2bbd
00000290: 6579 323c 21f8 d23d 247c a63d 30cf 32bd
000002a0: 4cda 8abc 748f d13d dd86 16bd 2b2d 1ebe
000002b0: 57d3 87bd 5ad8 0fbd 19da 0b3d a6df f5bd
000002c0: 77e8 443d 07fd 43bd 88f2 78bd e676 3a3d
000002d0: 65c6 fb3c e498 243d d8bc 76bd d420 ca3b
000002e0: 7df9 ab3c 31b3 b1b8 536e 43bd ed1e a23c
000002f0: 86a9 443d 9040 a13c 19f3 443d 71a8 333d
00000300: 12e3 dbbc f2d3 1c3d 0ac5 41bd 86d7 0a3d
00000310: 03f8 853c 5d73 573c a1ad b03c 8141 c7bc
00000320: 0215 313d 9167 ffbc 1f54 293d f065 cebc
00000330: 0457 89bc d906 05bb e50b 743c 50ca 283c
00000340: c0fd 8bbd 6f5d ac3c 5606 b1bc fbca 35bd
00000350: 5d86 30bd 0a03 49bd 4690 523d e468 0ebd
00000360: 5bb9 f8bb a8d6 2ebd e08b 903d e591 a63d
00000370: c6ac b23c 5708 e43c 747d 8abc c372 783c
00000380: 8cc8 1b3d acca a73d 611e 853a 07b0 033d
00000390: ba18 3b3c 9067 c2bc abfa 853c a261 8dbd
000003a0: e4cc f13b c2b5 8dbc 3c0e 663d 11d4 83bc
000003b0: c86b ca3a 5816 5fbd 3f20 1f3b a848 1abd
000003c0: 9044 21bd 8699 1ebd 6ce9 023d 7abd 7fbc
000003d0: 1b33 20bc 0c63 b8bd f8e5 63bd 946a 803d
000003e0: cab3 6abd acdd 52bd bc29 96bd 806b 6e3d
000003f0: 678a 92bd 9907 d9bd 98ef 95bd 91b9 bcbd

fc1.bias f4 [120]
0.019751996 0.0021780268 0.033544764 0.028440233 0.02281171 -0.04531307 0.10568681 -0.036715318
0.05063643 -0.025272144 0.06204482 -0.021401266 0.08514533 0.015220211 0.052422255 0.049880274
-0.0014208602 0.04666132 -0.057433102 -0.032620773 -0.0924586 -0.04051501 0.031540874 -0.009953137
-0.02978547 0.06372766 0.0312037 -0.04521486 -0.015301177 -0.004206201 0.02729208 0.11564304
-0.008749472 0.035297092 -0.012199441 -0.008164511 -0.029383643 -0.06600585 0.14320962 0.057210866
-0.0071033444 -0.01470736 -0.05293966 0.1403224 -0.07081878 -0.003811342 0.06349009 0.006061271
-0.010877534 -0.02265245 0.024924738 -0.052725963 -0.032309435 -0.058865998 -0.06708279 -0.060485773
-0.016389553 0.101082 -0.054670468 0.099084355 0.10054374 -0.08423292 -0.03154105 0.048493166
0.008257766 -0.047985066 -0.022772113 0.005089516 0.001281543 -0.024572413 -0.055103853 0.05093553
0.159976 -0.00633492 -0.06474732 -0.10318468 -0.09074868 0.0613763 -0.04199222 0.039141387
0.0059855855 -0.055388972 -0.069009095 0.039982516 -0.032995168 -0.031131262 -0.020740949 -0.022386022
-0.0076018767 -0.045026034 0.13345645 -0.012769281 0.033905484 0.07368308 0.010980186 0.066649035
0.030015787 -0.0076313103 0.034117065 0.076322794 -0.06949539 0.043244895 -0.061719984 -0.019749189
0.024850046 -0.019002922 0.024856022 -0.04808422 -0.017563839 -0.011506001 -0.031948462 -0.050859533
0.004072683 -0.022976693 0.042498846 0.08097191 0.04695678 0.07098874 0.06846252 -0.06568522
00000000: f0ce a13c 3abd 0e3b 3c66 093d 7efb e83c
00000010: a0df ba3c 339a 39bd 5472 d83d cd62 16bd
00000020: 2568 4f3d 8707 cfbc b622 7e3d b551 afbc
00000030: ad60 ae3d 315e 793c b8b8 563d 424f 4c3d
00000040: 283c baba f11f 3f3d f93e 6bbd 5c9d 05bd
00000050: ef5a bdbd 11f3 25bd 0131 013d 7b12 23bc
00000060: a800 f4bc a683 823d e79e ff3c 3833 39bd
00000070: cab1 7abc 2cd4 89bb a493 df3c 42d6 ec3d
00000080: f259 0fbc af93 103d 2ae0 47bc 71c4 05bc
00000090: f7b5 f0bc 132e 87bd 8ba5 123e f155 6a3d
000000a0: 2cc3 e8bb 24f7 70bc 42d7 58bd adb0 0f3e
000000b0: 7009 91bd b5c7 79bb 1807 823d a09d c63b
000000c0: af37 32bc a191 b9bc f72e cc3c 2ef7 57bd
000000d0: e656 04bd 791d 71bd b462 89bd eebf 77bd
000000e0: 6243 86bc 1404 cf3d 24ee 5fbd bdec ca3d
000000f0: e0e9 cd3d 4f82 acbd 3031 01bd c5a0 463d
00000100: 954b 073c fd8b 44bd 958c babc f4c5 a63b
00000110: 73f9 a73a 164c c9bc 94b4 61bd c6a1 503d
00000120: c0d0 233e 2995 cfbb 3e9a 84bd 7d52 d3bd
00000130: 72da b9bd b765 7b3d 0900 2cbd b852 203d
00000140: bb22 c43b 8cdf 62bd a454 8dbd b5c4 233d
00000150: f125 07bd fd06 ffbc ece8 a9bc e462 b7bc
00000160: 2a19 f9bb 386d 38bd cfa8 083e 3f36 51bc
00000170: 7ae0 0a3d 28e7 963d 3de6 333c 4a7f 883d
00000180: abe3 f53c 1210 fabb 56be 0b3d 204f 9c3d
00000190: 9953 8ebd 8f21 313d 18ce 7cbd 0dc9 a1bc
000001a0: 5392 cb3c 04ac 9bbc db9e cb3c f6f3 44bd
000001b0: 0ae2 8fbc ab83 3cbc 64dc 02bd 1652 50bd
000001c0: 2474 853b 9e39 bcbc 4513 2e3d 9ad4 a53d
000001d0: c155 403d 8b62 913d 1436 8c3d f985 86bd

fc2.weight f4 [84, 120]
-0.06267982 0.13339382 -0.14407676 0.033034764 0.0025139293 -0.010782651 0.09969365 -0.08044049
-0.016116627 -0.008742242 -0.004027316 -0.04368337 -0.084593594 0.08055956 0.020714706 -0.054131117
0.08109257 -0.06990661 0.17733744 0.1559972 0.039171778 0.01653239 0.038633924 -0.03444178
0.15979093 0.14908408 -0.012531907 -0.01216996 0.0049171248 0.012505348 0.083559595 -0.015782954
-0.092284426 -0.16607957 -0.059661396 -0.055267636 0.01855433 -0.082387604 -0.09913193 -0.013241496
-0.07681291 0.04435469 -0.07260711 0.1298212 -0.14741066 -0.08746703 -0.098149635 -0.100064605
-0.014629936 -0.08142346 -0.049994364 0.07901577 0.11947171 0.06880073 0.15392599 -0.089262165
0.03504573 0.05578559 0.030798 -0.035029486 -0.1346515 0.14524515 -0.05513376 0.119268425
0.020196633 0.11505709 0.06171038 0.030780168 -0.0037939171 -0.004699415 -0.0067432337 -0.083946176
0.0321854 -0.022210239 0.06278134 0.033169936 0.0690069 -0.079332516 -0.059278958 0.13381083
0.02932671 -0.04363383 0.03755404 -0.057190754 0.119944155 -0.0810698 -0.114296 0.009159111
-0.040100753 0.02401868 0.1277273 0.097434424 -0.01745177 0.12543793 -0.066549286 0.12602058
0.14878604 0.059561104 0.003542331 0.009402421 0.08558632 -0.014752787 -0.15745832 -0.061005432
0.025774889 -0.08469093 -0.03206374 -0.12875812 -0.067969866 0.047591064 0.056037948 0.021451475
-0.029675905 -0.02816146 0.07480133 0.069815174 -0.038495693 0.04039142 -0.1258555 -0.08226408
0.11232532 -0.1200434 0.040836606 0.11022611 -0.13066287 -0.23164476 0.16617933 0.08796655
-0.10587521 0.014341336 0.02801465 -0.10274107 0.032188013 0.08552439 0.052691344 -0.010169254
-0.024685176 -0.005254041 -0.026256867 -0.1137893 -0.11258204 -0.10014467 0.12179295 -0.083639935
0.011693077 0.07980347 0.020112297 -0.07786754 0.011545717 0.033636715 -0.031247716 -0.06838184
-0.030731142 0.15495239 -0.13847938 -0.05176763 -0.007848532 -0.07477437 0.08319026 -0.064019024
-0.13986546 -0.028518913 0.06225245 0.14919257 0.08836945 0.03728387 -0.0780957 -0.055712312
-0.002118277 -0.09201064 -0.034503788 -0.08318125 -0.11774443 -0.064379595 0.09985009 -0.08513302
-0.0024118717 0.007780614 -0.032156814 -0.06803053 0.142765 -0.021671608 -0.0057690972 0.04176804
-0.0486568 0.0822587 0.038699947 -0.048998114 -0.04739241 -0.08129525 0.011613234 0.15917021
-0.031214438 -0.06766161 -0.04395439 0.08019727 -0.11784495 -0.06032079 -0.051097866 -0.09786194
0.038600866 -0.024386754 0.016268654 0.081497796 0.020259336 0.0005093204 0.10797674 0.03177566
-0.074585386 -0.075513124 0.076623194 -0.068591125 0.07730996 -0.016235156 0.08619936 -0.00071847177
-0.07674528 -0.046918653 -0.098298 -0.05256869 0.0828226 -0.117851175 -0.019534474 -0.08917939
0.051623866 0.12312903 0.059088085 -0.04786415 0.15003408 0.08838571 -0.06733568 0.024064647
-0.021774048 0.009302751 0.050360333 -0.0009931589 0.0015279677 0.2164897 0.028309295 0.07180776
-0.075275734 0.027533423 -0.029587692 0.0057687946 0.01952965 -0.07943721 0.10904595 0.062426407
-0.029044453 -0.042065825 0.018753437 -0.008139715 0.08353486 -0.048271336 0.012209833 -0.02106272
00000000: 475e 80bd 6498 083e dc88 13be 764f 073d
00000010: bcc0 243b b7a9 30bc 2f2c cc3d fcbd a4bd
00000020: 0407 84bc 9f3b 0fbc 93f7 83bb 55ed 32bd
00000030: 683f adbd 69fc a43d e3b1 a93c 97b8 5dbd
00000040: dd13 a63d 322b 8fbd f297 353e bbbd 1f3e
00000050: 9672 203d ef6e 873c 9b3e 1e3d d312 0dbd
00000060: 3ca0 233e 7fa9 183e a152 4dbc 8364 47bc
00000070: d51f a13b 3be3 4c3c 4b21 ab3d 414b 81bc
00000080: 9eff bcbd c310 2abe 825f 74bd 5160 62bd
00000090: 40ff 973c d5ba a8bd ae05 cbbd dcf2 58bc
000000a0: 1650 9dbd 43ad 353d 09b3 94bd d9ef 043e
000000b0: d2f2 16be ea21 b3bd ad02 c9bd acee ccbd
000000c0: 66b2 6fbc 58c1 a6bd e4c6 4cbd 05d3 a13d
000000d0: 95ad f43d 66e7 8c3d c69e 1d3e 15cf b6bd
000000e0: 1d8c 0f3d 6e7f 643d 164c fc3c 147b 0fbd
000000f0: 15e2 09be 25bb 143e f0d3 61bd 0143 f43d
00000100: 6973 a53c 0da3 eb3d 06c4 7c3d b126 fc3c
00000110: 5ea3 78bb 8dfd 99bb 58f6 dcbb f9eb abbd
00000120: d7d4 033d 3ff2 b5bc 8193 803d 33dd 073d
00000130: 7d53 8d3d 1679 a2bd 7ece 72bd b505 093e
00000140: 923e f03c 63b9 32bd 44d2 193d da40 6abd
00000150: 48a5 f53d ec07 a6bd 0514 eabd 1910 163c
00000160: b040 24bd d3c2 c43c f2ca 023e b38b c73d
00000170: 04f7 8ebc cd72 003e fe4a 88bd 8a0b 013e
00000180: 5e5b 183e 58f6 733d 7426 683b 9d0c 1a3c
00000190: e147 af3d acb5 71bc c13c 21be d5e0 79bd
000001a0: dc25 d33c 7072 adbd 4555 03bd 2bd9 03be
000001b0: c933 8bbd d9ee 423d 0c88 653d 01bb af3c
000001c0: e21a f3bc ddb2 e6bc 7131 993d 42fb 8e3d
000001d0: a9ad 1dbd 7971 253d 44e0 00be 127a a8bd
000001e0: d10a e63d 50d9 f5bd 4944 273d 3abe e13d
000001f0: 7dcc 05be 4934 6dbe ea2a 2a3e ce27 b43d
00000200: 1ad5 d8bd ecf7 6a3c fb7e e53c e969 d2bd
00000210: 94d7 033d 6927 af3d e1d2 573d f19c 26bc
00000220: 9138 cabc 172a acbb a418 d7bc 5d0a e9bd
00000230: 6a91 e6bd a618 cdbd 956e f93d 6a4b abbd
00000240: 5294 3f3c 0070 a33d 8bc2 a43c 0479 9fbd
00000250: 3f2a 3d3c a7c6 093d 36fb ffbc c70b 8cbd
00000260: e0bf fbbc d7ab 1e3e 8acd 0dbe 4b0a 54bd
00000270: 2197 00bc 4e23 99bd a85f aa3d 681c 83bd
00000280: e438 0fbe 7fa0 e9bc 6dfc 7e3d f0c5 183e
00000290: 0bfb b43d f9b6 183d a3f0 9fbd 9832 64bd
000002a0: cad2 0abb 1370 bcbd d853 0dbd ee5a aabd
000002b0: fe23 f1bd 73d9 83bd 347e cc3d 395a aebd
000002c0: 7e10 1ebb 85f4 fe3b ddb6 03bd 9753 8bbd
000002d0: fd30 123e a888 b1bc b20a bdbb f714 2b3d
000002e0: 5a4c 47bd 4077 a83d d683 1e3d 3fb2 48bd
000002f0: 8b1e 42bd 207e a6bd 6f45 3e3c 84fd 223e
00000300: 6cb5 ffbc 2c92 8abd 8509 34bd 773e a43d
00000310: b158 f1bd ef12 77bd ff4b 51bd d76b c8bd
00000320: f11b 1e3d bbc6 c7bc d745 853c 51e8 a63d
00000330: e8f6 a53c ea83 053a e922 dd3d 3227 023d
00000340: 39c0 98bd a0a6 9abd 9fec 9c3d 8179 8cbd
00000350: af54 9e3d 97ff 84bc 4a89 b03d d357 3cba
00000360: a12c 9dbd c62d 40bd 7650 c9bd 4452 57bd
00000370: e59e a93d f55b f1bd c306 a0bc afa3 b6bd
00000380: 8c73 533d 132b fc3d 5906 723d 330d 44bd
00000390: 89a2 193e 9103 b53d 4ae7 89bd 3923 c53c
000003a0: 7d5f b2bc 916a 183c a346 4e3d e22c 82ba
000003b0: 1746 c83a 7aaf 5d3e e5e8 e73c f20f 933d
000003c0: 2a2a 9abd c68d e13c e361 f2bc 2808 bd3b
000003d0: a5fc 9f3c faaf a2bd 7c53 df3d d5b2 7f3d
000003e0: a2ee edbc 374d 2cbd cfa0 993c 705c 05bc
000003f0: 5314 ab3d 2ab8 45bd c00b 483c ba8b acbc

fc2.bias f4 [84]
-0.039736297 0.24557589 -0.051398847 -0.06854116 0.16044326 0.13969159 -0.029391028 -0.12965654
-0.01652707 0.110399544 -0.08384295 0.111188434 -0.010936567 0.13911967 0.13434798 -0.029750792
0.114425875 0.18146452 -0.039417017 -0.05032825 -0.063455865 -0.06543205 -0.030913955 -0.013733274
-0.12831904 -0.061646387 0.052954655 -0.003221009 0.15170123 -0.04438814 -0.05928942 -0.0056968536
0.0637905 -0.09145008 -0.08261177 0.10893998 0.09757821 0.09526461 0.025005283 0.04662285
0.3546651 0.058886558 0.019981906 -0.09165009 -0.026813589 -0.0918876 0.17768435 -0.031682894
-0.0037978522 0.15023108 -0.026456289 -0.0073114205 0.08994346 0.050030664 -0.007514478 -0.08573936
-0.03987763 0.020245118 0.017030485 -0.03874007 0.32718733 0.10724742 0.1286816 0.17815068
-0.06489454 -0.10114957 0.3006495 -0.039385565 0.20884736 0.05295763 0.05281416 0.12827149
0.06019756 -0.09944075 0.15812893 0.07394249 -0.06162249 -0.14349726 -0.08434496 0.13143745
-0.04201882 -0.05310821 -0.121801555 0.15210989
00000000: 87c2 22bd 3f78 7b3e 9987 52bd 4f5f 8cbd
00000010: 3d4b 243e 500b 0f3e 74c5 f0bc afc4 04be
00000020: c763 87bc 2819 e23d dab5 abbd c3b6 e33d
00000030: 492f 33bc 6375 0e3e 8492 093e efb7 f3bc
00000040: 1d58 ea3d d6d1 393e bd73 21bd ff24 4ebd
00000050: 26f5 81bd 3d01 86bd 433f fdbc 8701 61bc
00000060: 1166 03be ec80 7cbd fbe6 583d 9017 53bb
00000070: 9157 1b3e 57d0 35bd 76d9 72bd acac babb
00000080: 98a4 823d 2e4a bbbd 5c30 a9bd ed1b df3d
00000090: 16d7 c73d 181a c33d e1d7 cc3c 9af7 3e3d
000000a0: aa96 b53e 0833 713d 18b1 a33c 0bb3 bbbd
000000b0: 2ca8 dbbc 912f bcbd e3f2 353e ecc5 01bd
000000c0: 63e5 78bb 2dd6 193e dcba d8bc a494 efbb
000000d0: 4734 b83d f4ec 4c3d 033c f6bb 1e98 afbd
000000e0: ba56 23bd 17d9 a53c 8483 8b3c e8ad 1ebd
000000f0: 1985 a73e 89a4 db3d 1cc5 033e 226d 363e
00000100: 6ee7 84bd 8127 cfbd bbee 993e c252 21bd
00000110: 15dc 553e 1aea 583d a953 583d 9a59 033e
00000120: b791 763d 98a7 cbbd 8dec 213e 296f 973d
00000130: dd67 7cbd f2f0 12be 0dbd acbd 8a97 063e
00000140: ed1b 2cbd ff87 59bd 1873 f9bd b2c2 1b3e

fc3.weight f4 [10, 84]
-0.146767 0.14489087 -0.15644124 0.19906151 0.30675605 0.3295626 -0.068696894 -0.057235107
0.06689071 0.112345055 0.24309392 0.35474908 -0.11009724 0.031973265 -0.1271309 0.03759104
-0.23734462 0.15822728 -0.043905124 0.07427785 0.04060062 0.14310016 0.2578232 0.038465697
0.0519405 0.20131455 0.0740333 0.00408779 0.032221846 0.0067135934 0.37284732 0.17297438
0.66073066 0.0520854 0.2388245 0.15250663 0.18648824 0.1390156 0.06524445 -0.10939518
0.09649015 -0.12341381 0.27697104 -0.10054241 -0.13123077 -0.012659932 -0.601805 0.15063055
0.25482804 0.45009655 0.10384356 0.13457201 -0.10674969 -0.23544814 0.04544583 -0.10974391
0.016782995 0.21505877 -0.15687741 -0.077504955 0.110860884 0.10328902 0.04974231 -0.13295484
0.14073855 -0.24509113 0.369795 -0.18246678 -0.21347097 0.06920656 0.18155286 0.11564135
-0.025666457 0.06986912 -0.121252 0.4297325 -0.22322984 0.2253423 -0.07505199 -0.13907662
0.25905722 -0.01751573 -0.017731233 0.05831893 0.10402061 -0.022749161 0.112675324 0.010182108
0.1579134 -0.045825154 0.08039196 0.019589497 0.049931467 -0.09027312 -0.070177846 -0.23265626
-0.046670366 -0.030020047 0.5189884 0.5204808 0.4876613 -0.15279609 -0.37934312 -0.15075536
-0.23189788 0.4443557 0.117624804 -0.08952073 -0.012272565 0.21504132 0.13303198 0.19354714
0.058192268 0.005391954 -0.08182359 -0.21430586 -0.12932262 -0.14883149 0.05741978 0.25524116
-0.24664463 0.5422973 0.16177821 -0.10894781 -0.15123835 -0.049049456 0.08330708 0.26653954
-0.037435003 0.04123436 -0.50083 -0.14205255 0.24309224 -0.18577643 0.012693457 0.2468886
-0.17800473 0.39032102 -0.022576569 0.06259821 -0.102010906 -0.019553317 -0.15891285 -0.033225693
0.0013235805 -0.08911311 -0.030912856 0.43705267 -0.011525838 0.04269362 0.28797665 0.411461
-0.1466711 -0.16660565 0.058725443 -0.1387812 -0.14109792 0.05862234 0.114146486 -0.06764377
0.14677757 -0.14847198 0.1183894 0.2180003 0.5031988 -0.16498642 -0.042181484 -0.015019307
0.21465535 0.089924626 0.04871465 0.2577733 0.14176974 0.13767879 0.05790126 -0.20951982
-0.13503803 -0.38544354 0.3107129 0.19762322 -0.093969814 -0.3628292 0.048509173 -0.0010528205
-0.18388095 -0.17520621 -0.062282298 0.1596566 0.1041419 0.054378815 -0.28376484 0.13014342
0.31743583 -0.22077768 -0.2514468 0.22756258 -0.2506443 0.04574386 -0.051665142 0.19050094
-0.17489295 -0.030517172 -0.029600358 -0.35024735 0.27365348 -0.053293627 -0.037862282 -0.14671199
0.0059248814 -0.048497837 0.068575926 0.31208718 0.08072116 -0.08726548 0.15933526 0.28214857
-0.25063345 0.6935683 0.097265854 0.3613284 -0.080299534 -0.04689405 -0.02372491 -0.32923368
-0.07560467 0.029204847 0.06431241 0.14267197 0.30944034 0.15010993 0.35738418 0.08748423
0.19565903 0.071123295 0.5527969 0.0074300426 0.13976929 -0.34260142 0.28170118 -0.17087135
-0.1346559 -0.16353044 0.5330668 -0.15582594 -0.21481001 0.2945246 -0.33297658 -0.16055226
0.06493195 0.1891393 -0.2565948 -0.04943415 -0.18036304 -0.10868007 0.09913747 0.1804718
00000000: 174a 16be 465e 143e 2232 20be c8d6 4b3e
00000010: 210f 9d3e 6ebc a83e f5b0 8cbd 5c6f 6abd
00000020: fffd 883d 2a15 e63d 9ded 783e aca1 b53e
00000030: a97a e1bd 66f6 023d 9a2e 02be 10f9 193d
00000040: 780a 73be 5506 223e dcd5 33bd fc1e 983d
00000050: d64c 263d d988 123e 6701 843e 358e 1d3d
00000060: 90bf 543d 6725 4e3e c59e 973d def2 853b
00000070: 0efb 033d b4fd db3b d8e5 be3e 3220 313e
00000080: a525 293f 8057 553d 698e 743e b32a 1c3e
00000090: c6f6 3e3e 1b5a 0e3e e29e 853d 950a e0bd
000000a0: a19c c53d 61c0 fcbd 26cf 8d3e 2ee9 cdbd
000000b0: 5c61 06be 9a6b 4fbc e40f 1abf e53e 1a3e
000000c0: d278 823e 0e73 e63e efab d43d 3fcd 093e
000000d0: 959f dabd 5119 71be 6825 3a3d 6ac1 e0bd
000000e0: 7e7c 893c 5e38 5c3e 79a4 20be ebba 9ebd
000000f0: 080b e33d 3289 d33d 98be 4b3d 5025 08be
00000100: c41d 103e 2bf9 7abe c555 bd3e 92d8 3abe
00000110: 2298 5abe 2bbc 8d3d fee8 393e 5fd5 ec3d
00000120: 7642 d2bc 8b17 8f3d f852 f8bd e605 dc3e
00000130: 5d96 64be 22c0 663e dcb4 99bd 1a6a 0ebe
00000140: 26a3 843e 267d 8fbc 1741 91bc d5df 6e3d
00000150: c208 d53d 735c babc 52c2 e63d dbd2 263c
00000160: 0db4 213e 28b3 3bbd 8aa4 a43d 277a a03c
00000170: f084 4c3d 1de1 b8bd 67b9 8fbd 713d 6ebe
00000180: 6d29 3fbd 9aec f5bc 6cdc 043f 3b3e 053f
00000190: beae f93e 9476 1cbe 4339 c2be 9d5f 1abe
000001a0: a376 6dbe 9782 e33e 46e5 f03d a556 b7bd
000001b0: de12 49bc cb33 5c3e 8939 083e 3931 463e
000001c0: 045b 6e3d fdae b03b 2093 a7bd ff72 5bbe
000001d0: 266d 04be 4867 18be 0131 6b3d f8ae 823e
000001e0: 6990 7cbe ffd3 0a3f 30a9 253e 0820 dfbd
000001f0: 3ade 1abe 15e8 48bd e79c aa3d df77 883e
00000200: 7255 19bd 5ce5 283d 6536 00bf 3976 11be
00000210: 2ced 783e 2d3c 3ebe 38f8 4f3c 5dd0 7c3e
00000220: df46 36be 28d8 c73e 7ff2 b8bc 7e33 803d
00000230: 18eb d0bd 472e a0bc 0dba 22be aa17 08bd
00000240: fe7b ad3a ef80 b6bd f53c fdbc 5ec5 df3e
00000250: ded6 3cbc 81df 2e3d ad71 933e 04ab d23e
00000260: f330 16be ac9a 2abe 178a 703d a91c 0ebe
00000270: f97b 10be fb1d 703d a2c5 e93d d188 8abd
00000280: dc4c 163e 0a09 18be 2476 f23d 783b 5f3e
00000290: a3d1 003f 33f2 28be 7ec6 2cbd 8a13 76bc
000002a0: 9dce 5b3e 672a b83d 0389 473d ddfa 833e
000002b0: 162c 113e abfb 0c3e df29 6d3d 5d8c 56be
000002c0: 6947 0abe db58 c5be c315 9f3e be5d 4a3e
000002d0: 3f73 c0bd c0c4 b9be 8eb1 463d cbfe 89ba
000002e0: 4a4b 3cbe 4269 33be b91b 7fbd 057d 233e
000002f0: 5948 d53d 52bc 5e3d a049 91be 5144 053e
00000300: f386 a23e 8b13 62be a3bd 80be 2a06 693e
00000310: 7354 80be ea5d 3b3d d49e 53bd ae12 433e
00000320: 2317 33be 26ff f9bc 737c f2bc 9f53 b3be
00000330: 4f1c 8c3e 6b4a 5abd 7b15 1bbd ab3b 16be
00000340: 8225 c23b aba5 46bd 8971 8c3d e4c9 9f3e
00000350: 2351 a53d 3eb8 b2bd c828 233e c775 903e
00000360: 0753 80be b18d 313f 5233 c73d 0900 b93e
00000370: 1574 a4bd fa13 40bd be5a c2bc 5191 a8be
00000380: 9fd6 9abd 013f ef3c 3ab6 833d 9a18 123e
00000390: f76e 9e3e 6bb6 193e 0ffb b63e ef2a b33d
000003a0: d75a 483e 17a9 913d 1984 0d3f b777 f33b
000003b0: ae1f 0f3e 7469 afbe 233b 903e e6f8 2ebe
000003c0: 3ce3 09be 8674 27be 1177 083f d690 1fbe
000003d0: 28f7 5bbe eecb 963e e87b aabe d067 24be
000003e0: 0bfb 843d bcad 413e 6560 83be 777b 4abd
000003f0: 17b1 38be a893 debd 9608 cb3d 99cd 383e

fc3.bias f4 [10]
-0.019351428 0.15813385 0.49444887 0.1407891 -0.054705884 0.50152755 0.50338507 0.07539206
0.26812917 -0.25191975
00000000: e386 9ebc d7ed 213e 6728 fd3e 052b 103e
00000010: 4713 60bd 1c64 003f d8dd 003f 2767 9a3d
00000020: 3a48 893e a0fb 80be
